saved_models/sapinn_mask/poly.pt (torch, 117307 bytes, 45 tensors)

u_model.W f4 [20, 2]
-0.17370243 -1.8224748 0.7792122 -1.0139076 0.88352925 0.6286348 -0.2533254 -2.6560283
-0.7693194 0.8934805 0.45785776 0.060999125 1.5209954 0.910131 0.2917824 -0.24240544
0.055371433 -1.9745249 1.5358123 0.50325775 1.2364359 -0.7146594 0.004058981 0.5045492
0.7615966 -1.7114658 1.28597 -1.213175 0.32158145 -0.73869467 -0.05907856 -0.59618783
0.022158116 0.97921175 0.3586129 0.46209607 1.2535442 0.7329894 0.4851854 -1.6010278
00000000: 0ddf 31be db46 e9bf 737a 473f b9c7 81bf
00000010: f92e 623f 36ee 203f deb3 81be 5efc 29c0
00000020: 1ef2 44bf 23bb 643f 556c ea3e 38da 793d
00000030: faaf c23f 58fe 683f 8164 953e 2239 78be
00000040: 28cd 623d 3bbd fcbf 7f95 c43f 80d5 003f
00000050: 8843 9e3f ebf3 36bf 3301 853b 232a 013f
00000060: fff7 423f 5011 dbbf aa9a a43f 5249 9bbf
00000070: 53a6 a43e 181b 3dbf 5cfc 71bd c49f 18bf
00000080: f084 b53c 9fad 7a3f 1c9c b73e db97 ec3e
00000090: 2374 a03f 31a5 3b3f 396a f83e 7bee ccbf

u_model.b f4 [20]
5.6273417 1.3532276 3.6180096 1.5838169 1.4722763 0.8671149 3.980904 0.5936038
2.975888 6.2431674 5.862598 0.07148628 5.359353 3.833208 5.7702484 0.3771402
2.2763627 1.9663942 5.937174 5.5227
00000000: 2f13 b440 9036 ad3f 788d 6740 83ba ca3f
00000010: 8d73 bc3f 3efb 5d3f 22c7 7e40 6bf6 173f
00000020: f374 3e40 07c8 c740 679a bb40 6667 923d
00000030: d27f ab40 4853 7540 e0a5 b840 8518 c13e
00000040: edaf 1140 ceb2 fb3f 54fd bd40 f5b9 b040

u_model.model.0.weight f4 [42, 42]
0.2710074 0.006790136 -0.16466212 -0.0039551146 0.11518879 0.11143292 0.13516039 -0.14338093
-0.06908176 -0.13486664 0.22441074 -0.062257558 -0.013886277 0.047409546 -0.027185583 0.009638758
0.031416222 -0.22049169 0.22062111 0.23299986 0.054643214 -0.2776321 0.120625526 0.04207459
0.087463506 -0.43641925 -0.11177726 0.051676106 0.0021832688 0.12586007 -0.1398333 0.02199349
0.04927505 -0.14138526 0.018074289 0.1609119 0.14880855 -0.12468267 -0.15536937 -0.10722964
0.07317276 0.17316599 -0.10967439 0.09870874 0.08063542 -0.01919547 0.020519879 -0.1678411
-0.0066839657 -0.13099766 -0.02672126 0.056276906 -0.020889604 -0.092409045 -0.11683715 0.09598101
0.19404835 0.031238891 0.02687225 0.058552228 -0.14629753 -0.039673224 -0.05763689 0.022824865
-0.13604166 -0.14690179 -0.09817805 0.13456747 -0.17055862 -0.042110804 -0.19276556 -0.14692429
-0.1822131 -0.10258703 -0.05352635 0.17741977 0.052763853 -0.07474969 0.09384457 -0.15136178
-0.095862746 0.030504888 -0.019896064 0.042779304 -0.020308143 -0.042228963 -0.18127702 0.013024928
0.016617455 0.22337313 0.0131647065 0.09200051 0.005975828 0.06586275 -0.038869195 0.005072956
0.026996972 -0.10932915 0.10978764 0.07719003 0.09941533 -0.1291403 0.14563656 0.17356454
-0.0030852794 -0.037437025 0.04213649 -0.10496396 0.17644955 -0.09697242 -0.0606754 0.012186852
0.05392879 0.02695308 0.2007063 -0.12349148 0.020966943 -0.042606562 -0.18071839 -0.14207636
-0.050601598 -0.031382706 0.029853009 -0.06318929 0.13525254 -0.011853317 -0.124980226 -0.038965926
-0.112533875 0.08784938 -0.103596285 0.1380945 0.08087394 -0.023984924 0.0043661552 -0.038993455
-0.14126667 -0.1606723 -0.023342345 0.13889848 -0.100328445 0.06901613 -0.044122748 0.017547471
0.12901472 0.16195247 -0.19135411 0.01861998 0.04442663 0.06952566 0.06650071 0.05884175
-0.0716014 0.0013693098 0.12181794 0.119471945 0.08173484 -0.07803954 0.011879286 -0.13467601
0.01446016 -0.02347898 0.11420723 0.15875897 -0.08595159 0.15947668 -0.17043786 0.028941175
0.08037094 0.13379872 0.14059284 -0.05866247 0.13842691 -0.092695214 -0.00041023918 -0.069193214
-0.15001774 -0.04348936 -0.0045892657 0.020420706 -0.042970862 -0.024459457 0.051435675 -0.04312052
-0.032483473 -0.14253497 0.0025732946 0.10032265 -0.08964627 0.113623925 0.02657622 -0.08884433
0.05528405 -0.14036812 0.0819815 0.0943696 0.065207936 -0.013482826 -0.15386139 -0.10690499
0.13391188 0.1198621 0.16606699 -0.087021224 0.086358756 -0.1264846 0.093549386 0.10513816
-0.13905649 -0.07488227 -0.13678867 -0.04663305 0.07522743 -0.15363066 0.123819366 -0.21348563
-0.053850196 0.03777081 -0.08910328 0.00397206 -0.12455091 -0.10893878 -0.0051437668 -0.065438055
0.14363477 -0.06553041 0.06974035 0.11521153 -0.031643856 -0.061472524 0.067220174 -0.06919088
0.13298428 -0.07131778 -0.07454065 -0.06495175 0.111528836 -0.12732561 -0.06279364 0.06304022
-0.20357779 0.024047025 0.12319347 0.06597677 0.18939413 -0.096879594 0.083100416 -0.005566291
0.004849423 -0.054549746 -0.0194032 0.17494816 0.048014488 -0.15687369 0.11690928 0.20854406
00000000: 7bc1 8a3e ca7f de3b 309d 28be e899 81bb
00000010: 1ae8 eb3d f136 e43d 7c67 0a3e 73d2 12be
00000020: bd7a 8dbd 7b1a 0abe eecb 653e c801 7fbd
00000030: 4483 63bc 8330 423d 4db4 debc e2eb 1d3c
00000040: 4cae 003d 93c8 61be 80ea 613e 8497 6e3e
00000050: 90d1 5f3d cb25 8ebe 840a f73d 6856 2c3d
00000060: 1120 b33d 5872 dfbe 7aeb e4bd 53aa 533d
00000070: 2c15 0f3b 76e1 003e 7630 0fbe b12b b43c
00000080: a3d4 493d 4cc7 10be 8810 943c 17c6 243e
00000090: 4561 183e a159 ffbd 2619 1fbe 379b dbbd
000000a0: 9adb 953d 6d52 313e f79c e0bd cf27 ca3d
000000b0: 2f24 a53d d13f 9dbc 4e19 a83c 8ade 2bbe
000000c0: 2b05 dbbb 4024 06be 8be6 dabc 9d82 663d
000000d0: ad20 abbc f440 bdbd 5148 efbd b191 c43d
000000e0: 9cb4 463e b4e8 ff3c 3123 dc3c 76d4 6f3d
000000f0: 05cf 15be 6480 22bd a914 6cbd 36fb ba3c
00000100: 814e 0bbe 6c6d 16be 9311 c9bd 0ecc 093e
00000110: eba6 2ebe 617c 2cbd 5664 45be 5273 16be
00000120: 1296 3abe 2619 d2bd 723e 5bbd 87ad 353e
00000130: e91e 583d 5e16 99bd 9531 c03d 95fe 1abe
00000140: b053 c4bd 63e5 f93c 12fd a2bc 5a39 2f3d
00000150: 435d a6bc 47f8 2cbd afa0 39be 8266 553c
00000160: 5421 883c edbb 643e c8b0 573c c36a bc3d
00000170: e1d0 c33b 0de3 863d 4e35 1fbd 0a3b a63b
00000180: c128 dd3c f6e7 dfbd 58d8 e03d ce15 9e3d
00000190: 449a cb3d 5b3d 04be c021 153e e7ba 313e
000001a0: 6632 4abb 9157 19bd 5097 2c3d 58f7 d6bd
000001b0: 31af 343e 7a99 c6bd c586 78bd 5dab 473c
000001c0: 6fe4 5c3d b5cc dc3c f485 4d3e 1ae9 fcbd
000001d0: dec2 ab3c 3884 2ebd 3e0e 39be 777c 11be
000001e0: 9f43 4fbd 278b 00bd 4c8e f43c 6369 81bd
000001f0: a47f 0a3e 6a34 42bc a2f5 ffbd bc9a 1fbd
00000200: 2978 e6bd 60ea b33d 4a2a d4bd a568 0d3e
00000210: 3ca1 a53d 087c c4bc f711 8f3b 9ab7 1fbd
00000220: 36a8 10be 4887 24be 7238 bfbc 673b 0e3e
00000230: 0079 cdbd 5458 8d3d 0eba 34bd b7bf 8f3c
00000240: 6f1c 043e ded6 253e 55f2 43be ee88 983c
00000250: b3f8 353d 7863 8e3d 8631 883d 0c04 713d
00000260: c1a3 92bd 6a7a b33a af7b f93d b5ad f43d
00000270: 9964 a73d 32d3 9fbd 56a1 423c 82e8 09be
00000280: 4fea 6c3c fd56 c0bc 7be5 e93d b691 223e
00000290: 6307 b0bd db4d 233e 4387 2ebe 0b16 ed3c
000002a0: 8599 a43d 8802 093e 92f7 0f3e 0f48 70bd
000002b0: c9bf 0d3e fdd6 bdbd 5f15 d7b9 2cb5 8dbd
000002c0: 409e 19be e621 32bd 8d61 96bb 5349 a73c
000002d0: 3702 30bd 335f c8bc 37ae 523d 249f 30bd
000002e0: 640d 05bd b0f4 11be b8a4 283b f675 cd3d
000002f0: 7798 b7bd a9b3 e83d 5fb6 d93c 04f4 b5bd
00000300: 8771 623d a9bc 0fbe ebe5 a73d d944 c13d
00000310: bd8b 853d 12e7 5cbc d78d 1dbe 01f1 dabd
00000320: 3220 093e 437a f53d 770d 2a3e 2f38 b2bd
00000330: dcdc b03d 2e85 01be d296 bf3d ad52 d73d
00000340: d364 0ebe e05b 99bd 5412 0cbe 4c02 3fbd
00000350: d710 9a3d 5b51 1dbe 0295 fd3d fa9b 5abe
00000360: 0692 5cbd 91b5 1a3d c87b b6bd 0e28 823b
00000370: 8c14 ffbd 4c1b dfbd 0b8d a8bb 6304 86bd
00000380: fe14 133e cf34 86bd 07d4 8e3d 06f4 eb3d
00000390: fd9c 01bd 9dca 7bbd bbaa 893d f3b3 8dbd
000003a0: 082d 083e 0e0f 92bd c5a8 98bd 6c05 85bd
000003b0: 3b69 e43d a561 02be f499 80bd 3b1b 813d
000003c0: b276 50be 44fe c43c dc4c fc3d d41e 873d
000003d0: 89f0 413e cf68 c6bd 8d30 aa3d 6f65 b6bb
000003e0: e9e7 9e3b 8e6f 5fbd 76f3 9ebc 9c25 333e
000003f0: d7aa 443d 7fa3 20be 226e ef3d 938c 553e

u_model.model.0.bias f4 [42]
0.05624956 0.03699788 -0.063532375 0.046239853 0.114739046 0.10885706 -0.12735024 0.047565486
-0.06911198 0.12573156 -0.059073348 -0.032429438 0.03924849 -0.14226079 0.029129717 0.07854404
-0.0077973115 -0.13358052 -0.16008046 -0.10069898 -0.1240402 0.08180874 -0.022457913 -0.030630777
0.12322804 0.055357035 -0.10337747 0.019716334 0.043433167 -0.06922166 0.0398802 -0.040007375
-0.13587935 -0.05692758 -0.123726435 0.111825526 0.120850235 -0.094358735 0.10213065 -0.0608705
-0.015344298 0.005238926
00000000: f065 663d 178b 173d 431d 82bd 0066 3d3d
00000010: 4efc ea3d 73f0 de3d 1a68 02be 07d4 423d
00000020: 958a 8dbd c6bf 003e e5f6 71bd bbd4 04bd
00000030: 06c3 203d d0ac 11be 72a1 ee3c b3db a03d
00000040: 9780 ffbb 55c9 08be 22ec 23be 443b cebd
00000050: ca08 febd 578b a73d a8f9 b7bc 65ed fabc
00000060: fc5e fc3d 0fbe 623d 91b7 d3bd 2684 a13c
00000070: fae6 313d 16c4 8dbd 6c59 233d c6de 23bd
00000080: f523 0bbe e52c 69bd 4964 fdbd c804 e53d
00000090: 5480 f73d 273f c1bd e029 d13d 5853 79bd
000000a0: a766 7bbc 4cab ab3b

u_model.model.2.weight f4 [42, 42]
0.032355852 0.1965035 -0.2242525 0.0078090252 -0.14211974 0.2029707 -0.04660786 -0.23335825
-0.04899658 0.13578676 -0.18531956 0.031156192 -0.17829505 -0.11818883 -0.10143257 -0.045055695
-0.1751087 -0.06619256 0.07088598 0.048578907 0.11757945 -0.067667365 0.03355974 0.104061164
0.012213346 0.19219312 0.16302305 0.043821022 -0.18261832 0.046776548 -0.081555285 0.06528854
-0.12261794 -0.04711779 -0.088507555 -0.013248739 -0.22082531 -0.0826893 0.22204654 0.10179876
0.23947424 0.09715647 -0.09917538 0.0744491 -0.10847197 0.05633577 0.1992733 0.13048269
-0.05870554 -0.11618789 0.03737815 -0.10463247 -0.14305106 0.080564424 0.084594734 0.02396219
-0.16411373 0.11986378 -0.06426995 0.001866047 -0.12549247 -0.061528098 0.028588679 0.033413734
0.11605367 -0.13563809 -0.035269454 0.17348635 -0.060340982 -0.15046737 -0.03866679 0.15236774
-0.04465975 0.07458619 0.11838281 0.071137965 -0.007744745 0.108838275 -0.11715814 -0.047684886
0.20443681 -0.14240818 0.12344156 0.09475136 0.18137911 -0.15648451 0.17772159 0.109221905
0.07140885 -0.1807218 0.15445209 0.20124324 0.24310598 0.15018795 -0.024710694 0.11658106
0.16653033 -0.10886384 -0.10436114 0.03212886 0.21960269 0.20760164 0.15134062 -0.07290728
-0.2449376 -0.08758127 -0.013364956 -0.119376965 -0.14343552 0.070096724 0.008877506 0.05252123
-0.023535006 -0.18479435 0.06950748 0.034459192 0.13409849 0.07965832 -0.052528936 0.07668505
-0.0039813085 0.1472566 0.03761983 0.039982736 -0.102823354 0.20280871 -0.23425838 -0.008741633
0.023197817 -0.052855078 -0.02218745 -0.083511464 0.14439909 0.087765574 0.11820778 0.09481628
0.03010322 0.13665445 0.054097813 0.120263614 0.07765538 0.077003494 0.0022283148 -0.14402798
0.028961834 -0.0678405 -0.09551338 -0.07193098 -0.09684216 0.017236916 0.112751864 -0.12043324
0.051768925 0.010366963 0.13150766 -0.10447727 0.037127968 -0.19209035 0.028697878 -0.14893793
0.08549034 0.0037914447 0.10060589 -0.022320516 -0.15933397 -0.11322021 -0.09956817 -0.073524736
-0.12413523 0.0662833 0.12884592 0.007447842 0.061622005 -0.039397836 -0.022549521 -0.085091405
0.20149285 0.078644 0.022411413 -0.08309445 -0.023300335 0.072304256 -0.108697206 -0.09489077
-0.12320048 0.06887927 0.123448156 -0.0078050764 -0.0054816864 0.01817671 -0.17210628 0.035171844
-0.14929555 -0.04242493 0.097294524 -0.02424062 0.043685984 0.02325441 0.10562474 -0.01361126
0.053858027 -0.016160911 0.15440835 -0.1258003 0.17126672 -0.06843676 -0.18330252 0.15702125
0.06816123 0.08718715 -0.006813184 0.19639799 -0.1295084 -0.009731673 0.05693672 0.016136255
-0.22109878 -0.16367 -0.055141296 0.0774709 -0.09055292 0.12246159 -0.16136056 -0.0673463
0.09651703 0.087479234 -0.06982166 -0.0221275 -0.19655018 -0.091168046 0.23756336 -0.0066068703
0.002470621 0.13785358 0.14171469 0.10774416 0.08222112 -0.11805089 -0.069276564 0.10524295
-0.110024676 -0.02821023 -0.17673191 0.112042114 -0.023322776 -0.08109279 -0.15988727 -0.07142044
0.25786296 -0.097796634 0.020656629 -0.18084884 0.13919665 -0.007654297 0.17780374 0.15534335
00000000: 9287 043d 3738 493e 73a2 65be dae2 ff3b
00000010: d687 11be 8dd7 4f3e e2e7 3ebd 77f5 6ebe
00000020: a3b0 48bd af0b 0b3e 69c4 3dbe 453b ff3c
00000030: fa92 36be fc0c f2bd e1bb cfbd 528c 38bd
00000040: b24f 33be f78f 87bd ab2c 913d adfa 463d
00000050: 7fcd f03d 3095 8abd f075 093d 051e d53d
00000060: 7c1a 483c 46ce 443e 84ef 263e ac7d 333d
00000070: 4c00 3bbe c498 3f3d 7506 a7bd 00b6 853d
00000080: 1d1f fbbd 95fe 40bd 7343 b5bd 3d11 59bc
00000090: 0820 62be 0259 a9bd 2b60 633e de7b d03d
000000a0: bc38 753e f9f9 c63d 761c cbbd c578 983d
000000b0: 8d26 debd 56c0 663d 4d0e 4c3e 419d 053e
000000c0: 3875 70bd ebf3 edbd d519 193d 8c49 d6bd
000000d0: fa7b 12be f6fe a43d 0140 ad3d 5b4c c43c
000000e0: 6e0d 28be 247b f53d f79f 83bd 2696 f43a
000000f0: 1981 00be e304 7cbd ce32 ea3c d7dc 083d
00000100: 8cad ed3d b6e4 0abe b476 10bd 68a6 313e
00000110: 1b28 77bd 1e14 1abe 1161 1ebd 4a06 1c3e
00000120: 24ed 36bd a5c0 983d b072 f23d c8b0 913d
00000130: a1c7 fdbb 9ae6 de3d 9bf0 efbd 3a51 43bd
00000140: e257 513e 73d3 11be eece fc3d 000d c23d
00000150: 72bb 393e 7a3d 20be a6fc 353e bcaf df3d
00000160: ce3e 923d 230f 39be b028 1e3e b512 4e3e
00000170: c6f0 783e dfca 193e 156e cabc 0dc2 ee3d
00000180: ed86 2a3e 01f4 debd 4bbb d5bd 8d99 033d
00000190: 87df 603e 8695 543e 09f9 1a3e 6950 95bd
000001a0: ecd0 7abe cf5d b3bd b0f8 5abc e97b f4bd
000001b0: c3e0 12be df8e 8f3d f572 113c 8020 573d
000001c0: 7ccc c0bc bb3a 3dbe f059 8e3d 1525 0d3d
000001d0: 1d51 093e e723 a33d 9528 57bd 0d0d 9d3d
000001e0: a375 82bb 6fca 163e 4017 1a3d f0c4 233d
000001f0: 0d95 d2bd 16ad 4f3e 6ee1 6fbe 1139 0fbc
00000200: 5909 be3c 917e 58bd 75c2 b5bc 0f08 abbd
00000210: 5bdd 133e 70be b33d ec16 f23d 0a2f c23d
00000220: 079b f63c 25ef 0b3e ab95 5d3d c54c f63d
00000230: c909 9f3d 02b4 9d3d eb08 123b 127c 13be
00000240: 5e41 ed3c f6ef 8abd 859c c3bd 8d50 93bd
00000250: 2f55 c6bd 6f34 8d3c 73ea e63d b4a5 f6bd
00000260: a70b 543d 32da 293c f2a9 063e 2ef8 d5bd
00000270: 7f13 183d 55b3 44be d017 eb3c 2f83 18be
00000280: 8f15 af3d e379 783b 760a ce3d 84d9 b6bc
00000290: 7228 23be ffdf e7bd 66ea cbbd 2394 96bd
000002a0: 9d3a febd 8abf 873d 2ff0 033e 070d f43b
000002b0: 5b67 7c3d a05f 21bd c6b9 b8bc 6744 aebd
000002c0: 2454 4e3e 1b10 a13d 2498 b73c 6c2d aabd
000002d0: 58e0 bebc 4114 943d a49c debd 1856 c2bd
000002e0: 8950 fcbd 9310 8d3d 63d2 fc3d bac1 ffbb
000002f0: b89f b3bb 53e7 943c a13c 30be 5a10 103d
00000300: efe0 18be c3c5 2dbd 5a42 c73d 4494 c6bc
00000310: 13f0 323d 0880 be3c c951 d83d c301 5fbc
00000320: 3c9a 5c3d e363 84bc 391d 1e3e cbd1 00be
00000330: 8b60 2f3e 9228 8cbd a8b3 3bbe 2eca 203e
00000340: 1d98 8b3d 2d8f b23d 2141 dfbb 8e1c 493e
00000350: da9d 04be 9871 1fbc 7a36 693d 2e30 843c
00000360: b867 62be 1c99 27be d7db 61bd 10a9 9e3d
00000370: cf73 b9bd 24cd fa3d b43b 25be dbec 89bd
00000380: b8aa c53d 5028 b33d a9fe 8ebd bb44 b5bc
00000390: 7344 49be 50b6 babd cf43 733e 727e d8bb
000003a0: 24ea 213b 7d29 0d3e a81d 113e f8a8 dc3d
000003b0: 8c63 a83d aac4 f1bd dfe0 8dbd 9e89 d73d
000003c0: 9e54 e1bd 2419 e7bc 36f9 34be 5676 e53d
000003d0: 680f bfbc fa13 a6bd 7db9 23be e144 92bd
000003e0: 9d06 843e 9a49 c8bd 1738 a93c 7030 39be
000003f0: 9189 0e3e e6d0 fabb 2f12 363e 5412 1f3e

u_model.model.2.bias f4 [42]
-0.023008922 -0.12510577 0.087514244 -0.024633193 0.045911413 -0.11105062 0.060481943 0.034080315
-0.054445505 0.08874994 0.087865256 -0.08323477 -0.0066104713 -0.12107615 0.06296388 -0.14192382
0.028519774 0.055808336 0.07713731 -0.010569205 0.037883136 0.0772193 0.119557306 0.14392155
0.13437827 -0.0919159 0.005957145 -0.1435432 0.056483176 0.07771789 0.05345 0.01456987
-0.09540857 -0.04885089 0.05190305 0.15404552 -0.049021814 -0.0281932 0.052545365 -0.046764154
0.027861148 -0.06271133
00000000: 357d bcbc ba1b 00be ab3a b33d 8dcb c9bc
00000010: 9b0d 3c3d 826e e3bd eabb 773d cd97 0b3d
00000020: 4002 5fbd 87c2 b53d b3f2 b33d fe76 aabd
00000030: a79c d8bb c6f6 f7bd 35f3 803d 7a54 11be
00000040: 4da2 e93c 4897 643d 2afa 9d3d 752a 2dbc
00000050: 592b 1b3d 2725 9e3d 76da f43d 2c60 133e
00000060: 759a 093e 673e bcbd 2734 c33b fdfc 12be
00000070: e75a 673d 8f2a 9f3d 63ee 5a3d 77b6 6e3c
00000080: 9165 c3bd df17 48bd 4b98 543d 1cbe 1d3e
00000090: 19cb 48bd 6df5 e6bc cf39 573d c58b 3fbd
000000a0: 103d e43c cc6e 80bd

u_model.model.4.weight f4 [42, 42]
-0.06045106 0.11464972 -0.054959066 0.05953972 -0.0096088145 0.013647651 -0.055748757 -0.11822925
0.08245359 0.002423667 -0.0064161997 -0.16169353 -0.112929136 -0.09269252 0.18531626 -0.0021758368
0.14248249 -0.0006811456 -0.036451004 0.102310285 -0.21152227 0.002599289 0.2439634 0.009583807
-0.12919225 0.065004356 -0.050620362 -0.13010812 0.06572877 -0.16599841 0.03143302 -0.120758854
-0.04374779 -0.18855354 0.07822528 0.13038097 0.17758074 -0.1486374 -0.20090817 -0.0751664
0.031827677 -0.09325293 0.27941266 -0.025815224 -0.23858714 -0.05859144 -0.04600994 0.10932781
-0.08982576 0.017885275 0.07024665 0.03299524 -0.107524544 -0.086296104 -0.1692653 -0.0074604508
0.117727965 0.12635198 0.018445283 0.12526979 0.120010525 -0.080329485 -0.12276017 0.061001744
0.120598845 0.14378236 -0.24552509 -0.17596728 0.033016257 0.060593862 0.12549849 -0.05703599
-0.0920278 0.010559066 0.009921057 -0.18190491 -0.026702685 -0.021500029 0.03323408 -0.22211911
-0.07642394 -0.09520379 -0.031107366 -0.036797054 -0.07158616 0.0015034927 0.12695123 -0.09431784
0.08972197 0.14899747 -0.093359046 -0.072499774 -0.09498231 -0.044875145 0.09320226 -0.15829764
0.09519145 -0.11435806 -0.17865525 0.07098884 0.26614097 0.029189957 -0.047177535 0.08475553
-0.14015478 0.20739488 -0.16492109 0.03979616 0.09978883 -0.011486278 -0.049325254 0.044562537
0.05675545 -0.044067524 0.06656235 -0.1582075 0.15136725 -0.026554652 0.10133388 0.005726546
0.13411263 -0.05161831 0.012877027 -0.0041505517 0.07570824 -0.22733235 0.053922694 -0.17964767
-0.110176295 0.1983723 0.18536265 -0.12512495 -0.024155546 0.11677064 0.098773696 0.17906936
-0.18226148 0.107250236 0.012538291 0.045611024 0.17550911 -0.0013213756 -0.20948005 -0.05570897
-0.12732667 -0.049580134 -0.060977485 -0.33516082 0.10805126 -0.109014735 -0.005725726 0.17508581
0.21213578 -0.12978052 0.0020672402 0.14335237 -0.16423948 0.10065088 -0.13553967 -0.08317048
-0.16843906 -0.09240124 -0.14347512 0.02552775 0.06817308 -0.025163693 -0.070698716 0.32302886
0.011202311 -0.1156165 0.046016656 0.038424823 -0.08460464 -0.10374948 0.025654996 0.067283496
0.00583142 -0.20278054 0.19941959 -0.06321954 0.13399169 -0.17610562 -0.055599194 0.083663635
0.2241737 -0.12732507 -0.11170304 0.023661476 -0.25119975 0.31339252 -0.0707005 -0.2465864
-0.0063532167 -0.012636597 -0.016671661 0.0016972539 -0.20244141 -0.16876301 0.09531118 0.029665032
0.27894628 -0.18718363 -0.051245667 0.033696037 0.24250932 -0.18835412 -0.091777995 0.062243726
0.014207394 -0.26277173 0.16132969 0.16925292 -0.07037089 0.08876422 -0.09688184 0.06410164
0.10925119 -0.13879493 -0.031962704 0.015448486 -0.119084746 0.10755453 0.040394798 -0.12199326
0.2039959 0.041902535 -0.045116477 0.18392268 -0.08241775 0.10148919 -0.15820433 0.07010968
0.14829604 -0.031216059 0.054322157 0.103002734 -0.17318714 -0.109389 -0.10414694 0.024519995
0.09892703 -0.11897614 0.1560136 -0.12468093 0.16812357 0.112140134 -0.0742588 -0.19863461
0.024270497 -0.13651887 0.04523991 -0.17225015 0.123853475 0.17518966 -0.042505153 0.009798506
00000000: 889b 77bd 79cd ea3d c21c 61bd ecdf 733d
00000010: 4a6e 1dbc 669a 5f3c cf58 64bd 2d22 f2bd
00000020: 6edd a83d 63d6 1e3b fc3e d2bb fd92 25be
00000030: 6447 e7bd 93d5 bdbd 8cc3 3d3e 7c98 0ebb
00000040: eee6 113e e88e 32ba a64d 15bd 0e88 d13d
00000050: 4b99 58be d558 2a3b 8bd1 793e 6605 1d3c
00000060: f94a 04be 0121 853d 4c57 4fbd 103b 05be
00000070: ce9c 863d 7dfb 29be e9bf 003d 6b50 f7bd
00000080: e230 33bd 2e14 41be 9334 a03d 9782 053e
00000090: bad7 353e 6734 18be dfba 4dbe d7f0 99bd
000000a0: bd5d 023d 64fb bebd 2d0f 8f3e 737a d3bc
000000b0: 3050 74be 94fd 6fbd eb74 3cbd 42e7 df3d
000000c0: 91f6 b7bd 2484 923c 7add 8f3d 0426 073d
000000d0: d435 dcbd 03bc b0bd e253 2dbe cc76 f4bb
000000e0: 5c1b f13d 6a62 013e 901a 973c b946 003e
000000f0: 14c8 f53d c983 a4bd af69 fbbd f7dc 793d
00000100: 87fc f63d af3b 133e ee6a 7bbe c430 34be
00000110: 0e3c 073d 4531 783d ad82 003e 929e 69bd
00000120: 1279 bcbd efff 2c3c ee8b 223c 4845 3abe
00000130: 97bf dabc d420 b0bc 7520 083d 3173 63be
00000140: 2884 9cbd 34fa c2bd e0d4 febc 82b8 16bd
00000150: c49b 92bd d810 c53a 81ff 013e b629 c1bd
00000160: 27c0 b73d cb92 183e 0733 bfbd c37a 94bd
00000170: 1686 c2bd 00cf 37bd d4e0 be3d c718 22be
00000180: bcf3 c23d 8f34 eabd 67f1 36be 9962 913d
00000190: a143 883e c71f ef3c 3b3d 41bd 4f94 ad3d
000001a0: bc84 0fbe 535f 543e 13e1 28be 4c01 233d
000001b0: 165e cc3d f130 3cbc 4709 4abd 3587 363d
000001c0: 6778 683d 2680 34bd d751 883d 2601 22be
000001d0: 0400 1b3e 2489 d9bc 2388 cf3d c0a5 bb3b
000001e0: d254 093e b96d 53bd 2afa 523c 5a01 88bb
000001f0: ec0c 9b3d d0c9 68be 0bde 5c3d 8ff5 37be
00000200: 1ca4 e1bd 1c22 4b3e b5cf 3d3e c120 00be
00000210: dae1 c5bc 7225 ef3d dd49 ca3d f55d 373e
00000220: c1a2 3abe 03a6 db3d 676d 4d3c a0d2 3a3d
00000230: a9b8 333e 0232 adba f081 56be 172f 64bd
00000240: ec61 02be 8a14 4bbd 87c3 79bd 339a abbe
00000250: fb49 dd3d 1e43 dfbd df9e bbbb b249 333e
00000260: 1f3a 593e 2fe5 04be 897a 073b f7ca 123e
00000270: 652e 28be 0c22 ce3d e9ca 0abe 4955 aabd
00000280: 4a7b 2cbe dc3c bdbd 24eb 12be 921f d13c
00000290: 549e 8b3d 1724 cebc 7dca 90bd 0a64 a53e
000002a0: e689 373c 58c8 ecbd f67b 3c3d 5963 1d3d
000002b0: 3345 adbd 9b7a d4bd 6d2a d23c eecb 893d
000002c0: 7f15 bf3b b4a5 4fbe a634 4c3e 3f79 81bd
000002d0: 1e35 093e 0855 34be fbbb 63bd d757 ab3d
000002e0: ca8d 653e 8161 02be 90c4 e4bd b6d5 c13c
000002f0: 419d 80be fc74 a03e 6ccb 90bd 2581 7cbe
00000300: a52e d0bb bb09 4fbc 0293 88bc 6476 de3a
00000310: cd4c 4fbe 36d0 2cbe 8232 c33d 1504 f33c
00000320: 0cd2 8e3e 11ad 3fbe fae6 51bd db04 0a3d
00000330: 5d54 783e e7df 40be 1af6 bbbd 47f3 7e3d
00000340: 21c6 683c 048a 86be 9c33 253e a350 2d3e
00000350: 9d1e 90bd 04ca b53d fc69 c6bd b847 833d
00000360: 17bf df3d 4220 0ebe 53eb 02bd a61b 7d3c
00000370: b4e2 f3bd 8d45 dc3d 0475 253d 9ad7 f9bd
00000380: 4de4 503e fea1 2b3d 0ecc 38bd 3a56 3c3e
00000390: a3ca a8bd 90d9 cf3d 5100 22be aa95 8f3d
000003a0: ebda 173e d2b8 ffbc e980 5e3d 19f3 d23d
000003b0: f857 31be 5707 e0bd fe4a d5bd 28de c83c
000003c0: 419a ca3d c3a9 f3bd 07c2 1f3e b758 ffbd
000003d0: 9628 2c3e baa9 e53d ff14 98bd df66 4bbe
000003e0: ecd2 c63c 9acb 0bbe 7c4d 393d 5862 30be
000003f0: e4a6 fd3d eb64 333e e219 2ebd ea89 203c

u_model.model.4.bias f4 [42]
-0.059048038 -0.12394501 0.11839119 -0.09175411 0.15684187 -0.050716978 0.042595956 0.07577477
-0.042602997 -0.11673066 -0.012879945 0.11705486 -0.15825406 0.12891279 -0.15579039 0.05313117
-0.11955123 -0.0068009617 -0.10621874 -0.063919425 0.064204134 0.1039586 -0.10467458 0.06771894
-0.1416582 0.094857864 0.09477013 0.08277603 0.121604815 0.07406244 0.13514271 -0.003403615
0.13400109 0.054956976 0.012109254 -0.107150845 -0.040917397 0.061556768 -0.06718273 0.058131535
0.05267971 -0.0480535
00000000: 5bdc 71bd e2d6 fdbd 1577 f23d 94e9 bbbd
00000010: 289b 203e 9bbc 4fbd 1979 2e3d cd2f 9b3d
00000020: 7b80 2ebd 7c10 efbd 6806 53bc 75ba ef3d
00000030: 5a0d 22be b701 043e 8487 1fbe 12a0 593d
00000040: 46d7 f4bd 9ada debb 3689 d9bd 30e8 82bd
00000050: 757d 833d 3fe8 d43d a05f d6bd 3ab0 8a3d
00000060: d90e 11be d744 c23d d816 c23d 7b86 a93d
00000070: f20b f93d 0cae 973d da62 0a3e 2f0f 5fbb
00000080: 9537 093e 911a 613d e465 463c e771 dbbd
00000090: 0099 27bd f322 7c3d 1997 89bd 551b 6e3d
000000a0: aec6 573d bfd3 44bd

u_model.model.6.weight f4 [42, 42]
-0.12852634 0.07028309 -0.23440056 0.21234114 -0.16580819 -0.16239165 0.014157497 -0.11024976
0.065306954 0.09460008 -0.120672055 0.020935295 -0.07989296 0.05955085 0.071429335 -0.005584277
-0.07962993 0.03541537 0.0374488 -0.018659974 0.09350423 0.12711807 -0.027738957 -0.08343396
0.1765989 0.10225482 0.08998719 -0.1764915 0.112979695 0.17506209 -0.043687284 -0.13815881
0.011155905 -0.2103126 0.09187763 -0.064682916 0.18343174 -0.032567333 0.010377455 0.012730148
-0.05579064 -0.011906816 0.12914203 -0.13529572 -0.011246487 0.03726721 0.15224646 -0.10701148
0.02751215 0.109059855 0.097944856 -0.20266142 -0.06648753 -0.20274611 -0.1824509 0.0047210343
0.1942633 -0.07233038 -0.14146385 -0.02306542 -0.23227863 0.043462772 -0.21193069 -0.07124878
-0.07996938 0.20282225 -0.14873752 -0.059552 0.15514448 -0.035574794 0.04705971 0.088557065
-0.11205419 -0.15904386 0.005178587 0.12131559 0.04768414 0.095172815 -0.26625782 0.10293324
-0.0023592357 0.038426474 -0.07578891 0.08130985 0.15451163 0.14939487 -0.032584563 -0.179043
0.043969266 0.12108518 0.21179552 0.062048547 0.21465002 -0.13382307 0.11032379 0.14508876
0.15151782 -0.18202162 0.011741955 0.047819756 -0.0027834764 -0.029585602 0.09287666 0.10562602
-0.065776415 -0.2327454 -0.23843686 -0.08450069 -0.17192353 0.02267209 0.0058484194 0.11610044
-0.20471622 0.05330541 -0.084598005 -0.17074744 -0.08683503 0.11957706 -0.0944051 -0.099209316
-0.008248025 0.075444624 0.14172941 -0.17583139 -0.23741573 0.11955431 -0.12927726 -0.046895124
-0.18250236 0.07633081 -0.36038953 -0.11436904 0.11206187 -0.03406927 -0.08540066 0.36428994
-0.04564951 -0.03816367 0.23513229 -0.13167028 -0.15261374 0.28829968 -0.04519739 0.24961579
0.33197024 -0.1260971 0.1391185 0.21702713 -0.0789329 -0.15002604 0.18641298 -0.1533447
-0.03376463 -0.14242882 -0.16600698 -0.10056608 0.03975613 0.062452096 -0.10686726 -0.32705393
0.03357575 -0.035945214 0.24957572 -0.07531542 -0.08662902 0.12444471 -0.08267047 -0.1586166
0.169971 0.12512125 0.08620308 -0.16580409 -0.009709447 0.16551258 0.15645663 -0.01254576
0.17645867 -0.109515905 0.17295308 0.16552688 0.15145557 0.02356205 -0.015754897 0.076629594
0.14653651 0.01515739 -0.13593517 0.089672744 -0.19085212 -0.115478136 -0.0747364 -0.09770462
-0.06691254 0.026959814 -0.2004029 0.21881989 -0.2287218 0.012659216 -0.17369159 -0.1912472
0.09067134 0.12128924 -0.2131098 -0.080425315 0.050240133 0.14845453 0.04209053 -0.06523481
-0.22754504 -0.015672866 0.18281478 -0.11731072 0.1895238 0.01926664 0.09324137 0.003958571
-0.007345261 -0.03764554 0.039318707 0.03621996 -0.07488494 -0.075661816 0.0071331025 0.055189934
0.036471788 -0.06785735 -0.1496995 -0.12319609 0.019916924 0.09802067 -0.12961324 -0.1645152
-0.07104191 -0.010763264 0.0086415745 -0.103042796 0.017226743 0.1993427 0.02852129 -0.12165291
-0.10154006 -0.0188603 0.04702608 0.23999509 -0.17621882 -0.12796366 0.054425616 -0.05782035
-0.086829774 -0.028526885 -0.19919293 0.14631082 -0.13331161 0.06171616 -0.21446244 -0.14228205
00000000: 699c 03be 95f0 8f3d b306 70be f56f 593e
00000010: 9fc9 29be ff49 26be d9f4 673c a0ca e1bd
00000020: a7bf 853d b0bd c13d e922 f7bd 7f80 ab3c
00000030: ec9e a3bd 98eb 733d 8b49 923d 50fc b6bb
00000040: 0415 a3bd b50f 113d ea63 193d cddc 98bc
00000050: 257f bf3d 3d2b 023e cf3c e3bc 6ddf aabd
00000060: 58d6 343e fa6a d13d 344b b83d 30ba 34be
00000070: e661 e73d 7a43 333e 70f1 32bd 8179 0dbe
00000080: 42c7 363c 305c 57be 572a bc3d 7a78 84bd
00000090: 88d5 3b3e 5365 05bd 3306 2a3c 1c92 503c
000000a0: ba84 64bd ce14 43bc cf3d 043e f68a 0abe
000000b0: 2f43 38bc 81a5 183d 7fe6 1b3e d628 dbbd
000000c0: 2961 e13c c65a df3d 5097 c83d 7a86 4fbe
000000d0: 9d2a 88bd ad9c 4fbe 69d4 3abe e8b2 9a3b
000000e0: f5ec 463e f321 94bd e6db 10be b1f3 bcbc
000000f0: 73da 6dbe 0506 323d 5c04 59be e1ea 91bd
00000100: fcc6 a3bd a3b0 4f3e a64e 18be ccec 73bd
00000110: 32de 1e3e e0b6 11bd afc1 403d 685d b53d
00000120: ab7c e5bd 65dc 22be 23b1 a93b 4f74 f83d
00000130: 7250 433d f7e9 c23d f252 88be aace d23d
00000140: 689d 1abb 1465 1d3d 3737 9bbd c785 a63d
00000150: 4c38 1e3e f8fa 183e 6477 05bd 0c57 37be
00000160: 1e19 343d 82fb f73d ede0 583e 9e26 7e3d
00000170: 37cd 5b3e ea08 09be 70f1 e13d 2692 143e
00000180: 7d27 1b3e e063 3abe 5461 403c a6de 433d
00000190: fc6a 36bb 815d f2bc 1e36 be3d 7452 d83d
000001a0: c9b5 86bd cf54 6ebe cb28 74be b30e adbd
000001b0: b90c 30be d2ba b93c 19a4 bf3b 11c6 ed3d
000001c0: 21a1 51be c656 5a3d b841 adbd 6bd8 2ebe
000001d0: 90d6 b1bd d1e4 f43d 7657 c1bd 412e cbbd
000001e0: b922 07bc b682 9a3d 8421 113e 250d 34be
000001f0: 1c1d 73be e4d8 f43d 4261 04be 1a15 40bd
00000200: e6e1 3abe 5453 9c3d fa84 b8be 513a eabd
00000210: b280 e53d 388c 0bbd 8be6 aebd 3684 ba3e
00000220: fbfa 3abd 8251 1cbd 85c6 703e 93d4 06be
00000230: c746 1cbe 049c 933e e620 39bd 489b 7f3e
00000240: 01f8 a93e 991f 01be 1475 0e3e 5c3c 5e3e
00000250: 93a7 a1bd 6da0 19be 0be3 3e3e 6506 1dbe
00000260: c84c 0abd dcd8 11be bcfd 29be 97f5 cdbd
00000270: 53d7 223d c5cd 7f3d 39dd dabd 9d73 a7be
00000280: ba86 093d 4a3b 13bd c790 7f3e f93e 9abd
00000290: 8e6a b1bd dedc fe3d 234f a9bd 646c 22be
000002a0: e10c 2e3e c91f 003e 3e8b b03d 8cc8 29be
000002b0: 5f14 1fbc 217c 293e 2b36 203e bb8c 4dbc
000002c0: 95b1 343e e049 e0bd 9d1a 313e e17f 293e
000002d0: 2b17 1b3e 3305 c13c 6a10 81bc faef 9c3d
000002e0: ab0d 163e b456 783c 9732 0bbe 58a6 b73d
000002f0: bd6e 43be cd7f ecbd 660f 99bd 5c19 c8bd
00000300: 7109 89bd d4da dc3c 6b36 4dbe 5212 603e
00000310: 0c36 6abe 9a68 4f3c 35dc 31be 4ed6 43be
00000320: e5b1 b93d 7e66 f83d 7539 5abe 07b6 a4bd
00000330: 99c8 4d3d 7704 183e 1f67 2c3d d499 85bd
00000340: 9101 69be 6264 80bc cc33 3b3e 9a40 f0bd
00000350: 8712 423e 13d5 9d3c 55f5 be3d e6b6 813b
00000360: 84b0 f0bb 3632 1abd a70c 213d 615b 143d
00000370: 475d 99bd 95f4 9abd cdbc e93b d70e 623d
00000380: 7163 153d cbf8 8abd d34a 19be 3b4e fcbd
00000390: d128 a33c 10bf c83d 55b9 04be ac76 28be
000003a0: 6c7e 91bd 6758 30bc 6495 0d3c 1a08 d3bd
000003b0: 191f 8d3c 7e20 4c3e 7ba5 e93c 2925 f9bd
000003c0: 3cf4 cfbd ea80 9abc 6b9e 403d 46c1 753e
000003d0: b572 34be e808 03be 65ed 5e3d 08d5 6cbd
000003e0: cfd3 b1bd 37b1 e9bc 3bf9 4bbe 81d2 153e
000003f0: d782 08be 16ca 7c3d 0b9c 5bbe 63b2 11be

u_model.model.6.bias f4 [42]
-0.11030083 0.14353159 0.086048946 -0.044745613 -0.13298135 -0.062251464 0.10616449 0.058438927
0.08754235 0.15292169 0.09999505 0.0016802917 -0.09770907 0.11834323 -0.031887807 -0.02214694
0.09740532 0.0703941 0.07575562 0.074775636 -0.0023612475 -0.12256464 -0.03181371 0.06698673
-0.037564203 -0.09956372 -0.090606816 0.08493239 -0.039584205 0.12770486 -0.053964283 0.025438491
-0.12541433 0.07677947 0.1355003 0.058721703 0.04730118 0.15456744 -0.005129887 -0.015061251
0.06586727 -0.11904988
00000000: 67e5 e1bd f2f9 123e 6e3a b03d 2d47 37bd
00000010: 432c 08be 64fb 7ebd c56c d93d a85d 6f3d
00000020: 6749 b33d 8197 1c3e 34ca cc3d 3c3d dc3a
00000030: b11b c8bd ef5d f23d ca9c 02bd 806d b5bc
00000040: 717c c73d c82a 903d c325 9b3d f823 993d
00000050: 29bf 1abb 2c03 fbbd 184f 02bd 5730 893d
00000060: ecdc 19bd 10e8 cbbd 1190 b9bd 08f1 ad3d
00000070: 0c23 22bd 10c5 023e a709 5dbd 6264 d03c
00000080: 9d6c 00be 8e3e 9d3d 97c0 0a3e 2b86 703d
00000090: e2be 413d ed46 1e3e 9c18 a8bb 77c3 76bc
000000a0: 6be5 863d 6cd0 f3bd

u_model.model.8.weight f4 [42, 42]
0.33295232 -0.2258117 -0.34502232 0.18437962 -0.37907004 -0.1956228 0.13910139 -0.17408042
-0.20753227 -0.04144095 -0.18232349 -0.384675 0.087263145 -0.21103486 -0.36508712 0.071804374
-0.16045615 0.34592333 0.13650183 -0.07871789 0.34537098 -0.16853103 0.28916034 0.2034445
0.39763996 0.21890062 -0.16437325 -0.4118714 -0.21277773 0.37481448 -0.2813877 -0.3512923
-0.07945498 0.35045463 -0.3234208 -0.179498 0.3515099 -0.19023728 -0.16078591 0.4278739
-0.2631976 -0.13115568 -0.049368814 0.026616568 -0.26382136 -0.065769054 0.028628137 -0.046389155
0.1783692 0.025444314 0.09282769 -0.19197355 -0.21713746 -0.16678429 0.08000423 -0.21141128
-0.09494743 0.22175758 -0.10388432 0.20264235 0.11132245 -0.08427557 -0.013635306 -0.15450633
0.26372907 0.11226522 0.22244956 0.29345042 -0.17262928 -0.04222342 0.0034885816 0.1511272
0.12983426 -0.17643926 0.10637266 0.273128 -0.10203933 -0.19920869 0.0660468 -0.20337391
0.047630075 0.25010675 0.039849985 -0.040007953 -0.10563128 0.099350736 0.120508365 -0.044326544
-0.106055975 0.1588431 -0.028533874 0.03821343 -0.042872917 -0.022081507 0.1746504 -0.0035290052
-0.13189992 0.08868722 0.117946185 -0.19097306 0.09627392 -0.07367836 -0.1402097 0.0074175866
-0.111357786 0.027980348 -0.109257065 0.0014561902 -0.16316248 0.17588298 0.07175956 0.099263825
0.023846805 -0.11202541 -0.039689578 0.21440111 0.12255924 -0.06387377 -0.07615904 -0.024126656
0.051400214 0.03362376 0.14008999 0.11183421 -0.0082220305 0.11320567 -0.22379054 -0.17305525
-0.16902123 -0.028465625 -0.1874699 0.034472793 -0.10298836 -0.013990106 -0.19912198 0.20176753
-0.037173223 0.0923065 0.1910689 0.0037702196 -0.028865281 -0.06409053 -0.07228848 -0.08768799
0.04460076 0.14947695 0.13717201 -0.11706848 0.09883268 -0.015609565 -0.062466674 0.0502407
-0.12693037 0.033429235 0.115270235 -0.09292999 0.022608107 -0.09504542 0.100855716 0.002156944
-0.024695551 -0.013880605 -0.024224587 0.043060716 -0.15969345 0.042452827 0.02977681 -0.07416819
-0.013457235 -0.031201465 -0.09928181 0.15814915 0.019204633 -0.10002674 -0.12054943 0.06888165
-0.10841756 0.20225018 0.09435625 0.10130747 0.08131905 -0.088724986 -0.03998906 0.08533285
-0.03467061 -0.1422071 -0.12926611 0.19083847 -0.047309708 -0.024245797 0.0553482 -0.20006658
-0.085361026 -0.07439716 0.12428191 -0.12266065 0.11663304 -0.16985907 0.04867246 -0.104651116
0.023864517 0.071561754 -0.05355913 0.024652658 -0.0064093997 -0.16164434 -0.10918037 -0.103263594
0.03025686 0.04959269 0.06377731 0.0026103691 0.234734 0.07345791 0.12503892 0.05257484
-0.17734748 0.22426449 0.12146865 0.056232322 0.13712418 0.28511938 -0.02029101 0.24585795
0.2608454 -0.19575499 0.28774446 -0.21867508 -0.09819088 0.05404015 -0.058551848 0.2049874
0.04225334 -0.23506118 -0.0005145792 -0.12062802 0.27243832 0.21436775 0.1781152 -0.21195701
-0.07043544 0.075474635 0.082488045 -0.20196092 0.21555842 0.044159535 -0.20988853 -0.0043441937
0.21181072 -0.24436145 -0.033579603 0.18022877 0.11074336 0.141161 0.025252076 -0.05394523
00000000: ba78 aa3e 2f3b 67be c4a6 b0be 03ce 3c3e
00000010: 7815 c2be 5851 48be 9870 0e3e 2342 32be
00000020: 5783 54be fcbd 29bd 02b3 3abe 1ff4 c4be
00000030: 05b7 b23d 8619 58be b3ec babe 2c0e 933d
00000040: 9e4e 24be dd1c b13e 23c7 0b3e d836 a1bd
00000050: 77d4 b03e 6693 2cbe d30c 943e c153 503e
00000060: 7797 cb3e 7c27 603e 7651 28be cfe0 d2be
00000070: 68e2 59be afe7 bf3e 0c12 90be 96dc b3be
00000080: 4bb9 a2bd ca6e b33e 6997 a5be 53ce 37be
00000090: 1bf9 b33e 90cd 42be 10a5 24be 4a12 db3e
000000a0: d6c1 86be ad4d 06be f436 4abd fd0a da3c
000000b0: 9813 87be edb1 86bd 8e85 ea3c 8e02 3ebd
000000c0: 6aa6 363e 9870 d03c 721c be3d b794 44be
000000d0: 4859 5ebe 80c9 2abe 42d9 a33d 337c 58be
000000e0: cc73 c2bd 6b14 633e 4dc1 d4bd 7a81 4f3e
000000f0: 06fd e33d ac98 acbd 9e66 5fbc e836 1ebe
00000100: 7f07 873e 4feb e53d d1c9 633e 223f 963e
00000110: bbc5 30be 77f2 2cbd b0a0 643b 17c1 1a3e
00000120: 46f3 043e 7eac 34be e9d9 d93d 6fd7 8b3e
00000130: fff9 d0bd 5dfd 4bbe 8b43 873d 4041 50be
00000140: c117 433d fe0d 803e bd39 233d 61df 23bd
00000150: 3655 d8bd 6678 cb3d 17cd f63d c08f 35bd
00000160: e033 d9bd c4a7 223e dfbf e9bc b085 1c3d
00000170: 839b 2fbd 47e4 b4bc 8ed7 323e e246 67bb
00000180: c610 07be a5a1 b53d c58d f13d 718e 43be
00000190: 432b c53d aee4 96bd 2293 0fbe 3a0f f33b
000001a0: 8d0f e4bd 0b37 e53c 2bc2 dfbd a3dd be3a
000001b0: 1114 27be ab1a 343e adf6 923d d54a cb3d
000001c0: 605a c33c 946d e5bd 8a91 22bd f78b 5b3e
000001d0: 5700 fb3d 40d0 82bd 45f9 9bbd 44a5 c5bc
000001e0: 0889 523d 11b9 093d c073 0f3e 5609 e53d
000001f0: b2b5 06bc 60d8 e73d 5929 65be 6535 31be
00000200: e713 2dbe be30 e9bc 1cf8 3fbe 5833 0d3d
00000210: 90eb d2bd c236 65bc a2e6 4bbe 269c 4e3e
00000220: f342 18bd 310b bd3d 91a7 433e ca15 773b
00000230: e276 ecbc e541 83bd fc0b 94bd c395 b3bd
00000240: 49af 363d 7c10 193e d276 0c3e 99c1 efbd
00000250: ca68 ca3d 43bf 7fbc 0edd 7fbd 31c9 4d3d
00000260: 09fa 01be 18ed 083d cd12 ec3d 1452 bebd
00000270: a334 b93c 2ca7 c2bd 718d ce3d 845b 0d3b
00000280: 534e cabc 7a6b 63bc a472 c6bc 6f60 303d
00000290: ae86 23be 04e3 2d3d 7fee f33c 7ee5 97bd
000002a0: bc7b 5cbc 379a ffbc 4354 cbbd daf1 213e
000002b0: 0953 9d3c d2da ccbd 9fe2 f6bd d311 8d3d
000002c0: 070a debd ac1a 4f3e d93d c13d 4a7a cf3d
000002d0: 9a8a a63d 72b5 b5bd 92cb 23bd fdc2 ae3d
000002e0: c502 0ebd bd9e 11be 565e 04be 296b 433e
000002f0: d3c7 41bd 1f9f c6bc cbb4 623d 41de 4cbe
00000300: c3d1 aebd 8a5d 98bd 8487 fe3d 8235 fbbd
00000310: 4edd ee3d 89ef 2dbe c65c 473d 5353 d6bd
00000320: 857f c33c f88e 923d d160 5bbd 5ff4 c93c
00000330: f105 d2bb 1886 25be f599 dfbd dd7b d3bd
00000340: 3cdd f73c b421 4b3d ae9d 823d ba12 2b3b
00000350: 1c5e 703e 1a71 963d 340a 003e b758 573d
00000360: 949a 35be 97a5 653e 8ec4 f83d dd53 663d
00000370: 486a 0c3e 2bfb 913e 5539 a6bc 30c2 7b3e
00000380: 878d 853e ff73 48be 3e53 933e 5cec 5fbe
00000390: 4d18 c9bd 3459 5d3d 10d4 6fbd 38e8 513e
000003a0: d711 2d3d e1b3 70be d3e4 06ba d30b f7bd
000003b0: 097d 8b3e 3883 5b3e d563 363e 420b 59be
000003c0: 7540 90bd 7292 9a3d 7eef a83d d8ce 4ebe
000003d0: 59bb 5c3e a1e0 343d 05ed 56be bd59 8ebb
000003e0: e9e4 583e e339 7abe c48a 09bd e48d 383e
000003f0: 6acd e23d 828c 103e 71dd ce3c acf5 5cbd

u_model.model.8.bias f4 [42]
-0.0063700946 -0.2178421 -0.035640933 0.09657596 -0.11456576 0.13406792 0.13070968 0.1311442
0.04614056 -0.12569086 -0.07482717 -0.033391822 0.11976205 -0.012889025 -0.013802317 -0.17898698
0.016186945 0.1315888 -0.08644006 -0.078637026 0.01278158 -0.04612296 0.10644324 0.081323676
0.057153624 0.043907415 -0.18553679 0.021590726 -0.0057958853 0.039162014 0.12032065 -0.11605793
0.1820949 -0.24713859 -0.08172265 0.0398749 0.13477586 -0.09373876 -0.059517764 -0.060119525
-0.15217638 0.026267745
00000000: 3abc d0bb 0012 5fbe 3afc 11bd 9ec9 c53d
00000010: 74a1 eabd 1a49 093e c2d8 053e aa4a 063e
00000020: e2fd 3c3d 1bb5 00be fd3e 99bd ddc5 08bd
00000030: ce45 f53d 7d2c 53bc 1d23 62bc 5d48 37be
00000040: 7c9a 843c 37bf 063e 7c07 b1bd 730c a1bd
00000050: d569 513c 6eeb 3cbd eafe d93d 078d a63d
00000060: eb19 6a3d 43d8 333d 5bfd 3dbe 09df b03c
00000070: 69eb bdbb 5968 203d ac6a f63d c8af edbd
00000080: 1677 3a3e e611 7dbe 345e a7bd dd53 233d
00000090: af02 0a3e 1bfa bfbd e6c8 73bd e43f 76bd
000000a0: 20d4 1bbe 742f d73c

u_model.model.10.weight f4 [42, 42]
-0.067166924 -0.09276786 -0.01838344 0.0902283 -0.069402464 -0.035809327 -0.14328508 0.12048438
0.19685864 -0.16450842 -0.21463841 0.19943659 -0.14663456 0.04833554 0.13320929 0.1888022
-0.061502043 0.041551124 -0.082510404 -0.17147313 -0.08923649 0.082029365 0.11867783 -0.05055797
0.19010751 0.02491114 -0.061668273 -0.010284658 0.023209712 0.0028482906 -0.18391787 -0.07050108
-0.07993543 -0.21319161 -0.027297549 0.11924002 0.09985713 -0.08534285 0.048344724 -0.051217288
-0.10501403 -0.14355646 -0.07213944 0.0021875685 0.03684998 -0.08482567 0.09491523 -0.1451084
-0.03675417 0.10265168 0.02887303 0.16847877 -0.06550358 0.08676558 -0.23190272 -0.111765936
-0.018035792 0.10642545 0.05691793 -0.17040406 -0.10882492 0.1672012 0.17296025 -0.1646637
-0.050560206 -0.032120157 -0.0925387 -0.04201198 -0.06982731 0.0020778507 0.021744251 0.083755985
0.11625202 -0.16653793 -0.21026485 -0.040116966 -0.13364866 0.026928812 0.027741943 0.063850716
0.0661761 -0.19495721 0.008369209 0.06936907 0.15307 0.16232353 -0.2112854 0.24031866
0.10085996 -0.16004042 -0.060681112 0.068323985 0.08210856 0.044441085 0.19965325 0.18914662
0.126549 -0.06845592 -0.1294865 0.009003336 0.087082 -0.060712602 -0.060175493 0.039246965
-0.06852153 0.025839224 0.09309064 -0.033883076 0.04713931 -0.13052903 -0.15110418 -0.11388728
-0.06987324 -0.085401304 -0.1151354 0.031490568 -0.040835857 0.17608517 -0.0558186 -0.19130684
0.081315234 0.07176701 0.09935827 -0.017038824 0.2260971 0.24286771 0.10688942 -0.006503618
-0.15971358 -0.09658194 -0.08054467 -0.079544954 -0.23926798 0.13790016 -0.026027123 -0.05212681
0.022167038 -0.03233241 -0.11063195 -0.21431732 0.076581605 0.100772634 -0.18163376 -0.07751208
-0.019783054 -0.20066519 0.13588266 0.0963505 -0.056553297 0.02155375 -0.0573377 -0.103788525
0.1263425 0.12243305 -0.15469225 0.02477056 -0.1733547 0.11818198 -0.048220117 0.017213665
0.034571283 -0.056863505 0.037452836 -0.08400162 -0.07108828 -0.025914323 0.07362927 0.009547631
-0.14054891 0.118151374 -0.062258292 0.22676115 0.17146334 -0.09730249 -0.03173454 -0.0148065975
-0.118747786 -0.09348931 -0.032605484 -0.13222905 0.027575338 -0.11493632 -0.06719821 -0.15841225
-0.045626316 0.14817713 0.031516187 0.16046262 -0.11714642 0.013227455 -0.11554124 0.034359444
0.15708 -0.07712719 0.09810089 -0.04292774 -0.09885632 0.047852278 -0.024627041 -0.08734416
-0.11434612 0.08100454 -0.071002014 -0.06497519 -0.15987007 0.0028767993 0.06476072 0.06658466
0.059217773 0.08930624 -0.31199715 -0.12903726 0.18146214 -0.30237854 -0.16987294 0.1298266
-0.3132671 0.09934768 0.014861931 -0.34996307 -0.29071814 -0.05853121 -0.09881282 0.011364791
-0.015521599 -0.0887914 -0.059568252 0.16255374 -0.07400903 0.05167149 -0.037899803 0.456148
-0.017334476 0.20648712 -0.27037698 0.21074124 0.09225031 0.5590837 0.10562492 0.30059928
-0.46524715 0.061595544 -0.051368084 -0.05859386 -0.04423427 0.24420209 -0.009006148 -0.12821877
-0.01565975 0.499619 -0.2668894 -0.37551615 -0.097354725 0.062899925 -0.0570806 0.11021884
00000000: d08e 89bd 13fd bdbd de98 96bc 9dc9 b83d
00000010: e122 8ebd cdac 12bd 53b9 12be 84c0 f63d
00000020: 5095 493e e574 28be 2cca 5bbe 1b39 4c3e
00000030: 5f27 16be 7dfb 453d 0468 083e 5d55 413e
00000040: 91e9 7bbd 8331 2a3d 37fb a8bd a796 2fbe
00000050: 9fc1 b6bd 03ff a73d 5d0d f33d e015 4fbd
00000060: 8bab 423e 7212 cc3c df97 7cbd fb80 28bc
00000070: 4b22 be3c 63aa 3a3b f754 3cbe df62 90bd
00000080: 30b5 a3bd e74e 5abe 1c9f dfbc 1d34 f43d
00000090: e581 cc3d 3bc8 aebd 1e05 463d 38c9 51bd
000000a0: 9911 d7bd 7700 13be d8bd 93bd 4f5d 0f3b
000000b0: 01f0 163d 15b9 adbd eb62 c23d 4c97 14be
000000c0: 8a8b 16bd 0b3b d23d 2287 ec3c b385 2c3e
000000d0: be26 86bd 27b2 b13d e877 6dbe 8ae5 e4bd
000000e0: ccbf 93bc 96f5 d93d c622 693d 677e 2ebe
000000f0: 9adf debd cb36 2b3e 7e1c 313e 9a9d 28be
00000100: 3818 4fbd 6d90 03bd ee84 bdbd c114 2cbd
00000110: 9f01 8fbd 8d2c 083b 0021 b23c 4288 ab3d
00000120: 8a15 ee3d eb88 2abe ab4f 57be b051 24bd
00000130: 32db 08be d099 dc3c 1243 e33c 2ac4 823d
00000140: 5687 873d dda2 47be 021f 093c 5f11 8e3d
00000150: 62be 1c3e 2438 263e 335b 58be 1816 763e
00000160: ab8f ce3d a3e1 23be c28c 78bd 72ed 8b3d
00000170: 8828 a83d db07 363d e771 4c3e a7af 413e
00000180: 1096 013e 9e32 8cbd 1c98 04be ba82 133c
00000190: 0c58 b23d c7ad 78bd 947a 76bd 6dc1 203d
000001a0: 0455 8cbd c8ac d33c 4ea6 be3d fbc8 0abd
000001b0: 2615 413d 67a9 05be 0ebb 1abe bc3d e9bd
000001c0: b419 8fbd e1e6 aebd 1ccc ebbd 41fc 003d
000001d0: 8043 27bd ac4f 343e 0ba2 64bd f1e5 43be
000001e0: 9a88 a63d 95fa 923d 597c cb3d 0195 8bbc
000001f0: 0086 673e 50b2 783e d7e8 da3d 4d1c d5bb
00000200: f58b 23be c1cc c5bd 9bf4 a4bd 77e8 a2bd
00000210: aa02 75be b335 0d3e d536 d5bc ec82 55bd
00000220: a697 b53c fd6e 04bd 0193 e2bd 0076 5bbe
00000230: d1d6 9c3d e261 ce3d 33fe 39be a7be 9ebd
00000240: 1210 a2bc 2d7b 4dbe d324 0b3e 6953 c53d
00000250: 6ea4 67bd 7d91 b03c f0da 6abd 148f d4bd
00000260: ee5f 013e 2ebe fa3d a567 1ebe a1eb ca3c
00000270: e583 31be 6509 f23d 7582 45bd ac03 8d3c
00000280: 9e9a 0d3d b5e9 68bd 2568 193d 0b09 acbd
00000290: bb96 91bd 464a d4bc f1ca 963d ab6d 1c3c
000002a0: 0eec 0fbe 59f9 f13d 8d02 7fbd 1334 683e
000002b0: 1694 2f3e 8746 c7bd 14fc 01bd 5f97 72bc
000002c0: 0a32 f3bd 5377 bfbd 548d 05bd 0d67 07be
000002d0: ade5 e13c bc63 ebbd 379f 89bd d236 22be
000002e0: a9e2 3abd bfbb 173e 1e17 013d 5050 243e
000002f0: 76ea efbd f8b7 583c e3a0 ecbd 7dbc 0c3d
00000300: 94d9 203e dcf4 9dbd 1fe9 c83d ffd4 2fbd
00000310: 2f75 cabd c000 443d a6be c9bc 7fe1 b2bd
00000320: 4c2e eabd b5e5 a53d 8169 91bd b611 85bd
00000330: fbb4 23be af88 3c3b 45a1 843d 8a5d 883d
00000340: 568e 723d 31e6 b63d 17be 9fbe 5822 04be
00000350: 36d1 393e 5cd1 9abe 2cf3 2dbe 44f1 043e
00000360: 8c64 a0be cc76 cb3d 757f 733c 5c2e b3be
00000370: 02d9 94be 6cbe 6fbd 605e cabd 6333 3a3c
00000380: 4e4e 7ebc 44d8 b5bd d7fd 73bd 7d74 263e
00000390: 0c92 97bd 7ca5 533d d33c 1bbd 3b8c e93e
000003a0: 0801 8ebc 5c71 533e da6e 8abe 8dcc 573e
000003b0: bbed bc3d 1c20 0f3f e151 d83d 26e8 993e
000003c0: e034 eebe 9c4b 7c3d 5767 52bd 1e00 70bd
000003d0: fe2e 35bd 1d10 7a3e 868e 13bc c84b 03be
000003e0: e048 80bc 10ce ff3e baa5 88be a743 c0be
000003f0: ea61 c7bd add1 803d 59cd 69bd 6aba e13d

u_model.model.10.bias f4 [42]
0.051045585 -0.12380298 -0.092832685 0.023853155 -0.04866876 -0.09571987 -0.07402455 -0.001982418
0.07220675 -0.090365425 -0.06741646 -0.09398106 -0.09225336 -0.07093805 0.13898207 -0.03747438
0.19049314 0.08506225 0.1930468 0.085699566 0.091277584 -0.18148346 0.0129922535 -0.08280203
-0.1162673 0.097920574 -0.009957881 -0.059950322 -0.15144153 -0.16173628 0.08414547 0.02896686
0.09189767 -0.11510838 -0.05196572 -0.06312015 0.17618813 0.14724241 -0.17551138 0.015821695
-0.06061009 0.018688524
00000000: 2d15 513d 6b8c fdbd 101f bebd b167 c33c
00000010: e558 47bd c708 c4bd 2f9a 97bd 74eb 01bb
00000020: 22e1 933d 8211 b9bd a411 8abd 2479 c0bd
00000030: 54ef bcbd f847 91bd 5151 0e3e bc7e 19bd
00000040: a210 433e 1e35 ae3d 0fae 453e 4183 af3d
00000050: beef ba3d cdd6 39be 76dd 543c 1c94 a9bd
00000060: 8d1d eebd 958a c83d 6126 23bc 788e 75bd
00000070: 7d13 1bbe 329e 25be 7654 ac3d e94b ed3c
00000080: d834 bc3d f1bd ebbd 02da 54bd 2345 81bd
00000090: a96a 343e b7c6 163e 41b9 33be 809c 813c
000000a0: 4942 78bd ad18 993c
