saved_models/sapinn_mask/without.pt (torch, 76001 bytes, 42 tensors)

u_model.W f4 [20, 2]
0	0xbe31df0d	-0.17370243
1	0xbfe946db	-1.8224748
2	0x3f477a73	0.7792122
3	0xbf81c7b9	-1.0139076
4	0x3f622ef9	0.88352925
5	0x3f20ee36	0.6286348
6	0xbe81b3de	-0.2533254
7	0xc029fc5e	-2.6560283
8	0xbf44f21e	-0.7693194
9	0x3f64bb23	0.8934805
10	0x3eea6c55	0.45785776
11	0x3d79da38	0.060999125
12	0x3fc2affa	1.5209954
13	0x3f68fe58	0.910131
14	0x3e956481	0.2917824
15	0xbe783922	-0.24240544
16	0x3d62cd28	0.055371433
17	0xbffcbd3b	-1.9745249
18	0x3fc4957f	1.5358123
19	0x3f00d580	0.50325775
20	0x3f9e4388	1.2364359
21	0xbf36f3eb	-0.7146594
22	0x3b850133	0.004058981
23	0x3f012a23	0.5045492
24	0x3f42f7ff	0.7615966
25	0xbfdb1150	-1.7114658
26	0x3fa49aaa	1.28597
27	0xbf9b4952	-1.213175
28	0x3ea4a653	0.32158145
29	0xbf3d1b18	-0.73869467
30	0xbd71fc5c	-0.05907856
31	0xbf189fc4	-0.59618783
32	0x3cb584f0	0.022158116
33	0x3f7aad9f	0.97921175
34	0x3eb79c1c	0.3586129
35	0x3eec97db	0.46209607
36	0x3fa07423	1.2535442
37	0x3f3ba531	0.7329894
38	0x3ef86a39	0.4851854
39	0xbfccee7b	-1.6010278

u_model.b f4 [20]
0	0x40b4132f	5.6273417
1	0x3fad3690	1.3532276
2	0x40678d78	3.6180096
3	0x3fcaba83	1.5838169
4	0x3fbc738d	1.4722763
5	0x3f5dfb3e	0.8671149
6	0x407ec722	3.980904
7	0x3f17f66b	0.5936038
8	0x403e74f3	2.975888
9	0x40c7c807	6.2431674
10	0x40bb9a67	5.862598
11	0x3d926766	0.07148628
12	0x40ab7fd2	5.359353
13	0x40755348	3.833208
14	0x40b8a5e0	5.7702484
15	0x3ec11885	0.3771402
16	0x4011afed	2.2763627
17	0x3ffbb2ce	1.9663942
18	0x40bdfd54	5.937174
19	0x40b0b9f5	5.5227

u_model.model.0.weight f4 [42, 42]
0	0x3cdf4b3b	0.027257552
1	0x3d306d48	0.04307297
2	0x3a50f41e	0.00079709466
3	0xbdcd9499	-0.100381084
4	0x3e18e893	0.1493247
5	0xbe991a24	-0.29902756
6	0x3d76f240	0.06028962
7	0x3dbc3182	0.0918913
8	0x3e0250c8	0.12726128
9	0xbce4255d	-0.027849847
10	0x3dcefc76	0.10106747
11	0x3ccd7dce	0.025084402
12	0x3d2369fd	0.039896
13	0xbddb73e5	-0.107154645
14	0x3de25252	0.110508576
15	0x3d0e3984	0.03472282
16	0xbd7d0857	-0.06177553
17	0x3e36d3a5	0.17854173
18	0x3be28415	0.006912718
19	0xbdfb8b66	-0.122824475
20	0xbdb4be90	-0.088254094
21	0x3cdad10c	0.02671101
22	0x3e04c548	0.12965882
23	0xbb470676	-0.0030368841
24	0xbde70cc9	-0.112817355
25	0xbca5cd79	-0.020239579
26	0xbd98ada5	-0.07454995
27	0x3db61e9f	0.08892559
28	0x3e0fb306	0.14033136
29	0xbe10b836	-0.14132771
30	0xbcbb3dd0	-0.022856623
31	0x3dd359b8	0.10319847
32	0x3cf751bc	0.030190341
33	0x3c0e9acc	0.008703899
34	0x3db25d2f	0.087091796
35	0x3d813ed8	0.063108146
36	0x3c7f5feb	0.0155868335
37	0xbd5de2fa	-0.05417154
38	0xbd5ebe01	-0.05438042
39	0x3cdb607d	0.026779408
40	0x3c079fc1	0.008277834
41	0xbd41311c	-0.047165975
42	0x3dd18cce	0.102319345
43	0x3e650f33	0.2236908
44	0xbdbec157	-0.093142204
45	0x3bb21793	0.005434939
46	0x3d1e17d0	0.038596928
47	0x3da28b61	0.07936741
48	0x3ce70480	0.028200388
49	0x3d7ef0de	0.062241428
50	0xbe16bf56	-0.14721426
51	0xbcc17fea	-0.023620564
52	0x3dd91753	0.10600152
53	0xbddd1a08	-0.10795981
54	0x3d146fa5	0.036239285
55	0xbd9bfd02	-0.07616617
56	0xbdaa0df0	-0.083034396
57	0xbe14602c	-0.14489812
58	0xbcc1b7f6	-0.02364729
59	0x3d9cf7d6	0.076644585
60	0x3d61384e	0.054985337
61	0x3d8d545b	0.06900855
62	0xbe568a95	-0.20951302
63	0xbdad59b6	-0.08464377
64	0xbdc51abd	-0.096242405
65	0x3e60e806	0.2196351
66	0x3da1d3c8	0.07901722
67	0xbc901903	-0.017590052
68	0x3e0a02bc	0.13477606
69	0xbd49257b	-0.04910801
70	0xbb48e159	-0.0030651896
71	0x3df8f9a8	0.12156993
72	0x3d47a3d3	0.04874022
73	0xbdf13574	-0.117777735
74	0xbe1d12ba	-0.15339175
75	0x3e1f16d6	0.15536055
76	0xbb8aeaa3	-0.0042393967
77	0x3c111b5a	0.008856619
78	0xbe2f65f4	-0.17128736
79	0xbe4157e7	-0.18881188
80	0xbe193fcf	-0.14965747
81	0x3dda17ab	0.106490456
82	0x3d29f46f	0.041492876
83	0x3c29647c	0.010338899
84	0x3d7b0f2e	0.061293773
85	0x3e3c8987	0.18411838
86	0xbd0d145b	-0.03444324
87	0xbd054b19	-0.03254232
88	0xbddef1ee	-0.10885988
89	0xbe8fdf18	-0.28099895
90	0xbb6bfd80	-0.0036009252
91	0xbd325de9	-0.04354659
92	0x3c46da59	0.012137019
93	0xbd1346df	-0.03595626
94	0xbd4bfc01	-0.049800877
95	0xbe0661c7	-0.13123237
96	0xbd8b76f2	-0.068097964
97	0x3d927f86	0.071532294
98	0xbcedbec8	-0.029021636
99	0x3deed9a0	0.116626024
100	0xbd40cf6e	-0.04707282
101	0xbd96d454	-0.07364717
102	0xbdaa8f0f	-0.083280675
103	0xbe0825a9	-0.13295616
104	0xbd850a13	-0.06496062
105	0xbe0e7297	-0.139109
106	0x3dd642ba	0.10461946
107	0xbd79a173	-0.060944986
108	0x3d2b539e	0.04182779
109	0x3dea8b21	0.11452318
110	0x3e296f05	0.16546257
111	0xbdba4e45	-0.0909696
112	0x3e040eca	0.12896267
113	0xbd9def93	-0.07711711
114	0x3d27dfeb	0.04098503
115	0x3e3a5ad8	0.18198717
116	0xbdb8962f	-0.0901302
117	0x3dc924c8	0.098214686
118	0xbda5a123	-0.08087375
119	0xbe029fb8	-0.1275624
120	0xbc4ad209	-0.012379178
121	0xbe642e1b	-0.22283213
122	0x3d439de1	0.047757987
123	0x3de47af1	0.11156262
124	0x3e3b4391	0.18287493
125	0xbdaff2e8	-0.085912526
126	0xbe2eff73	-0.17089634
127	0x3d9b1d5c	0.07573959
128	0x3e140319	0.14454307
129	0xbdd2ab5f	-0.10286593
130	0xbd705195	-0.058671553
131	0xbedd7184	-0.43250668
132	0xbd789656	-0.060690247
133	0xbd20ee5a	-0.03928981
134	0xbe304d1c	-0.17216915
135	0xbc5b23ad	-0.013375205
136	0xbe48b371	-0.19599701
137	0x3e1ea3ad	0.15492125
138	0x3e06af79	0.13152875
139	0xbc32341f	-0.010876684
140	0x3c60f863	0.013731095
141	0xbd4690bc	-0.048477873
142	0xbe11d459	-0.1424116
143	0xbe02a4c8	-0.12758172
144	0x3d36fd83	0.04467536
145	0xbdd8b67d	-0.10581682
146	0xbdaf25d8	-0.0855214
147	0x3c7ef1be	0.0155605655
148	0x3bbf8784	0.005845012
149	0xbcf0c9c7	-0.02939309
150	0xbc2a1245	-0.010380332
151	0x3d242c4d	0.04008131
152	0xbcc0e4c4	-0.023546584
153	0xbd8157e7	-0.06315594
154	0xbe0138bd	-0.126193
155	0x3dfe24b5	0.12409345
156	0xbe36d3db	-0.17854254
157	0x3d5993d2	0.053119488
158	0xbdf938ba	-0.12169023
159	0x3d469b85	0.04848816
160	0x3e316aa6	0.1732584
161	0x3db8e0ed	0.09027276
162	0xbe2cf9fa	-0.16892233
163	0x3d3e59d3	0.04647238
164	0x3e12680b	0.14297502
165	0x3d65b1b3	0.05607767
166	0x3d8cdec9	0.068784304
167	0x3e3382ad	0.17530318
168	0xbdb1e6ee	-0.086866245
169	0x3d0d2649	0.03446034
170	0xbddf21cb	-0.10895117
171	0xbcd8acd0	-0.02644959
172	0x3dffff37	0.1249985
173	0x3e34d927	0.17660962
174	0xbd859940	-0.06523371
175	0xbd906503	-0.070505165
176	0xbe2c06d7	-0.16799484
177	0xbe078b60	-0.13236761
178	0xbe533e9c	-0.20629352
179	0xbe08da79	-0.1336459
180	0x3df62cee	0.120202884
181	0x3d0dd991	0.034631316
182	0xbda10c0f	-0.07863628
183	0xbe16baff	-0.14719771
184	0x3defbdaa	0.117060974
185	0xbde34bb1	-0.11098421
186	0xbd24758f	-0.040151175
187	0x3df32268	0.11871797
188	0xbe3b334e	-0.1828129
189	0x3cf2e13f	0.029648421
190	0xbda17819	-0.07884235
191	0x3cfa2947	0.03053726
192	0x3c5b8ace	0.013399793
193	0xbd2f2bc5	-0.04276635
194	0xbd4e7e81	-0.050413612
195	0xbdce2006	-0.10064702
196	0x3e963093	0.29333934
197	0xbd998554	-0.074961334
198	0x3ce70c91	0.028204234
199	0xbd8e98e7	-0.069627576
200	0x3dace68e	0.08442412
201	0x3dad29b0	0.08455217
202	0xbd37a88f	-0.044838484
203	0x3cefbfc3	0.029266244
204	0xbe7ead88	-0.24870884
205	0x3c9d88ae	0.019230213
206	0x3df41a90	0.11919129
207	0xbcaf391a	-0.021389533
208	0xbe466867	-0.19375764
209	0xbc5514b2	-0.013005422
210	0xbc9b78b8	-0.018978462
211	0xbde72cc7	-0.112878375
212	0xbdaf4700	-0.08558464
213	0x37ed7461	2.8306795e-05
214	0x3d069944	0.03286101
215	0xbc9d8f3f	-0.019233344
216	0x3ca4df4c	0.020126007
217	0xbde38997	-0.111102276
218	0xbe13682a	-0.14395204
219	0x3c8efdee	0.017455067
220	0x3e1b8487	0.15187274
221	0x3e4fa792	0.20278767
222	0xbdb0df8a	-0.08636387
223	0xbc006541	-0.007836641
224	0xbe093918	-0.13400686
225	0xbe11e2b9	-0.14246644
226	0x3cab37e4	0.020900674
227	0x3dd3422f	0.10315358
228	0x3e08b2c7	0.13349448
229	0xbe2bcad9	-0.16776599
230	0x3e38d4b6	0.18049893
231	0xbdf84fe1	-0.12124611
232	0x3dd84418	0.10559863
233	0x3ddcc9b5	0.1078066
234	0xbd7e7985	-0.06212761
235	0x3dea683b	0.11445662
236	0xbe111f3a	-0.14172068
237	0xbd03ce41	-0.03217912
238	0xbc44e069	-0.012016394
239	0xbcdb16c2	-0.02674425
240	0xbdecbc2a	-0.11559327
241	0x3c0af2d5	0.008480747
242	0x3d8cad3d	0.0686898
243	0x3d858e80	0.0652132
244	0x3e0e0ded	0.138725
245	0xbd3b5231	-0.04573268
246	0xbdd68302	-0.104742065
247	0x3d07638e	0.033053927
248	0x3d8285c9	0.06373174
249	0xbd5505e3	-0.052007567
250	0xbc422410	-0.011849418
251	0x3e3b2831	0.1827705
252	0x3d1047e5	0.035224814
253	0x3e005fb6	0.12536511
254	0xbd481be9	-0.048854742
255	0xbde59c91	-0.11211503

u_model.model.0.bias f4 [42]
0	0xbde3196b	-0.110888325
1	0x3d39225c	0.045198783
2	0x3d4d34e4	0.05009927
3	0xbc3435a2	-0.010999115
4	0x3e09fb19	0.13474692
5	0xbda0027c	-0.07812974
6	0xbd610c7f	-0.054943558
7	0xbddb2f3b	-0.10702368
8	0xbcbca9c1	-0.023030164
9	0xbd156a63	-0.03647841
10	0x3d9c9245	0.07645086
11	0xbbf75fc9	-0.0075492603
12	0xbb67a1d2	-0.0035344255
13	0xbd4c707f	-0.049911972
14	0x3db5ee9f	0.08883404
15	0x3dfd6b83	0.12374022
16	0xbdafe1aa	-0.08587964
17	0xbd40cbbe	-0.047069304
18	0xbdedf464	-0.116188794
19	0x3da54f9c	0.08071825
20	0xbdf9c5ec	-0.12195954
21	0xbd9d09fb	-0.07667919
22	0x3e0c15ab	0.1368014
23	0xbe040b35	-0.128949
24	0x3de18976	0.11012547
25	0x3c2a74d2	0.010403829
26	0x3e079a98	0.13242567
27	0xbd747d94	-0.059690073
28	0x3dbe5edb	0.09295436
29	0x3ca0432a	0.019563276
30	0x3c525536	0.012837699
31	0x3db552f4	0.08853713
32	0xbe07a1c8	-0.13245308
33	0xbdffd7d5	-0.124923386
34	0x3d6ab023	0.057296883
35	0xbda0290d	-0.0782033
36	0xbe051752	-0.12997177
37	0xbcee3512	-0.02907804
38	0xbd14a661	-0.036291484
39	0xbbdb98ce	-0.0067015653
40	0xbdc6009f	-0.09668087
41	0x3d64fd23	0.055905472

u_model.model.2.weight f4 [42, 42]
0	0xbdd7f764	-0.10545233
1	0xbdae52f5	-0.085119165
2	0x3d8f8e47	0.07009559
3	0xbdc25c81	-0.094903
4	0x3dc3ed7a	0.095667794
5	0xb9927d3e	-0.00027940603
6	0xbdeb144e	-0.11478482
7	0xbdc8c15a	-0.09802504
8	0xbd684514	-0.056706503
9	0xbd22278a	-0.03958849
10	0x3da6de3a	0.08147855
11	0x3dc9cc37	0.09853404
12	0x3de69fd8	0.112609565
13	0xbd491050	-0.049087822
14	0x3e33202c	0.17492741
15	0xbdcae038	-0.099060476
16	0xbe033c37	-0.12815939
17	0xbe2df142	-0.16986564
18	0x3cd06e5c	0.025443248
19	0x3d3d3cb5	0.046200473
20	0xbe1b6f7c	-0.15179247
21	0xbcd12e5b	-0.0255348
22	0xbbd31906	-0.006442192
23	0x3d8f4b44	0.06996778
24	0x3d0e6327	0.034762528
25	0x3dcf539f	0.10123371
26	0x3c67ed6f	0.01415573
27	0x3da40fdc	0.080108374
28	0x3d096408	0.033542663
29	0xbdf6d17b	-0.12051674
30	0xbe46053d	-0.19337936
31	0xbd69b0ad	-0.057053257
32	0x3e24d640	0.16097355
33	0x3db53970	0.08848846
34	0x3e31a3e4	0.17347676
35	0x3e9b4748	0.3032782
36	0x3dd75ade	0.105153784
37	0x3c8a0a4d	0.016850615
38	0xbddb9255	-0.1072127
39	0xbd5e962f	-0.054342445
40	0xbd20918d	-0.039201308
41	0x3e2e6d4a	0.17033878
42	0xbd989c46	-0.07451682
43	0xbcef34bf	-0.029199956
44	0xbd224bad	-0.03962295
45	0xbdd735fe	-0.10508345
46	0x3c3ec058	0.011642538
47	0xbcd0d401	-0.025491716
48	0x3c0c88b1	0.008577512
49	0xbdc601c2	-0.09668304
50	0x3c4e7b39	0.012602621
51	0x3ba80ed1	0.0051287194
52	0xbb896689	-0.0041931313
53	0xbe359184	-0.17731291
54	0x3cf45848	0.029827252
55	0xbdc75690	-0.09733307
56	0xbdc260d2	-0.09491123
57	0xbdb57427	-0.08860045
58	0xbb8f6e6a	-0.004377176
59	0xbe2f36f5	-0.17110808
60	0x3dfd098f	0.12355339
61	0xbdeb0d22	-0.11477114
62	0xbd8dec99	-0.06929893
63	0x3d7dd0a3	0.06196655
64	0x3c77a346	0.015114611
65	0xbcb5d514	-0.02219633
66	0x3d809140	0.06277704
67	0xbde57097	-0.112031154
68	0x3d34159a	0.043965913
69	0xbdc7be62	-0.097531095
70	0xbe18da0c	-0.14926928
71	0xbda74b37	-0.08168643
72	0x3c9d4c9a	0.019201566
73	0x3cb1644b	0.021654269
74	0x3df17111	0.11789144
75	0x3dde9bc3	0.10869553
76	0xbe192ed2	-0.14959267
77	0xbe1489c0	-0.14505672
78	0xbd0e1f6c	-0.034697935
79	0xbdd4ae50	-0.1038481
80	0xbd93c055	-0.07214419
81	0xbd99a544	-0.07502225
82	0x3e32e2a2	0.17469266
83	0x3d71278a	0.058875598
84	0x3b16cf40	0.0023011714
85	0xbde38b7c	-0.11110589
86	0xbd9d7580	-0.07688427
87	0x3cbe3855	0.02322022
88	0x3e107ff5	0.14111312
89	0xbcf95fcc	-0.030441187
90	0x3d47a936	0.048745357
91	0x3ddf2902	0.108964935
92	0x3c851814	0.016246833
93	0xbc5e9f88	-0.01358784
94	0xbb6a78fc	-0.0035777679
95	0x3e5df1ea	0.21674314
96	0x3d810b6b	0.06301006
97	0xbdec291a	-0.11531277
98	0xbdfb2d04	-0.122644454
99	0xbca87c62	-0.020567123
100	0x3e010402	0.12599185
101	0x3e2ba3be	0.16761681
102	0xbd63796f	-0.05553573
103	0xbe11e63c	-0.14247984
104	0x3d600e21	0.054700974
105	0xbd8a57e6	-0.067550465
106	0x3d69bdb1	0.05706567
107	0x3ce8c02e	0.02841195
108	0x3e3d7082	0.1849995
109	0x3d9bdac9	0.07610089
110	0x3dcc2c16	0.09969346
111	0x3c2339f5	0.0099625485
112	0x3da2db1b	0.07951947
113	0x3d39ee17	0.045393076
114	0xbd6bc16f	-0.05755752
115	0x3c6d39a4	0.014479075
116	0xbe0f8ca0	-0.14018488
117	0x3dd30d05	0.10305218
118	0x3d8833c0	0.066504955
119	0x3e40a044	0.18811136
120	0x3d5ff9f6	0.05468174
121	0xbe0b4d73	-0.13603763
122	0x3da75031	0.08169592
123	0x3e20d907	0.1570779
124	0xbe81874e	-0.25298542
125	0x3e12c7dc	0.14334053
126	0xbd6e28be	-0.058144324
127	0xbdb4ab18	-0.08821696
128	0xbd367aa9	-0.04455057
129	0xbd18ba76	-0.037287198
130	0x3d712f32	0.0588829
131	0xbe0a35c0	-0.13497066
132	0x3c3fdff3	0.0117111085
133	0xbe48dc45	-0.19615276
134	0x3daaf36d	0.08347211
135	0x3dbb9165	0.09158591
136	0x3e16338c	0.14668101
137	0x3dfedbc5	0.124442615
138	0x3d87d97a	0.06633277
139	0xbdc55c7a	-0.09636779
140	0x3e1dfc87	0.15428363
141	0xbd5e9c3c	-0.054348215
142	0xbdda9cbd	-0.10674427
143	0xbe494d0a	-0.19658294
144	0x3eaab90b	0.33344302
145	0x3cd59d5f	0.026076017
146	0xbd9d98c5	-0.07695154
147	0xbdd89f87	-0.105773024
148	0xbd56b65c	-0.052420005
149	0x3bf83c8e	0.007575578
150	0x3d0e9baf	0.03481644
151	0x3e1857ce	0.14877245
152	0xbe0d0431	-0.1377113
153	0x3dc362d9	0.09540338
154	0x3e07fa6a	0.13279119
155	0xbd07b57f	-0.033132073
156	0xbd37e997	-0.044900503
157	0xbd149ebf	-0.036284205
158	0x3eb456b6	0.35222405
159	0x3dc3c5d8	0.0955922
160	0x3ea2f436	0.31826943
161	0x3ea98769	0.33111122
162	0x3cc8ff33	0.024535751
163	0x3e1ffef7	0.15624605
164	0x3e12a43c	0.14320463
165	0x3bd252e6	0.0064185737
166	0x3e075e36	0.13219532
167	0x3e99ce2e	0.30040115
168	0x3dadf7ef	0.08494555
169	0xbc00e085	-0.00786603
170	0x3de1a269	0.110173054
171	0xbd4565f7	-0.048192944
172	0xbd2f306b	-0.042770784
173	0x3e124f7f	0.14288138
174	0x3e05af2e	0.13055107
175	0xbc0e7659	-0.0086952085
176	0xbd977833	-0.07395973
177	0x3dd3d2c8	0.10342938
178	0xbde13c31	-0.10997809
179	0xbd0f5217	-0.034990396
180	0x3c6db76f	0.014509066
181	0xbe17cace	-0.14823458
182	0xbd31d8b7	-0.043419566
183	0xbc181f5f	-0.009284823
184	0x3db9448c	0.090462774
185	0xbe262240	-0.16224003
186	0x3d24a8fd	0.040200222
187	0x3de1905d	0.11013863
188	0x3d6d7283	0.057970535
189	0x3e6f986d	0.2339799
190	0x3c1fd7f8	0.009756081
191	0xbe18e514	-0.14931136
192	0x3d573780	0.052543163
193	0xbd4354a0	-0.047688127
194	0x3cb8c67a	0.022555579
195	0xbe876f72	-0.26452214
196	0xbdb0d2ff	-0.08633994
197	0xbdc04bff	-0.09389495
198	0x3e042cbc	0.1290769
199	0x3dff2750	0.1245867
200	0x3d3a4e78	0.04548499
201	0x3df5ce9d	0.12002299
202	0xbe772ac0	-0.24137402
203	0xbee05af0	-0.4381938
204	0xbd791817	-0.06081399
205	0xbdd3cba2	-0.10341574
206	0x3d74e2b5	0.059786517
207	0x3d01b31f	0.031664964
208	0x3e655574	0.22395879
209	0xbdb9ec73	-0.09078302
210	0xbdb498d0	-0.08818209
211	0xbd3aee03	-0.045637142
212	0x3df30f9a	0.1186821
213	0x3e149ff7	0.14514147
214	0xbe083cb6	-0.1330441
215	0xbbdda3ca	-0.00676391
216	0xbdd12f36	-0.10214083
217	0xbd2633e3	-0.040576827
218	0x3df322aa	0.11871846
219	0xbdd36e36	-0.103237554
220	0x3cc6a654	0.024249233
221	0xbd3fa58d	-0.04678874
222	0xbdf59917	-0.1199209
223	0x3d5a5fbf	0.053313967
224	0xbd5aebbe	-0.053447478
225	0x3c8d5fbe	0.017257567
226	0xbd0d5937	-0.03450891
227	0xbe3ed9b7	-0.18637739
228	0xbd014f00	-0.03156948
229	0x3c2ad37e	0.0104264
230	0xbd84f19e	-0.06491397
231	0x3e2a8455	0.16652043
232	0xbe22217b	-0.15833084
233	0xbe01764b	-0.12642781
234	0xbe295fee	-0.165405
235	0xbdcf6363	-0.101263784
236	0xbd6bf446	-0.057606004
237	0xbe282401	-0.16419984
238	0x3cc2bbc2	0.02377117
239	0xbe20ccf0	-0.15703177
240	0x3ac37ee1	0.0014915132
241	0xbb1a254e	-0.002352077
242	0xbd30f349	-0.043200765
243	0x3e1e26ed	0.15444537
244	0xbd3e8b5d	-0.046519626
245	0xbe5a4863	-0.21316676
246	0xbde3ebce	-0.111289605
247	0xbd355a51	-0.044275586
248	0xbe120099	-0.1425804
249	0x3d41a415	0.04727562
250	0x3e10d909	0.14145292
251	0x3d30d1c6	0.043168806
252	0xbd797ebf	-0.06091189
253	0x3cc7bbb4	0.024381496
254	0xbdbd0ce9	-0.09230978
255	0x3e66da7a	0.2254428

u_model.model.2.bias f4 [42]
0	0x3d50fc10	0.051021636
1	0xbdba82b7	-0.09106963
2	0x3dee4367	0.1163395
3	0x3d9415cd	0.07230721
4	0xbc1b9ce4	-0.009497855
5	0x3dfd073b	0.12354895
6	0x3c8af3bd	0.016961927
7	0x3db647dd	0.089004256
8	0xbdf0c28c	-0.11755857
9	0x3dfe3900	0.12413216
10	0x3e03cee8	0.12871897
11	0xbde545b6	-0.11194937
12	0xbdc74b37	-0.09731143
13	0xbd0e66a9	-0.034765873
14	0xbda6366d	-0.0811585
15	0x3d3cdac1	0.046107057
16	0x3d8ebdce	0.06969796
17	0xbd6fa92c	-0.058510944
18	0x3de92b35	0.11385194
19	0x3b355db9	0.0027674271
20	0xbd2694ed	-0.04066937
21	0xbe071885	-0.13192947
22	0x3d812eba	0.063077405
23	0xbdf24ff7	-0.11831658
24	0x3b2959a4	0.0025840783
25	0x3cdd9cbb	0.027052274
26	0xbd650480	-0.055912495
27	0x3d34dfd3	0.044158768
28	0x3d9950c6	0.074861094
29	0x3da297fb	0.07939144
30	0x3de2142d	0.110390045
31	0xbe077520	-0.13228273
32	0xbe014aed	-0.12626238
33	0xbd3c11e6	-0.045915507
34	0xbdcfc788	-0.101454794
35	0x3d15105f	0.036392566
36	0xbdb48d2a	-0.088159874
37	0xbdfb7a4e	-0.12279187
38	0x3d34ec42	0.044170626
39	0x3dcec644	0.1009641
40	0xbd53ba9d	-0.05169164
41	0xbe1b17b0	-0.15145755

u_model.model.4.weight f4 [42, 42]
0	0x3ce4ecdb	0.027944973
1	0x3ccd914d	0.025093699
2	0x3e140a07	0.1445695
3	0x3c543c2f	0.012953802
4	0x3d56a0e1	0.05239952
5	0xbe40a8c8	-0.18814385
6	0x3dced153	0.10098519
7	0xbeb5ada2	-0.35484034
8	0xbdaaeaab	-0.083455406
9	0x3e16f8e7	0.14743386
10	0xbdfa791e	-0.122301325
11	0x3e074de1	0.13213302
12	0xbdfc7002	-0.12326051
13	0x3e1d9aff	0.15391158
14	0x3e493c4b	0.19651906
15	0x3dcf2b06	0.10115628
16	0x3e02dbeb	0.12779205
17	0xbe13a73a	-0.1441926
18	0xbdc81f26	-0.09771566
19	0x3d821ae4	0.06352785
20	0x3e4136da	0.1886858
21	0xbdf0dc6b	-0.117607914
22	0x3cacfba6	0.02111609
23	0xbe15dea7	-0.14635716
24	0xbe432afb	-0.19059364
25	0x3b4599eb	0.0030151557
26	0xbdc7061b	-0.097179614
27	0xbdcf87e8	-0.10133344
28	0xbc250a47	-0.010073251
29	0xbbdab01a	-0.006673825
30	0xbc7a03df	-0.015259712
31	0x3c157875	0.0091229575
32	0xbe0a4acd	-0.13505097
33	0xbe21318f	-0.15741561
34	0x3d98a8b3	0.07454052
35	0xbe4a1d49	-0.19737734
36	0x3d8ae572	0.067820445
37	0x3db143ad	0.08655486
38	0x3e0ec972	0.13944033
39	0xbe1c14e7	-0.15242349
40	0xbdd36488	-0.10321909
41	0xbe399a42	-0.18125251
42	0x3d2374c2	0.03990627
43	0xbdf3de09	-0.11907584
44	0xbe21520a	-0.15753952
45	0xbe7143c3	-0.23561005
46	0x3e684faa	0.2268664
47	0x3e5aaf41	0.21355917
48	0x3ef6e46d	0.4822115
49	0x3ebf9f49	0.37426212
50	0xbd58a821	-0.052894715
51	0xbdaf7452	-0.08567108
52	0x3cbbb233	0.02291212
53	0x3c7e8a5f	0.01553592
54	0x3e14315c	0.14471954
55	0xbdad0aac	-0.08449301
56	0xbe599bf0	-0.21250892
57	0x3d2faea4	0.04289116
58	0x3d963c61	0.07335735
59	0x3dc8d35b	0.09805938
60	0xbd0befd5	-0.03416427
61	0x3da85dbd	0.08221004
62	0xbe8b48e9	-0.27204064
63	0x3dc85f53	0.09783807
64	0xbd23a953	-0.039956402
65	0x3e2bd04c	0.16778678
66	0x3e676437	0.22596823
67	0x3dc08940	0.09401178
68	0x3e0d1cb5	0.13780482
69	0x3dc1dafc	0.09465596
70	0x3ea88447	0.3291342
71	0x3c4e1d39	0.012580209
72	0x3e7522d1	0.23939063
73	0xbe668a1c	-0.22513622
74	0xbde6af83	-0.11263945
75	0x3da73ef5	0.08166305
76	0x3dd58eea	0.10427649
77	0xbdaa4783	-0.08314421
78	0xbe85d60e	-0.26139873
79	0x3e172b52	0.14762619
80	0x3e8fb3f7	0.2806699
81	0x3db10a0c	0.086444944
82	0x3e3523d8	0.17689455
83	0x3d995e31	0.07488669
84	0xbea495ac	-0.3214544
85	0x3d71316e	0.05888503
86	0xbe3c7327	-0.18403302
87	0xbec3aa01	-0.3821564
88	0x3eaf2fd0	0.34216166
89	0x3eaad5be	0.33366197
90	0xbe0dd039	-0.13848962
91	0x3d7c8f93	0.06166036
92	0x3d374d36	0.04475137
93	0x3bbaec65	0.00570445
94	0x3dc8f22a	0.09811814
95	0xbdbd8489	-0.09253795
96	0x3ec71ef6	0.3889081
97	0xbe13adaa	-0.14421716
98	0xbe297950	-0.16550183
99	0x3dbf7d63	0.093500875
100	0x3ec9dc01	0.39425662
101	0x3f02dca2	0.5111791
102	0xbe0250e9	-0.12726177
103	0x3eaad7d6	0.33367795
104	0xbd161c08	-0.036647826
105	0xbe9db637	-0.3080308
106	0xbd8b79a3	-0.0681031
107	0x3e3cc300	0.18433762
108	0xbdb967df	-0.09053015
109	0xbe83c7f3	-0.25738487
110	0x3cab2e14	0.020895995
111	0x3ea2746c	0.31729448
112	0x3e89ada9	0.26890305
113	0xbe67e207	-0.22644816
114	0x3e5d85e2	0.21633103
115	0xbd9b51f9	-0.075839944
116	0x3e75d393	0.2400649
117	0xbd56876f	-0.052375253
118	0x3eb51724	0.35369217
119	0xbeab5b06	-0.33467883
120	0xbe1d95fc	-0.15389246
121	0x3e5a0655	0.21291478
122	0x3ef2b2df	0.47402093
123	0x3c69efc6	0.014278358
124	0xbe43487e	-0.19070622
125	0x3d8329cd	0.06404457
126	0xbc619e5b	-0.013770665
127	0xbdab570a	-0.08366211
128	0xbcf1eed9	-0.029532837
129	0xbebc760a	-0.36808807
130	0x3e7a7a63	0.2446075
131	0x3e846077	0.25854847
132	0x3d8a2610	0.06745541
133	0xbdc02eb0	-0.09383905
134	0x3d5d15f7	0.053976025
135	0x3cfbb79b	0.030727198
136	0xbd59c549	-0.05316666
137	0xbdec1e06	-0.11529164
138	0x3e62f2c4	0.2216292
139	0xbe751f5a	-0.23937741
140	0xbdfaa191	-0.122378476
141	0xbcc3fde9	-0.023924785
142	0x3e3a6220	0.18201494
143	0x3e57f931	0.21091153
144	0xbded61e4	-0.11590937
145	0x3e442b73	0.191572
146	0x3b803d54	0.003913561
147	0xbe9e0f73	-0.30871162
148	0x3e2a330e	0.16621038
149	0x3ddaf29c	0.10690805
150	0x3d8db472	0.06919183
151	0xbe3b020a	-0.18262497
152	0x3e12bb4c	0.1432926
153	0x3d908146	0.07055907
154	0x3eafa015	0.3430182
155	0xbeac5e8b	-0.3366588
156	0xbd618c4d	-0.055065442
157	0xbe145a32	-0.14487532
158	0x3e35d12e	0.17755577
159	0x3c06cbee	0.008227332
160	0x3e3199e5	0.17343862
161	0xbdc380fe	-0.09546088
162	0x3d0c1e5c	0.03420864
163	0xbdef32c1	-0.116796024
164	0x3e2e39f5	0.17014296
165	0x3daa2d56	0.083094284
166	0xbe25c010	-0.16186547
167	0xbe139ae7	-0.1441456
168	0xbca545c7	-0.020174874
169	0x3e3f3b89	0.18675055
170	0xbdd6d8a7	-0.10490542
171	0x3da43e10	0.0801965
172	0x3df779bc	0.12083766
173	0x3e17d2e8	0.14826548
174	0x3d9b38f1	0.0757922
175	0x3e0df422	0.1386266
176	0x3d863f9e	0.06555103
177	0xbdd4ec3d	-0.103966214
178	0xbbb0003f	-0.005371123
179	0x3de72504	0.11286357
180	0x3e23ba18	0.15988958
181	0xbe185a94	-0.14878303
182	0x3d8232c7	0.06357341
183	0xba32cf0f	-0.0006821015
184	0x3d3a8a3d	0.04554199
185	0x3e399b28	0.18125594
186	0x3d0a9482	0.033833034
187	0xbd72441f	-0.059146997
188	0x3c23ef1e	0.01000574
189	0xbcfc82ac	-0.030824028
190	0x3d2eaed8	0.042647213
191	0x3c2f71c8	0.01070828
192	0x3e7bf0a5	0.24603517
193	0x3d870e15	0.06594483
194	0xbd32202e	-0.04348772
195	0xbcd2f2b1	-0.02575049
196	0x3d7891d7	0.06068596
197	0xbd4899ae	-0.048974685
198	0x3dded04d	0.10879574
199	0xbe2b6a1b	-0.16739695
200	0x3d07e611	0.033178393
201	0xbaab9d96	-0.0013093229
202	0x3be12419	0.0068707583
203	0x3e283e1c	0.16429943
204	0x3c800c8b	0.015630981
205	0x3dea6bb1	0.11446322
206	0xbdceaebd	-0.100919224
207	0x3d973af3	0.073842905
208	0x3d9996dd	0.07499478
209	0x3e08e56a	0.13368765
210	0xbd80d9e5	-0.0629156
211	0xbddebfa1	-0.10876394
212	0xbe215a69	-0.15757145
213	0x3d125be3	0.03573216
214	0x3d163d67	0.03667965
215	0x3bf4298b	0.0074512414
216	0xbc881a82	-0.016614202
217	0xbe60a5c2	-0.21938232
218	0x3e14aafd	0.14518352
219	0x3dda1f9b	0.106505595
220	0xbd3258d8	-0.04354176
221	0x3c90157a	0.017588366
222	0x3d82ee46	0.06393103
223	0xbd4d7b08	-0.05016616
224	0x3dd860d5	0.10565344
225	0xbdb59ac8	-0.08867413
226	0xbbbe196f	-0.0058013718
227	0xbd94c456	-0.072640106
228	0xbe32ed0d	-0.1747324
229	0x3e4eace7	0.20183145
230	0x3e63ece0	0.2225833
231	0xbe4cd15e	-0.20001742
232	0xbd7135fb	-0.05888937
233	0xbcdad1e7	-0.026711417
234	0x3d0d4f54	0.03449948
235	0xbd8ab910	-0.06773579
236	0xbdac17f3	-0.084030055
237	0xbd6df81c	-0.058097944
238	0x3e3e2cbc	0.18571752
239	0xbd21d761	-0.039512042
240	0xbe017101	-0.12640764
241	0xbc1554dc	-0.00911447
242	0xbe452bf3	-0.19255047
243	0xbc841083	-0.016121155
244	0x3d9f4f97	0.077788524
245	0x3d2adc27	0.04171386
246	0x3e0fa019	0.14025916
247	0xbe834d65	-0.25644985
248	0x3d95623d	0.07294128
249	0x3d844a2b	0.06459459
250	0xbe3c1be5	-0.18370016
251	0xbe08c488	-0.1335622
252	0x3e1ef78f	0.15524124
253	0x3d9a19ba	0.07524438
254	0x3db4bc1b	0.08824941
255	0xbd0f7321	-0.035021905

u_model.model.4.bias f4 [42]
0	0x3ce94bdf	0.028478561
1	0xb908df71	-0.00013053209
2	0xbda0e879	-0.07856841
3	0xbc422c62	-0.011851402
4	0xbda17a15	-0.078846134
5	0xbd836ef6	-0.064176485
6	0x3d1203dd	0.035648216
7	0x3dd2fd94	0.103022724
8	0x3da51ea5	0.080624856
9	0x3d389793	0.045066427
10	0xbde64ea4	-0.11245468
11	0x3e0dcbf4	0.13847333
12	0x3e22b1eb	0.15888183
13	0xbd752479	-0.059849236
14	0x3d09e178	0.03366229
15	0x3dde8e34	0.10866967
16	0xbd8ba90a	-0.06819351
17	0x3d80b407	0.062843375
18	0x3d38b602	0.04509545
19	0x3dc8e5dc	0.09809467
20	0x3d4261c9	0.047456536
21	0x3e2b38f8	0.1672095
22	0x3df37310	0.11887181
23	0xbdf4d0cb	-0.119538866
24	0x3db1da08	0.08684164
25	0xbd0ab714	-0.033866003
26	0xbdc49e91	-0.09600557
27	0x3cef0136	0.029175382
28	0xbcdcbbdf	-0.026945053
29	0xbdae949a	-0.08524437
30	0xbe0c19a5	-0.13681658
31	0xbd45aa1d	-0.048257936
32	0x3c083100	0.008312464
33	0x3da19879	0.0789041
34	0x3daf0895	0.08546559
35	0x3d7ec5a1	0.062200192
36	0x3e1bd9a8	0.15219748
37	0xbde794ee	-0.11307703
38	0xbdb8bb18	-0.0902006
39	0x3d6772c2	0.056505926
40	0xbe2bc26f	-0.1677339
41	0x3e044696	0.12917551

u_model.model.6.weight f4 [42, 42]
0	0xbda39852	-0.07988037
1	0xbc5c3acd	-0.013441754
2	0x3dd9856d	0.10621152
3	0x3b76a2d1	0.0037633667
4	0x3e3fc314	0.1872676
5	0x3e8fc841	0.2808247
6	0x3bae66fe	0.005322336
7	0x3dc75c99	0.097344585
8	0x3d2eee41	0.042707685
9	0xbc29bad2	-0.010359483
10	0x3dbcfde5	0.09228114
11	0xbe3c3c3a	-0.1838235
12	0xbe04cac5	-0.12967975
13	0x3e4d684a	0.20059314
14	0xbe7bf95d	-0.24606843
15	0x3d0763a4	0.03305401
16	0x3e8fb989	0.2807124
17	0xbe10921b	-0.14118235
18	0xbe0ff69e	-0.1405892
19	0xbd496004	-0.049163833
20	0x3e294e5b	0.16533796
21	0xbe0aac88	-0.13542378
22	0x3e190cf0	0.14946342
23	0xbd2b6f35	-0.041854102
24	0x3dc8d4ea	0.09806235
25	0x3e302217	0.17200504
26	0xbd76aa1a	-0.060220815
27	0xbd912749	-0.07087571
28	0xbd945c5f	-0.07244181
29	0x3d23293a	0.03983424
30	0x3de38130	0.11108625
31	0xbcf2205e	-0.02955645
32	0x3e2667de	0.1625056
33	0xbd7d272c	-0.061804935
34	0xbdce7d42	-0.10082485
35	0x3d37a399	0.044833753
36	0x3cb5f309	0.022210615
37	0x3e0c0bf7	0.13676439
38	0x3df34182	0.11877729
39	0xbe35e65f	-0.17763661
40	0x3dd9819f	0.106204264
41	0x3e297f7d	0.16552539
42	0xbd59ff78	-0.05322215
43	0xbdc05742	-0.09391643
44	0x3d3827a7	0.04495969
45	0xbcef8f67	-0.029243184
46	0xbd861ffe	-0.06549071
47	0x3e2a8827	0.166535
48	0xbde8f212	-0.11374296
49	0x3e606b1e	0.21915862
50	0x3e1f11a9	0.1553408
51	0xbc9bee6d	-0.019034589
52	0xbd974146	-0.07385497
53	0x3d8c3683	0.06846335
54	0x3e390988	0.18070042
55	0xbd4833d0	-0.048877537
56	0xbe146427	-0.1449133
57	0xbde652d5	-0.11246268
58	0x3da6028c	0.081059545
59	0x3df2ab49	0.11849076
60	0x3ca3d66f	0.01999971
61	0xbd6113b5	-0.054950435
62	0x3da8116d	0.08206449
63	0x3e7ff3e4	0.2499538
64	0x3d820826	0.063492104
65	0xbde8e32c	-0.113714546
66	0xbda7b26b	-0.081883274
67	0x3d3eb4bf	0.04655909
68	0xbdb3a65b	-0.08771964
69	0x3d0cedd0	0.034406483
70	0xbd9331d8	-0.07187241
71	0xbc0715c5	-0.008244936
72	0xbe76c779	-0.2409953
73	0xbdb805f9	-0.08985514
74	0xbdb67e67	-0.08910828
75	0xbe2d7e90	-0.16942811
76	0x3d88a120	0.06671357
77	0x3e4e6df7	0.20159136
78	0x3e0e9b2f	0.13926385
79	0x3d54df98	0.051971048
80	0xbdeebfee	-0.116577014
81	0x3deedef3	0.11663618
82	0xbe8f380f	-0.27972457
83	0x3e3eed79	0.18645276
84	0x3df3d30b	0.119054876
85	0x3d885493	0.06656756
86	0xbb7ff347	-0.0039054917
87	0x3dd285a1	0.10279394
88	0x3cfb2b08	0.030660167
89	0x3e71aecd	0.23601837
90	0xbdccdc9c	-0.100030154
91	0xbc5e8b1a	-0.013582969
92	0xbe06a926	-0.13150463
93	0xbe1831b3	-0.14862709
94	0xbc49fec8	-0.012328811
95	0xbdc71783	-0.097212814
96	0xbd0b44ce	-0.034001164
97	0xbc27603c	-0.010215815
98	0x3db7f027	0.08981352
99	0xbc0a7eca	-0.00845308
100	0x3d899d04	0.067194015
101	0xbc81ca19	-0.015843438
102	0x3d6c2754	0.057654694
103	0x3d1072e9	0.035265837
104	0xbe12b12d	-0.143254
105	0x3e33098e	0.17484114
106	0xbc4b527b	-0.012409802
107	0xbe327fcd	-0.17431565
108	0x3d969927	0.0735343
109	0xbe258503	-0.16164021
110	0xbdc928d2	-0.09822239
111	0x3db3739a	0.087622836
112	0xbd0b7b3d	-0.034053076
113	0xbdb6a726	-0.089186
114	0xbe9339ac	-0.28754938
115	0xbcc5b077	-0.024131997
116	0xbe62b511	-0.22139384
117	0x3e2abf51	0.16674544
118	0x3dae96ba	0.085248426
119	0x3e407452	0.18794373
120	0x3dbaf402	0.09128572
121	0xbdae4460	-0.08509135
122	0xbdc1f73f	-0.094709866
123	0x3cb568e5	0.022144744
124	0xbdc91114	-0.098177105
125	0xbe198a4d	-0.14994164
126	0xbe643e23	-0.22289328
127	0x3e5e56e6	0.21712837
128	0xbda19dac	-0.07891402
129	0x3dcfed3b	0.1015267
130	0x3e1ab458	0.15107858
131	0x3da80a62	0.08205105
132	0xbdb5c99a	-0.08876343
133	0x3dfae87e	0.122513756
134	0x3d3e1326	0.04640498
135	0x3e132a21	0.1437154
136	0xbe88e7fb	-0.26739487
137	0xbca04722	-0.019565169
138	0xbe1a4c21	-0.15068103
139	0xbce0b041	-0.027427794
140	0xbee066b5	-0.4382836
141	0xbe44144e	-0.1914837
142	0x3e659980	0.22421837
143	0x3e1d4378	0.15357769
144	0xbe0b1707	-0.13583003
145	0x3d8d3560	0.06894946
146	0x3e4b8f11	0.19878794
147	0xbd4ecf3f	-0.050490614
148	0xbc808d82	-0.015692476
149	0x3dea144d	0.11429653
150	0x3e1f98fb	0.15585701
151	0x3e9f5241	0.31117442
152	0x3dca176a	0.09867747
153	0x3e421c91	0.1895621
154	0xbcaf199a	-0.021374512
155	0x3ae7ac59	0.0017675265
156	0xbc2dd31f	-0.010609417
157	0xbc84fe31	-0.01623449
158	0x3e13fe23	0.14452414
159	0xbe0dd333	-0.13850097
160	0xbcaf7345	-0.02141727
161	0xbdd74669	-0.105114765
162	0x3ceb0d04	0.02869273
163	0x3dfd66a6	0.12373094
164	0xbd5b53a8	-0.053546578
165	0xbdb13e4a	-0.08654459
166	0x3be2909d	0.006914212
167	0x3e4fae8c	0.20281428
168	0xbcb6e951	-0.02232805
169	0xbe3cc124	-0.18433052
170	0xbeef641c	-0.46756065
171	0xbf074f08	-0.5285497
172	0x3d2767a9	0.040870342
173	0xbe8155ca	-0.25260764
174	0x3e8a3360	0.2699232
175	0xbe9151e1	-0.2838278
176	0x3ec2ff35	0.38085333
177	0x3e51af9c	0.20477146
178	0x3e143964	0.14475018
179	0x3ce8aa6d	0.028401578
180	0x3de9345f	0.11386942
181	0x3ec5691b	0.38556752
182	0xbbc5188c	-0.006014889
183	0x3e4fc0b7	0.20288359
184	0x3d1e1f78	0.03860423
185	0x3e819c0f	0.25314376
186	0xbe53dff8	-0.20690906
187	0xbe56e49e	-0.20985648
188	0x3e7bb6be	0.2458143
189	0xbeb7cfde	-0.35900778
190	0x3dccc046	0.09997611
191	0x3ea36022	0.3190928
192	0x3ee1e473	0.44119605
193	0xbe5a0ef6	-0.2129477
194	0xbe8ee30a	-0.27907592
195	0xbda96014	-0.082702786
196	0xbee0e185	-0.43922058
197	0xbde8ff8d	-0.113768674
198	0x3e88379f	0.26604936
199	0xbe9dd8ca	-0.3082946
200	0x3e8afc0d	0.27145424
201	0xbedcd22c	-0.43129098
202	0x3e77b3b5	0.24189647
203	0xbeefc592	-0.46830422
204	0x3d9712c9	0.0737663
205	0x3c88d46b	0.016702851
206	0x3e424c6c	0.18974465
207	0x3dbbbfbe	0.09167431
208	0x3ed41941	0.41425517
209	0x3e4ec4b0	0.20192218
210	0x3de4cfe6	0.11172466
211	0xbe106c5d	-0.14103837
212	0xbe8a18cd	-0.26972046
213	0xbe56442c	-0.20924443
214	0xbbd54942	-0.006508977
215	0xbe0a3a78	-0.13498867
216	0x3db44686	0.08802514
217	0xbe1a4f20	-0.15069246
218	0x3e00a204	0.12561804
219	0xbd7e73f6	-0.062122308
220	0x3dfc4783	0.12318327
221	0xbe19ebe0	-0.15031385
222	0xbd533da2	-0.05157245
223	0x3dc80964	0.09767416
224	0xbe8bd6f4	-0.27312434
225	0x3d8c8255	0.06860796
226	0x3cfa01f2	0.030518506
227	0x3b02f13d	0.0019980215
228	0x3cdc5071	0.026893826
229	0xbdbf8887	-0.093522124
230	0x3e2c13ff	0.16804503
231	0xbe12e738	-0.14346015
232	0x3dfd6a3e	0.1237378
233	0x3e5b55d3	0.21419458
234	0x3e88242e	0.26590103
235	0xbd6ea22d	-0.05826013
236	0xbe8f7fd6	-0.2802722
237	0xbe1b0271	-0.1513765
238	0xbcaae964	-0.020863242
239	0xbc641ad4	-0.013922412
240	0x3e4bda15	0.1990741
241	0x388d9685	6.7514404e-05
242	0x3e5cc4ab	0.21559398
243	0xbe78120e	-0.24225637
244	0xbe04c0b4	-0.12964135
245	0xbe1bc0c3	-0.15210252
246	0x3e201075	0.15631278
247	0xbdf49e4c	-0.11944255
248	0x3df82491	0.121163495
249	0x3cdea999	0.02718048
250	0x3e51d157	0.20490013
251	0x3e828f3b	0.254999
252	0x3e66358b	0.22481363
253	0x3e012c8c	0.1261465
254	0x3cac7152	0.02105013
255	0xbd112d74	-0.035443738

u_model.model.6.bias f4 [42]
0	0x3d808710	0.06275761
1	0xbd923489	-0.071389265
2	0xbd9399c7	-0.07207065
3	0x3d641d92	0.055692263
4	0xbca3f629	-0.02001484
5	0x3e149aa4	0.14512116
6	0x3e164d2e	0.14677879
7	0xbdc3595d	-0.09538529
8	0x3e2157c1	0.15756132
9	0xbe143486	-0.14473161
10	0x3d9b5997	0.07585447
11	0xbd966f11	-0.07345403
12	0xbc97e3dc	-0.018541269
13	0x3e24b2a3	0.1608377
14	0x3b404602	0.0029338603
15	0xbdb30f57	-0.0874316
16	0x3dbbbbdd	0.091666915
17	0xbcc0eb12	-0.02354959
18	0x3dbe8edb	0.09304591
19	0xbe0d594d	-0.13803597
20	0xbd082979	-0.033242676
21	0xbe1cb5a9	-0.15303673
22	0xbda1e999	-0.07905883
23	0x3b747ce1	0.003730588
24	0xbdc9cb38	-0.09853214
25	0xbdd6dfc1	-0.104918964
26	0xbd35631a	-0.044283964
27	0xbd8f0c49	-0.06984765
28	0xbdad7a3c	-0.0847058
29	0x3c7a9e26	0.015296495
30	0xbddcbbdd	-0.107780196
31	0x3d79e357	0.061007824
32	0x3db88acd	0.09010849
33	0x3e16ff09	0.14745726
34	0x3cdc442b	0.026887974
35	0xbc22dee2	-0.009940835
36	0xbd7964a6	-0.060887
37	0xbd8b8e39	-0.06814236
38	0x3ddbc2df	0.10730528
39	0x3e01a90f	0.12662147
40	0x3dc3a84b	0.09553584
41	0xbd0a614d	-0.0337842

u_model.model.8.weight f4 [42, 42]
0	0xbdedc3a4	-0.11609581
1	0x3db23356	0.08701198
2	0x3e219dcc	0.15782851
3	0xbd043cb0	-0.03228444
4	0x3e11d800	0.14242554
5	0x3e10b063	0.14129786
6	0x3dd6cf75	0.10488788
7	0xbce51ea4	-0.027968712
8	0xbc9b912b	-0.01899012
9	0x3c91175a	0.01771133
10	0xb947c418	-0.0001905117
11	0xbd5c184d	-0.053734113
12	0xbdceea81	-0.10103322
13	0xbd73e608	-0.059545547
14	0x3bbdc407	0.0057911905
15	0x3e1319cd	0.14365311
16	0x3d72e75e	0.05930268
17	0xbe357bad	-0.1772296
18	0xbe1c0c2b	-0.15239017
19	0xbdb2316e	-0.08700834
20	0x3dd74753	0.10511651
21	0x3d78d302	0.060748108
22	0x3dcf51b3	0.10123005
23	0xbe258055	-0.16162236
24	0x3e4c9f07	0.19982539
25	0x3e1b8bee	0.15190098
26	0x3cd55792	0.026042733
27	0xbdba856d	-0.0910748
28	0x3bfce395	0.0077175596
29	0xbd88f0da	-0.06686564
30	0xbd92ae8a	-0.07162197
31	0x3d6eb69d	0.058279622
32	0xbdff9b8c	-0.1248084
33	0x3d7f134e	0.06227427
34	0xbce829e7	-0.028340293
35	0xbac0fb8f	-0.0014723408
36	0x3d55f439	0.052234862
37	0x3d0f3a57	0.034967747
38	0xbd81aa23	-0.06331279
39	0x3d846106	0.06463818
40	0xbe140a7a	-0.14457121
41	0x3dadfac9	0.08495099
42	0xbe3ec64e	-0.18630335
43	0x3e21ee4d	0.15813561
44	0x3d2117a1	0.039329175
45	0xbc2bea42	-0.010492863
46	0x3cec4e50	0.028845936
47	0x3cd30c5c	0.02576273
48	0xbcfc9ca7	-0.030836416
49	0xbe117d49	-0.14207949
50	0x3dd2f488	0.10300547
51	0x3dc0e11b	0.094179355
52	0x3d0c6801	0.034278873
53	0xbc194737	-0.009355358
54	0xbae180cf	-0.0017204526
55	0x3c120019	0.008911156
56	0x3e0e67d4	0.13906795
57	0xbd97e0a3	-0.07415893
58	0xbe097a91	-0.13425662
59	0xbdab6fa6	-0.083709046
60	0xbdc82ba3	-0.09773948
61	0xbdd2193f	-0.102587216
62	0xbdbec68f	-0.09315216
63	0xbc0dce8a	-0.0086552
64	0x3d4045d0	0.04694158
65	0x3d7fbd48	0.062436372
66	0x3e4bc23c	0.19898313
67	0x3e44167e	0.19149205
68	0x3dd62917	0.10457056
69	0x3cf78747	0.030215872
70	0xbd01adcd	-0.03165989
71	0xbe16ee97	-0.14739452
72	0x3cfe1e2b	0.031020245
73	0xbd319b75	-0.043361146
74	0xbd9f2929	-0.077715226
75	0x3e30086a	0.1719071
76	0x3d16f0f8	0.0368509
77	0x3e26f531	0.1630447
78	0x3e46b932	0.19406584
79	0xbd28c6da	-0.041205265
80	0x3d515e47	0.0511153
81	0xbd6c9265	-0.0577568
82	0x3d2175d8	0.039419025
83	0x3e276d3c	0.16350263
84	0x3cc918b9	0.024547921
85	0x3dceddf5	0.10100929
86	0x3bb6ca71	0.005578332
87	0xbc431e90	-0.011909142
88	0x3de15c07	0.11003881
89	0x3e12263d	0.14272399
90	0xbd864491	-0.06556047
91	0x3dabb215	0.08383576
92	0xbd03d585	-0.03218605
93	0x3b8e0d54	0.004335085
94	0xbe5cdc1e	-0.21568343
95	0xbd68107f	-0.056656357
96	0x3cbe0a36	0.023198228
97	0xbd9ed261	-0.0775497
98	0xbd38e840	-0.045143366
99	0x3cb49055	0.02204148
100	0xbdcd205a	-0.10015936
101	0x3e054dc9	0.13017954
102	0x3e1ece9e	0.15508506
103	0x3e21e04b	0.15808217
104	0x3e35d751	0.17757918
105	0xbc3ac62a	-0.011399785
106	0x3d586672	0.052832074
107	0xbd4a5496	-0.049397074
108	0xbdc5cc75	-0.09658138
109	0xbd9a55e5	-0.07535914
110	0x3d6ce6f7	0.057837453
111	0xbe31b5d9	-0.17354526
112	0xbd88d75b	-0.06681701
113	0x3db17d3b	0.08666464
114	0x3d5e4d32	0.054272838
115	0xbcf86109	-0.030319707
116	0xbc3817e2	-0.011236163
117	0xbd7310b0	-0.059342086
118	0x3e111afa	0.14170447
119	0x3d8820a3	0.0664685
120	0xbe01efa1	-0.12689067
121	0xbcce7030	-0.02519998
122	0xbe36fdb2	-0.17870215
123	0xbd9de79d	-0.07710192
124	0x3b673d31	0.0035284276
125	0xbdcd0f1c	-0.100126475
126	0xbd7ddd73	-0.06197877
127	0x3e1eef26	0.15520915
128	0x3d96aee2	0.07357575
129	0x3d226593	0.03964765
130	0xbd01412f	-0.031556305
131	0xba96d891	-0.0011508634
132	0x3e0c9091	0.13727023
133	0xbb85e351	-0.004085936
134	0x3caa2498	0.020769402
135	0x3d796925	0.06089129
136	0x3dd369df	0.10322928
137	0x3d9c1476	0.0762109
138	0xbda543fa	-0.08069606
139	0x3dc6e26c	0.09711155
140	0x3d671802	0.05641938
141	0x3d0425c3	0.032262575
142	0xbdf294e3	-0.11844804
143	0x3dfec090	0.12439072
144	0x3d837cb4	0.064202696
145	0x3c702862	0.0146580655
146	0x3d020c3a	0.03174994
147	0xbd55e45e	-0.05221974
148	0xbdf2e2bd	-0.11859653
149	0xbd487ffc	-0.04895018
150	0xbe051707	-0.12997065
151	0x3e0a11fd	0.13483424
152	0x3dabf470	0.08396232
153	0x3d46a306	0.048495315
154	0xbdfa7331	-0.12229002
155	0xbdb9c9ab	-0.09071668
156	0x3dbb85c2	0.09156372
157	0xbe0b894a	-0.1362659
158	0x3bc69a9f	0.0060609127
159	0x3e0d4f9d	0.13799901
160	0xbe173b69	-0.14768757
161	0x3e0b4221	0.13599445
162	0xbddedbce	-0.10881768
163	0xbcbedd2c	-0.023298822
164	0x3e0f4460	0.13990927
165	0x3dc99bd2	0.098441735
166	0x3e0606c9	0.13088526
167	0x3e14f13e	0.14545152
168	0x3c53d125	0.012928282
169	0x3dcd2158	0.100161254
170	0xbe105103	-0.14093404
171	0x3e6ab4b4	0.22920495
172	0x3d2cbaff	0.04217052
173	0x3e02988e	0.12753507
174	0x3b23532f	0.0024921407
175	0x3dff9210	0.12479031
176	0x3c5bd315	0.013417025
177	0xbde0e43c	-0.10981032
178	0xbe16fed5	-0.14745648
179	0x3bb81c3e	0.005618601
180	0xbdea096f	-0.114275806
181	0x3e138485	0.14406021
182	0xbddfb4ee	-0.109231815
183	0xbdde04ea	-0.10840781
184	0x3e284541	0.16432668
185	0xbde3d1d5	-0.11124007
186	0xbdb6d818	-0.08927935
187	0x3b711938	0.0036788713
188	0x3d693b9d	0.056941617
189	0xbd922e71	-0.07137764
190	0x3dc9b22d	0.098484375
191	0xbd978757	-0.07398861
192	0x3cd97da7	0.026549174
193	0xbe7a39bf	-0.24436091
194	0xbe05e9ee	-0.13077518
195	0x3d8a68ab	0.06758245
196	0x3dca0e38	0.09865993
197	0xbd89f47e	-0.06736086
198	0x3d270d1b	0.040783983
199	0xbd47e26d	-0.04879992
200	0x3d9f89c8	0.077899516
201	0x3d25aff7	0.040451016
202	0xbc40928c	-0.0117536895
203	0x3c4fb484	0.012677316
204	0xbe4fb616	-0.20284304
205	0x3d3661bc	0.0445268
206	0x3e0995fc	0.13436121
207	0x3e009060	0.12555075
208	0xbdbad3ac	-0.091224045
209	0xbdcc50e7	-0.099763684
210	0xbe00973e	-0.12557694
211	0xbd40ad6c	-0.047040388
212	0xbde57614	-0.11204162
213	0xbe442aaa	-0.191569
214	0xbe01d01f	-0.12677048
215	0x3d9ab0bf	0.07553243
216	0x3e1b63f2	0.15174845
217	0xbe85a995	-0.26105943
218	0xbe06cc67	-0.13163911
219	0xbe5c26fc	-0.21499246
220	0x3dcf4a8e	0.10121642
221	0x3d353e99	0.04424915
222	0xbe077bdc	-0.13230842
223	0xbdc35027	-0.09536772
224	0xbe32aa7f	-0.17447852
225	0x3d85351e	0.06504272
226	0x3e185a64	0.14878231
227	0x3db1aa03	0.08675005
228	0xbdf33649	-0.118755884
229	0xbe20eef8	-0.1571616
230	0x3ce0c087	0.027435554
231	0xbd2a0c72	-0.041515775
232	0x3dfcc9dd	0.1234319
233	0xbe12267d	-0.14272495
234	0xbdf3864c	-0.118908495
235	0xbe0e3c31	-0.13890149
236	0xbe0abf48	-0.1354953
237	0xbe26aac7	-0.16276084
238	0xbdfd46e9	-0.12367041
239	0xbb15346b	-0.002276684
240	0x3e6f4443	0.23365884
241	0x3e641e31	0.22277142
242	0x3e3e4de1	0.18584396
243	0x3c9e6e08	0.019339576
244	0xbd96e733	-0.073683165
245	0x3d1654de	0.03670203
246	0xbe1a13df	-0.15046643
247	0xbdf56a90	-0.11983216
248	0x3aa991a1	0.0012937078
249	0x3e3fe34e	0.18739054
250	0x3dec8be1	0.11550117
251	0xbe32fcba	-0.1747922
252	0xbe17b205	-0.14814003
253	0xbe4fc97c	-0.20291704
254	0x3d8bf8a7	0.06834536
255	0xbd6334ba	-0.055470206

u_model.model.8.bias f4 [42]
0	0x3df5f388	0.120093405
1	0x3c89e759	0.016833948
2	0xbe278a50	-0.16361356
3	0x3cdfe041	0.027328612
4	0x3dc5bc1e	0.09655021
5	0xbcc69224	-0.024239607
6	0xbdd99f59	-0.10626096
7	0xbc6cb486	-0.014447337
8	0xbe12d9a8	-0.14340842
9	0xbdc26be9	-0.094932385
10	0x3c2a9418	0.010411285
11	0xbdfbd80a	-0.122970656
12	0xbe231428	-0.15925658
13	0xbdcc323e	-0.099705204
14	0xbdf7b14f	-0.12094366
15	0xbbd044e1	-0.0063558673
16	0xbca2e200	-0.019883156
17	0x3de3d628	0.111248314
18	0x3e194f0d	0.14971562
19	0x3d90228d	0.0703784
20	0xbcc9435f	-0.024568258
21	0xbc35ef1e	-0.011104373
22	0xbda0a302	-0.07843591
23	0x3dc214cb	0.09476622
24	0x3d531f6c	0.051543638
25	0x3dc95640	0.09830904
26	0xbdd1a7e8	-0.10237104
27	0x3dd9bdcb	0.10631903
28	0xbe140b88	-0.14457524
29	0x3de7f85d	0.113266684
30	0xbe168d40	-0.1470232
31	0x3dde1b25	0.10845021
32	0xbe18549c	-0.14876026
33	0xbe0cd038	-0.13751304
34	0x3d9d1908	0.0767079
35	0x3e1e8cec	0.15483445
36	0x3a6c62b5	0.0009017394
37	0x3d59652d	0.053075004
38	0x3e1c99e2	0.15293077
39	0xbe3cf9e0	-0.18454695
40	0x3d0f5d82	0.035001285
41	0x3c530bb7	0.012881211

u_model.model.10.weight f4 [42, 42]
0	0xbd9031e4	-0.07040766
1	0x3df077cd	0.117416
2	0x3dc8dbb2	0.098075286
3	0x3e0e8d0d	0.13920994
4	0xbe072609	-0.13198103
5	0x3e0f239b	0.13978426
6	0x3e215de7	0.15758477
7	0xbcbcd632	-0.023051355
8	0xbd9ffefd	-0.07812307
9	0x3e0340b3	0.1281765
10	0xbdd4ebd0	-0.1039654
11	0xbdfa05d0	-0.1220814
12	0x3dc9cbfb	0.09853359
13	0x3e1b5a75	0.15171225
14	0xbc936c23	-0.0179959
15	0x3e3e8d76	0.1860865
16	0x3e0174e5	0.12642248
17	0x3e03f10a	0.12884918
18	0x3df9ed33	0.12203445
19	0x3e31b7ce	0.17355272
20	0x3dd82e42	0.10555698
21	0x3e2a20d3	0.16614084
22	0x3c86dcfb	0.016462794
23	0x3e1f0e0a	0.15532699
24	0x3d8fe63b	0.07026335
25	0xbdb0f341	-0.08640147
26	0x3e195e61	0.14977409
27	0x3dc94b21	0.09828783
28	0x3c24086a	0.010011772
29	0x3db4b88f	0.08824264
30	0x3d9c56a9	0.076337166
31	0x3dad6479	0.08466429
32	0x3d6bae32	0.057539172
33	0x3db2b4f3	0.087259196
34	0x3d850c9f	0.06496548
35	0xbd849ce2	-0.064752355
36	0x3d1d1ff0	0.038360536
37	0xbda34b25	-0.07973317
38	0x3c2e8390	0.010651484
39	0x3d122271	0.035677377
40	0x3d8771e4	0.0661352
41	0x3daff835	0.085922636
42	0x3d4e9319	0.050433252
43	0xbd962c29	-0.07332642
44	0xbc819b57	-0.015821142
45	0xbd5af570	-0.053456724
46	0x3dd93c2a	0.106071785
47	0x3de5bd01	0.1121769
48	0x3d5dc639	0.054144118
49	0xbcd39269	-0.02582665
50	0xbe0d0b91	-0.13773943
51	0x3d0b217d	0.033967484
52	0xbe251c01	-0.16123964
53	0xbd941d40	-0.072321415
54	0xbdfabcfa	-0.12243076
55	0x3e19a39f	0.15003823
56	0xbd90f5f7	-0.07078164
57	0xbdb9910c	-0.090608686
58	0x3e250340	0.16114521
59	0xbdf59046	-0.119904086
60	0xbd1f74e9	-0.038929854
61	0x3e18243d	0.14857574
62	0x3d16ccd4	0.036816433
63	0xbe150d28	-0.145558
64	0x3db0e2d0	0.08637011
65	0xbd5861c5	-0.052827615
66	0x3c853a27	0.01626308
67	0x3dde23d3	0.10846677
68	0x3deae0b0	0.11468637
69	0x3bbfe7a5	0.0058564716
70	0x3d8e891f	0.069597475
71	0xbe453936	-0.19260105
72	0x3e15124c	0.14557761
73	0x3db2ca9f	0.08730053
74	0xbd885c34	-0.06658211
75	0xbcd2841c	-0.02569776
76	0xbd973ddc	-0.073848456
77	0xbe026eee	-0.12737629
78	0x3d424a8d	0.04743438
79	0xbdb9fa9f	-0.09081005
80	0x3d6879e4	0.05675687
81	0xbd4ac742	-0.049506433
82	0x3e320ebb	0.17388432
83	0xbca000a0	-0.019531548
84	0x3bf8190c	0.007571345
85	0xbd5aada8	-0.053388268
86	0xbc80d1d1	-0.015725048
87	0xbca9b390	-0.020715505
88	0xbdefabde	-0.11702703
89	0xbe29f5fe	-0.16597745
90	0x3dc89495	0.09793965
91	0x3c4c1af1	0.012457595
92	0xbdc448c5	-0.09584192
93	0x3ddaf960	0.10692096
94	0xbabf3fa3	-0.0014591109
95	0xbd80f537	-0.06296771
96	0xbcb28eae	-0.02179655
97	0xbbdc7694	-0.006728003
98	0x3e008fa6	0.12554798
99	0xbe06a708	-0.13149655
100	0xbddddc2d	-0.10833011
101	0xbdceda15	-0.101001896
102	0xbe0afa04	-0.13571936
103	0x3b7fa36c	0.003900732
104	0x3de48365	0.11157874
105	0x3cf02d63	0.029318517
106	0x3de4cd4f	0.11171972
107	0x3ce162a0	0.027512848
108	0xbbb32436	-0.005466963
109	0xbe205f08	-0.15661252
110	0x3e13230e	0.14368841
111	0x3e1c5aca	0.15269008
112	0xbb4221f9	-0.00296223
113	0x3c91d0da	0.017799783
114	0x3d32e874	0.043678716
115	0x3e17ea8b	0.14835565
116	0xbcec5d49	-0.028853076
117	0xbd0f23c5	-0.03494622
118	0xbdb12f63	-0.086516164
119	0x3c9f1e45	0.019423613
120	0x3d8ef1e7	0.06979733
121	0xbdf177ea	-0.1179045
122	0x3daff783	0.08592131
123	0x3d7ca967	0.061684992
124	0x3bf3b624	0.0074374843
125	0x3dcd3651	0.10020126
126	0x3cc1ce0a	0.023657817
127	0x3d8c0296	0.06836431
128	0xbe05655b	-0.13026945
129	0x3dee8074	0.11645594
130	0xbe226b3f	-0.15861224
131	0xbe24232e	-0.16029045
132	0xbd9892d4	-0.0744988
133	0xbde9587a	-0.11393829
134	0x3b9a73ab	0.0047134957
135	0x3dd05ef4	0.10174361
136	0xbd44ea5b	-0.04807506
137	0x3dd8ba59	0.10582418
138	0xbc9a333f	-0.018823264
139	0x3e37b344	0.17939478
140	0x3e06ef1e	0.13177153
141	0x3e0a001d	0.13476606
142	0x3dae52f3	0.08511915
143	0xbd8ad960	-0.06779742
144	0x3e2bd05f	0.16778706
145	0xbe337410	-0.17524743
146	0xbdbf6420	-0.09345269
147	0xbd0cacda	-0.03434453
148	0x3d522788	0.05130723
149	0x3de23743	0.110456966
150	0x3c32999b	0.01090088
151	0xbe02f6f6	-0.1278952
152	0x3e4bcd10	0.19902444
153	0x3e5df4ea	0.21675459
154	0x3e2f5d6b	0.1712548
155	0xbe3f389c	-0.18673939
156	0x3de78b2c	0.11305842
157	0x3cf52744	0.02992595
158	0xbc9ce942	-0.019154195
159	0xbdf42a90	-0.11922181
160	0x3e02b4a1	0.12764217
161	0xbd4b2060	-0.049591422
162	0xbe0a5db4	-0.13512307
163	0x3e1a24aa	0.15053049
164	0x3da04131	0.07824934
165	0x3de19102	0.11013986
166	0x3d8c27a4	0.06843498
167	0x3d1b5ff0	0.03793329
168	0xbd576281	-0.052584175
169	0xbd86a221	-0.065738924
170	0x3e1a4ea5	0.15069063
171	0xbc38a4c7	-0.011269755
172	0xbe141b9b	-0.14463656
173	0xbdc73b53	-0.09728112
174	0xbe19052c	-0.14943379
175	0x3d02047e	0.031742565
176	0x3e04219f	0.1290345
177	0x3de8a258	0.113590896
178	0x3d8f2ec6	0.06991343
179	0x3d7e1ea6	0.062040947
180	0xbd6f6b61	-0.058452014
181	0x3df17965	0.11790732
182	0x3daf2afa	0.08553119
183	0xbdf9a11b	-0.121889316
184	0xbe019aee	-0.12656757
185	0xbe3fd72d	-0.18734427
186	0xbd93d64d	-0.07218609
187	0x3dde6d80	0.10860729
188	0x3c39db66	0.011343813
189	0xbdc83c34	-0.09777108
190	0x3d811b39	0.063040204
191	0xbe14443d	-0.14479156
192	0x3d86f712	0.06590094
193	0x3dc27b71	0.09496201
194	0x3d87b2e8	0.066259205
195	0xbda7cef2	-0.081937686
196	0xbdd6dd2e	-0.104914054
197	0x3d9919e5	0.07475642
198	0x3dd00c6a	0.10158618
199	0xbd14ef38	-0.03636095
200	0xbb8b80d7	-0.0042573023
201	0xbccfa272	-0.025346015
202	0xbcc624cc	-0.024187468
203	0xbe10f3df	-0.1415553
204	0xbe2325f8	-0.15932453
205	0x3de5a223	0.11212566
206	0xbdab2103	-0.08355906
207	0x3dc34a1f	0.09535622
208	0x3dc040dc	0.09387371
209	0xbcaa6f5a	-0.02080505
210	0x3dc60c5f	0.09670328
211	0x3d78e92e	0.060769252
212	0xbdbabf67	-0.09118538
213	0xbcafb539	-0.021448718
214	0x3dffaf9e	0.12484668
215	0xbdaf0d14	-0.08547416
216	0x3d1b5fce	0.037933163
217	0xbe5bbba2	-0.21458295
218	0x3d8714c8	0.065957606
219	0x3daaa786	0.08332734
220	0x3d5ef1fa	0.054429986
221	0xbcf58840	-0.029972196
222	0x3e190e34	0.14946824
223	0x3d63a396	0.05557593
224	0x3e6c8b51	0.2310002
225	0x3db3a275	0.087712206
226	0xbd56e577	-0.05246493
227	0x3e10c675	0.14138205
228	0xbd6d0da8	-0.05787435
229	0x3d82797c	0.063708276
230	0xbddd6e40	-0.10812044
231	0xbd8126a6	-0.063062
232	0x3e4efbda	0.20213261
233	0x3c8d7b43	0.01727069
234	0xbe3d8c8d	-0.18510647
235	0xbdd4d5f6	-0.10392372
236	0x3e95f3f9	0.292877
237	0x3d9c4699	0.07630653
238	0xbdad47a7	-0.08460932
239	0xbdb61c6a	-0.08892138
240	0xbd76c883	-0.060249817
241	0xbe000658	-0.1250242
242	0xbda90b74	-0.08254138
243	0x3e09500c	0.13409442
244	0x3d3c0404	0.045902267
245	0x3da880f8	0.08227724
246	0xbd9ea7d3	-0.07746854
247	0xbd268b6e	-0.040660314
248	0xbc50b7c6	-0.0127391275
249	0xbcca1bdf	-0.024671493
250	0xbe6bd7a6	-0.23031482
251	0xbe1dff09	-0.1542932
252	0x3c564074	0.01307689
253	0x3d952d7b	0.07284065
254	0x3de8f982	0.11375715
255	0x3ba35072	0.004983955

u_model.model.10.bias f4 [42]
0	0x3cc6d4fc	0.02427148
1	0x3d85edcb	0.06539496
2	0x3d0310ea	0.031998552
3	0xbdcd4bda	-0.10024233
4	0xbc252d2c	-0.010081571
5	0xbe021363	-0.12702708
6	0x3c88dd9c	0.016707234
7	0x3d987af4	0.074453264
8	0xbd4fcf34	-0.050734714
9	0xbdfc0e22	-0.12307383
10	0xbcd0c769	-0.025485711
11	0x3d9cb16f	0.0765103
12	0xbe0fb7c0	-0.14034939
13	0x3d93152a	0.07181771
14	0x3d9ae767	0.07563668
15	0xbdf9bed1	-0.121945985
16	0x3d547752	0.051871605
17	0x3cde7d5b	0.027159384
18	0xbd9b4fed	-0.07583604
19	0x3e0ea1ce	0.13928911
20	0xbdde4b7c	-0.10854241
21	0x3de9e8cb	0.11421355
22	0xbdd63ce3	-0.10460832
23	0x3dda8589	0.10670001
24	0xbd175f8a	-0.036956348
25	0xbde3fec2	-0.111325756
26	0x3d62b32b	0.05534665
27	0xbce3ea93	-0.027821815
28	0x3d6a2676	0.057165585
29	0x3d2fd4e7	0.04292765
30	0x3a9aa620	0.0011798777
31	0x3d9456c2	0.0724311
32	0xbde036c0	-0.10947943
33	0xbe39674f	-0.18105815
34	0xbd76712d	-0.060166527
35	0xbda725b9	-0.08161492
36	0xbdf9ab55	-0.12190882
37	0x3ca3180c	0.019908927
38	0x3c186632	0.009301709
39	0xbc8cc483	-0.017183548
40	0x3e117cb8	0.14207733
41	0x3dc65de1	0.09685875
