saved_models/1d_burgers/db_rff_pinn.pt (torch, 76498 bytes, 43 tensors)

u_model.W f4 [20, 2]
-0.17370243 -1.8224748 0.7792122 -1.0139076 0.88352925 0.6286348 -0.2533254 -2.6560283
-0.7693194 0.8934805 0.45785776 0.060999125 1.5209954 0.910131 0.2917824 -0.24240544
0.055371433 -1.9745249 1.5358123 0.50325775 1.2364359 -0.7146594 0.004058981 0.5045492
0.7615966 -1.7114658 1.28597 -1.213175 0.32158145 -0.73869467 -0.05907856 -0.59618783
0.022158116 0.97921175 0.3586129 0.46209607 1.2535442 0.7329894 0.4851854 -1.6010278
00000000: 0ddf 31be db46 e9bf 737a 473f b9c7 81bf
00000010: f92e 623f 36ee 203f deb3 81be 5efc 29c0
00000020: 1ef2 44bf 23bb 643f 556c ea3e 38da 793d
00000030: faaf c23f 58fe 683f 8164 953e 2239 78be
00000040: 28cd 623d 3bbd fcbf 7f95 c43f 80d5 003f
00000050: 8843 9e3f ebf3 36bf 3301 853b 232a 013f
00000060: fff7 423f 5011 dbbf aa9a a43f 5249 9bbf
00000070: 53a6 a43e 181b 3dbf 5cfc 71bd c49f 18bf
00000080: f084 b53c 9fad 7a3f 1c9c b73e db97 ec3e
00000090: 2374 a03f 31a5 3b3f 396a f83e 7bee ccbf

u_model.b f4 [20]
5.6273417 1.3532276 3.6180096 1.5838169 1.4722763 0.8671149 3.980904 0.5936038
2.975888 6.2431674 5.862598 0.07148628 5.359353 3.833208 5.7702484 0.3771402
2.2763627 1.9663942 5.937174 5.5227
00000000: 2f13 b440 9036 ad3f 788d 6740 83ba ca3f
00000010: 8d73 bc3f 3efb 5d3f 22c7 7e40 6bf6 173f
00000020: f374 3e40 07c8 c740 679a bb40 6667 923d
00000030: d27f ab40 4853 7540 e0a5 b840 8518 c13e
00000040: edaf 1140 ceb2 fb3f 54fd bd40 f5b9 b040

u_model.model.0.weight f4 [42, 42]
-0.18750414 -0.07761247 0.19414313 -0.06068576 0.08858167 0.06498445 -0.10219025 0.16669245
0.06285727 -0.14302818 -0.086016074 -0.0058864746 0.10263142 -0.050449114 0.18550868 -0.09919813
0.05470103 0.0564475 0.0480614 -0.05365986 -0.13835038 0.19930269 -0.112542346 -0.10083079
0.0368832 0.021789577 0.085815765 0.122762315 0.108419515 0.11313976 -0.0022067279 -0.017888563
-0.31641448 0.1600765 0.21809702 0.06308368 -0.21749723 -0.12777828 0.034892723 0.063184135
-0.076968476 0.07708307 0.13887219 -0.18523853 -0.036508977 -0.028537782 -0.13750738 0.16000016
-0.09031222 0.14779714 0.10387052 -0.10909131 0.13877396 0.037941933 -0.07727903 -0.032999642
-0.10765613 -0.03169275 -0.0042602643 -0.040919106 -0.10444655 0.13765718 -0.07214941 -0.09290192
-0.14466086 0.13839713 -0.13150997 0.10218501 -0.06496694 0.028488124 0.103962384 -0.12369273
0.054843534 0.13506755 -0.019269567 -0.026748704 -0.16682212 -0.009865986 0.10019591 0.065864086
0.057278935 0.032870226 0.018742463 0.04273442 -0.3324308 0.012313164 0.15092516 -0.07505702
-0.1203381 -0.016255053 -0.012519913 0.09292905 0.17927411 -0.012910378 0.012826296 -0.117226444
0.029954672 0.12749678 0.22430955 0.20863755 -0.12106112 -0.0547559 -0.2620813 -0.048193276
-0.16819777 -0.021851955 -0.23072718 -0.018457687 0.070992164 0.33098832 -0.10678682 -0.05439987
0.31468332 0.10240146 -0.046125792 0.06776361 -0.19016686 0.044149566 0.26885378 0.06749407
-0.061374936 0.0968169 0.13182127 0.18353699 -0.029757448 -0.065060005 0.08851239 -0.102446936
-0.14323945 0.14463891 0.004608623 0.06236455 -0.037761502 0.028973578 -0.14393865 0.036799427
-0.024106475 -0.06749022 -0.10422624 -0.04645611 -0.21053241 -0.10483075 -0.12528707 -0.03468932
0.15172243 -0.013593019 0.05460445 -0.0783276 -0.16484383 -0.0832139 -0.042535532 0.016494727
-0.043138515 0.046064463 0.049132407 0.13114655 0.077330984 0.047036596 0.24651274 0.09194911
-0.13436623 -0.09521599 0.15716933 0.026086064 0.123230666 0.020598402 0.012098507 -0.064887345
-0.040140238 0.05208739 -0.13024196 -0.07814472 0.071692206 0.24187611 0.16322589 -0.08834293
0.12287835 0.113824256 -0.03371886 -0.14088681 0.09943963 0.120996684 0.06273828 0.07576885
0.07925274 0.11256536 0.115470596 0.15725733 -0.07864216 0.07854062 -0.03820723 -0.014589929
0.06525878 -0.09565103 -0.030622216 -0.069425836 0.008674153 -0.02302104 0.13957796 0.2218305
0.24695736 -0.035902917 -0.208734 0.15927579 0.03441162 -0.028599303 0.06966801 0.04125399
0.078941904 -0.097336434 0.15156423 -0.018131897 -0.15321477 0.09463931 -0.051413737 0.20964837
0.08611019 0.044594575 0.039625157 0.041267987 0.20653081 0.02983468 0.0724305 -0.035016805
-0.019039867 0.03425031 -0.061173934 0.08873885 0.13703883 0.11702563 0.16439487 -0.17577615
-0.06638682 0.05870699 -0.017195327 -0.08363213 0.013495894 0.14174165 0.07153999 -0.02085818
0.17696959 -0.067335315 0.23864803 0.0027097533 -0.020655457 0.008163631 0.06250981 0.12680592
0.010488764 -0.08387219 0.044237185 -0.04530418 -0.17653531 -0.017578011 0.1604398 0.020043345
00000000: 1601 40be 49f3 9ebd 75cd 463e a291 78bd
00000010: 4e6a b53d 9116 853d 1f49 d1bd 6db1 2a3e
00000020: 50bb 803d fb75 12be 3229 b0bd 54e3 c0bb
00000030: 6c30 d23d bba3 4ebd fdf5 3d3e 6428 cbbd
00000040: 300e 603d 7e35 673d 08dc 443d 71ca 5bbd
00000050: b9ab 0dbe 0116 4c3e 9a7c e6bd 6080 cebd
00000060: d712 173d 0e80 b23c 2dc0 af3d cf6a fb3d
00000070: 0d0b de3d d2b5 e73d c09e 10bb 098b 92bc
00000080: 1401 a2be 18eb 233e d354 5f3e 0432 813d
00000090: 98b7 5ebe 4fd8 02be aceb 0e3d af66 813d
000000a0: a6a1 9dbd bbdd 9d3d 8334 0e3e 2baf 3dbe
000000b0: 708a 15bd 11c8 e9bc bcce 0cbe 15d7 233e
000000c0: 9df5 b8bd 2258 173e 11ba d43d 446b dfbd
000000d0: c31a 0e3e 0069 1b3d 7844 9ebd a22a 07bd
000000e0: d17a dcbd 42d0 01bd b099 8bbb cb9a 27bd
000000f0: 13e8 d5bd 01f6 0c3e 12c3 93bd 5d43 bebd
00000100: fa21 14be fab7 0d3e 8daa 06be 6046 d13d
00000110: 630d 85bd ed5f e93c 3bea d43d 9d52 fdbd
00000120: 9da3 603d 264f 0a3e 36db 9dbc 1920 dbbc
00000130: 6bd3 2abe f2a4 21bc 8333 cd3d c0e3 863d
00000140: 519d 6a3d eea2 063d cb89 993c 4a0a 2f3d
00000150: 5f34 aabe 27bd 493c 208c 1a3e 7fb7 99bd
00000160: d273 f6bd 5129 85bc 5220 4dbc 9651 be3d
00000170: a293 373e 0d86 53bc 6225 523c 6b14 f0bd
00000180: 8063 f53c 848e 023e 67b1 653e 15a5 553e
00000190: e4ee f7bd b947 60bd 852f 86be 5066 45bd
000001a0: 093c 2cbe df02 b3bc bf43 6cbe 9334 97bc
000001b0: 5764 913d 4d77 a93e 0cb3 dabd 66d2 5ebd
000001c0: 2c1e a13e dbb7 d13d 66ee 3cbd a6c7 8a3d
000001d0: 1abb 42be 2dd6 343d 34a7 893e 553a 8a3d
000001e0: 4964 7bbd f047 c63d 28fc 063e 1ff1 3b3e
000001f0: e4c5 f3bc 2e3e 85bd fc45 b53d b3cf d1bd
00000200: 5dad 12be 391c 143e ef03 973b f871 7f3d
00000210: ceab 1abd ff59 ed3c a764 13be ffba 163d
00000220: f17a c5bc 5038 8abd 9174 d5bd c348 3ebd
00000230: cf95 57be 81b1 d6bd 414b 00be 6316 0ebd
00000240: 205d 1b3e 41b5 5ebc eaa8 5f3d 396a a0bd
00000250: d2cc 28be 0d6c aabd bd39 2ebd f31f 873c
00000260: 03b2 30bd 17ae 3c3d 103f 493d 484b 063e
00000270: b55f 9e3d 72a9 403d d66d 7c3e d14f bc3d
00000280: 4d97 09be 9a00 c3bd fff0 203e 71b2 d53c
00000290: 5c60 fc3d fbbd a83c d138 463c a8e3 84bd
000002a0: 176a 24bd 9659 553d 265e 05be 570a a0bd
000002b0: 5dd3 923d 5fae 773e b024 273e 23ed b4bd
000002c0: a5a7 fb3d b11c e93d ca1c 0abd a244 10be
000002d0: 01a7 cb3d 1ccd f73d ed7c 803d b32c 9b3d
000002e0: 434f a23d ab88 e63d d97b ec3d 1108 213e
000002f0: 240f a1bd e8d9 a03d 2f7f 1cbd 990a 6fbc
00000300: 65a6 853d b0e4 c3bd 71db fabc 222f 8ebd
00000310: 091e 0e3c 9f96 bcbc 86ed 0e3e 8927 633e
00000320: 64e2 7c3e f00e 13bd 5ebe 55be 3119 233e
00000330: 33f3 0c3d 1649 eabc 1aae 8e3d f2f9 283d
00000340: 4bac a13d 5358 c7bd a733 1b3e 5889 94bc
00000350: 55e4 1cbe 41d2 c13d 3697 52bd 10ae 563e
00000360: 8a5a b03d cda8 363d fd4d 223d 9f08 293d
00000370: d07c 533e dc67 f43c 7156 943d c86d 0fbd
00000380: 7ff9 9bbc 0e4a 0c3d 8591 7abd b7bc b53d
00000390: e853 0c3e 22ab ef3d 2157 283e aafe 33be
000003a0: d0f5 87bd be76 703d 37dd 8cbc 5247 abbd
000003b0: e21d 5d3c b924 113e 8f83 923d c6de aabc
000003c0: 8437 353e 19e7 89bd 2660 743e 1e96 313b
000003d0: a235 a9bc c0c0 053c 2505 803d 69d9 013e
000003e0: 11d9 2b3c 2fc5 abbd 0d32 353d e090 39bd
000003f0: acc5 34be c3ff 8fbc 554a 243e f131 a43c

u_model.model.0.bias f4 [42]
-0.15319386 -0.12422376 0.04039792 0.011664209 0.07572809 0.01413948 -0.02210717 0.033582047
0.084566586 -0.1489276 0.06191764 -0.099761575 0.08755489 -0.011636891 -0.12721571 0.052693427
-0.06629704 0.0061762603 -0.030109292 0.06036869 0.10312172 0.08419669 0.11966756 -0.066401005
-0.047415722 -0.03187219 0.061754666 -0.052479014 0.09980548 0.11577401 0.117976055 0.053098027
0.009260666 0.13376024 -0.014409781 0.06735768 -0.1129397 0.030719673 -0.12660405 -0.07040742
-0.014646255 0.0019261849
00000000: dade 1cbe 0769 febd 4a78 253d 3d1b 3f3c
00000010: 5417 9b3d 47a9 673c 191a b5bc 548d 093d
00000020: 3f31 ad3d 7a80 18be 5a9d 7d3d cc4f ccbd
00000030: fa4f b33d a9a8 3ebc d644 02be 10d5 573d
00000040: bec6 87bd 3a62 ca3b c3a7 f6bc 2945 773d
00000050: 7b31 d33d 506f ac3d 4414 f53d 40fd 87bd
00000060: fd36 42bd 6a8c 02bd 76f2 7c3d 3cf4 56bd
00000070: d166 cc3d ed1a ed3d 6e9d f13d 517d 593d
00000080: 0cba 173c 72f8 083e 0117 6cbc d3f2 893d
00000090: ee4c e7bd d3a7 fb3c 7ea4 01be c431 90bd
000000a0: d9f6 6fbc 0a78 fc3a

u_model.model.2.weight f4 [42, 42]
-0.1263925 -0.036568508 -0.11433943 0.15368053 -0.10809671 -0.066220246 -0.013119022 -0.025050588
0.0917447 0.6023603 -0.11533138 0.028918542 -0.20905307 0.33644754 0.18213907 0.11560911
0.4324615 -0.018405328 -0.43816322 0.30747387 -0.09483628 -0.0014778676 0.07107274 0.07300068
0.21863301 0.18667403 -0.028056923 -0.32891467 -0.010129008 0.016237417 0.065925695 -0.14868197
-0.15934609 0.12993175 -0.034803264 -0.09821585 0.056271505 0.05676215 -0.11108721 0.24645157
-0.18272142 -0.14134966 0.14702727 -0.016990757 -0.063364014 -0.07354887 -0.09211915 -0.18685327
-0.14440241 0.11657303 0.08527845 -0.1295505 -0.07473338 0.03837663 -0.14988469 0.104083024
-0.18526025 0.10586874 -0.046383318 -0.0127555905 0.018729325 -0.0650309 -0.15353481 0.1450202
-0.07979517 0.048613064 -0.04269947 -0.039613374 -0.049885165 0.14898804 0.039271157 -0.05273915
-0.14751394 0.19138643 -0.10278573 -0.020134434 -0.07084141 0.037316725 -0.047302525 -0.005430883
-0.09813421 -0.0049204053 -0.11215969 0.14732951 0.1424398 -0.08179215 0.13151045 -0.17196308
0.18146737 -0.1705857 0.086648256 -0.09648491 0.12855396 -0.10502867 -0.009553213 -0.01859185
-0.027272295 -0.002504541 -0.2416677 0.09650261 -0.054441106 0.036069736 0.13351923 0.019253012
-0.20171882 0.24798097 0.07125788 0.13052946 -0.1642069 -0.097942 -0.17578158 0.18367344
-0.043255642 -0.026818506 -0.07159257 0.060875874 -0.1158177 0.08528596 0.060591877 0.1426345
0.08628975 7.996559e-05 -0.09790428 0.05597916 0.041893803 -0.124570966 0.10977871 -0.15160628
0.31028512 -0.12566727 0.0412976 -0.00033373505 0.14899042 -0.0071248906 -0.07778663 -0.28960446
-0.067993574 0.06120737 0.0033641504 -0.3283825 -0.25578406 -0.1810787 -0.4795404 -0.07488457
0.24268983 -0.028223785 -0.18529157 -0.017404294 0.13508974 0.067070834 0.02619921 0.013382781
-0.1434071 0.01861208 -0.11811593 -0.1459759 -0.00031719313 -0.018350618 -0.0955385 0.12298574
-0.02899598 -0.07545736 -0.013679622 -0.084501036 0.09354823 -0.00022191806 0.0012020022 0.09099225
0.021544354 0.00070556893 0.27747983 0.022940151 -0.09494179 -0.08564419 0.21737361 0.072932415
-0.098607995 -0.12988774 -0.17470822 0.21802019 -0.13952951 -0.04100869 0.09505661 -0.18002467
-0.019260675 0.04971418 0.14752573 -0.026972141 -0.001564647 0.008739903 0.27389425 0.17642696
0.06441656 -0.038693752 -0.019542705 -0.050622933 -0.13305655 -0.0057269703 -0.05920293 -0.066889636
-0.20859328 -0.03708782 -0.112060264 0.15868819 0.09772754 -0.010516263 0.015728243 0.046462443
0.008660259 -0.128529 -0.020845182 0.15826975 -0.13019614 0.25632194 -0.105852835 0.17130329
-0.086541474 0.06358152 -0.056424845 0.008349692 -0.052029993 0.06947424 0.052332524 0.11715743
-0.22519952 0.09139715 0.15527767 0.028756319 -0.046027295 0.026725614 -0.08928379 0.050043795
-0.03944128 -0.13390668 0.08869059 -0.007758567 0.14385694 0.065703616 -0.10153937 0.1092624
-0.075476214 -0.13371538 -0.006678518 0.101536006 -0.016651282 -0.092275284 0.0985079 0.17430829
-0.066392936 0.14273256 0.07090507 -0.197981 0.124253444 0.11715802 -0.15882833 0.041291654
00000000: 096d 01be dcc8 15bd cb2a eabd 6e5e 1d3e
00000010: cf61 ddbd 7b9e 87bd 2bf1 56bc e436 cdbc
00000020: a5e4 bb3d 4934 1a3f dc32 ecbd 94e6 ec3c
00000030: 0212 56be da42 ac3e aa82 3a3e 78c4 ec3d
00000040: 986b dd3e c5c6 96bc ee56 e0be 376d 9d3e
00000050: 8639 c2bd 02b5 c1ba 968e 913d 6181 953d
00000060: 55e1 5f3e 7a27 3f3e a2d7 e5bc 8167 a8be
00000070: 24f4 25bc 5504 853c 0d04 873d 1640 18be
00000080: 9f2b 23be d40c 053e de8d 0ebd 6425 c9bd
00000090: f37c 663d 6e7f 683d b181 e3bd cd5d 7c3e
000000a0: 531b 3bbe f7bd 10be 518e 163e 3330 8bbc
000000b0: fec4 81bd caa0 96bd f7a8 bcbd 7756 3fbe
000000c0: 3ade 13be d7bd ee3d 78a6 ae3d e3a8 04be
000000d0: d00d 99bd d030 1d3d 5f7b 19be 7b29 d53d
000000e0: ddb4 3dbe b6d1 d83d 6ffc 3dbd d3fc 50bc
000000f0: 3e6e 993c ec2e 85bd 3b38 1dbe 2d80 143e
00000100: a66b a3bd 7e1e 473d a4e5 2ebd a241 22bd
00000110: 6354 4cbd 5290 183e cbda 203d 0205 58bd
00000120: e50d 17be cefa 433e 5381 d2bd f8f0 a4bc
00000130: 4d15 91bd 6cd9 183d 4bc0 41bd 8cf5 b1bb
00000140: 97fa c8bd 5a3b a1bb fbb3 e5bd 8cdd 163e
00000150: bddb 113e a582 a7bd adaa 063e 1717 30be
00000160: 95d2 393e 05ae 2ebe a474 b13d e199 c5bd
00000170: a6a3 033e 4519 d7bd 1485 1cbc ef4d 98bc
00000180: 266a dfbc 3a23 24bb bd77 77be 29a3 c53d
00000190: a3fd 5ebd dcbd 133d 44b9 083e 7eb8 9d3c
000001a0: 618f 4ebe b9ee 7d3e a7ef 913d 84a9 053e
000001b0: db25 28be d195 c8bd 1600 34be e414 3c3e
000001c0: d42c 31bd 7cb2 dbbc 209f 92bd fb58 793d
000001d0: d531 edbd 68aa ae3d 302f 783d c70e 123e
000001e0: aeb8 b03d 33b3 a738 0a82 c8bd 674a 653d
000001f0: d698 2b3d 101f ffbd a9d3 e03d ad3e 1bbe
00000200: b1dd 9e3e ecae 00be ac27 293d 29f9 aeb9
00000210: f290 183e ea77 e9bb 994e 9fbd 0947 94be
00000220: 3740 8bbd 94b4 7a3d 1479 5c3b c021 a8be
00000230: 21f6 82be b26c 39be 5286 f5be 155d 99bd
00000240: af83 783e 9135 e7bc 13bd 3dbe 7393 8ebc
00000250: f754 0a3e 6f5c 893d ba9f d63c 7443 5b3c
00000260: 50d9 12be 5c78 983c c4e6 f1bd b57a 15be
00000270: f14c a6b9 0954 96bc b0a9 c3bd f3df fb3d
00000280: fa88 edbc 6389 9abd 7e20 60bc e10e adbd
00000290: 3796 bf3d adb2 68b9 808c 9d3a 255a ba3d
000002a0: c97d b03c eef5 383a d611 8e3e fcec bb3c
000002b0: d770 c2bd 3966 afbd 3097 5e3e 975d 953d
000002c0: fdf2 c9bd 4b01 05be b6e6 32be af40 5f3e
000002d0: d3e0 0ebe baf8 27bd 0aad c23d 6358 38be
000002e0: 90c8 9dbc 19a1 4b3d fc10 173e aef4 dcbc
000002f0: d714 cdba cf31 0f3c de3b 8c3e 45a9 343e
00000300: d4ec 833d 577d 1ebd 0618 a0bc fe59 4fbd
00000310: fa3f 08be 4fa9 bbbb c67e 72bd 6ffd 88bd
00000320: 7a99 55be 66e9 17bd da7f e5bd 287f 223e
00000330: 6025 c83d 674c 2cbc 84d8 803c 674f 3e3d
00000340: c2e3 0d3c 1b9d 03be 84c3 aabc 7711 223e
00000350: 2352 05be a13c 833e 5fc9 d8bd 216a 2f3e
00000360: a83c b1bd 0737 823d bd1d 67bd 26cd 083c
00000370: 671d 55bd 8348 8e3d a15a 563d 3cf0 ef3d
00000380: b49a 66be 6e2e bb3d 1c01 1f3e 5f92 eb3c
00000390: 1e87 3cbd adef da3c 6bda b6bd b9fa 4c3d
000003a0: 2e8d 21bd d51e 09be 69a3 b53d 943b febb
000003b0: 3c4f 133e 9e8f 863d e0f3 cfbd f7c4 df3d
000003c0: 4693 9abd afec 08be 78d7 dabb 1cf2 cf3d
000003d0: 4568 88bc d3fa bcbd 83be c93d df7d 323e
000003e0: 05f9 87bd 7c28 123e ad36 913d 88bb 4abe
000003f0: 9778 fe3d 8bf0 ef3d e5a3 22be 7021 293d

u_model.model.2.bias f4 [42]
0.059189893 -0.034217943 -0.121817954 0.08272517 -0.18276842 -0.068888165 0.1362046 0.12796685
0.08848626 -0.012349442 -0.0133823 0.07261062 0.04783378 -0.14492685 0.063271485 -0.0028775516
-0.1502241 -0.059483197 0.04439453 0.00026984094 0.0063358387 -0.103819095 -0.0794036 0.11068556
0.13171291 0.12168747 0.14633243 0.113590255 0.00037868915 -0.1903409 0.026869541 0.0076904716
0.029041775 0.062887736 0.052559424 -0.09329002 0.1091091 -0.11165712 0.05956983 -0.14717475
0.075534396 0.0522899
00000000: 1a71 723d 1d28 0cbd b17b f9bd d06b a93d
00000010: a527 3bbe 3d15 8dbd 3879 0b3e be09 033e
00000020: 4938 b53d 5055 4abc 6f41 5bbc e0b4 943d
00000030: 5bed 433d b467 14be 7b94 813d 4e95 3cbb
00000040: 59d4 19be a7a4 73bd 0ad7 353d 7079 8d39
00000050: de9c cf3b 1b9f d4bd 5b9e a2bd 1caf e23d
00000060: c0df 063e 4837 f93d 2bd8 153e 02a2 e83d
00000070: cc8a c639 bae8 42be 831d dc3c 5a00 fc3b
00000080: 04e9 ed3c 49cb 803d 8d48 573d d70e bfbd
00000090: 9874 df3d 7dac e4bd 7eff 733d fab4 16be
000000a0: c7b1 9a3d ef2d 563d

u_model.model.4.weight f4 [42, 42]
0.08830221 -0.14209557 -0.04738649 -0.082059145 -0.07536444 0.12827536 0.18349008 0.20634389
0.123926625 0.1435804 0.03462289 -0.06051457 0.18509148 -0.10640381 -0.13167983 -0.07925428
0.008913522 -0.13453269 -0.14523771 0.05418138 0.089192554 -0.08874987 -0.110903524 0.20847836
0.010499482 0.079483464 0.19412565 0.11734915 -0.030802263 0.08730111 0.081951536 0.07453836
-0.098580875 0.07000856 0.030531682 -0.1339348 0.062439643 0.04399017 -0.03084003 0.04369085
0.022099376 -0.09159851 -0.024899583 0.07067771 0.1396907 0.0081754485 -0.06495199 -0.13752715
-0.09257304 -0.023195874 -0.18779317 -0.09208569 -0.18626942 -0.093246296 -0.16026703 0.1763872
0.17927459 0.2391814 -0.03114036 0.11296332 0.10525637 0.06921069 0.018743405 0.17360136
0.13635682 -0.09739815 0.051076397 0.0329257 -0.15063255 0.019392636 0.10750877 -0.19805928
0.0734624 -0.06644096 0.1751045 -0.034767926 0.04464801 0.18045038 0.009802679 0.13258596
0.029665725 0.04900568 0.045646496 0.1356364 -0.057515614 0.019647887 0.08688535 -0.091429256
0.059957664 0.0044880267 -0.12923183 -0.040244877 -0.046201024 0.029553462 0.18431802 0.09540789
-0.15493378 -0.17603612 -0.030393092 -0.055296656 -0.09431058 0.0013794202 0.115428105 0.038581226
-0.13981597 -0.10085578 0.06777574 0.11374343 -0.040536102 -0.06117267 0.039048344 -0.018119557
0.0706345 -0.0468632 -0.10728323 -0.04239579 -0.024806669 0.0614903 -0.044719256 -0.08138261
0.15530375 -0.05400643 0.09741661 -0.058269486 -0.047006752 -0.07978102 0.021088185 -0.09146894
0.093248196 -0.18220228 -0.088000834 -0.11919684 0.06777869 0.0277317 0.19118598 0.25401437
0.08833155 0.0532613 0.19513029 -0.020530598 0.022442421 -0.1822942 -0.17517516 0.055162266
-0.10489297 -0.11097444 -0.112983815 -0.15728326 -0.076774485 0.2016443 -0.13312049 0.14231008
0.18446216 0.036348384 0.1632091 -0.0174502 -0.049559753 -0.042330638 0.006981622 0.011794881
-0.047141574 -0.14193158 0.21227795 0.019673757 0.05129869 0.073646516 0.09572651 -0.19666567
0.032049745 -0.21701914 -0.21588135 -0.097563095 0.042802487 -0.0017457452 0.078814425 0.08492811
0.12354666 0.29613817 0.21143556 0.026730895 -0.11825007 -0.14222866 -0.016655752 -0.31714696
-0.12625314 -0.172886 -0.0420539 -0.024548514 -0.12335028 -0.12175238 0.02507512 0.017017277
0.09783812 0.13382502 0.070229106 0.10595213 -0.109810844 0.04076127 0.0015391924 0.014436082
-0.11100237 0.044811536 0.010690798 -0.09996209 -0.024638407 0.0611857 0.053835638 -0.055289082
-0.2639801 -0.006990039 0.016820798 -0.049813487 0.033314176 -0.10451334 0.016344057 0.04767075
0.03711363 0.05007321 0.060386654 0.060853306 0.11239681 0.014317757 0.15698774 0.029118255
0.015211209 -0.055392716 0.04654957 0.11158231 0.18765403 0.10717959 -0.100150935 0.10473236
0.18117675 0.110643454 -0.024772791 -0.0012163128 0.1536484 0.052724995 -0.08320098 -0.05570236
-0.15879197 0.0873075 -0.13884558 0.050736524 -0.16771817 -0.06529897 -0.010616511 0.13351008
0.04341137 -0.09603419 0.14695692 0.021458799 -0.08325319 -0.08694675 0.11661784 0.113475114
00000000: cad7 b43d 8081 11be 5618 42bd a00e a8bd
00000010: ac58 9abd 9e5a 033e d3e4 3b3e d04b 533e
00000020: 3ecd fd3d be06 133e bbd0 0d3d 20de 77bd
00000030: 9f88 3d3e 3eea d9bd 14d7 06be 1150 a2bd
00000040: 050a 123c f0c2 09be 32b9 14be 4bed 5d3d
00000050: 96aa b63d 7ec2 b5bd 6321 e3bd 5a7b 553e
00000060: 0506 2c3c 3ac8 a23d e0c8 463e c054 f03d
00000070: 0755 fcbc edca b23d 35d6 a73d 91a7 983d
00000080: c5e4 c9bd a660 8f3d 941d fa3c 3426 09be
00000090: b6c0 7f3d 092f 343d 3ba4 fcbc 2df5 323d
000000a0: c009 b53c 0098 bbbd 36fa cbbc 7abf 903d
000000b0: 140b 0f3e 51f2 053c 8d05 85bd ebd3 0cbe
000000c0: ef96 bdbd 4605 bebc da4c 40be 6c97 bcbd
000000d0: 69bd 3ebe eaf7 bebd 0a1d 24be d99e 343e
000000e0: c293 373e f8eb 743e 111a ffbc 5059 e73d
000000f0: a790 d73d 56be 8d3d c58b 993c 8ec4 313e
00000100: 1fa1 0b3e ae78 c7bd 7c35 513d 19dd 063d
00000110: 6b3f 1abe 4edd 9e3c 8f2d dc3d 0dd0 4abe
00000120: 7473 963d 3312 88bd 984e 333e d068 0ebd
00000130: d5e0 363d fcc7 383e 6a9b 203c 9dc4 073e
00000140: 8905 f33c 2eba 483d d2f7 3a3d 45e4 0a3e
00000150: 7e95 6bbd 9bf4 a03c f2f0 b13d 433f bbbd
00000160: 2b96 753d 4c10 933b 5955 04be d0d7 24bd
00000170: 493d 3dbd 1a1a f23c ddbd 3c3e 3665 c33d
00000180: f6a6 1ebe d042 34be effa f8bc bf7e 62bd
00000190: e825 c1bd a9cd b43a 9265 ec3d 5907 1e3d
000001a0: eb2b 0fbe 7a8d cebd 02ce 8a3d 51f2 e83d
000001b0: 2f09 26bd 3290 7abd 28f1 1f3d 776f 94bc
000001c0: d2a8 903d a0f3 3fbd 4fb7 dbbd 35a7 2dbd
000001d0: 5b37 cbbc 41dd 7b3d 8a2b 37bd edab a6bd
000001e0: f207 1f3e d935 5dbd 5c82 c73d fcab 6ebd
000001f0: 278a 40bd 3b64 a3bd 21c1 ac3c 1154 bbbd
00000200: e9f8 be3d 3c93 3abe c839 b4bd 791d f4bd
00000210: 8ecf 8a3d 972d e33c 42c6 433e 2c0e 823e
00000220: 2ce7 b43d 8528 5a3d 3cd0 473e c92f a8bc
00000230: 2bd9 b73c 55ab 3abe 1e61 33be d4f1 613d
00000240: 20d2 d6bd 9146 e3bd 0f64 e7bd dd0e 21be
00000250: f13b 9dbd d87b 4e3e bd50 08be bcb9 113e
00000260: a6e3 3c3e 0be2 143d 4920 273e b9f3 8ebc
00000270: 2bff 4abd e462 2dbd 17c6 e43b 513f 413c
00000280: 8617 41bd 8356 11be 645f 593e dc2a a13c
00000290: 931e 523d fcd3 963d 430c c43d ba62 49be
000002a0: 9846 033d 443a 5ebe 0010 5dbe 29cf c7bd
000002b0: a951 2f3d 7dd1 e4ba 7569 a13d caee ad3d
000002c0: 0806 fd3d 6c9f 973e 9082 583e c0fa da3c
000002d0: 182d f2bd 64a4 11be a571 88bc 1661 a2be
000002e0: 8148 01be 0709 31be b640 2cbd f719 c9bc
000002f0: 129f fcbd 5059 f9bd 576a cd3c d167 8b3c
00000300: 5a5f c83d 6d09 093e 47d4 8f3d 6efd d83d
00000310: 82e4 e0bd 4af5 263d babe c93a 5185 6c3c
00000320: 3655 e3bd 4d8c 373d 7528 2f3c edb8 ccbd
00000330: 7cd6 c9bc db9d 7a3d c282 5c3d ce76 62bd
00000340: 6628 87be b20c e5bb c5cb 893c 3a09 4cbd
00000350: 7274 083d 170b d6bd f9e3 853c 6842 433d
00000360: 7604 183d 9119 4d3d ff57 773d 5141 793d
00000370: 4c30 e63d 0795 6a3c 65c1 203e 6889 ee3c
00000380: 6f38 793c 79e3 62bd c3aa 3e3d 4485 e43d
00000390: 6128 403e f980 db3d ef1b cdbd eb7d d63d
000003a0: 6686 393e 0999 e23d 4ff0 cabc af6c 9fba
000003b0: 0256 1d3e 2af6 573d 4765 aabd 2828 64bd
000003c0: 5d9a 22be 46ce b23d 892d 0ebe 1ad1 4f3d
000003d0: 50be 2bbe 77bb 85bd e0f0 2dbc deb6 083e
000003e0: 1fd0 313d 93ad c4bd e07b 163e 5dca af3c
000003f0: a680 aabd 2311 b2bd 56d5 ee3d a465 e83d

u_model.model.4.bias f4 [42]
0.021476546 -0.16276428 0.04120165 -0.005471762 -0.03250025 0.15925832 0.08342255 -0.02440638
-0.043001167 -0.008886872 -0.13581157 0.147316 -0.092556104 0.097159274 0.13828783 0.08863457
0.14292455 -0.059796024 0.021796176 0.045587458 -0.10845379 -0.13255508 0.022236185 0.12417488
0.08478344 0.06579374 0.06456226 0.110557266 -0.13366501 -0.15013273 0.13412827 -0.057004623
0.0009494144 -0.058313824 0.052146506 0.012967463 0.11410925 -0.020734895 0.057762213 -0.035749372
0.08128635 0.003751506
00000000: 95ef af3c aeab 26be 10c3 283d 774c b3bb
00000010: fb1e 05bd 9d14 233e 71d9 aa3d e3ef c7bc
00000020: fe21 30bd 3e9a 11bc 3012 0bbe 01da 163e
00000030: 0e8e bdbd 71fb c63d 539b 0d3e 0b86 b53d
00000040: d05a 123e adec 74bd e58d b23c eab9 3a3d
00000050: 051d debd 85bc 07be a928 b63c 664f fe3d
00000060: f1a2 ad3d debe 863d 3839 843d d96b e23d
00000070: 7bdf 08be 65bc 19be ec58 093e ae7d 69bd
00000080: 1fe2 783a 7ada 6ebd 9397 553d 7b75 543c
00000090: 1cb2 e93d 3adc a9bc 1298 6c3d ef6d 12bd
000000a0: 7579 a63d d4db 753b

u_model.model.6.weight f4 [42, 42]
0.15466161 -0.13547163 -0.05385808 0.12561302 -0.05981112 -0.026573822 -0.084946856 -0.105274
0.056733478 0.13653857 -0.057673387 -0.028851192 -0.16685829 -0.16083676 -0.07369665 -0.0028591654
-0.07638906 0.13240813 0.062268853 0.10567269 -0.07079401 -0.16755682 0.043004457 -0.13614716
-0.081945874 0.01695701 -0.28979093 0.014390672 -0.1340344 0.15250643 -0.36516866 -0.13355106
-0.19987985 0.022112422 0.028208941 0.24847776 0.41871795 -0.12946466 0.0007451703 -0.010989046
0.120454766 0.1681592 0.09800957 0.0061125476 0.11728931 -0.028157346 -0.035561956 -0.024986517
0.09178661 0.0010083386 0.05501861 0.24599582 0.018765543 -0.02049341 0.052330412 -0.082543835
0.06634398 -0.16907531 0.1448622 -0.045800496 0.07079736 -0.056248315 -0.09465245 -0.11540673
0.12007833 -0.015906923 -0.027210208 0.17106426 -0.07892452 0.11773689 0.10800952 -0.1020517
-0.04242902 -0.084708765 0.037453018 0.16075112 -0.14610338 0.13970265 -0.08220097 0.16039914
0.07392935 0.06315286 0.03482483 -0.009380552 -0.030706333 -0.19338153 0.24752955 0.11065453
0.04481239 0.012210356 -0.03207455 -0.20155118 0.118661046 -0.106557876 -0.025714224 0.022131206
0.09631786 0.014794666 0.08206841 -0.019547028 0.101574555 0.1199176 0.09867299 -0.09439283
0.09221089 0.0261464 -0.10094363 0.03115247 0.15709582 -0.070896104 -0.11680148 -0.01261793
0.15850252 -0.20988546 0.17854722 -0.026106052 0.060989764 -0.09810257 0.0393213 -0.06997704
-0.2727263 0.04533298 0.07034677 -0.05096999 -0.22736685 -0.18854333 -0.112022184 0.11475951
-0.02194772 -0.12407766 -0.11492939 0.07748663 -0.14615373 0.21655862 -0.06114149 -0.18334237
0.095866635 0.07625148 0.116227 -0.068644606 -0.10078256 0.08355251 -0.14825954 0.066527165
-0.15467766 0.04910454 -0.044766314 0.16306493 -0.18128948 -0.13196567 0.055471532 -0.09387185
0.1699107 -0.15491499 0.01465956 0.04543297 0.1795023 0.075421385 0.111916475 -0.04622655
0.0728435 0.072201654 -0.09052853 -0.19511643 -0.024427557 -0.17200562 0.022430154 0.062198725
0.0974969 0.12736647 -0.17359205 0.14227782 -0.14375113 -0.19059823 -0.1014973 0.08902855
-0.09424928 -0.07146899 0.02351802 -0.050367966 -0.02485922 0.05397071 0.043934714 0.027108397
0.010234979 0.14878884 -0.040219236 -0.021043615 0.09985984 0.027348014 0.10723557 0.13874067
-0.19708867 -0.072968096 -0.08351275 0.009196149 0.0823563 0.07598956 -0.032542534 0.045799885
0.12819915 -0.13522197 0.09559339 -0.022977874 0.038427487 -0.08690769 0.0825343 0.06413837
-0.027919289 0.01967883 -0.1287289 -0.14753185 -0.08743215 -0.096202135 -0.022315662 0.062876716
-0.096744075 0.048986606 -0.105027474 -0.17589033 -0.07199638 -0.11706215 0.13285539 -0.07717339
-0.090259776 0.08597168 -0.07984757 0.21310459 -0.010912109 0.097425684 -0.16720739 0.12759459
-0.16200843 -0.02119664 -0.20627584 -0.019904966 0.1980709 -0.15353835 -0.14285521 0.11546239
-0.13963887 -0.10875673 0.0149931265 -0.013237135 0.12896474 0.07360246 -0.054237656 -0.13492514
0.114249095 0.16042298 -0.0018107998 -0.08208234 0.10684608 -0.1573904 -0.045414716 0.08565124
00000000: 9d5f 1e3e 13b9 0abe 4a9a 5cbd b3a0 003e
00000010: 81fc 74bd 58b1 d9bc 9ef8 adbd e599 d7bd
00000020: 5d61 683d c4d0 0b3e ee3a 6cbd 5659 ecbc
00000030: e6dc 2abe 64b2 24be 45ee 96bd d660 3bbb
00000040: de71 9cbd ff95 073e a00d 7f3d ec6a d83d
00000050: 73fc 90bd 0494 2bbe 7125 303d 296a 0bbe
00000060: 3dd3 a7bd 6de9 8a3c 7a5f 94be dac6 6b3c
00000070: 5040 09be a52a 1c3e 63f7 babe 9cc1 08be
00000080: 4ead 4cbe 1c25 b53c 7016 e73c f470 7e3e
00000090: 3362 d63e 6292 04be 8857 433a 660b 34bc
000000a0: fdb0 f63d ed31 2c3e 3eb9 c83d c44b c83b
000000b0: 6135 f03d 3caa e6bc 6aa9 11bd 86b0 ccbc
000000c0: 9efa bb3d 3b2a 843a 325b 613d 54e6 7b3e
000000d0: 32ba 993c cce1 a7bc 6a58 563d be0c a9bd
000000e0: 5adf 873d 1422 2dbe c256 143e 4d99 3bbd
000000f0: 35fe 903d a264 66bd 25d9 c1bd 5d5a ecbd
00000100: a1eb f53d 3c4f 82bc f1e7 debc 782b 2f3e
00000110: 2ea3 a1bd 0a20 f13d 1834 dd3d 7b00 d1bd
00000120: 0dca 2dbd ca7b adbd 5668 193d f19b 243e
00000130: 209c 15be 360e 0f3e fb58 a8bd ac3f 243e
00000140: 4568 973d 4956 813d 7ba4 0e3d e3b0 19bc
00000150: d98b fbbc cf05 46be 6378 7d3e d89e e23d
00000160: 328d 373d f20d 483c 9a60 03bd 6f63 4ebe
00000170: 9004 f33d 043b dabd a3a6 d2bc 814c b53c
00000180: 4c42 c53d 5465 723c 7c13 a83d 1721 a0bc
00000190: 5206 d03d 5c97 f53d 1115 ca3d 0751 c1bd
000001a0: 10d9 bc3d fa30 d63c 89bb cebd 7733 ff3c
000001b0: badd 203e fa31 91bd 9d35 efbd 6fbb 4ebc
000001c0: 7c4e 223e 37ec 56be 15d5 363e 5cdc d5bc
000001d0: 67d0 793d 00ea c8bd 5f0f 213d 1f50 8fbd
000001e0: c8a2 8bbe 13af 393d f811 903d e9c5 50bd
000001f0: dbd2 68be 8111 41be e36b e5bd 0907 eb3d
00000200: b4cb b3bc 6e1c febd 1a60 ebbd 4fb1 9e3d
00000210: 53a9 15be 8bc1 5d3e 806f 7abd 1abe 3bbe
00000220: ba55 c43d bc29 9c3d 6c08 ee3d 8b95 8cbd
00000230: 1667 cebd 941d ab3d 59d1 17be 653f 883d
00000240: d263 1ebe d821 493d e25c 37bd 7efa 263e
00000250: f3a3 39be 0222 07be 1e36 633d e23f c0bd
00000260: 12fd 2d3e 09a2 1ebe a72e 703c ec17 3a3d
00000270: 73cf 373e 8776 9a3d 7734 e53d 0d58 3dbd
00000280: f92e 953d 76de 933d 0667 b9bd 9acc 47be
00000290: 4d1c c8bc 3e22 30be 71bf b73c 17c4 7e3d
000002a0: 74ac c73d 5b6c 023e 1dc2 31be 47b1 113e
000002b0: 7f33 13be 2f2c 43be d1dd cfbd 9a54 b63d
000002c0: c405 c1bd 555e 92bd dda8 c03c a44e 4ebd
000002d0: 90a5 cbbc 6410 5d3d e3f4 333d 6e12 de3c
000002e0: 9db0 273c 1a5c 183e edbc 24bd a963 acbc
000002f0: 5183 cc3d f108 e03c 539e db3d 0912 0e3e
00000300: 9dd1 49be 4c70 95bd bc08 abbd 72ab 163c
00000310: 6baa a83d 6aa0 9b3d 524b 05bd a998 3b3d
00000320: a346 033e a177 0abe 78c6 c33d 183c bcbc
00000330: 2466 1d3d a9fc b1bd be07 a93d fa5a 833d
00000340: feb6 e4bc 7f35 a13c 82d1 03be 9712 17be
00000350: a10f b3bd a005 c5bd 56cf b6bc 82c5 803d
00000360: c221 c6bd 2ea6 483d a518 d7bd 981c 34be
00000370: d772 93bd 48be efbd 3e0b 083e 150d 9ebd
00000380: 1eda b8bd ec11 b03d 1f87 a3bd 1738 5a3e
00000390: b4c8 32bc 1e87 c73d 6a38 2bbe 28a8 023e
000003a0: 8ae5 25be 93a4 adbc f939 53be bd0f a3bc
000003b0: 19d3 4a3e 2839 1dbe a348 12be 8c77 ec3d
000003c0: 7efd 0ebe d9bb debd bba5 753c 91e0 58bc
000003d0: 550f 043e e3bc 963d 4e28 5ebd d129 0abe
000003e0: 6efb e93d ec45 243e 5c58 edba c91a a8bd
000003f0: 1ed2 da3d f32a 21be c804 3abd eb69 af3d

u_model.model.6.bias f4 [42]
0.03896109 0.09093196 -0.041815378 -0.06260849 0.08753473 0.06507643 -0.12319026 -0.020322274
0.10958286 0.045394063 -0.15861458 0.11757827 -0.12673898 -0.1149564 0.05669666 0.078385346
0.09006559 0.10944921 -0.029173393 -0.061457746 -0.0070747146 0.13678105 0.04332103 -0.14393736
0.05785687 -0.04002195 -0.023347313 0.11749064 0.1466767 -0.019294113 -0.130011 0.11505229
0.10759396 -0.011432537 -0.10951248 -0.09787305 -0.030358693 0.12290135 0.11114118 -0.15045379
-0.00053331937 0.0833006
00000000: aa95 1f3d 893a ba3d 9a46 2bbd e138 80bd
00000010: 6945 b33d cb46 853d 2d4b fcbd e67a a6bc
00000020: fa6c e03d 20ef 393d dc6b 22be e0cc f03d
00000030: ddc7 01be 436e ebbd c23a 683d 7f88 a03d
00000040: 4f74 b83d e826 e03d 0afd eebc 1ebb 7bbd
00000050: 02d3 e7bb 5510 0c3e 6471 313d 5164 13be
00000060: 53fb 6c3d 0eee 23bd dd42 bfbc ef9e f03d
00000070: 6b32 163e b00e 9ebc 9b21 05be 89a0 eb3d
00000080: 395a dc3d 894f 3bbc 1448 e0bd aa71 c8bd
00000090: cbb2 f8bc b4b3 fb3d fd9d e33d 8f10 1abe
000000a0: 75ce 0bba 8199 aa3d

u_model.model.8.weight f4 [42, 42]
-0.064454645 0.11231108 -0.0037005455 -0.05720339 -0.071855724 -0.031336166 -0.027499357 0.022592636
-0.25406858 -0.34169188 -0.022132507 0.19759052 0.051127024 -0.052862093 -0.15638253 -0.009704606
-0.19365393 0.13752331 0.13528498 0.16888529 0.21961887 0.038827747 -0.24573402 0.2538412
-0.107497506 0.2786237 0.1687455 0.055474438 0.12648068 0.17108548 -0.090975046 0.056033075
0.11834118 0.028371114 0.029244391 -0.07350164 0.2306194 -0.019334657 0.21075784 0.13110165
0.26956838 0.026164636 0.11346253 0.22894838 -0.047170717 -0.109686084 0.0135891605 -0.093145296
-0.08427287 -0.08348711 0.063501865 -0.11930622 0.12951627 -0.044070378 -0.026016627 0.030149037
0.03202083 0.11732133 -0.05385101 0.10488456 -0.1273202 0.16306995 0.029512236 0.07265388
-0.09737275 -0.0026252735 -0.1198381 0.21629918 0.13630654 -0.099530116 0.055252735 0.10982715
-0.027007153 -0.052780576 -0.13033739 -0.08819045 -0.0144901015 0.12035069 0.1508252 0.07888491
-0.013901529 0.05258456 0.191104 -0.076448 0.013084398 -0.016456733 0.1041146 -0.042069502
0.018909974 -0.073706985 -0.034594987 -0.23804684 -0.041948672 -0.063590914 0.07944197 0.043081705
0.14674407 0.14577387 0.07830403 -0.0212226 -0.187589 -0.120925196 -0.20163281 0.04235836
-0.16184992 -0.042295516 0.11157132 0.14058883 -0.11203947 -0.008120696 0.1467105 0.008810744
-0.0452218 0.13537225 0.10835014 -0.1651075 -0.17121416 -0.028492913 0.20334974 -0.074935146
-0.007955896 0.18204434 0.11924746 0.22996642 0.15565263 -0.009659158 -0.08863974 -0.1026891
-0.050797228 0.007527359 0.13022523 0.16202772 -0.05375056 0.18950586 -0.080483615 -0.07657021
-0.010437285 0.014265718 -0.05462266 0.014713472 -0.16970235 0.10696227 0.05950935 -0.12029157
-0.05083702 0.12249619 0.076085255 -0.089123115 -0.10662367 -0.1479126 0.03352832 0.046808254
0.08863457 0.14746515 -0.04867761 -0.09427978 0.21285431 0.10823384 -0.1263062 -0.12668005
0.014004178 0.17971876 -0.12700608 -0.079896666 -0.017386535 -0.104022264 -0.07117461 0.13511847
-0.10054213 -0.18261164 -0.039593223 0.08934631 -0.076971196 0.031096349 -0.16109018 0.113433175
-0.032117702 -0.04905872 0.0045973402 -0.046378084 0.102595024 -0.121109284 0.100834355 -0.1440558
0.12795557 -0.0022608826 -0.0019577483 0.072509944 -0.05306055 0.07650625 0.1703433 0.08401938
-0.02771131 -0.013780203 -0.100652725 0.0625845 -0.15745054 -0.08454088 0.21567558 0.15791939
0.08275244 -0.15764458 -0.0063879606 -0.05944661 0.031398088 -0.07546599 -0.15223041 -0.09272664
0.0078908475 -0.122154176 0.11009311 0.17158666 0.14536972 -0.13155214 0.027149266 0.05354751
-0.07355734 -0.083280995 -0.18327811 -0.13955308 -0.19238621 0.12791817 -0.1257403 0.023373757
-0.15624122 -0.026812797 0.0031563516 0.10402427 0.041760657 -0.050137393 0.057534095 -0.029639
-0.20238748 0.10235821 0.03793543 0.08473854 0.1531746 0.034371126 0.1361292 0.040018827
-0.058600727 -0.14143056 0.054313347 -0.07561783 0.059498064 0.06340871 -0.1100567 -0.17475303
0.0817733 -0.075115085 0.050620236 0.22801769 -0.16593334 -0.054376654 -0.12841576 -0.04364878
00000000: cc00 84bd 5a03 e63d da84 72bb 1a4e 6abd
00000010: 1829 93bd 5a5a 00bd 5546 e1bc 3114 b93c
00000020: 4715 82be 3df2 aebe 3b4f b5bc 2b55 4a3e
00000030: 926a 513d ec85 58bd be22 20be 1100 1fbc
00000040: 374d 46be e9d2 0c3e 2588 0a3e 44f0 2c3e
00000050: c5e3 603e d809 1f3d b3a1 7bbe 79f7 813e
00000060: a727 dcbd c4a7 8e3e 9fcb 2c3e 2a39 633d
00000070: 2784 013e 0831 2f3e 2051 babd f082 653d
00000080: dc5c f23d 8a6a e83c ef91 ef3c 0788 96bd
00000090: 7e27 6c3e b763 9ebc e7d0 573e 833f 063e
000000a0: de04 8a3e 3857 d63c 0b5f e83d 7271 6a3e
000000b0: 1536 41bd 19a3 e0bd 12a5 5e3c f6c2 bebd
000000c0: 4197 acbd 4afb aabd 440d 823d d256 f4bd
000000d0: ea9f 043e 2483 34bd d220 d5bc 1dfb f63c
000000e0: 4628 033d 2a46 f03d e092 5cbd b7cd d63d
000000f0: 3a60 02be cffb 263e a5c3 f13c 8fcb 943d
00000100: 5d6b c7bd c80c 2cbb ae6d f5bd 887d 5d3e
00000110: f193 0b3e 72d6 cbbd b150 623d 0fed e03d
00000120: 1b3e ddbc 7230 58bd 2a77 05be 329d b4bd
00000130: e467 6dbc 6c7a f63d ec71 1a3e 698e a13d
00000140: 3dc3 63bc e862 573d c4b0 433e c590 9cbd
00000150: f15f 563c 45d0 86bc 093a d53d 1251 2cbd
00000160: 17e9 9a3c b0f3 96bd 79b3 0dbd 8dc2 73be
00000170: 5fd2 2bbd f43b 82bd 79b2 a23d 7176 303d
00000180: 1444 163e bf45 153e dd5d a03d 05db adbc
00000190: 5517 40be a1a7 f7bd d578 4ebe f67f 2d3d
000001a0: fcbb 25be 103e 2dbd 817f e43d 85f6 0f3e
000001b0: f374 e5bd ab0c 05bc 473b 163e f05a 103c
000001c0: 7f3a 39bd 069f 0a3e aee6 dd3d f111 29be
000001d0: c452 2fbe f869 e9bc ea3a 503e 9977 99bd
000001e0: 7259 02bc d569 3a3e 0338 f43d 517c 6b3e
000001f0: 6763 1f3e 7241 1ebc c188 b5bd aa4e d2bd
00000200: c110 50bd 10a8 f63b c359 053e 98ea 253e
00000210: 8c29 5cbd d30d 423e 98d4 a4bd d8d0 9cbd
00000220: 2501 2bbc c2ba 693c 03bc 5fbd c610 713c
00000230: 74c6 2dbe 090f db3d 14c0 733d 6d5b f6bd
00000240: 7b3a 50bd 48df fa3d 96d2 9b3d 2e86 b6bd
00000250: 835d dabd 6776 17be fe54 093d 03ba 3f3d
00000260: 0b86 b53d 1b01 173e 2c62 47bd c215 c1bd
00000270: 7bf6 593e b4a9 dd3d 6a56 01be 6ab8 01be
00000280: c871 653c 3208 383e e20d 02be dda0 a3bd
00000290: 356e 8ebc a009 d5bd fec3 91bd 7f5c 0a3e
000002a0: 08e9 cdbd 8cfe 3abe 812c 22bd 33fb b63d
000002b0: 13a3 9dbd c5bd fe3c d3f4 24be a74f e83d
000002c0: da8d 03bd ccf1 48bd 49a5 963b f2f6 3dbd
000002d0: 571d d23d 2508 f8bd 3e82 ce3d 5d83 13be
000002e0: c906 033e 512b 14bb 914d 00bb 1880 943d
000002f0: 0556 59bd 4faf 9c3d 796e 2e3e 5a12 ac3d
00000300: d402 e3bc 5cc6 61bc 0423 cebd 4d2c 803d
00000310: b73a 21be c523 adbd 0fda 5c3e 9fb5 213e
00000320: 1c7a a93d 956d 21be 1952 d1bb 4a7e 73bd
00000330: 489b 003d ea8d 9abd 4ae2 1bbe 77e7 bdbd
00000340: 9d48 013c f82b fabd 7f78 e13d 6ab4 2f3e
00000350: cddb 143e 9bb5 06be 2368 de3c a254 5b3d
00000360: 3ba5 96bd 3a8f aabd 42ad 3bbe 01e7 0ebe
00000370: e400 45be fbfc 023e 11c2 00be 527a bf3c
00000380: b3fd 1fbe 83a6 dbbc cbda 4e3b ad0a d53d
00000390: 390d 2b3d de5c 4dbd dfa8 6b3d 7dcd f2bc
000003a0: aa3e 4fbe 2ea1 d13d 2e62 1b3d 668b ad3d
000003b0: cdd9 1c3e bdc8 0c3d 7465 0b3e c8ea 233d
000003c0: 5107 70bd 2cd3 10be ac77 5e3d 85dd 9abd
000003d0: 3eb4 733d 6ddc 813d 6865 e1bd 75f2 32be
000003e0: c378 a73d f0d5 99bd 2a57 4f3d 787d 693e
000003f0: 6eea 29be 0eba 5ebd 6c7f 03be 10c9 32bd

u_model.model.8.bias f4 [42]
-0.026761318 -0.05070059 -0.13790525 0.084957264 -0.0069385017 -0.10590918 -0.18133682 0.0075378083
-0.1256433 0.069053434 -0.033806346 0.08120437 -0.0684285 0.10448758 0.0889072 0.09964351
0.04131784 0.093551725 0.2066424 -0.12803671 -0.02161216 0.12208929 -0.14049089 0.023328563
-0.0052626845 -0.13482226 -0.120623074 0.1598417 -0.04750007 -0.11679531 0.12953845 0.11095204
0.14955452 -0.07294594 -0.06419231 0.01759789 -0.13210736 0.031069446 -0.01668206 0.092806384
-0.06561817 -0.06604641
00000000: 8d3a dbbc 6cab 4fbd 0937 0dbe 13fe ad3d
00000010: 5f5c e3bb eae6 d8bd 5cb0 39be b8ff f63b
00000020: a3a8 00be e36b 8d3d 8678 0abd 7a4e a63d
00000030: 3e24 8cbd 96fd d53d fa14 b63d e611 cc3d
00000040: e53c 293d 0c98 bf3d 119a 533e 0e1c 03be
00000050: fc0b b1bc f309 fa3d d8dc 0fbe 8b1b bf3c
00000060: 9972 acbb d90e 0abe 3b09 f7bd 8bad 233e
00000070: 6f8f 42bd 6132 efbd baa5 043e d33a e33d
00000080: d224 193e ae64 95bd 4277 83bd 7329 903c
00000090: 2747 07be 5a85 fe3c d1a8 88bc 4611 be3d
000000a0: d262 86bd 5743 87bd

u_model.model.10.weight f4 [42, 42]
0.109466456 -0.120838135 -0.08553004 0.14280377 0.08037757 0.027717032 0.03859849 -0.0014251409
-0.05912634 -0.03513613 -0.103826076 0.081467465 -0.047473382 -0.09396691 0.13393 -0.026023498
0.015808515 -0.08742093 -0.0031419874 -0.07251183 0.15913734 -0.15329592 -0.13468538 -0.028023383
-0.15182433 -0.08057118 0.009938408 0.15370762 -0.008478484 -0.01032111 0.09458457 -0.01934131
0.16402203 -0.018610032 -0.020418152 -0.15766332 -0.06473018 -0.11247789 -0.10850505 0.0054892264
0.05420352 0.08268479 0.10232177 0.2194392 0.13199493 -0.31060725 -0.123681985 0.018345417
0.106382996 -0.028699076 0.054304857 0.10422391 0.2958877 0.0361083 -0.18588361 0.21603999
-0.1646389 0.012069868 0.06918584 0.025993796 -0.13083528 0.29315484 -0.27373946 0.11210817
0.24397242 0.08060805 0.119082056 -0.39628437 0.002908431 -0.06177354 0.20098343 0.0664823
-0.082588024 -0.06923704 -0.01533907 0.0679044 -0.17190947 0.31451258 -0.2306355 -0.10518558
0.2545074 -0.00093324593 -0.04468162 -0.24883372 0.19264105 0.08668007 -0.029090052 -0.057533484
-0.03141662 0.15458772 -0.09162255 -0.019285576 -0.026963172 0.17689866 0.004999524 0.15171753
0.15899828 0.12677999 -0.1734245 -0.03302027 -0.047399055 -0.014635232 0.10312072 0.06480553
-0.11838327 0.14540023 0.18171929 -0.13634083 0.044348646 -0.033394918 0.22140129 0.0036443884
0.09913264 -0.093218215 0.1245042 0.036072593 0.02266572 0.08551906 0.12622169 -0.043637197
0.085882485 0.06986329 0.08462503 0.08446063 -0.08871969 -0.005909256 0.15295014 0.015857665
0.029203262 0.10016974 0.021924289 0.22615272 0.09302011 0.147457 0.07939645 0.1731845
-0.01622321 -0.0680616 0.0064753466 0.08081275 -0.18357432 -0.040811356 0.038459398 0.0029898034
-0.05187485 0.12495876 -0.12636392 -0.030443909 -0.0714315 -0.032194242 -0.0034454025 -0.13866705
0.060467932 -0.10872439 0.06276575 0.18365653 -0.023460308 -0.08442186 -0.04918199 -0.0049548983
-0.035325587 -0.10158908 0.09434852 -0.088807076 0.07832718 0.045489788 -0.010965067 0.0788629
0.1101411 -0.08692808 -0.15763651 -0.1323462 -0.0004148955 0.081020966 0.040212903 -0.11029556
-0.07847784 0.01774866 0.13238093 0.075480744 -0.031194385 -0.050761927 -0.165271 0.014656782
0.059150208 -0.0051593333 0.038589813 -0.037219122 -0.13335957 0.10308017 0.104803056 0.12004874
-0.14205745 -0.045329645 0.12728985 0.004170657 0.1414738 0.095579945 0.0818596 -0.09611624
0.15478474 -0.034691464 -0.14362268 -0.09415878 -0.013156442 0.18594906 0.15353915 -0.04543847
0.015479372 -0.04015662 -0.061950903 -0.105857685 0.11209178 -0.020707538 0.024899328 -0.022276398
-0.08894403 -0.011119888 0.015583792 0.057218652 -0.2182358 0.0155571755 0.07951931 0.06686316
0.01521932 0.047634996 0.024682853 -0.20195319 -0.0489883 -0.07289319 0.06521981 -0.1636562
-0.06966403 0.02110116 0.033972204 0.14141385 0.04774528 -0.0026267942 0.051405646 0.09042062
-0.13338071 0.16835983 0.012071384 0.15413477 0.07653389 -0.18731007 0.15320666 -0.18905874
0.033982456 -0.18690662 0.03471608 0.16874848 0.24825974 0.06899948 -0.045434218 -0.087075874
00000000: f32f e03d fc79 f7bd 602a afbd 273b 123e
00000010: ff9c a43d d40e e33c 7319 1e3d cbcb baba
00000020: 762e 72bd e7ea 0fbd c4a2 d4bd 6ad8 a63d
00000030: 7373 42bd b971 c0bd f224 093e 3b2f d5bc
00000040: dc80 813c bf09 b3bd cde9 4dbb 1581 94bd
00000050: e6f4 223e 9bf9 1cbe f7ea 09be 4b91 e5bc
00000060: d677 1bbe 8102 a5bd b4d4 223c 8865 1d3e
00000070: 57e9 0abc df19 29bc 8eb5 c13d ab71 9ebc
00000080: 64f5 273e 1174 98bc f843 a7bc 7e72 21be
00000090: 4291 84bd cf5a e6bd e537 debd f8de b33b
000000a0: 8304 5e3d a556 a93d 138e d13d abb4 603e
000000b0: ae29 073e ea07 9fbe fb4c fdbd 2149 963c
000000c0: 54df d93d 531a ebbc c56e 5e3d 5873 d53d
000000d0: 987e 973e 4ce6 133d 4658 3ebe 9639 5d3e
000000e0: 1a97 28be b2c0 453c 4eb1 8d3d f1f0 d43c
000000f0: aff9 05be 6418 963e 9427 8cbe f898 e53d
00000100: e8d3 793e d515 a53d 4be1 f33d c9e5 cabe
00000110: 609b 3e3b 4006 7dbd 9ace 4d3e df27 883d
00000120: e923 a9bd 26cc 8dbd b950 7bbc 7611 8b3d
00000130: 0909 30be cb07 a13e b62b 6cbe 8a6b d7bd
00000140: cb4e 823e 13a5 74ba 1304 37bd 44ce 7ebe
00000150: b243 453e 5285 b13d 434e eebc 3ba8 6bbd
00000160: b7ae 00bd 3e4c 1e3e 9aa4 bbbd c9fc 9dbc
00000170: dfe1 dcbc ec24 353e 0cd3 a33b d75b 1b3e
00000180: 72d0 223e 9dd2 013e 3196 31be 4340 07bd
00000190: 8325 42bd 9dc8 6fbc f530 d33d c3b8 843d
000001a0: ee72 f2bd cce3 143e 9f14 3a3e ee9c 0bbe
000001b0: eda6 353d 1cc9 08bd 05b7 623e b1d6 6e3b
000001c0: 0e06 cb3d 31e9 bebd 0ffc fe3d dbc0 133d
000001d0: 76ad b93c 9e24 af3d 4240 013e ebbc 32bd
000001e0: 28e3 af3d 7c14 8f3d e34f ad3d b2f9 ac3d
000001f0: abb2 b5bd 6fa2 c1bb f69e 1c3e efe7 813c
00000200: ae3b ef3c cb25 cd3d 919a b33c 9494 673e
00000210: 5481 be3d f8fe 163e 9b9a a23d 4757 313e
00000220: 8ae6 84bc e163 8bbd 252f d43b 2881 a53d
00000230: e8fa 3bbe cf29 27bd 9a87 1d3d 94f0 433b
00000240: b97a 54bd 61ea ff3d 8b65 01be 8165 f9bc
00000250: ae4a 92bd 1cde 03bd 43cc 61bb bcfe 0dbe
00000260: 39ad 773d e5aa debd 548b 803d 7510 3c3e
00000270: d52f c0bc 5ee5 acbd 0e73 49bd b35c a2bb
00000280: 90b1 10bd f00d d0bd cc39 c13d 7ce0 b5bd
00000290: 006a a03d 8053 3a3d d3a6 33bc df82 a13d
000002a0: a891 e13d 5907 b2bd 776b 21be c385 07be
000002b0: 5586 d9b9 52ee a53d 49b6 243d a3e2 e1bd
000002c0: fdb8 a0bd a365 913c de8e 073e a695 9a3d
000002d0: 5e8b ffbc bdeb 4fbd cd3c 29be 0023 703c
000002e0: 7d47 723d a00f a9bb 5a10 1e3d 1473 18bd
000002f0: 698f 08be b21b d33d fca2 d63d 1ddc f53d
00000300: 8277 11be 94ab 39bd 4558 023e 02aa 883b
00000310: 82de 103e 6bbf c33d 02a6 a73d 97d8 c4bd
00000320: e47f 1e3e a318 0ebd d311 13be 52d6 c0bd
00000330: 1e8e 57bc 6e69 3e3e 5e39 1d3e b01d 3abd
00000340: 319d 7d3c 457b 24bd 3bc0 7dbd eacb d8bd
00000350: 6090 e53d dba2 a9bc adf9 cb3c fe7c b6bc
00000360: 4a28 b6bd 3130 36bc 2953 7f3c 1b5e 6a3d
00000370: 3579 5fbe 86e3 7e3c 05db a23d 8def 883d
00000380: 745a 793c ea1c 433d b233 ca3c d1cc 4ebe
00000390: f5a7 48bd 0649 95bd f791 853d 7e95 27be
000003a0: 04ac 8ebd 57dc ac3c 7026 0b3d cbce 103e
000003b0: 8e90 433d 4b26 2cbb ba8e 523d 722e b93d
000003c0: f494 08be 8566 2c3e 0ec7 453c 81d5 1d3e
000003d0: cdbd 9c3d 36ce 3fbe 35e2 1c3e 9d98 41be
000003e0: 3031 0b3d 7364 3fbe 7332 0e3d 67cc 2c3e
000003f0: cd37 7e3e 994f 8d3d 3b19 3abd d654 b2bd

u_model.model.10.bias f4 [42]
0.06126767 -0.13356964 -0.05696103 -0.113908775 -0.04573225 0.11534047 0.10443981 0.01806733
-0.020160533 -0.12892388 -0.09974447 -0.08799637 -0.017348744 0.13279787 0.2446325 -0.13575462
0.16535752 0.07412809 0.06399666 0.17029145 -0.12980253 -0.14424187 0.041115645 -0.097748145
0.05190226 0.00734853 0.07093238 0.013387351 0.06681049 0.016440704 0.06901198 -0.05562459
0.08079561 0.123757094 0.07757204 -0.062139113 0.13076927 0.14947242 0.022995813 0.023678783
-0.009727838 -0.015168476
00000000: cff3 7a3d 7bc6 08be f84f 69bd 0149 e9bd
00000010: bd51 3bbd a037 ec3d 8ae4 d53d f001 943c
00000020: b427 a5bc 9f04 04be d446 ccbd 7137 b4bd
00000030: f41e 8ebc 2afc 073e f180 7a3e 4203 0bbe
00000040: 7b53 293e 78d0 973d ae10 833d e260 2e3e
00000050: f4ea 04be 24b4 13be e168 283d 2e30 c8bd
00000060: 7797 543d f0cb f03b ff44 913d 9f56 5b3c
00000070: f0d3 883d a8ae 863c 2756 8d3d 9cd6 63bd
00000080: 2b78 a53d 5c74 fd3d 17de 9e3d 9585 7ebd
00000090: 61e8 053e 4c0f 193e b761 bc3c 02fa c13c
000000a0: 8361 1fbc 3385 78bc
