saved_models/1d_burgers/dwa_pinn.pt (torch, 77047 bytes, 42 tensors)

u_model.W f4 [20, 2]
00000000: 0ddf 31be db46 e9bf 737a 473f b9c7 81bf
00000010: f92e 623f 36ee 203f deb3 81be 5efc 29c0
00000020: 1ef2 44bf 23bb 643f 556c ea3e 38da 793d
00000030: faaf c23f 58fe 683f 8164 953e 2239 78be
00000040: 28cd 623d 3bbd fcbf 7f95 c43f 80d5 003f
00000050: 8843 9e3f ebf3 36bf 3301 853b 232a 013f
00000060: fff7 423f 5011 dbbf aa9a a43f 5249 9bbf
00000070: 53a6 a43e 181b 3dbf 5cfc 71bd c49f 18bf
00000080: f084 b53c 9fad 7a3f 1c9c b73e db97 ec3e
00000090: 2374 a03f 31a5 3b3f 396a f83e 7bee ccbf
-0.17370243 -1.8224748 0.7792122 -1.0139076 0.88352925 0.6286348 -0.2533254 -2.6560283
-0.7693194 0.8934805 0.45785776 0.060999125 1.5209954 0.910131 0.2917824 -0.24240544
0.055371433 -1.9745249 1.5358123 0.50325775 1.2364359 -0.7146594 0.004058981 0.5045492
0.7615966 -1.7114658 1.28597 -1.213175 0.32158145 -0.73869467 -0.05907856 -0.59618783
0.022158116 0.97921175 0.3586129 0.46209607 1.2535442 0.7329894 0.4851854 -1.6010278

u_model.b f4 [20]
00000000: 2f13 b440 9036 ad3f 788d 6740 83ba ca3f
00000010: 8d73 bc3f 3efb 5d3f 22c7 7e40 6bf6 173f
00000020: f374 3e40 07c8 c740 679a bb40 6667 923d
00000030: d27f ab40 4853 7540 e0a5 b840 8518 c13e
00000040: edaf 1140 ceb2 fb3f 54fd bd40 f5b9 b040
5.6273417 1.3532276 3.6180096 1.5838169 1.4722763 0.8671149 3.980904 0.5936038
2.975888 6.2431674 5.862598 0.07148628 5.359353 3.833208 5.7702484 0.3771402
2.2763627 1.9663942 5.937174 5.5227

u_model.model.0.weight f4 [42, 42]
00000000: d65d eabd 5bbd 193e 31e9 dbbd 7e28 62bd
00000010: fc47 a33c f5cb c1bc bdbc 1a3d d489 3e3e
00000020: fe82 2dbd e057 613d b744 0a3d a0f1 563e
00000030: 3748 8d3c a3be 0d3d b2ba 2fbe f45f 1d3d
00000040: 6daf 9a3d 0d0b bd3c 3134 b23d df1f 183d
00000050: a2d0 293d 2952 07be b909 94bc c6ae 53be
00000060: 85df 73bd a3fe 16bd 0a65 3abe 8125 543d
00000070: 53ea c2bd 781c 833d 7d71 4abd f730 62bb
00000080: 7532 4dbd 91f2 06be de6d ae3d f3e9 1d3e
00000090: 8f76 583c 84dc 0f3d 3433 183e 9f04 3e3e
000000a0: ffde 113e b539 373e 9e6a 9c3d 906a d1bb
000000b0: 8e01 17be 74d8 dc3c ab0e ec3d f746 2bbd
000000c0: f210 9c3d a32c 01be 6022 823c e3aa 323e
000000d0: 7de1 2cbe 08ce 98bd 33e1 a23d f4e2 1cbe
000000e0: d9a3 0bbc 11ff 27bd 0172 da3d b118 3cbc
000000f0: 8fbc 89ba 4760 ee3d 5ff1 82bc e421 3dbc
00000100: 6df5 f93d 8a78 01bd 9f4c 173e 86a1 8ebc
00000110: fcba 1f3e e18a 27bd 8068 0d3e 28ea 053e
00000120: c9dd afbd 5740 b1bc e703 a0bd 2873 c53d
00000130: 9f7c 6abd a7be c73d 2cf7 f0bd b3f1 92bd
00000140: 0658 56bd ca36 e03d 0d17 aa3d b6d5 1bbc
00000150: c441 f83d e900 01be 193f 203d cb9f 043e
00000160: cf5c 11bd cd50 2abe 8d51 9cbd b3b1 a33d
00000170: c95a 113d f546 823b 8308 c7bd 9112 953d
00000180: 4c65 b2bc fd65 f73d 0665 ed3d 88d6 aebd
00000190: 4666 d93d 226c 01be abe6 eebc e5cf 9f3c
000001a0: de72 eebd d059 173c 5a1b 0cbd 28e2 3ebd
000001b0: d95e 9dbc 7a18 9c3c 1da7 c43c 3f58 6cbd
000001c0: 122c af3b 28e5 5fbc e2d5 f2bd e673 cbbd
000001d0: d7e5 ab3d a78d 03be dccc 7d3d ad7f e73d
000001e0: b4ea 243e bf75 a6bd 0051 043e 884a c8bd
000001f0: fece 8bbd 638d 893d 1959 c1bc 20c2 b8bd
00000200: 30af 803d 3e2d e53d 50ea 643d 57cd ce3d
00000210: dd66 c13d 6e46 053e f460 b7bd 0a67 c13d
00000220: 9737 863d 90b1 253e 8dce 2cbe f7e3 523d
00000230: f917 65bd d31d 2bbd 8df6 e4bd d085 ddbc
00000240: bddc c3bc 655d 41bd cecf 413e 5388 31be
00000250: 1a36 debc 64ec 013d 9279 223c 496b b43d
00000260: 7947 e4bb a7d2 c63d 2b5e 1b3c 8cc0 acbd
00000270: 9d03 d8bd 933f 80bd 988c a6bd df85 0bbe
00000280: 942f 393d 3ef2 c6bd 9fc5 b3bd 83bd f6bc
00000290: ee80 f2bd 1284 87bd ccda 01bd 6fd2 ab3c
000002a0: b658 c83d 0a65 213e 2fa9 e33c 700e aabd
000002b0: d4af c4bd 4a57 62be 8df3 a03d ecde be3d
000002c0: 3fc7 3a3d f183 06ba e587 6e3d 7f9c ca3d
000002d0: c7ed 843d d35e 863d 3ca1 793d 25fc 293d
000002e0: bfae 9ebd a43f 7b3d 27e5 b03d 3e17 c73d
000002f0: d805 1d3e b001 f83d 6d8a 653e 9108 d43d
00000300: bec2 4fbd 68be 90bd 9622 993b d4b1 aa3d
00000310: 4e09 10be c5d6 a73c 92ea 92bc 16be d3bc
00000320: 8e35 adbd 6ce4 92bd 7980 4a3e 9a35 573c
00000330: 9a56 81bd ee52 8a3d a93a f2bd 7204 2cbe
00000340: ef92 f93d 53e1 4f3d a5a8 433d 74c0 f33c
00000350: 731c 88bd f7a5 7fbd ff59 6fbc 32ae 4d3e
00000360: 4231 1b3c e928 dc3c 7a7c c5bd d52c 77bd
00000370: 9c72 d6bd 3626 bd3d 1eb1 1f3e 7236 d03d
00000380: d373 583d 2634 76bd f717 a63d ed71 953d
00000390: dbeb 0e3e fabc e2bd 9a20 ebbd d87c aabd
000003a0: 22c7 a73d 809a 643c 417a 1e3e 13b0 08be
000003b0: 0d58 8abb ad81 513d 284a 12bb 68d4 173e
000003c0: 0491 383e 45a7 30be eef8 2838 ddac 8d3d
000003d0: 8e0d 913d d16e fbbc 365d 083e 19e6 d93c
000003e0: 2707 0cbe f084 25bd e228 c83d 3c32 7bbd
000003f0: 6c3c d9bd 528d d9bc a34a bfbd a3f7 933d
-0.11443679 0.1501364 -0.10737837 -0.055214398 0.019931786 -0.023656825 0.03777765 0.18607265
-0.042361252 0.055015445 0.033756938 0.2099061 0.017246349 0.034605633 -0.17161062 0.038421586
0.07552991 0.023076558 0.08701361 0.03713977 0.041458733 -0.13214935 -0.018071042 -0.2067214
-0.059539337 -0.036863934 -0.18202606 0.05179358 -0.0951735 0.06401914 -0.049424637 -0.0034514049
-0.050096948 -0.13178469 0.08517049 0.15421276 0.01321186 0.03512241 0.14863282 0.1855645
0.14245223 0.17893107 0.07637523 -0.006390877 -0.14746687 0.026958682 0.11526235 -0.041815724
0.076204196 -0.12614684 0.015885532 0.17448 -0.16882892 -0.07461172 0.079531096 -0.15320951
-0.008522951 -0.041014735 0.10666276 -0.011480496 -0.0010508465 0.11639457 -0.015984235 -0.011543725
0.122050144 -0.031609096 0.14775322 -0.017411005 0.15598673 -0.04090393 0.13809395 0.13077605
-0.08587224 -0.021637125 -0.07813244 0.09641105 -0.057247754 0.09753161 -0.11765894 -0.07175007
-0.05233004 0.1094795 0.08305178 -0.009511402 0.12121919 -0.12598003 0.039122675 0.12951581
-0.0354889 -0.16632386 -0.07632742 0.07992878 0.03548697 0.003975744 -0.0971842 0.07278932
-0.021776818 0.120799996 0.11591534 -0.08537012 0.1061521 -0.12638906 -0.029162725 0.019508312
-0.11643003 0.009237722 -0.034205772 -0.0466024 -0.019210266 0.01905464 0.024005467 -0.057701346
0.0053458298 -0.013665475 -0.11857201 -0.09934215 0.08393448 -0.12847005 0.061962947 0.11303649
0.16105157 -0.08127927 0.12921524 -0.09779841 -0.0682659 0.067164205 -0.023602055 -0.090214014
0.06283414 0.1119027 0.05588752 0.10097759 0.09443448 0.13015148 -0.08954039 0.09443481
0.06553572 0.16181016 -0.16875668 0.051486935 -0.055931065 -0.04177649 -0.11179838 -0.027041346
-0.023908967 -0.04720821 0.18926927 -0.1733716 -0.027125407 0.03171958 0.00991668 0.088095255
-0.006966528 0.097081475 0.009482901 -0.08435163 -0.10547564 -0.06262126 -0.08132285 -0.13625287
0.04521139 -0.09714173 -0.087779276 -0.030119663 -0.11840998 -0.06616987 -0.0317028 0.020974366
0.09782545 0.157612 0.027790634 -0.08303535 -0.09603849 -0.2210361 0.078589536 0.09319863
0.045600172 -0.0005131355 0.058235068 0.098931305 0.06490665 0.06561055 0.06094478 0.04150023
-0.07748174 0.06133999 0.08637457 0.0972123 0.1533426 0.12109697 0.22416086 0.103531964
-0.05072283 -0.07067567 0.0046733124 0.08334699 -0.1406605 0.020488152 -0.017934117 -0.025847476
-0.0845748 -0.07172474 0.19775571 0.013135338 -0.06315346 0.06754099 -0.11827595 -0.16798571
0.121862285 0.050751995 0.047768254 0.029754855 -0.06646051 -0.062414136 -0.014608859 0.20085981
0.009472193 0.026874976 -0.09642883 -0.06034549 -0.10471079 0.09235804 0.15594909 0.101666346
0.052844834 -0.060108326 0.0811004 0.0729712 0.13957159 -0.11071201 -0.11480828 -0.08324593
0.081922784 0.013952851 0.15476324 -0.13348417 -0.0042219223 0.05114906 -0.0022322033 0.1482712
0.18024069 -0.17251308 4.0286155e-05 0.06917737 0.070826635 -0.03069249 0.13316807 0.026598977
-0.13674603 -0.040409982 0.09773423 -0.061327204 -0.10607228 -0.026556645 -0.09340408 0.07224967

u_model.model.0.bias f4 [42]
00000000: 2c14 75bd f4ec acbd e69a 02bd fd2e 083e
00000010: 8fb1 9c3d 9d08 c93d f44c 353d b378 b8bd
00000020: 6adf c3bd e61e 153e 5fa9 11bd 4a37 2cbd
00000030: 4c25 5bbd 133a 12be 18b1 db3b 9f98 b33c
00000040: 3300 87bc 5f19 2bbd c6d7 8dbd 17ae a0bd
00000050: 1a9c 4dbc 44f1 ea3c 591c 94bd d4e3 473e
00000060: 8d5e 0cbe dc02 c8bd 3286 2bbc aeb3 13be
00000070: 18e2 0ebe 7480 c23d 8d99 f4bd 2197 1f3d
00000080: 5b84 d4bd dd02 edbd 2fed 233d 93ee 8d3d
00000090: c538 f23d 3158 583d 7235 d93d d120 c9bd
000000a0: c17f d23d 8b07 2d3d
-0.05983369 -0.08443633 -0.031886004 0.13299175 0.07651054 0.09816096 0.04426284 -0.090073965
-0.09564097 0.14562568 -0.035561915 -0.042044915 -0.053502366 -0.14279966 0.006704461 0.021923361
-0.016479587 -0.041772243 -0.06925921 -0.07845705 -0.012549425 0.028679498 -0.072319694 0.19520503
-0.13707943 -0.097661704 -0.010469006 -0.14424011 -0.13953435 0.09497157 -0.1194335 0.038962487
-0.10376807 -0.11572812 0.040021118 0.0693027 0.11827234 0.05281848 0.10605897 -0.09820712
0.102782734 0.04224352

u_model.model.2.weight f4 [42, 42]
00000000: 2583 003e c80f 4bbe b52b 2f3e 2159 323e
00000010: f990 a73d 8859 123e 62b2 29bd 938d 15be
00000020: 878d b43d 7d85 af3d ebcb 6fbd d9a0 18bc
00000030: 5f9e 643c 271a b6bd d313 1f3e c4cc d03d
00000040: 3e20 163d 0a32 4dbd 7b6a b83c f5ca e43d
00000050: f58a aa3d ecd1 b6bd 40a4 00be 1ea0 22be
00000060: e3ec 1d3e 2fbc f8bd 016d 64be e411 f4bd
00000070: 5cd9 d2bc 91b3 0c3d b5cb 97bd 3c63 823d
00000080: 1f98 21bd 2dbb 1bbd 46fe b0bd c385 bfbd
00000090: 3b6c 843d a50b d1bc 251e 963c 286d 39be
000000a0: ddcc 0a3e d4e7 e5bc 612e 023d 007f b8bd
000000b0: ebef b63b f6f1 2abd d236 b8bd 30ce 703d
000000c0: e828 233e 3255 1abe 6890 c43d aa83 64bd
000000d0: 3caf 143e 20c0 3f3d 1223 13be 7427 33be
000000e0: ae48 d63d 04c7 b83d 63dd de3b 9371 523d
000000f0: 96e6 8f3d 7cff bfbd db6e 7d3d 8bbb 0dbe
00000100: d983 403d 41bc cbbd 3b48 e5bd ece0 bdbc
00000110: 2c2e eebc 0bd8 09be 03f8 87bd 9f95 333c
00000120: 0501 4abd 40be 0b3e 61e8 adbc c7ac 00bd
00000130: f00b aabd 433b 19be e041 eabc 280d 70bd
00000140: 7e7d 943b a787 af3c 9f4e 343e 0ed4 2fbd
00000150: d36e c03d d3c2 1abe 677d 0b3e e899 05be
00000160: 2f61 ad3c ed33 59be 9a31 fb3d 9aa0 75bd
00000170: d837 1ebe 8b1f 02be c698 9e3d 4088 153e
00000180: b054 033e cb47 41be f8c6 7bbd 31ed ef3d
00000190: f7b6 c4bd dea9 bcbd 7d2e 0d3e 4ee8 76bd
000001a0: 0a00 893d 1732 a73d bb5b 93bd 947f 6cbd
000001b0: 069e 5cbe 8ad8 f53d 9ffe ccbd cb9b b8bd
000001c0: 6174 a4bd 2530 98bd aa39 16be ca70 3cbe
000001d0: 7f0e 12be 763f 7cbc 4797 a73d 9af0 f13a
000001e0: dabd f33c 83bc 8dbd bd3e 913d cb68 963d
000001f0: 460a 1cbe 7ec7 e73d 68b2 083d 45fe bdbd
00000200: 2335 88bd ca02 103e 0b49 003d 5d7d 863d
00000210: 5d61 ca3d 5668 33be d867 353e d7ce 0b3e
00000220: fb26 b4bc 5be5 d93d d304 65bd 9898 dbbd
00000230: 9a63 7b3d 7af7 983d 9238 a33d 9141 46bd
00000240: 22ba 223c 1f20 14bc 2579 5aba 0bcb f5bc
00000250: b279 3a3d d0ef 833d b36f 303d 5208 0a3d
00000260: c4b8 87bd 4b4a 84bd 1d99 0b3e 109d 87bd
00000270: e348 ed3c 791c 64bd 19c9 dfbc 7ade 0d3e
00000280: 0178 583d 7eac 0fbd 733a 64be cfaf 03be
00000290: 3673 3fbd 9d07 a7bd efdf ab3d 4672 5bbe
000002a0: d135 523e e266 24be 65b3 213e 0238 453e
000002b0: 010c cb3d 6082 b33a ba47 293d b9f6 fa3c
000002c0: 82b0 86bd 7636 ff3c e717 d13d 5bd5 f63c
000002d0: d4d9 aebd be5b 6fbd 73ff 883d c525 a53d
000002e0: ee14 0ebe 6211 d73c 39df 073e 6622 b1bc
000002f0: b130 523e e8be f1bc 4852 0dbd b5ee 45be
00000300: 9bb0 29bd 4395 32be 3982 cdbd 4309 efbc
00000310: 5628 bd3d aefa 3c3e a9cc a33d 0902 dfbd
00000320: c51c 10be 87de 27bd 5ae3 a2bd 3b4e c2bc
00000330: d1ad 80be 9a38 21be 9051 79bd dca8 07be
00000340: 6a9f 2e3e 4b7a e3bc 0cb0 063e 203a a73d
00000350: 13c3 03be 8772 a7bb cf67 833b 1c7e b5bd
00000360: de6b 713c f73d 00be 4339 293d f0c5 67bc
00000370: 10da 483d ff81 b4bc 3d85 63ba 5c38 a23d
00000380: 7931 f1bc 7aad 94bd a15e 1e3e 8747 2d3e
00000390: 9df2 00bd d40b 803c 9a5f 783d d465 463d
000003a0: b81e de3c 7f59 5f3d 6237 c13c 5029 11be
000003b0: eeca babd cd21 563e 851f 42bd 64f0 c43d
000003c0: 327a ac3d 4c55 b23d 84fd 2ebc c1a9 30bc
000003d0: d987 e5bd 2e53 523e 8b42 003d 6a47 e13d
000003e0: 4f74 973d 4712 443e faec 863d 6650 6cbc
000003f0: 7a4a 7b3a c937 06bd af27 ab3c 6f1b 23be
0.12550028 -0.19830239 0.17106517 0.17416812 0.08181948 0.14291966 -0.041429885 -0.14604788
0.08816057 0.08570383 -0.05854408 -0.009315693 0.013953774 -0.08891707 0.15534906 0.10195306
0.036651842 -0.05009655 0.022511711 0.111715235 0.08327285 -0.08926758 -0.12562656 -0.15881392
0.15422396 -0.12145268 -0.22307207 -0.11917475 -0.02573841 0.034350935 -0.07411901 0.06366584
-0.039451715 -0.0380203 -0.08642249 -0.09351685 0.06465956 -0.025518248 0.01832492 -0.18108046
0.13554712 -0.028064646 0.03178251 -0.09008598 0.0055827997 -0.04173466 -0.08994831 0.058790386
0.15933573 -0.15071562 0.09597856 -0.055789627 0.14519972 0.046814084 -0.14368847 -0.17495519
0.10463081 0.09022334 0.0068012937 0.051377844 0.07026403 -0.09374902 0.0618733 -0.13841073
0.04700074 -0.09948016 -0.111954175 -0.02317854 -0.02907475 -0.1346132 -0.06639101 0.010960965
-0.04931738 0.13646793 -0.021228971 -0.031414773 -0.08303058 -0.14964013 -0.028595865 -0.058606297
0.0045315614 0.021426989 0.17608117 -0.04292684 0.09396138 -0.15113382 0.13622056 -0.13046992
0.021164505 -0.21211214 0.1226532 -0.059967615 -0.1545099 -0.12707345 0.07743983 0.14602757
0.12825274 -0.18875043 -0.06146905 0.117151625 -0.0960521 -0.09212087 0.13787265 -0.060280137
0.066894606 0.08163851 -0.071952306 -0.057738855 -0.21544656 0.12004192 -0.100095026 -0.0901409
-0.0803001 -0.07431058 -0.14670435 -0.184024 -0.14263342 -0.01539599 0.08183151 0.0018458546
0.029753614 -0.069207214 0.070920445 0.073442064 -0.15238294 0.11317347 0.033373266 -0.09277014
-0.0665076 0.14063564 0.03131966 0.0656688 0.09881852 -0.1752027 0.17715394 0.13653122
-0.021991244 0.10639449 -0.055912804 -0.10722464 0.061374284 0.074690774 0.07969774 -0.048402373
0.009932073 -0.009040861 -0.0008334092 -0.030004045 0.045526214 0.06442225 0.043075275 0.03369934
-0.06627038 -0.06459483 0.13632627 -0.06621754 0.02896542 -0.055691216 -0.02731757 0.138544
0.05284882 -0.03507661 -0.22287922 -0.12860034 -0.046740733 -0.08155749 0.08392321 -0.2143031
0.20528342 -0.16054872 0.1579109 0.19259647 0.09914399 0.0013695471 0.04132817 0.030635225
-0.06576635 0.031153899 0.10209637 0.030131033 -0.08537641 -0.0584371 0.06689348 0.080638446
-0.13875172 0.026253406 0.13268746 -0.021622848 0.20526387 -0.029509977 -0.034502298 -0.19329341
-0.04142819 -0.17439751 -0.100346036 -0.029179221 0.09236209 0.18455002 0.0799802 -0.1088906
-0.14073475 -0.040983703 -0.0795352 -0.023718944 -0.2513261 -0.15744248 -0.0608688 -0.13248008
0.17052999 -0.027768275 0.13153094 0.08165383 -0.12867384 -0.0051100883 0.0040101777 -0.08861944
0.01473519 -0.12523638 0.041314375 -0.014146313 0.049036086 -0.022034643 -0.0008679217 0.07920906
-0.029442536 -0.072596505 0.15465786 0.16921817 -0.031481374 0.01563064 0.060638048 0.048436955
0.027114257 0.05452871 0.023585979 -0.14175916 -0.09120737 0.20911331 -0.04739334 0.096161634
0.084217444 0.08707675 -0.01068056 -0.01078266 -0.112075515 0.20539543 0.03131346 0.10999949
0.07395231 0.19147597 0.065881684 -0.014423465 0.0009585988 -0.032768045 0.020892946 -0.15928434

u_model.model.2.bias f4 [42]
00000000: 4f91 e53b 13e6 4ebb cbd2 bebc a8ee 333c
00000010: 12c3 2d3c 218a 42bc 5e8c bebc f6be 843c
00000020: d116 383d 06aa 2c3d 2b80 bfbd b21a 30bd
00000030: 6bd4 05be 8ccb be3d 03e4 d3bd 5f62 a6bd
00000040: 0f70 4c3d da5e ec3d 5ea1 9f3d b16a d5bd
00000050: ed63 a93d dbd8 04bc 36e8 1dbe cf9d c9bc
00000060: eb08 a2bd a109 8bbd fc6f fd3b 6839 eebd
00000070: bcae 0e3d 6260 493d 0c93 8ebc ad69 c63d
00000080: db74 65bd 5897 763c 8887 d5bd 831d 5cbc
00000090: 21ea f03c a82a 2e3e 7889 ee3d c796 01bd
000000a0: c645 123e ca9c c5bc
0.0070058475 -0.003157024 -0.023293873 0.010982193 0.01060559 -0.011873753 -0.023260292 0.016204339
0.044943634 0.042154334 -0.09350618 -0.04299421 -0.13069312 0.09316167 -0.10346224 -0.081242315
0.049911555 0.11541529 0.0779445 -0.104207404 0.082710125 -0.008108343 -0.15420613 -0.024611382
-0.07911857 -0.06788946 0.007734297 -0.11632043 0.03483461 0.049164183 -0.017404102 0.09688125
-0.056019645 0.015050732 -0.10426241 -0.0134347705 0.029408516 0.1700846 0.11647314 -0.031637933
0.14284429 -0.024122614

u_model.model.4.weight f4 [42, 42]
00000000: 6d16 1e3e 6e43 283e 9a33 4dbd 8ec8 863e
00000010: 1072 f23d 21e3 06be 73d6 44be d83c d63c
00000020: b2bf dbbb d224 1e3e 9ad6 653d 6203 8fbd
00000030: 9f36 f0bc e8db cebd b3d8 053e 6db3 173d
00000040: b907 0c3e 3098 8d3d 2e34 30bd 2c1f a2bd
00000050: 5917 4dba 2efd 0dbe ccf4 b0bd b38a 453d
00000060: 6f79 833d bd8a 843c ce31 01be 46df 133e
00000070: 603a 833c 1ba0 c0bd 8252 ba3c e857 333d
00000080: 1ff3 ccbd 45e8 9f3c 9467 ddbd cef4 da3d
00000090: 15ea 85bd 7a41 03bd 7635 9ebd 068d e4ba
000000a0: 2989 023e b1f4 57bd de1c 903d bca9 ffbc
000000b0: 347e a4bd 2226 393d d9ca 263e c7ea 24be
000000c0: c583 dcbd bdf9 2e3e aa18 6dbd c620 b33d
000000d0: 64e6 df3d 6d89 7c3a 7ac2 47bd 9917 8bbd
000000e0: 28c7 123b fdbb 97bd f5e2 473c d43d 023c
000000f0: 723f 50bd 0e9f 03be 3700 0e3e 9f98 8a3d
00000100: 8b93 af3d 9bd2 e53d 629c 5dbd 75d0 213e
00000110: 4289 80bc 175c c83c 631c 7e3d aea8 8ebd
00000120: f3d3 33be ce03 453e 543b 523e 1b03 67bd
00000130: 2608 8ebd 8453 c93c 6bdb cdbd 9c80 d5bc
00000140: d41c fbbd 58d6 b1bd 49a6 13be 1bb1 28bd
00000150: 9ba3 91bd d4c4 afbd f397 073e d084 a6bd
00000160: 6a40 20be 8d9e 753d d2de 233e 4b09 bfbd
00000170: be2d 2a3d b5e3 febc 3318 84bd bf17 01bd
00000180: 7bee 9bbd 54f0 da3c 6b36 fcbc aaa2 bd3d
00000190: e3b2 8fbc d21c 01be 710a 6abd 238d ab3c
000001a0: 6df4 a03d dfbe 1e3e 857c ed3d fc2d 093e
000001b0: b641 c5bd f249 f5bc 710a 4c3e 7420 afba
000001c0: 8ce5 4a3d 5f04 d83d 24bc 533d 0224 733c
000001d0: 1e15 933d 92ec 5ebd b3ef c9bd 78fe cd3d
000001e0: fd0b a63d 3e4d 59bc 077f 4e3d 7013 823d
000001f0: d49a 293e 6eac 093e 577c 59bd ef81 3bbd
00000200: ac2e 4ebe eca8 a2bd 9c59 6ebe 5a41 bf3d
00000210: 7ab6 c83d 77f2 47bd 69f9 14bd 0c69 503d
00000220: 1a09 92bc cca4 3a3d b5c9 e1bb bdf3 c0b8
00000230: 75cd 1f3e bf85 7c3d 9c90 0fbe 40c7 533d
00000240: 37e4 70bd b7c2 9dbd 6a25 7c3e 732a 32bd
00000250: 6a3c 083c 29a1 73bd 2edf 57bc 5a19 5bbd
00000260: 3cb8 8bbc dd36 fd3a b9d0 0b3e 792e b83d
00000270: 8515 88be 0a37 743c 83d9 e1bd e075 c63d
00000280: a31d db3d 6e3f 6a3c d9d5 553d 321d 113e
00000290: 21d8 3e3d d502 e43d ae1e 69be 766a 05be
000002a0: 279c 1ebd c962 bbbd 0dfa 083e 90b4 023e
000002b0: bb01 d93c 5d9a 52bc 6c87 333e 07e9 02be
000002c0: cfc3 31b9 d4c8 223b ae43 14be af0b e0bd
000002d0: d371 0a3c 0ee7 da3d 582a ffbd 502c 4e3d
000002e0: df49 46bc d694 a03d a7b4 e63d 889d cebd
000002f0: 7a9f 29be 1907 af3d 5239 36be c2b6 b5bd
00000300: 9f0a 1a3e c4e2 f9bc 3a53 053d ff1c 30be
00000310: 0fb7 e9bd 0679 2e3d c521 3c3e bce8 0bbe
00000320: be88 2abc bc61 c6bc 3197 30be 02fd b13c
00000330: 8404 36be a0e1 b2bd aa43 b3bd 5c68 093e
00000340: c628 bebc b015 87bd fb4e 603d 3bb9 84b9
00000350: 0025 babc 4511 a23d a08d 1a3e 8fc4 2abe
00000360: aaaf 3abe 2fae 2c3d 072b 033e 88e7 b0bb
00000370: c263 383e e05c 003e 2db1 1fbe 7c13 12bd
00000380: ff7c 80bd b3b9 963d 2900 0e3c 6361 f93d
00000390: dbcd 08be 46a1 89bd a5f4 1bbe c77f 3c3e
000003a0: fd05 2dbd feab fabc b86c 05be 6b84 02be
000003b0: 9755 24be 5469 2b3e b695 bb3d cf44 123d
000003c0: 7cbe aabd c357 d53c dfcc bbbb d964 fabd
000003d0: bcba ed3d 707d 363c 7a95 233e 009f 35be
000003e0: 6755 13bd 599d c33d fd5c 47bd cc24 b73d
000003f0: dca4 143c bd65 0ebe 26f6 183d 922f 77bd
0.15438242 0.16431972 -0.05009804 0.26324886 0.11838162 -0.1317258 -0.19222431 0.02615206
-0.0067062015 0.15443733 0.056112863 -0.06983067 -0.02932292 -0.101005375 0.13070945 0.037036348
0.13674821 0.06913793 -0.043018512 -0.07916102 -0.00078236085 -0.13866112 -0.08640441 0.048227977
0.06419646 0.016179437 -0.12616655 0.14440641 0.016019046 -0.09405538 0.02274442 0.043785006
-0.10007309 0.019519934 -0.108107716 0.10691224 -0.06538788 -0.032044865 -0.077250406 -0.0017437048
0.12747635 -0.05272359 0.07036756 -0.031208865 -0.08031884 0.045202382 0.16288318 -0.16105185
-0.107673205 0.17087455 -0.05788485 0.087464854 0.109326154 0.0009633515 -0.04876945 -0.0679161
0.0022396538 -0.07408903 0.012200107 0.007949311 -0.050841756 -0.12853643 0.1386727 0.067673914
0.085730635 0.112218104 -0.054104216 0.15802176 -0.01569045 0.024457974 0.06203879 -0.06965767
-0.17561321 0.19239733 0.20530444 -0.056399446 -0.06935148 0.024575956 -0.10051616 -0.026062302
-0.12261358 -0.08683461 -0.14418902 -0.041184526 -0.071112834 -0.08582464 0.13241558 -0.08130801
-0.15649572 0.05996566 0.16002968 -0.09327944 0.04154753 -0.031114439 -0.06449928 -0.031516787
-0.07613846 0.026725926 -0.030787667 0.09259541 -0.017541355 -0.1260865 -0.057138864 0.020941323
0.078591205 0.15502499 0.11596016 0.13396448 -0.09631674 -0.029942486 0.19925858 -0.0013361112
0.04953532 0.10547709 0.051693097 0.014840128 0.07181762 -0.05442483 -0.09860172 0.10058302
0.08107755 -0.013263045 0.05041411 0.06351364 0.16562968 0.13444683 -0.053097095 -0.04577821
-0.20134991 -0.079423755 -0.23276371 0.09338637 0.0980043 -0.048815217 -0.03637067 0.05088143
-0.017826606 0.04556732 -0.0068905004 -9.200673e-05 0.1560572 0.061650988 -0.14020008 0.05170369
-0.058811393 -0.077031545 0.24623647 -0.043497514 0.008315185 -0.059479866 -0.013175769 -0.053490974
-0.017055623 0.0019318719 0.1365384 0.08993239 -0.26578918 0.0149057 -0.11027815 0.096904516
0.10699012 0.014297349 0.052205894 0.14171293 0.046592835 0.11133353 -0.2276561 -0.13028893
-0.038723137 -0.09149701 0.13376637 0.12764192 0.026490083 -0.012854186 0.17532128 -0.12784205
-0.0001695298 0.0024838941 -0.14478943 -0.109397285 0.008449989 0.106886014 -0.12459248 0.05033523
-0.012102573 0.07840888 0.112649255 -0.100886405 -0.16564742 0.08546276 -0.17795303 -0.08872749
0.15043114 -0.030503638 0.032550074 -0.17198561 -0.11411869 0.042595886 0.18372257 -0.13663
-0.010408578 -0.024216525 -0.17245175 0.021727089 -0.1777516 -0.08734441 -0.0875314 0.13418716
-0.023212802 -0.065959334 0.05476282 -0.0002531501 -0.022722721 0.0791345 0.15093088 -0.16676544
-0.18231073 0.042158302 0.12809382 -0.0053986944 0.18006805 0.12535429 -0.15594931 -0.035663113
-0.06273841 0.07359638 0.00866703 0.12176778 -0.13359778 -0.067202136 -0.15230043 0.18408118
-0.04224204 -0.03059959 -0.13029754 -0.12745826 -0.16048275 0.16739398 0.091594145 0.035710152
-0.08337113 0.026042825 -0.0057312096 -0.122262664 0.116078824 0.011138305 0.1597499 -0.17736435
-0.035970118 0.09551496 -0.048672665 0.08942565 0.009072509 -0.13905998 0.03734412 -0.0603481

u_model.model.4.bias f4 [42]
00000000: c19a 2b3e 676c cd3d 9a60 c8bc db83 133e
00000010: 5ea5 bb3d 9a61 4a3d 5cc4 8b3c 1dee 0fbe
00000020: 8c69 403d 9a06 d23c 2063 adbd bd56 f8bd
00000030: 14f3 c0bd e7b1 aabd adc5 87bd 7ba8 0ebe
00000040: d99c edbd a54f 9fbd e714 e7b9 953b f33c
00000050: 0277 153e 91ab 2a3d 98ac bbbd 95ce 4c3d
00000060: 6552 d03d 074a ce3d 34ff 8e3d 1675 983d
00000070: 78ae 7c3d 60bc d8bc 1916 20be d515 82bd
00000080: cfbb 693d 8eae 793d 8820 95bd 6fb4 073b
00000090: d72a 263e 41f8 f2bd eadb 163d 3a7c 1e3c
000000a0: 8889 293d d92e 953d
0.16758253 0.10030442 -0.024460126 0.14405768 0.09162401 0.049409486 0.017061405 -0.14055677
0.046975657 0.025637913 -0.08466172 -0.12125919 -0.094213635 -0.083347134 -0.066295005 -0.13931458
-0.11602182 -0.07778863 -0.00044075327 0.029691497 0.14596179 0.041667525 -0.09163779 0.0500017
0.101719655 0.10072713 0.0698227 0.07444207 0.061689824 -0.026457012 -0.1563343 -0.063518204
0.057063874 0.060957484 -0.072815955 0.0020706912 0.1622728 -0.11863757 0.03683082 0.009673173
0.041390926 0.07284326

u_model.model.6.weight f4 [42, 42]
00000000: 8149 e73d 5cd5 6ebc 35b6 283d 9de9 27be
00000010: d843 cf3c d8e8 be3d a2a8 ecbd 5fa7 2d3e
00000020: 3d8d 153e 6e68 00bd 6f17 53bd 7cab 3b3e
00000030: a5fd a03d 033e e03a c853 c33d 74a3 05be
00000040: 8f5d 3d3e fb5c 2bbd 56f3 07be 841c 1d3e
00000050: f83e c1bd 1eb9 fd3d 0952 1c3d 345f 00be
00000060: 2952 8c3d 6e41 583e 8581 a6bd 7738 673d
00000070: 43ad 23bb 3799 abbd 3253 b23c 52f3 4d3e
00000080: fac6 463d 07eb 113e 688e 98bd 74cf 6fbd
00000090: fec7 01bc 6a95 093d cd4d 983a 9e2e a2bc
000000a0: 757a 8c3d 7de4 3fbe 3a21 e73d 629b 143e
000000b0: 1367 26be a8d4 dfbc 7854 6d3d 39c5 a93d
000000c0: f63f 6b3d 8ad7 103d 5f3a 533e 0105 1a3c
000000d0: 38e2 c13d 32e9 d3bc 95a7 423e 5629 9e3d
000000e0: 0b9c 1e3e 3686 a03d 04e2 113e fb5b 12bd
000000f0: c02e 2ebe 0f5c fe3d af68 14be 7b88 4c3d
00000100: 530d 883d 4734 99bd 9af5 483e 83ca 953c
00000110: 267e 08be f29f 97bd 83f6 8abd 6a5e 9d3d
00000120: 31dd b0bd a12e a73d 1058 99bd cf0d 3f3e
00000130: c96d 59be ecde 163c b50e a03d 7763 d63c
00000140: 56a0 d5bd d172 753e 262e 613e a779 aa39
00000150: c9de 9fbd bff9 e13d 405c 36be 9868 1e3d
00000160: 2207 03be 0eb8 a83d e1b2 4f3e a777 ac3e
00000170: 7a55 e4bd 5bc2 553e 11b6 35be b9e5 93bd
00000180: 1561 933e eb65 823e c09f c4bd 89c9 51be
00000190: dd6e 053e 57bc 21bd 8c1f 1fbc da5a b83d
000001a0: 3584 563b 9434 95bb 8937 9e3c 85d9 18be
000001b0: 8686 a0bd eed2 1f3e f379 193e 2861 6abe
000001c0: bfb0 f3bd 1646 963d 58dc d23a 12d4 2abe
000001d0: e891 0fbe e496 b1bd f2d0 0ebd 645c 10be
000001e0: 9b33 c9bc 8ee0 6cbe 4408 a6bb 1128 923d
000001f0: 7f76 cdbc 64e2 4bbd f168 2fbe 5ff5 4fbe
00000200: 67c5 06bd eede 023c df87 7a3e c479 92bd
00000210: 80c2 cfbc b2a3 85be f0c1 933d bc76 ffbc
00000220: af16 ad3c 0b89 a2bd 394c 8ebe 591d 45be
00000230: 8b93 0bbe 780e b03d 6988 69be b0ba 4a3d
00000240: 6038 e43d 70b3 74bc 0ceb 0abd 9e87 0bbd
00000250: 8afd 21be c527 873e 12bf 993d 8f14 8d3d
00000260: 3a17 9dbd b503 f23d 5d96 b03e 6f9e 1d3e
00000270: 6787 163e 299a 883d 1383 2a3e c47d 9b3b
00000280: 9125 883e eb76 d43d 266e 54be 3155 003e
00000290: 3ee0 99bd 5371 9abd f98d 01bd a1c9 be3b
000002a0: 411f 203c af52 acbd 5181 cdbd c8e7 233e
000002b0: c200 cc3d e31c c6bc 7024 3dbd be3c 0dbc
000002c0: 5fe0 5fbd cf8c c33d 43c0 2e3e cb86 a4bd
000002d0: 0b12 0abe 6e9f 22be ed9e 7f3d 2d0d 8d3c
000002e0: 89af 343d d235 b2bd 6a04 9e3d 9eaa 52bd
000002f0: 4100 2dbc 7cb1 af3d 247b 8b3d b8cd 923c
00000300: 116c d8bd 64fc 18be 02d9 94bd c650 23be
00000310: 9496 94bd 3152 41bd 0384 02bd 1225 0cbd
00000320: b51c 073e 740e 2abd c6ce a33c 8fe5 5a3a
00000330: b26c 63bd 6e78 053e 16a3 453e 1182 9d3d
00000340: 5afc 0abe 2878 333e 0de9 563d d889 423c
00000350: 15b4 913d bed7 02be edfd 26be bb9b 673e
00000360: 79dd c13b e602 e83d 2972 86bd ad2e 043c
00000370: f846 7e3d dea9 fb3c ae46 f8bd 4fb7 1c3e
00000380: 3c9b b73d 75b4 9b3d 67ee 453e daaf c3bd
00000390: 77c6 d23d 1a95 03bd e12f 5d3c cef2 8f3d
000003a0: fb92 273d b86a 213d c9f5 893d 6245 ba3d
000003b0: eb10 a5bc 1c87 153e 3a7a 2d3e 2a68 1f3d
000003c0: 533d 1fbe 676b 3e3d ec74 adbd e4d9 2c3e
000003d0: a52a 29be d0d0 40bd af74 eabd b6bc b2bd
000003e0: 4ad7 3abe 05ed 093e dda0 023e 8a87 433d
000003f0: 814a b93c aa05 0f3e b2a2 143b 33de 443d
0.11293317 -0.014577236 0.04118939 -0.1639771 0.025300905 0.09321755 -0.11555602 0.16958378
0.1460466 -0.031349592 -0.05153602 0.18327135 0.07860879 0.0017108325 0.095374644 -0.13050634
0.18492721 -0.04183672 -0.13276419 0.15342909 -0.094358385 0.12388824 0.038164172 -0.12536317
0.06851608 0.2111871 -0.08130173 0.056450333 -0.0024975098 -0.08378833 0.021768186 0.2011235
0.048529603 0.14249812 -0.07449037 -0.058547452 -0.007921217 0.033589758 0.0011619866 -0.01979762
0.06859294 -0.18739505 0.11285634 0.14512399 -0.16250257 -0.027323082 0.057941884 0.0828957
0.057434045 0.035361804 0.20627736 0.009400607 0.09466976 -0.025868032 0.1900924 0.07722728
0.15489213 0.07838099 0.14246374 -0.03573225 -0.17010021 0.124199025 -0.14493059 0.049934845
0.066431664 -0.07480674 0.1962494 0.018285042 -0.13329372 -0.07403554 -0.067853 0.07684024
-0.08635939 0.08163191 -0.074875 0.18657611 -0.21233286 0.009208422 0.07815305 0.026170475
-0.10430972 0.2396958 0.2199026 0.00032515565 -0.07806165 0.110339634 -0.17808628 0.038673967
-0.1279569 0.08238231 0.2028308 0.33685037 -0.11149116 0.20874922 -0.17745234 -0.072215505
0.28785005 0.25468382 -0.096007824 -0.20487036 0.13030572 -0.039486255 -0.009712111 0.090017036
0.003273261 -0.004553387 0.01931359 -0.14926727 -0.07838158 0.15607807 0.14987926 -0.22888625
-0.11898946 0.073375866 0.0016087396 -0.16682461 -0.14020503 -0.08671358 -0.034867235 -0.14097744
-0.02456074 -0.23132536 -0.0050669033 0.07136548 -0.025080917 -0.04977645 -0.17129876 -0.20308445
-0.0329031 0.007987721 0.24465893 -0.07152131 -0.0253613 -0.26101452 0.07214725 -0.031184547
0.02112898 -0.07936295 -0.27792528 -0.19249476 -0.13630502 0.0859651 -0.22805943 0.049494445
0.11143565 -0.014935359 -0.033915564 -0.03406488 -0.15819374 0.2639753 0.07507147 0.06888687
-0.07670446 0.11817113 0.34489718 0.15392469 0.1470009 0.06670029 0.16651563 0.004745217
0.2659116 0.10374244 -0.20745143 0.12532498 -0.07513474 -0.07541146 -0.031629536 0.005822376
0.0097730765 -0.08414208 -0.10034431 0.16006386 0.09961082 -0.024183696 -0.046177328 -0.008620439
-0.054657336 0.095483415 0.1706553 -0.08033522 -0.13483445 -0.1588113 0.062407423 0.017218197
0.044112716 -0.08701672 0.07715686 -0.051432244 -0.010559143 0.08578774 0.068105966 0.01792036
-0.10567487 -0.1494003 -0.072679535 -0.15948781 -0.07255283 -0.047197524 -0.031864177 -0.03421504
0.13194545 -0.04151769 0.019996058 0.0008350247 -0.05552358 0.13034222 0.19300494 0.07690824
-0.13572827 0.17526305 0.05246835 0.011873685 0.07114426 -0.12777612 -0.16307802 0.22618
0.005916294 0.11328678 -0.06564743 0.008067769 0.0620794 0.030720647 -0.12122856 0.15304302
0.089651555 0.07602779 0.19329225 -0.095550254 0.102917604 -0.032124616 0.013500185 0.07028733
0.040911656 0.039408416 0.06736333 0.09095265 -0.020149669 0.14602321 0.16941157 0.038917698
-0.15550737 0.046489146 -0.08469567 0.16879994 -0.16520174 -0.04707414 -0.11448037 -0.087274
-0.18246189 0.13469322 0.12756677 0.047736682 0.022618534 0.13967004 0.0022679982 0.04806347

u_model.model.6.bias f4 [42]
00000000: f44c a73d 727b fabc 85b6 ed3d c068 153d
00000010: 7395 ff3d b427 2d3d 4182 3e3c c735 0fbd
00000020: 362b 89bc 50ce 98bd 49d4 903b 543c 36bc
00000030: 0ca5 6bbc 0d15 eabd 07aa fc3d 28a7 19bd
00000040: 36f4 e1bd d82f 8cbd 09e8 eabd be5e 9ebd
00000050: b34b e33d d639 043e 61d1 dd3c 152c a53c
00000060: e4f7 d9bd 3f47 babd 33c6 ebbd 9409 b7bd
00000070: 97c6 023d a634 92bd 781c 5e3d 34a7 183e
00000080: f932 babd ac69 9a3c 80e4 f0bc c85e 1b3d
00000090: 258a cc3d cab2 8ebd c994 8d3d 6933 a83d
000000a0: 2759 96bd b7ba ee3c
0.081689745 -0.030576441 0.116070785 0.03647685 0.12479677 0.042274192 0.011627735 -0.034963395
-0.016744237 -0.07461226 0.0044198376 -0.011122782 -0.014382612 -0.11429796 0.12337118 -0.03751293
-0.11032908 -0.06845063 -0.114700384 -0.077329144 0.11098423 0.12912688 0.027077379 0.020162622
-0.106429845 -0.0909562 -0.11512413 -0.08937374 0.03192767 -0.07138948 0.05422637 0.14907533
-0.090917535 0.018849216 -0.029405832 0.037932187 0.099872865 -0.06967695 0.06913144 0.08212931
-0.07341223 0.029141767

u_model.model.8.weight f4 [42, 42]
00000000: d62a e43d c5ff e2bd 1c0c bc3c 9616 3abb
00000010: 203b 99bd b720 35bd 09fe a03b 4a43 55be
00000020: ef7c 20be d848 173e 99e8 b5bd c037 3c3c
00000030: 8b68 0a3c 4b24 9a3c 7e6c 013e 01ac a3bd
00000040: 88c7 553e d569 75bd ef84 ba3d a41a 2fbe
00000050: 9a12 41bb 9bcd 9abd 5ae5 fe3d 50cf 013e
00000060: d44d d83c 6c32 2d3e a09e f8bd 3580 893d
00000070: 2487 41be be74 923d 6588 12be e921 c9bd
00000080: 7a09 f83d 6076 57be ce0b d9bd d9ff 7f3d
00000090: 52ca dbbb 77dd 1fbd 7cbf 4bbe ff3e 37be
000000a0: 1d02 93bd 9d05 cf3d afd1 acbc b167 94bd
000000b0: 929a 5ebd f92f dc3d 499a 20be 434f 1f3e
000000c0: c286 d43d 5532 86bc 30ed 0dbe 21bf d93d
000000d0: a7c6 d93b eca4 903d 4587 f23d f203 9bbd
000000e0: 8abc debd 00d8 2fbe 436f 9f3a 5d37 bebd
000000f0: 457c efbd ef67 783d c662 f6bc c944 163e
00000100: 18f1 8bbe 14fc dcbd 834c f13c d482 0c3e
00000110: 30dc 01be 8963 1ebe 0c39 2dbe f2af fc3d
00000120: bfbf 443d 3da5 08be 8577 10be cb0b b8bd
00000130: f3e8 513d 6cd0 56bc 974c 7ebe 9acb 75bd
00000140: 91e5 1ebe 3e44 183e c62d 62be 1a58 4dbd
00000150: 9d5b a8bd 0320 5cbe eacd 4f3d 845c 8a3d
00000160: c303 64bc 3686 34be aef8 4c3d 6716 79bd
00000170: 7741 d0bd 9583 87bd 7772 c2bd fa06 04be
00000180: 606b 2b3e e0a4 203e f6bb 1d3e a0bc 13be
00000190: 6966 31bd c696 24be 1cac 873d 73b7 74bd
000001a0: 2c9f c33d edfa 303e 549b 343e 52c8 7b3d
000001b0: d175 843e b78e 56bd 238a 073e af68 663e
000001c0: 3af3 04be 7f6b c63c 7560 76bd 8a4b 883c
000001d0: 84ff 393d 5b1f 32be 309c 493e e174 323d
000001e0: f15e abbd cb93 96bd d2bd 69bd 9e97 5bbd
000001f0: 1e0f b93b 864f df3d ffa3 7d3e e06d dc3c
00000200: 3233 d03d 571f 6ebd 3bf9 f9bd 990c 093e
00000210: a6a0 713e be1f 01be 7ba0 0c3d d3d3 2b3e
00000220: 93ca 903d 0194 413e 34cc 893d aa94 abbd
00000230: 950d 8abd 06b8 db3d 228b f03d 0f34 213e
00000240: b936 04be 1b5a 273e f1e8 01ba 9134 573d
00000250: 8e5b 7abe 8c55 953b c1d9 74be c101 c4bd
00000260: 7bd2 cc3c 1767 01be cff7 21be 3cc0 1d3e
00000270: b1c1 e7bc 2329 ef3d 0187 39bd 7ecc 403d
00000280: e564 21be 747e 56be cfbc 0cbd ebe4 393d
00000290: ad58 bebd 8235 fdbd 78aa cbbd 95b8 833b
000002a0: 2394 913e 5d44 923c bb7e 4d3d 25c5 10be
000002b0: 00e6 1fbe 7947 85bd a7e8 7e3d 7ac7 2bbd
000002c0: 9d73 9abe e4d2 803e a130 d83d d5ba 653e
000002d0: 2472 203d 2320 c73d effe 573e 4e15 5fbe
000002e0: de90 a33d 5fad e6ba aff1 f7bd 579f 71be
000002f0: cd31 2abc 0f38 c43a 1efd 5bbd d0c5 01be
00000300: a053 dfbd aafc 903e 0d88 3abe 3676 9a3e
00000310: 226f 89be c738 68be 909d f63c 85bb 5abd
00000320: 8d69 73bd f355 7abe d185 babd 0430 3bbd
00000330: be2a cebd 48f4 573e 138f 73be 5e4f 8dbe
00000340: d80a f93d 542c 1fbe 0b8b 8d3e 7047 6cbb
00000350: 35b9 613e 8057 84be efc5 52be 337a 183c
00000360: c6c5 4fbc 3534 61bd 3f2d 45be 3b9f 2b3e
00000370: a7fe 103d 4c3e a93c 6001 523e a0ae ca3d
00000380: 6c86 963e 45ff 8bbe f495 d0bb b235 3d3e
00000390: a794 dabd 221f 63be be21 4cbe 6d25 a33d
000003a0: 0384 ecbd 32b9 55be 474e f4bd 8259 243e
000003b0: 49e1 24bc 382f 033e fcc1 5d3c 9939 5dbe
000003c0: 2af3 d5bd 5397 14be 66fd 01bd 92f6 76be
000003d0: 998c aa3c 332e 033d 4033 4c3d 7263 afbc
000003e0: f91f 3abe d1e9 bfbd 7ca1 b83d 1efd c53d
000003f0: a61b 8cba 6ee4 1ebe 10b4 16be 6dc6 213e
0.11140983 -0.110839404 0.022954993 -0.002839481 -0.0748198 -0.044220652 0.004913096 -0.2082645
-0.15672658 0.14773881 -0.08882255 0.011487901 0.008447777 0.018816134 0.12639043 -0.079917915
0.20876896 -0.059915382 0.09107386 -0.17100006 -0.002946055 -0.075587474 0.12446089 0.1267674
0.026404299 0.16913766 -0.1213963 0.06713907 -0.18899208 0.07151173 -0.14309843 -0.09820921
0.121111825 -0.2104125 -0.10597955 0.062499855 -0.006707468 -0.039029565 -0.19897264 -0.17895125
-0.071781375 0.101084925 -0.021096079 -0.0724634 -0.05434663 0.107513376 -0.15683855 0.1555758
0.103772655 -0.016381422 -0.13860011 0.10632158 0.0066459957 0.07062706 0.11842207 -0.07569112
-0.10875805 -0.17172241 0.0012163896 -0.092879035 -0.116936244 0.060645994 -0.030076396 0.14674677
-0.27332377 -0.107902676 0.029455429 0.13721782 -0.12681651 -0.15467657 -0.16916293 0.123382464
0.048034426 -0.13344283 -0.14108093 -0.08986624 0.05124755 -0.013111215 -0.24833904 -0.060008623
-0.1551726 0.14869782 -0.22087774 -0.05013285 -0.08220599 -0.21496587 0.050733484 0.06755927
-0.0139169125 -0.17629322 0.050041847 -0.06081238 -0.101687364 -0.06616894 -0.09494489 -0.12893286
0.16740179 0.15687895 0.15403733 -0.14427423 -0.043310557 -0.1607314 0.06624624 -0.059745263
0.09551844 0.1728322 0.17637378 0.061470337 0.25871137 -0.052382197 0.13236289 0.22500871
-0.12983409 0.02422118 -0.060150582 0.016637582 0.045409694 -0.17394774 0.19688487 0.043568496
-0.08367718 -0.07352408 -0.057065792 -0.05361139 0.005647554 0.1090384 0.24769591 0.026907861
0.10166015 -0.058135357 -0.1220574 0.13383712 0.23596439 -0.12609765 0.034332734 0.16780023
0.07069888 0.18904115 0.06728402 -0.08377965 -0.06740872 0.10728459 0.117452875 0.15742515
-0.129115 0.16342966 -0.00049556704 0.052540366 -0.24448988 0.004557317 -0.23911192 -0.09570647
0.025002709 -0.12636982 -0.15817188 0.15405363 -0.028290601 0.11677768 -0.045294765 0.04707002
-0.15761144 -0.20946676 -0.03435975 0.04538433 -0.09294257 -0.123637214 -0.09944624 0.0040198066
0.28433332 0.017854864 0.050169688 -0.14137705 -0.15615082 -0.06507773 0.062233593 -0.041938283
-0.3016633 0.25160897 0.1055615 0.22434552 0.039171353 0.097229265 0.21093343 -0.21785471
0.079866156 -0.0017599276 -0.12106644 -0.2359594 -0.01038785 0.001497032 -0.05370819 -0.12673116
-0.10904622 0.28317767 -0.18215962 0.30168313 -0.268426 -0.22677909 0.030104429 -0.05340149
-0.059426833 -0.2444685 -0.09107555 -0.04570009 -0.10066746 0.2108928 -0.23785047 -0.27599615
0.121602714 -0.15544254 0.27645144 -0.0036053322 0.22043307 -0.25848007 -0.20583318 0.009306478
-0.01268143 -0.05498143 -0.19255541 0.1675996 0.035399105 0.020659588 0.20508337 0.09896588
0.2939943 -0.27343193 -0.006365532 0.18477514 -0.106728844 -0.22179845 -0.19934747 0.07966123
-0.11548617 -0.20871428 -0.11928993 0.1604977 -0.010063478 0.12810981 0.013535019 -0.21604003
-0.104467705 -0.1451085 -0.0317358 -0.24117497 0.020818995 0.03202648 0.049853563 -0.021409724
-0.18176259 -0.09370769 0.09015176 0.09667419 -0.0010689392 -0.15516827 -0.14717126 0.1579835

u_model.model.8.bias f4 [42]
00000000: 3252 033e c770 a7bd fe5c 023b 5cd8 ba3d
00000010: bfb5 c73d 7b14 c4bc efa2 c33d 17a3 f83d
00000020: a534 563d 89db a43d 0518 9d3c 31f7 f03d
00000030: 28f8 073a 97b6 2d3d 366a 69bd 8343 06be
00000040: a755 33bd 5fa8 fabd ad60 41be 47b1 bcbd
00000050: c3e5 d1bd faf4 ee3b d73e 50bc 7406 853d
00000060: adfa 6e3c 6326 023e 687f bfbd 4c1f 753c
00000070: 0e72 dd3d acd5 a33d 72af 6dbd e464 543d
00000080: abbd ffbd 0001 8b3d 6d18 f3bd a203 56bc
00000090: da12 123e e47c 8e3d e3a4 77bd d168 b53d
000000a0: 2378 0a3e c88f 9fbd
0.12824324 -0.081758074 0.0019891853 0.091232985 0.09751462 -0.023935547 0.095525615 0.12140482
0.0522963 0.080496855 0.019176492 0.11765898 0.00051868195 0.04241046 -0.056986056 -0.13111691
-0.043782856 -0.122391455 -0.18884535 -0.092135005 -0.10248902 0.007292387 -0.012710295 0.064953715
0.014586133 0.12709956 -0.09350473 0.014961075 0.1081277 0.07999739 -0.058028646 0.05185403
-0.12487348 0.067873 -0.11869893 -0.01306239 0.14265004 0.06957415 -0.060459983 0.08857883
0.13522391 -0.07791096

u_model.model.10.weight f4 [42, 42]
00000000: 4df6 4bbd b84c 183e 6e47 b03d dc59 323e
00000010: 174d 0c3e 8e81 fabd 5774 a5bc a432 f73c
00000020: 9909 a3bd 11d9 db3d 2d06 19be 2d6c 9dbd
00000030: 7d14 1e3d bbd3 eabd 456a d23d 3f5c 2e3d
00000040: 29bd 01bd a543 8b3d 18bf 0dbe 5e9e 373e
00000050: 6d93 05bd ccd3 a83c 4f32 4abe e982 81bd
00000060: b71d dcbc 04f9 f4bd 75c2 7bbd 716c 91bd
00000070: 0332 a23c f824 72bc a450 e13d 2a81 7dbd
00000080: 9ddc a0bd 784c 28be c078 7bbb 9b5d 8f3d
00000090: 38bb 353e 0cf3 b0bd 98e8 fcbc c8d0 f5bc
000000a0: 71f7 243e 1b46 3bbd 4c42 17be 84e4 5f3d
000000b0: 9628 04be bfb6 903d e137 c1bd 7492 a8bd
000000c0: c86a d93d b551 45be 94ef 79bc 2f8e c23d
000000d0: ce90 fd3b a309 5d3d 196b 993d d06c 353e
000000e0: 6fd4 a13d 4275 063e 1754 fc3d ecb9 0c3e
000000f0: 7d08 b5bd 430f 48be 585c ab3c 5c1b 003c
00000100: 00d1 403e eaa0 da3d 9565 f9bc 4137 cd3c
00000110: a240 9bbd e1b2 483e 0c48 57bc 31bd c03d
00000120: 4a92 17bd 0604 4d3e 6504 a7bd be60 023e
00000130: 401d 333e 0637 3a3d 2e9c e3bd 439d 4cbe
00000140: 5c5c 36bd d1ea 2cbe 7676 763b 2dda 1bbe
00000150: eb00 f63c d5bb 683d 7e4a 22bc f46b 5e3e
00000160: 08ae debc f1d3 0cbe 5b66 2dbe 3c36 233e
00000170: ca32 cc3d 98c1 ddbd 3f78 e1bd 1e1e 4d3c
00000180: 496f 5bbe 6046 28be 5587 fc3d 0e96 273e
00000190: e89e dabd 9370 11be 7c4a e3bc 2d22 3c3d
000001a0: 2c19 b23d 517e 013e 156d 0ebd cbb1 42be
000001b0: 5623 7fbe 47f2 20be ae2f 18bc 057f 5abe
000001c0: 43fe 9bbe 3899 433d de89 8c3e 5b3b 133c
000001d0: 0189 fdba ed8d f0bd 5c08 4fbe 983b 77be
000001e0: ae88 c23d 547e b2bd 2de4 823e 7257 213e
000001f0: 944d 003c e87f ee3c 11a4 153e 923c 473e
00000200: 4e9a 253e 930a 403e 8295 b63d 8f57 ec3b
00000210: 6359 553d aa55 e53d 6725 26be 7327 8a3d
00000220: 6514 163e da8c 71bd 0ad7 61bd c6ab e1bd
00000230: 6172 953d 375f 213e 1ffd 57bd 6c9f cebd
00000240: 7038 733d 10f7 6c3d 9836 bdbd 9af0 4b3e
00000250: 1cba c8bc 260f a2bc 8333 f03d 7bb2 02be
00000260: 6cf0 eb3d d341 53be 381e 903c 6f48 173e
00000270: 46ab 3b3e 1885 43be 58d7 55bd 4352 19be
00000280: 9e92 49bd 20fe 59bb 916d babd f169 ce3d
00000290: 5460 c33b 37fb b7bc d277 f7bc ab08 283e
000002a0: 8ce5 81bd fa6f 733b 4260 3abe 9958 38bd
000002b0: 35e7 d7bd e61a 65bc 6ba7 bd3d f1ad 80bd
000002c0: 6e80 0bbe 3d23 023e c84f 813c ff5d 7f3d
000002d0: ec62 913d 7dac 26be 8d37 17be 426a e43d
000002e0: 6e98 c5bd 3ee2 ddbd 5839 273e 7a09 39bd
000002f0: af90 b13d b141 5e3d 764d 47be 31b1 9abd
00000300: 0ea2 f23c 7ac7 25bd 35f0 213e 88ae a6bd
00000310: 058a 38be c209 473d 4bab 333e efe5 42bc
00000320: 85bb 863d d1e8 bf3c 345c 35ba f322 d93c
00000330: 30f8 203d af34 063e ed3f dfbd 7758 6bbd
00000340: daea 103e 5448 ce3d 1e6d eb3d 6773 1ebe
00000350: b444 6e3e 4ce1 b0bd da9a fa3d 8bf2 6d3d
00000360: 0f2d 393e 490f 74bd 97d6 64bd 92b8 213e
00000370: 3c18 813e d017 ea3d dd3c db3d 1084 7c3d
00000380: 065b 67bd bf67 22be c010 0a3d eb87 c73c
00000390: 9961 d8bd 802c a3bc d22d 8abd d2c6 56be
000003a0: 627a c13d 2552 d0bc 209e 963d 7a5c f93c
000003b0: f5db be3d 9ce1 033e 93f9 3cbd 68be e4bd
000003c0: fb63 393c c8c9 12be ce35 a4bd 13a0 c93d
000003d0: c65e c2ba adb7 8f3c af31 ddbc e4d1 123d
000003e0: 8739 1f3b 4f3b 993d 05fe dbbd 8932 783d
000003f0: e5f9 743c 9f23 823e dcaa b63c c4f9 823e
-0.049795438 0.14873016 0.08607374 0.17417091 0.13701282 -0.12231742 -0.020197077 0.030175515
-0.07960815 0.107347615 -0.14943762 -0.076866485 0.038593758 -0.11466166 0.102741756 0.04256844
-0.031674538 0.068000115 -0.13842428 0.17931506 -0.0326113 0.020608805 -0.19745754 -0.06323797
-0.026869638 -0.119615585 -0.061464746 -0.07100762 0.019799238 -0.014779322 0.11001709 -0.06189076
-0.07854579 -0.1643542 -0.0038371533 0.07000276 0.177472 -0.086401075 -0.030872628 -0.030006781
0.16110016 -0.045721155 -0.14771384 0.05466129 -0.12906107 0.07066106 -0.09434486 -0.08231059
0.1061607 -0.1926945 -0.015254874 0.094997756 0.0077382093 0.05396427 0.074911304 0.1771729
0.079018466 0.13130668 0.12320726 0.13742799 -0.0883951 -0.19537072 0.020918056 0.007819023
0.18829727 0.10675223 -0.030443946 0.025050761 -0.07580687 0.19599487 -0.013139736 0.094110854
-0.037004746 0.20021066 -0.08155135 0.12732217 0.17491627 0.04546263 -0.11113773 -0.19981866
-0.044521675 -0.1688645 0.003760723 -0.15219946 0.030029735 0.056819756 -0.009905456 0.21720868
-0.027182594 -0.13752724 -0.16933577 0.15938658 0.09970625 -0.10827941 -0.11009263 0.0125193875
-0.2142917 -0.16433096 0.123305 0.16365835 -0.1067484 -0.142031 -0.027745478 0.04593103
0.086962074 0.12645842 -0.034771997 -0.19013135 -0.24915823 -0.15717421 -0.0092887115 -0.21337517
-0.30467424 0.047753543 0.27448934 0.008986319 -0.0019343199 -0.1174582 -0.20218033 -0.24143827
0.09498726 -0.087155014 0.2556471 0.15756014 0.007830996 0.029113725 0.14613368 0.194567
0.16172144 0.18754034 0.08915235 0.0072125862 0.0520872 0.1119798 -0.16225205 0.067458056
0.14656217 -0.058972217 -0.055136718 -0.11019091 0.07297207 0.15758978 -0.05273163 -0.10089001
0.059379995 0.057852805 -0.092389286 0.19916001 -0.024502806 -0.019782614 0.11728575 -0.12763397
0.11520466 -0.20630579 0.017592534 0.14773725 0.18327054 -0.1909374 -0.05220732 -0.14972787
-0.04921209 -0.0033263043 -0.091029294 0.100788005 0.005962411 -0.022458656 -0.030208502 0.16409557
-0.06342611 0.00371456 -0.18200782 -0.04500637 -0.10542146 -0.013983464 0.09260448 -0.06283177
-0.13623211 0.12708755 0.015785113 0.0623455 0.07098946 -0.16276737 -0.14767285 0.111530796
-0.09648214 -0.10834168 0.16330469 -0.045175053 0.08670174 0.054261867 -0.19463143 -0.07553328
0.02961829 -0.04047344 0.15814288 -0.08138758 -0.180214 0.04859329 0.17545812 -0.011895641
0.06578735 0.023426445 -0.00069183414 0.026505923 0.03929919 0.13106035 -0.10900865 -0.057457414
0.14152089 0.10072389 0.11495422 -0.1547371 0.23268396 -0.08636722 0.12236567 0.058092635
0.18083595 -0.05958489 -0.05586871 0.15793064 0.25213802 0.11430323 0.10704968 0.061649382
-0.05648329 -0.15859888 0.03370738 0.024356803 -0.1056549 -0.01991868 -0.06747021 -0.20974281
0.09447171 -0.025429795 0.07354379 0.030439604 0.09319297 0.12879032 -0.04613645 -0.111691296
0.011315341 -0.14334786 -0.08018075 0.09844985 -0.001482927 0.017543638 -0.02700123 0.0358447
0.0024295764 0.07482015 -0.1074181 0.06059507 0.014952158 0.25417802 0.022298269 0.2558118

u_model.model.10.bias f4 [42]
00000000: 132c b0bc 0ffa a4bc 7162 d43d 5b6f fcbd
00000010: 4e1f d1bd c495 dcbc 12aa 813d b2f1 f6bd
00000020: cdfa b13d 63c3 b83d f088 293e 1a15 84bd
00000030: 74d4 d8bd 3aad 5f3d 593b 4d3c 0a06 353e
00000040: 08f6 c03c 5f23 513d 38a1 c2bc 0850 62bd
00000050: 4127 ecbd 4944 ca3d 0031 763d c07a 0cbe
00000060: 3d54 843c 7b27 263e 1368 a93d 5217 a43d
00000070: 3bb6 25be e759 bd3d f77f b23d 36c2 14bd
00000080: 74c0 52bd 3f03 0bbd 2147 a73d b64c b4bd
00000090: 6b91 fe3c ff34 233e 6ed6 9c3d b3e5 8d3d
000000a0: 224b 0d3e 2bfe 08be
-0.021505391 -0.020138768 0.10370339 -0.12325927 -0.10211049 -0.026926883 0.063312665 -0.120578185
0.086904146 0.09021642 0.16556144 -0.06449337 -0.10587397 0.05460856 0.012526357 0.17678085
0.023554817 0.051059123 -0.023758516 -0.055252105 -0.115309246 0.098763056 0.060105324 -0.137187
0.01615345 0.16225998 0.08271804 0.080122605 -0.16182797 0.09245663 0.087158136 -0.036318026
-0.05145307 -0.033938643 0.08167864 -0.08803694 0.0310752 0.15938185 0.07658087 0.06928577
0.13798192 -0.13378207
