saved_models/1d_burgers/dwa_pinn.pt (torch, 77047 bytes, 42 tensors)

u_model.W f4 [20, 2]
000000 0d df 31 be db 46 e9 bf 73 7a 47 3f b9 c7 81 bf
       -0.17370243 -1.8224748 0.7792122 -1.0139076
000010 f9 2e 62 3f 36 ee 20 3f de b3 81 be 5e fc 29 c0
       0.88352925 0.6286348 -0.2533254 -2.6560283
000020 1e f2 44 bf 23 bb 64 3f 55 6c ea 3e 38 da 79 3d
       -0.7693194 0.8934805 0.45785776 0.060999125
000030 fa af c2 3f 58 fe 68 3f 81 64 95 3e 22 39 78 be
       1.5209954 0.910131 0.2917824 -0.24240544
000040 28 cd 62 3d 3b bd fc bf 7f 95 c4 3f 80 d5 00 3f
       0.055371433 -1.9745249 1.5358123 0.50325775
000050 88 43 9e 3f eb f3 36 bf 33 01 85 3b 23 2a 01 3f
       1.2364359 -0.7146594 0.004058981 0.5045492
000060 ff f7 42 3f 50 11 db bf aa 9a a4 3f 52 49 9b bf
       0.7615966 -1.7114658 1.28597 -1.213175
000070 53 a6 a4 3e 18 1b 3d bf 5c fc 71 bd c4 9f 18 bf
       0.32158145 -0.73869467 -0.05907856 -0.59618783
000080 f0 84 b5 3c 9f ad 7a 3f 1c 9c b7 3e db 97 ec 3e
       0.022158116 0.97921175 0.3586129 0.46209607
000090 23 74 a0 3f 31 a5 3b 3f 39 6a f8 3e 7b ee cc bf
       1.2535442 0.7329894 0.4851854 -1.6010278

u_model.b f4 [20]
000000 2f 13 b4 40 90 36 ad 3f 78 8d 67 40 83 ba ca 3f
       5.6273417 1.3532276 3.6180096 1.5838169
000010 8d 73 bc 3f 3e fb 5d 3f 22 c7 7e 40 6b f6 17 3f
       1.4722763 0.8671149 3.980904 0.5936038
000020 f3 74 3e 40 07 c8 c7 40 67 9a bb 40 66 67 92 3d
       2.975888 6.2431674 5.862598 0.07148628
000030 d2 7f ab 40 48 53 75 40 e0 a5 b8 40 85 18 c1 3e
       5.359353 3.833208 5.7702484 0.3771402
000040 ed af 11 40 ce b2 fb 3f 54 fd bd 40 f5 b9 b0 40
       2.2763627 1.9663942 5.937174 5.5227

u_model.model.0.weight f4 [42, 42]
000000 cd 2e 31 bd 67 96 77 3d 7e d0 5e bd 5a ff 4b 3d
       -0.043257523 0.06044617 -0.054398052 0.04980407
000010 8e 9c b9 bd 06 59 5c 3e 1f 3b 24 3e 16 01 e2 bc
       -0.090630636 0.21518335 0.16038178 -0.027588408
000020 18 0b db bd 09 db a8 3d 1e 69 08 3d 42 a6 01 3c
       -0.10695475 0.08244903 0.033303373 0.007913174
000030 ad 4d 5a 3c e2 2a 3a 3e 2c 4c 96 bd 1e 1f 4b bd
       0.013324183 0.18180421 -0.073387474 -0.049590223
000040 1d 07 33 3d 28 88 ec bd bf 3e 20 3e de 08 ff bd
       0.043707956 -0.11549407 0.15648936 -0.12452863
000050 c9 6f df bd 25 93 af bd 6a c9 8a bd 51 98 69 3d
       -0.10909993 -0.085729875 -0.06776698 0.057030026
000060 a8 7d ae 3d 41 8b af bd 98 95 76 bd d1 fc 40 3a
       0.08520061 -0.085714824 -0.060201257 0.00073618913
000070 41 61 a9 bd 86 a8 8f 3d a2 5a de 3d f4 8c 39 be
       -0.08270503 0.07014565 0.108571306 -0.18120176
000080 9e d4 99 bd 87 03 7c 3d 82 4f 48 be 2d 19 03 be
       -0.07511257 0.0615268 -0.1956158 -0.12802573
000090 ed b6 75 3d a7 04 0e 3e 94 4c 96 3d ce e0 1a 3e
       0.059988905 0.13868962 0.07338825 0.15124819
0000a0 08 a0 16 bd ff 6f cd 3d da f3 3a 3e 31 77 05 be
       -0.03677371 0.10031127 0.18257084 -0.13033749
0000b0 9c 51 06 3e d9 19 4b 3d 62 a9 d1 bd 4a 34 cd bd
       0.13117069 0.049585197 -0.10237385 -0.10019739
0000c0 3c 0a 6b 3b c0 32 2e be da 81 af 3c cd 6b 14 be
       0.0035864254 -0.17011547 0.021424223 -0.14494248
0000d0 8c da 7a bd d5 90 06 be df d7 d4 bd b1 f7 24 be
       -0.06124358 -0.13141187 -0.10392737 -0.16110112
0000e0 3d 5f 16 bd c6 7b 94 bd 7e ba 00 be f4 cc df bd
       -0.03671192 -0.072501704 -0.12571141 -0.109277636
0000f0 1e 01 a9 3c 81 35 15 3e 0b cf ab bd 14 f5 3f be
       0.020630416 0.14571191 -0.083891 -0.18745834
000100 31 bf a3 3d f8 2e e7 bd 60 b9 ca bd bd 86 74 3e
       0.07995451 -0.112882555 -0.09898639 0.23879524
000110 17 55 67 3d ec e9 cb bc 5a c4 2f ba 8c 2c 08 3c
       0.056477632 -0.024891816 -0.0006704979 0.008311402
000120 9e 15 93 bd 3d 95 0f 3e d9 67 31 3e 22 17 06 be
       -0.071818575 0.14021774 0.17324771 -0.13094762
000130 2a 7e 60 3e d7 20 5f 3d 34 fa 73 3e db d4 9c 3d
       0.21923128 0.054474678 0.23825914 0.076577865
000140 19 f3 17 3e cc 21 ae 3b b0 3b 43 3c 63 6d 99 3d
       0.14838828 0.0053140875 0.011916086 0.07491567
000150 76 00 d8 3c 6e 1f 81 3d ae 11 c8 bd 64 99 d1 3d
       0.026367407 0.06304823 -0.09768997 0.10234335
000160 c7 b7 0a 3c 99 a5 62 3d 0a c9 0c be 33 3f 32 bd
       0.0084666675 0.055333707 -0.13748565 -0.043517303
000170 c5 da 4a bc 37 2a f9 3d a9 c8 6a bd 24 e9 ad be
       -0.01238126 0.12166255 -0.05732027 -0.33966935
000180 27 fc 33 3e 58 ab ac 3d 88 7d 2a 3e 3d 3f 49 be
       0.17576657 0.08431119 0.16649449 -0.1965303
000190 a7 37 19 bd 4f 9d 88 bd 15 f8 e9 3d eb ae 9f bd
       -0.03740659 -0.06670629 0.11424271 -0.07797035
0001a0 f4 f1 fe bd 99 73 e8 bd 9d 69 02 be 1d e1 12 3c
       -0.12448493 -0.113501735 -0.12735601 0.008964804
0001b0 bf 01 eb 3c 52 b2 28 be f8 db 7c 3e 70 83 3d 3d
       0.028687356 -0.16474274 0.24693286 0.046267927
0001c0 ae 5f 8b 3d 5a d2 8d bd dd 23 d5 3d e7 2c a9 bd
       0.06805359 -0.06924887 0.10407231 -0.082605176
0001d0 01 91 34 3d ce e6 c2 bd 9d d4 63 be 95 33 3c be
       0.0440836 -0.09516679 -0.22249074 -0.18379052
0001e0 00 97 f0 bd 4d a8 28 be f7 62 11 be 05 53 3a be
       -0.11747551 -0.16470452 -0.14197908 -0.18195732
0001f0 8a 55 c0 bc 6c a0 87 be 77 65 18 3c 3d 2b 02 be
       -0.023478288 -0.2648958 0.009301535 -0.12711807
000200 b0 ad 7a 3d 66 6e f8 bd be 25 d7 bd 7d 10 36 3e
       0.061200798 -0.12130432 -0.105052456 0.17779727
000210 6f 00 de bc c3 8c 15 bd b8 31 32 bc 63 97 c9 bd
       -0.027099816 -0.036511194 -0.010876112 -0.09843328
000220 f8 49 cd bd 34 39 07 3e 35 c1 65 bd f0 4e 93 3d
       -0.10023874 0.13205415 -0.05609246 0.071927905
000230 30 9f 93 bd 80 e8 cc bd 3a f3 14 3e 3f c5 e7 3c
       -0.07208097 -0.10005283 0.14545909 0.028292296
000240 1a cb c1 b8 e4 76 c8 3c a4 72 85 3c 3c f6 22 be
       -9.240788e-05 0.024470754 0.016290016 -0.15914243
000250 56 53 0a bd 08 3d e5 bb d0 ea a6 bc 19 ab b5 bd
       -0.03377088 -0.006995801 -0.02037564 -0.08870525
000260 0b de 18 bc 6f a5 4c 3d ed 38 09 be ff 0c 1d 3e
       -0.009330283 0.049962457 -0.13400622 0.15336989
000270 f4 b2 11 3e b2 ea 12 3d c6 2b 45 3b b8 f7 ed bd
       0.14228421 0.035868354 0.0030085905 -0.11619514
000280 b9 ac 2a be fe d8 aa 3c 7e 77 b4 bd 1f 56 1c 3d
       -0.16667451 0.020855423 -0.08811854 0.03816807
000290 0c 59 3c bd ec 7c fa 3c e1 e6 47 bd 98 74 39 be
       -0.04598336 0.030577146 -0.048804168 -0.18110883
0002a0 27 4e 09 3d 67 7e 18 be 7a 41 8c 3b 41 f3 a0 bd
       0.033521798 -0.14891969 0.0042802664 -0.07858897
0002b0 f1 74 07 be a5 cb 69 3e f2 c0 4f bd 55 ca 6f bc
       -0.13228203 0.2283159 -0.050721116 -0.014635642
0002c0 e4 49 0f 3d 35 2a f7 bd 59 c5 e8 bc 7c 6a 22 be
       0.034982577 -0.12068597 -0.028414415 -0.15860933
0002d0 43 b3 65 b9 37 f4 55 3d 6a f3 fa bd e7 54 b1 3d
       -0.00021905922 0.052234855 -0.12253459 0.08658772
0002e0 38 13 f1 3d db 03 0e 3e 41 99 69 bd 1a 87 6e bc
       0.11771244 0.13868658 -0.05703092 -0.014558578
0002f0 17 bc 02 bd 6a d9 98 bd c4 c3 31 be b4 13 4f 3d
       -0.031917658 -0.074633434 -0.17359835 0.0505559
000300 6e a2 0b 3d 04 ed d7 bd 4b 53 ee 3d 4a 72 ae bc
       0.034090452 -0.10543254 0.116369806 -0.021294732
000310 98 25 00 3e dd f7 af bd ab 09 e9 ba 38 ab 25 be
       0.12514341 -0.08592198 -0.001777937 -0.16178596
000320 60 90 e4 3d bf ff a4 3d 2e 87 a6 bd b7 c5 f7 3c
       0.1116035 0.08056592 -0.08131252 0.030245645
000330 b7 07 12 bd 83 38 11 3e a4 c8 e9 3c f5 c3 94 3c
       -0.03565189 0.14181714 0.028538056 0.018159846
000340 ea 05 41 be 03 a5 3b be 29 b1 ce bc 1f 62 3c be
       -0.18849912 -0.18324666 -0.02523096 -0.18396805
000350 c1 b7 ff 3d aa 18 49 be 3a 88 19 3e 52 4c 06 3d
       0.1248622 -0.19638315 0.14993373 0.03278763
000360 aa 27 18 3e dc 68 06 3e 9a 43 b3 bd bc c7 e9 3d
       0.1485888 0.13125938 -0.08753128 0.114150494
000370 8c 68 1d 3d 68 7f ea bb 33 0f 9c 3d e2 1c a8 3d
       0.03842978 -0.0071563013 0.076200865 0.08208634
000380 ed 0e da bc 7b 81 6d 3d ac 08 85 3d 2a 46 87 bd
       -0.026618445 0.05798481 0.06495795 -0.066051796
000390 8d b3 57 3d 5e 21 cf bd 2d c8 bd bd d3 05 87 3d
       0.052661467 -0.10113786 -0.09266696 0.06592908
0003a0 35 b2 3b 3e bf b5 a0 3d 4b 93 07 be 41 4c ad 3b
       0.183297 0.07847165 -0.13239782 0.005288631
0003b0 85 d8 8d bd 7a e7 9d bd a2 94 e5 3b 3c 6a 3d bd
       -0.069260634 -0.07710166 0.007006244 -0.04624389
0003c0 ce db e7 3c 11 34 d7 3d b2 0f 5b 3d 8a 7c 97 3c
       0.028303053 0.10507978 0.053481765 0.018492002
0003d0 3d f2 98 3b 31 1a 21 be 7d a5 c3 bd 6a 6f 82 bd
       0.004667549 -0.15732647 -0.09553049 -0.06368907
0003e0 b1 35 87 bd 2c ea 12 3e e4 9f 6e 3b 87 e0 e9 3d
       -0.06602038 0.14347142 0.003641122 0.11419778
0003f0 27 48 46 bd 3b 8a 5f 3e c2 02 36 3e 14 63 d3 bd
       -0.048408654 0.21830074 0.1777449 -0.10321632

u_model.model.0.bias f4 [42]
000000 31 07 42 3e e8 0f 28 be 62 38 b0 3d a6 3c 66 bd
       0.18948056 -0.16412318 0.08604504 -0.056210183
000010 3f 4a cb 3d f3 72 50 bd 98 6b 9c 3d 86 0e 28 bd
       0.09926271 -0.050890874 0.076377094 -0.041029476
000020 1a 55 ea 3d 8f 87 0d bd 6a d6 a2 bb d9 82 0b 3e
       0.11442013 -0.034553107 -0.004969408 0.13624133
000030 28 fd 41 3c 70 d4 cc 3d 03 d1 c4 bd 4f 99 87 bd
       0.011840142 0.10001457 -0.09610178 -0.06621038
000040 e4 10 e6 bd 71 4e 08 3e f6 d1 cc bd e3 11 47 3d
       -0.112336904 0.13311173 -0.10000984 0.048601042
000050 64 df 10 3e 1b 8c d3 bd 51 31 00 bd 26 9c c4 bd
       0.14147717 -0.10329457 -0.03129703 -0.096000955
000060 15 97 83 bd e7 65 02 3e dc ce c6 3d 76 b9 f2 3d
       -0.06425301 0.12734185 0.09707424 0.1185178
000070 f5 48 b0 3d b9 5e f8 3d 6e 12 cc bd 49 38 6c bd
       0.086076654 0.12127442 -0.09964453 -0.057670865
000080 dc 22 84 bd 60 97 7c 3d 42 8d 04 bd 6b 46 d9 bd
       -0.064519614 0.0616678 -0.032361276 -0.10609134
000090 72 40 93 3c 36 c7 e8 bd e7 64 28 3d 3e 85 29 3d
       0.017975066 -0.113661215 0.041111853 0.041386835
0000a0 cc 90 23 bc 6e 5a 4d 3d
       -0.009983253 0.05013507

u_model.model.2.weight f4 [42, 42]
000000 32 10 d8 3d 22 24 df bc 9c 53 21 3e d6 22 ec 3d
       0.10549964 -0.02723891 0.1575455 0.11530082
000010 0c 26 8f bd 5f 01 02 be fd 39 26 bd 0e fc ef 3c
       -0.06989679 -0.12695836 -0.040582646 0.029294994
000020 4c a4 f8 3d 6e 96 9f bd b7 dd f6 3c d2 33 44 3c
       0.12140712 -0.07792364 0.030135019 0.011975246
000030 f1 ee 1c be 25 56 d5 bd 98 2f ce 3d b9 9c 09 be
       -0.15325524 -0.104168214 0.100676715 -0.13438691
000040 27 61 e3 bc 3c 13 48 3c dc 06 aa 3d 2e eb e5 bc
       -0.027756287 0.012211617 0.083020896 -0.028066244
000050 64 75 f0 3d 74 d8 0e bd 33 22 9f 3d 6b 87 d9 3c
       0.117411405 -0.034874395 0.07770195 0.02655383
000060 52 4f 68 3d d8 17 ee 3d a8 62 ec bc df dc 99 bd
       0.05671627 0.116256416 -0.028855637 -0.07512831
000070 09 d9 1e 3e d5 70 ce 3d 3a 48 e6 bd fe 1b f6 3d
       0.1551248 0.10080115 -0.11244245 0.12017058
000080 4b 24 10 bc b6 26 fc bd f1 01 ed bd dc e9 89 3d
       -0.008797715 -0.12312071 -0.11572636 0.06734058
000090 8b eb d0 3d 8f 4a a9 3c c1 b6 17 3e 49 22 0d be
       0.10201176 0.020665435 0.14815809 -0.1378261
0000a0 41 4a 92 3d 41 f2 67 bd 02 56 7f bd b7 63 b6 3d
       0.07143069 -0.056627516 -0.062337883 0.08905738
0000b0 00 7f c5 bd a2 95 09 3d ef c1 f9 3c 28 df 1b be
       -0.09643364 0.033589967 0.030487983 -0.15221846
0000c0 46 50 95 bc 4e 93 ee bb cb b5 6b bc 31 68 37 bd
       -0.018226754 -0.0072807437 -0.014386605 -0.0447771
0000d0 9c ee 18 3e 20 82 bf 3d 23 30 f3 3d 76 33 42 3d
       0.14934772 0.09350991 0.11874416 0.04741236
0000e0 a5 17 a9 3d cd c6 18 bd 61 b8 fe 3d 70 0a 29 3e
       0.08256463 -0.037298966 0.12437511 0.16507888
0000f0 36 d3 78 3c ea de 01 3e b9 87 b7 3d fe 5d d4 bd
       0.015187075 0.12682691 0.08961434 -0.1036949
000100 d4 99 97 3d 46 5d 33 be f7 7a 0d 3e c8 ed ab bd
       0.07402387 -0.1751605 0.13816439 -0.083949625
000110 18 29 11 be b1 f2 5a 3d 4b 53 00 bd 09 4d 03 3e
       -0.14175832 0.053454105 -0.031329434 0.12822355
000120 c4 1d 05 3e 5a 1b db bd b4 8c 40 be 56 6d 47 bd
       0.12999636 -0.10698576 -0.18803674 -0.048688255
000130 35 75 96 bd 8b 14 bb 3d c4 ea 15 bd ef 65 bb bd
       -0.07346574 0.09134778 -0.036600843 -0.09150302
000140 79 6a 19 3d 27 11 e7 3d 6d 73 81 3e 82 77 76 3d
       0.037455056 0.112825684 0.25283375 0.060172565
000150 eb 7f 29 be 56 f9 d6 bd 23 af 38 be 3e 78 da bd
       -0.16552703 -0.10496776 -0.1803556 -0.106674656
000160 7b ea 58 bd 68 1d ae 3c 19 d6 5f 3e 6a 2e b7 3d
       -0.052957993 0.021254256 0.21859016 0.089444
000170 26 cd fd bd ac 88 69 bc 19 da aa 3b 57 48 63 3d
       -0.123926446 -0.0142537765 0.0052139875 0.05548891
000180 23 39 0e 3e cf 43 82 3e e3 f9 60 bd 96 3a 83 3d
       0.13888983 0.2544236 -0.05492581 0.06407659
000190 a7 75 c2 3d cd 48 5c 3d 2c 02 2b bd 6d 06 fe 3d
       0.09495097 0.053780366 -0.041750118 0.12403569
0001a0 e9 bd 5f 3e 74 cc 02 3d 9a 36 b3 bd fd 0c fd bd
       0.21849789 0.031933263 -0.08750649 -0.12355993
0001b0 c1 96 2e be 0b 70 5b bd ee 93 2a 3e 01 3f 8c bc
       -0.17049696 -0.05357365 0.16657993 -0.017119886
0001c0 0c 53 fc 3d 5e 24 0f 3e e9 03 b8 3d 91 7d 8f be
       0.123205274 0.13978717 0.08985121 -0.28025487
0001d0 9a c2 00 3e 1b ea 46 3d 0e f9 06 3e b9 3b 7e bd
       0.12574235 0.048563104 0.13180944 -0.062068675
0001e0 a8 c2 2a bd 82 5d 53 bd fc 14 b0 bb 68 7f 91 bc
       -0.041689545 -0.051602848 -0.0053735953 -0.017760947
0001f0 ef 53 e3 3d 97 76 bb bd 4d ea 9c 3d 2e 2d 77 bc
       0.110999934 -0.091534786 0.07661877 -0.015086455
000200 0e e4 0b 3e 79 97 ef bd 96 ff 24 be c3 a9 96 3c
       0.13661215 -0.11698813 -0.16113123 0.018391496
000210 e2 5c 0c be 11 be 06 3e 0c e1 03 bd d8 a0 bc bd
       -0.13707307 0.13158442 -0.032197043 -0.09210366
000220 d4 5b fd 3c 85 5c d7 bd 4e 8a 90 bd 72 a1 f3 bc
       0.030927576 -0.105156936 -0.070576295 -0.029740069
000230 80 7b 90 3d d8 5f 7c bd 6f 9c 5b 3d 3b 4b 25 3d
       0.07054806 -0.06161484 0.053615984 0.04035495
000240 6a 39 f5 bd 73 ff c8 bd 35 2f f9 bd c9 b2 e1 3d
       -0.119738415 -0.09814348 -0.12167207 0.11020429
000250 a4 93 18 be f4 6d 0e be 53 4a 09 be ea 92 dc 3a
       -0.1490007 -0.13909131 -0.13407259 0.0016828452
000260 72 17 b6 3d a5 75 c1 3d 42 9e 86 bd 0f 17 a9 bd
       0.088911906 0.09446267 -0.06573154 -0.08256351
000270 53 50 42 bc 2e 3c a2 bd ab 23 33 3d 9f 74 0a 3e
       -0.011859971 -0.079216346 0.043735188 0.1352105
000280 5a 2e ba 3c 00 93 a8 bc 88 4a f3 bd 82 ba a7 bd
       0.02272718 -0.020577908 -0.1187945 -0.081898704
000290 4d 92 1e be 12 bc 54 3c 9a a9 aa bd 56 4c 0e bd
       -0.15485497 0.012984293 -0.0833313 -0.03474077
0002a0 f2 ca 89 bd 62 f9 47 3e 59 58 e1 bd 3f b6 9d bc
       -0.06728162 0.19528726 -0.11003179 -0.01925194
0002b0 1d 15 0f be 91 b1 bb bd 5b b8 4a 3e 3d 39 40 3e
       -0.13972898 -0.091647275 0.19796889 0.18771835
0002c0 9d 39 9b be ac ee b7 3b db f9 08 3e e9 45 61 3c
       -0.30317393 0.0056131687 0.13376562 0.013749578
0002d0 aa 32 82 3c df 7f 37 3e e5 70 6a 3e 48 08 c8 3c
       0.0158933 0.17919873 0.22894628 0.024418011
0002e0 f1 10 5b 3e 67 d7 5c 3e 0e e8 be bd 48 af 8c 3e
       0.21393181 0.21566544 -0.09321605 0.2747748
0002f0 02 42 0c 3e 85 78 5c bd 8a ac f7 3d 6f b5 fd 3c
       0.13697055 -0.053825874 0.12093456 0.030970303
000300 92 8c 6e 3e 70 c7 53 be 4c 0d 65 bd ba ae 8a bc
       0.23295811 -0.20681548 -0.055920884 -0.01692902
000310 0d 45 43 bd eb 45 22 3e a7 d5 a0 3d b0 07 3c be
       -0.047673274 0.15846984 0.07853251 -0.18362308
000320 be e4 54 be c9 a1 57 be fc 11 be bd 86 f6 89 be
       -0.20790383 -0.2105781 -0.09280774 -0.26945895
000330 b0 fa d7 3d f6 41 c9 bd 4f f1 a3 3c 1a a4 81 3e
       0.10545862 -0.09827034 0.020012526 0.25320512
000340 fe ed 58 3e b7 09 a3 bd bd 9d 91 3d e9 cd 76 3c
       0.21184537 -0.07960837 0.07110164 0.015063741
000350 cb 46 aa 3d f5 30 26 bb 5b d0 9b 3b 60 8d 49 3e
       0.08314284 -0.002535877 0.0047550625 0.19682837
000360 0d ff 80 bd 59 ab 0d 3d f9 e0 2e 3e 6a e5 b0 3d
       -0.06298647 0.034587238 0.17078008 0.08637507
000370 57 66 12 bd b6 ee 93 3d 5e 5c 24 be b5 71 73 be
       -0.03574213 0.07223265 -0.1605086 -0.23773845
000380 77 88 96 3c 26 24 06 bd c5 f2 8c bd 88 fe 2f be
       0.018375618 -0.032749318 -0.06882242 -0.1718694
000390 2c 36 4d 3d 46 04 c5 3c 44 28 da bd e8 09 9d bd
       0.05010049 0.02404989 -0.10652211 -0.07667905
0003a0 a7 09 12 3d 3e cf e4 bd f6 c9 cc 3c 0a ea 1a bc
       0.035653736 -0.11172341 0.024998646 -0.009455213
0003b0 16 a3 96 3b ad 83 8b 3d 41 da 65 3d f3 87 a0 3d
       0.004597078 0.068122245 0.056116346 0.0783843
0003c0 9d 14 84 bb 4e e4 6d 3e 15 33 2c be 1d 16 3c 3b
       -0.0040307776 0.23231623 -0.16816361 0.0028699704
0003d0 42 b2 ad 3d 03 2c 2a bd 26 79 e6 3c 8b bf 15 3e
       0.084812656 -0.04154588 0.02813394 0.14623849
0003e0 ec 05 df 3d 4d 00 82 3d d0 57 8b be 20 f6 34 ba
       0.108898014 0.063477136 -0.27215433 -0.00069031306
0003f0 71 a8 aa 3c 1f 29 e4 bd 07 47 55 bd 5e 42 eb bd
       0.020832272 -0.11140656 -0.05206969 -0.11487268

u_model.model.2.bias f4 [42]
000000 97 ac 28 3d 61 7d 15 be 18 71 08 3d 12 65 73 bd
       0.04118022 -0.1459861 0.03331098 -0.05942256
000010 6a 3f ba bd 50 f8 0c be 31 53 93 bc 44 1d 7e bc
       -0.090941265 -0.13766599 -0.017984005 -0.015509907
000020 01 86 a5 3d 25 7d f7 3d 05 cd 39 3d 05 bf 76 bd
       0.080822 0.12084416 0.045361537 -0.060240764
000030 40 34 b8 bc e6 fa ff 3d bb a8 c1 bd 05 4e 95 3d
       -0.022485852 0.12499027 -0.09456011 0.07290272
000040 44 6d 9c 3d 28 d7 55 bd 76 d9 25 bd a9 96 85 bd
       0.07638028 -0.052207142 -0.04049059 -0.06522877
000050 52 cf 2b bb c4 fd 0f bd 91 e9 9f 3d 3c 9b ac 3d
       -0.0026216102 -0.03515412 0.07808221 0.08428046
000060 f7 47 d3 3d 8b 56 0c bc 0e fe c6 3c 69 2a ed bc
       0.103164606 -0.008565555 0.024291065 -0.028950887
000070 65 47 3b bd 81 84 ef bd dc 85 f7 3d e7 d2 fd bc
       -0.045722384 -0.11695195 0.120860785 -0.030984355
000080 55 44 b3 3d a3 03 14 3e b4 d2 7b 3c 87 d5 af bd
       0.08753268 0.14454512 0.01537006 -0.08585649
000090 67 54 54 bd 54 15 81 3d 43 d6 8d 3d e2 9c 08 3e
       -0.051838305 0.06302896 0.06925633 0.13341096
0000a0 23 74 50 3d 76 86 9b bc
       0.050892007 -0.018985014

u_model.model.4.weight f4 [42, 42]
000000 5d e3 13 3e 59 69 5f 3d f5 f1 2e 3d 10 b0 18 be
       0.14442201 0.054543827 0.042711217 -0.14910913
000010 f3 22 32 3e e3 00 05 be 24 4d c6 3d b1 9f f7 bd
       0.17396145 -0.1298862 0.09682682 -0.120910056
000020 27 50 04 3d 11 e7 55 3e e8 1f 25 be 94 95 25 3d
       0.032303 0.20888926 -0.16125453 0.040425852
000030 51 a6 39 bd 95 b7 f8 bc 50 53 21 be 9c 09 1d 3e
       -0.045324627 -0.030360976 -0.15754437 0.15335697
000040 74 82 0e bd ac 33 8e 3e 16 4a 27 3d e5 dd 2f 3e
       -0.03479238 0.27773798 0.04084214 0.1717449
000050 d2 41 d5 3d eb 21 10 be 9b 17 8b 3d e6 6c ce 3d
       0.10412945 -0.14075439 0.06791612 0.100793645
000060 7d d8 c0 bd 77 1b 57 3e 95 e1 c0 bc 47 77 07 be
       -0.09416292 0.21006571 -0.023545066 -0.13229094
000070 3d 5d a3 3d 7e ea 2a be 88 6c 24 3d 0b 16 5a 3d
       0.07976768 -0.16691014 0.040142566 0.053243678
000080 cd 58 74 3d 45 4d 13 3e 2b ea 9c 3d d5 93 e8 3d
       0.059655 0.14384945 0.076618515 0.11356322
000090 6e 57 1a bc 23 ca a2 3d 61 1c 35 3c 0c a6 0e 3e
       -0.009420259 0.07948711 0.011054129 0.1393053
0000a0 d7 74 d1 bc 67 2c 3d bd cd 20 0d bd 80 f0 9e bd
       -0.025568409 -0.046184923 -0.03445511 -0.077607155
0000b0 e1 91 06 3e 14 0e d6 bd 03 9e 18 bb ee 8b 04 3e
       0.13141586 -0.10451904 -0.0023287542 0.12944004
0000c0 40 f2 70 bd ec 17 d3 bd 50 f4 22 3e 8e a8 b7 3d
       -0.058824778 -0.10307297 0.1591351 0.08967696
0000d0 f8 8a b1 3d 49 08 f7 3d 4b 23 96 3c 4f b9 25 be
       0.08669084 0.12062127 0.018327376 -0.16183971
0000e0 fd a6 db 3d d3 20 10 3e e0 0c f6 bd 62 fb fc 3d
       0.1072521 0.14075021 -0.120141745 0.12352635
0000f0 b8 8b bd bd 36 32 07 3e 06 da 23 3e f7 ce 27 be
       -0.09255165 0.13202748 0.16001138 -0.16387545
000100 04 69 0d be aa 99 02 3e 72 32 1c 3d 87 01 47 3c
       -0.13809592 0.1275393 0.038134046 0.01214636
000110 17 5c 2a bd 4a 8c 1f 3c 6b 18 37 3d 31 8e 3c bc
       -0.04159173 0.009738037 0.04470102 -0.01150851
000120 f2 ee a4 3b 5e ee a5 3c b2 ae 6b bc 42 3b aa bd
       0.0050333673 0.020255264 -0.014384912 -0.08312084
000130 3b 18 13 3e 89 60 71 bd 74 aa 14 be d2 b4 f6 3d
       0.14364712 -0.058929954 -0.14518148 0.120462075
000140 10 5e 08 3c cf 24 9e 3d 66 4d 0f 3e f4 a9 b2 bd
       0.0083232075 0.077218644 0.13994369 -0.08723822
000150 60 0f 9f bd ef 56 30 be 7f 1e a8 bc d5 98 f0 3d
       -0.077666044 -0.17220663 -0.020522354 0.117479004
000160 ec 55 8c be 1f 22 6b 3e 23 04 8e bd 85 2e 63 3d
       -0.27409303 0.22962235 -0.06934383 0.055464286
000170 b2 8f 9c 3e a7 3d 3f be eb 04 dd 3d 9b b7 70 be
       0.3057838 -0.18675862 0.10791954 -0.2350754
000180 73 fc 26 be d4 a6 00 be 5b 87 16 3e 71 27 b2 bd
       -0.16307239 -0.1256364 0.14700072 -0.08698929
000190 d4 1b 3b be 8f 5a 11 be 0f 50 00 be 8e 85 19 be
       -0.18272334 -0.14194702 -0.1253054 -0.14992353
0001a0 de 80 76 be be cf f0 3b 58 5d 19 be 05 25 80 3d
       -0.24072596 0.0073489835 -0.14977014 0.06257061
0001b0 ab fa 1c 3e bf f1 35 3b 12 e9 e4 bb 04 0a 3c be
       0.15329997 0.00277625 -0.006985792 -0.18363196
0001c0 bf 19 de bd 97 8a 3b be 4a 83 a9 bd 11 c3 92 3c
       -0.108447544 -0.18314587 -0.082769945 0.01791528
0001d0 41 d1 1e bd a4 4f 17 be 2d ca 11 3e 2a 23 45 be
       -0.03877378 -0.14776474 0.1423728 -0.19251695
0001e0 19 e6 b7 bd c3 7a 02 be 55 bb 66 3b 1c e2 2c be
       -0.089794345 -0.12742142 0.0035206873 -0.16883129
0001f0 02 34 89 3d 48 b5 bd 3c f9 ac f8 bd 1a 7f af 3d
       0.06699373 0.02315773 -0.12142367 0.085691646
000200 20 50 0d 3e 06 23 c8 bd 8d 0d 68 bd 7e f4 89 3d
       0.13800097 -0.09772305 -0.056653548 0.06736086
000210 ff 55 44 3e 56 16 a8 bd 1a 30 b0 3d 77 16 aa bd
       0.1917343 -0.08207385 0.08602925 -0.08305066
000220 28 32 56 3d 8c 30 3f 3e c1 f0 6a bc 61 1d 0f 3d
       0.052293926 0.18670863 -0.014339627 0.034940127
000230 f9 13 39 3d cc 3f c0 3d d1 b2 7e 3c 97 80 1b be
       0.045185063 0.09387168 0.015545563 -0.15185772
000240 7e fd 35 3e 08 bb 45 bd d4 b6 e8 bd 35 25 b6 bd
       0.17772481 -0.04827407 -0.11362997 -0.088938154
000250 44 de 9b bc 12 fc 6f bc 77 e4 f0 bd 6a f0 20 3e
       -0.019026883 -0.014647501 -0.11762326 0.1571671
000260 96 41 a9 3c 30 05 e4 bc b8 23 b8 bd 96 c9 37 3d
       0.020661157 -0.027834505 -0.08991188 0.04486998
000270 3e 4e a5 3d 9c 24 4b bd 99 50 08 3d 84 7a 58 3b
       0.08071564 -0.04959546 0.03327999 0.003303201
000280 0e d8 42 3d 23 ae ea bb b0 30 02 bd 59 6d 48 bd
       0.047569327 -0.007161872 -0.031784713 -0.048932407
000290 92 92 68 3d e3 21 82 bd ba 9d 18 3e 9c 22 e4 3d
       0.056780405 -0.0635412 0.14903918 0.11139414
0002a0 57 60 80 bd ec 50 b8 bd 40 46 70 3d bf b7 3b 3e
       -0.06268375 -0.089998096 0.058660746 0.18331812
0002b0 ec fb 0f 3d 99 7e 41 3d e2 df d2 3d 63 e8 b9 bd
       0.03515236 0.047239874 0.102966085 -0.090775274
0002c0 59 c3 8c bd b5 e4 13 be 4c b8 9b 3d f6 e7 e4 3d
       -0.06873197 -0.14442714 0.07603511 0.111770555
0002d0 ba f5 4d 3d 4a 58 e4 3d e6 d1 13 3e ab e1 9c 3d
       0.05028317 0.11149652 0.14435539 0.0766023
0002e0 bd 37 6a bc 95 52 05 3d 2b 43 fe bd 56 37 93 3d
       -0.014295516 0.03254946 -0.12415155 0.07188289
0002f0 da 8d 22 bd ff 40 08 bd e3 dd b5 3d 1f 1a 12 be
       -0.03968606 -0.03326511 0.08880212 -0.14267777
000300 e2 b6 65 bd 06 ec d5 bd fd cf 8e bd d4 17 a0 bd
       -0.056082614 -0.104454085 -0.06973264 -0.07817045
000310 67 29 08 be a7 80 c4 bd de b1 16 be 38 32 15 3e
       -0.13297044 -0.09594851 -0.14716288 0.14569938
000320 9f 47 09 be 3e f4 e5 3c bf 45 53 bd bf fd 26 be
       -0.13406228 0.028070565 -0.051580187 -0.16307734
000330 45 80 f0 3d e6 ca 18 be cf c6 6d be 0a 94 05 be
       0.117432155 -0.1492115 -0.2322037 -0.13044754
000340 92 92 a5 bd 9e df 2a 3d fe 0d 5a 3c 39 1b 07 3e
       -0.08084597 0.041717164 0.013309 0.13193978
000350 34 6b 38 be 8f 94 5d bd f0 34 1a be c1 00 c1 bd
       -0.18009645 -0.054096755 -0.15059257 -0.09423972
000360 b8 26 23 be c5 7c 8b 3d 06 95 a7 bd c5 5f 24 3e
       -0.15932739 0.06810907 -0.08182721 0.16052158
000370 77 2d 07 be 1c d9 3a be 2b 64 e5 bd d6 e1 db 3d
       -0.13200937 -0.18246883 -0.11200746 0.10736434
000380 18 3f bb 3d 9d 13 a1 3d f7 15 c7 3d 22 b1 6b bd
       0.091428936 0.07865069 0.09720986 -0.057541974
000390 20 f7 d5 3c 8e 79 38 3e b9 44 27 3e 7a 6c 3d be
       0.026118815 0.1801512 0.1633481 -0.18498412
0003a0 53 99 e2 bb 50 ec 23 3e 86 e2 0a be 7f 9a a9 3a
       -0.0069152503 0.16008115 -0.13562974 0.001293972
0003b0 34 e6 8f bd 04 06 a6 3c 10 1c 15 3d cb 76 de 3b
       -0.0702633 0.02026654 0.036403716 0.0067890636
0003c0 31 0c d7 3d df 19 95 bd d4 15 c1 bd 66 83 7a 3d
       0.10500372 -0.07280325 -0.094279915 0.061160468
0003d0 61 27 39 3e 74 1c 1f 3e f4 80 6d bd c0 0e 14 bd
       0.18081428 0.15538198 -0.057984307 -0.03614688
0003e0 7c ef c8 3d 56 4c 62 3d fb 9e 42 3d 3e c9 17 be
       0.09811303 0.05524858 0.047514897 -0.14822862
0003f0 12 19 21 bb 45 66 f0 bd f4 5f 1c be 46 5f ac bc
       -0.0024581593 -0.11738256 -0.15270978 -0.021041524

u_model.model.4.bias f4 [42]
000000 11 e3 1e 3c 9c e2 c1 3c 42 7e 65 3d ab cb 06 3d
       0.009697692 0.023667626 0.056028612 0.032909077
000010 26 5d 05 be 34 f1 0b be 91 c7 cf 3d 1c 76 ce bd
       -0.13023815 -0.1366623 0.10145486 -0.10081121
000020 38 7d 9a bd 41 8d a7 3c cb 20 f7 bc 85 42 de 3d
       -0.07543415 0.020453097 -0.030167004 0.10852531
000030 0d 68 06 be 78 ef 7b bd 27 66 54 bd ee dc b1 bd
       -0.1312563 -0.061507672 -0.051855233 -0.08684717
000040 f8 af 57 3d 41 a6 61 3d e0 66 08 bd 0c 2f 08 be
       0.05265805 0.055090193 -0.033301234 -0.13299197
000050 7c c9 36 bd 4a ee 9b 3d 01 2b b6 3d 82 5a 6f 3d
       -0.044625744 0.076138094 0.08894921 0.058435924
000060 89 a6 aa bd 7b e2 3c 3d e3 6c 1d 3e ef e6 fd 3d
       -0.08332545 0.046114426 0.15373568 0.12397563
000070 31 72 84 3d 5b a9 18 3e f7 07 07 be d7 09 af bc
       0.06467093 0.14908354 -0.13186632 -0.021366997
000080 57 21 19 3e 92 c8 1a 3d ef 55 1d 3d 1b 44 f6 3d
       0.14954124 0.037788935 0.03841203 0.12024709
000090 44 1e 12 be 81 65 cb bd 6a ea ea bd 48 f9 82 3c
       -0.14269358 -0.0993147 -0.11470492 0.015988007
0000a0 12 89 ee 3d 8f 71 a7 bc
       0.11647238 -0.020439891

u_model.model.6.weight f4 [42, 42]
000000 44 27 95 3d 70 f2 6f 3d 99 00 0f 3e a4 af 22 be
       0.0728288 0.058580816 0.13965072 -0.15887314
000010 45 6c db bb f0 a6 35 3e c4 c4 f4 bd 19 b7 d0 3c
       -0.0066962563 0.17739463 -0.119515926 0.025477933
000020 83 33 0d 3d bd da 05 bd 44 32 e5 3c 8b 90 53 3d
       0.034472954 -0.03267931 0.02797807 0.05165152
000030 a5 c3 1a 3e fb aa be bb b5 eb 3c be da 8a 51 3d
       0.15113695 -0.0058187223 -0.1844929 0.05115781
000040 f3 70 1b 3c 3c 68 39 bd 5a b0 e5 bd dd 9d bd 3d
       0.009487378 -0.04526542 -0.11215277 0.09258626
000050 5c 8c e5 bd c7 2e b0 3a 0f 15 14 be ca d6 78 bd
       -0.11208412 0.0013441675 -0.14461158 -0.060751714
000060 0a 9d 9a 3c b6 5d 17 3d 76 90 96 bd 88 ad d3 3d
       0.01887371 0.036954604 -0.073517725 0.10335833
000070 1c 81 ae bd 3c b0 75 3d bb 7f 85 bd 37 c0 0c 3e
       -0.085207194 0.059982523 -0.06518503 0.13745199
000080 2b b2 d6 3d 79 82 91 ba a8 e8 a8 bd c9 5f 04 be
       0.104832016 -0.0011101506 -0.08247501 -0.12927164
000090 56 5f cb 3d 10 66 ef 3d 7a 61 d9 bd 6d 63 21 3d
       0.09930293 0.11689389 -0.10614295 0.03940146
0000a0 73 49 2e be b1 7c 0d be 5b 91 8d 3d 82 88 0a be
       -0.17020206 -0.13817097 0.0691249 -0.13528636
0000b0 fe 53 a5 bd 24 22 be bd fe 35 6f bd f3 68 9b bd
       -0.08072661 -0.092838556 -0.0584011 -0.07588377
0000c0 69 ed ed 3d 06 32 a1 bd 32 89 9d 3d 92 aa e0 3c
       0.11617548 -0.07870869 0.076921836 0.027425084
0000d0 98 b9 df 3d e3 2a ba 3c 1a c3 08 3e bb 26 17 3e
       0.10924071 0.022725528 0.13355675 0.14760868
0000e0 37 bf 24 be 46 b9 e9 bd cd 46 c6 3c 72 43 17 3e
       -0.16088568 -0.11412291 0.024203682 0.14771822
0000f0 a7 18 e5 bd 06 c2 d5 bc 57 06 c8 3d ec 91 12 be
       -0.11186343 -0.026093494 0.09766834 -0.14313477
000100 ba 77 29 be 92 fb 39 bc ba b5 79 3c 27 b8 1d bd
       -0.16549578 -0.011351483 0.015241081 -0.0385057
000110 80 43 39 be 22 24 a2 bc ec 8f bb 3c 21 3e 3f bc
       -0.18092155 -0.01979262 0.022895776 -0.0116725275
000120 1e 61 4c bd d1 1c 2e bb d4 96 ae bd ca f9 92 3d
       -0.049897306 -0.002656747 -0.08524862 0.0717655
000130 b8 63 16 3e f5 04 cd bc b1 b6 bb bd 74 f5 ad bd
       0.14686477 -0.025026778 -0.09165705 -0.08494082
000140 26 50 b2 bd 1c 66 20 3e 07 13 ed 3d b3 ca d2 3d
       -0.08706693 0.15663952 0.11575895 0.10292568
000150 79 77 23 bd c5 84 72 bd 13 02 18 bd 6a b1 af 3c
       -0.03990886 -0.05920865 -0.037111353 0.021446902
000160 f6 91 15 be af 90 71 3e 07 77 d0 3d 42 17 16 be
       -0.14606461 0.23590349 0.10178953 -0.1465731
000170 79 db 0b be 86 45 ea 3d da f3 c8 3d ef a6 af 3c
       -0.13657941 0.11439042 0.09812136 0.021441905
000180 fa 1e 0e 3e ad 83 a3 3c 7b 17 18 be 2a 95 da 3d
       0.13879004 0.019960249 -0.14852707 0.10672982
000190 3e 9e 4a 3e d9 9e 2b 3e 62 5f ca bc cc 58 d1 39
       0.19786927 0.16759814 -0.024703685 0.00039929745
0001a0 03 c9 1f bd 32 2c 04 bd 4b 06 09 be db 6e 54 3d
       -0.03901006 -0.03226871 -0.13381307 0.051863533
0001b0 3b 4a 82 3d 79 e4 d2 3d c5 1b 01 bc fd 37 96 bd
       0.063618146 0.10297484 -0.007880156 -0.07334898
0001c0 ae 0c d0 3c 92 68 a9 bd 06 8e ea bd de 6e 1e be
       0.025396671 -0.08271898 -0.1145287 -0.1547198
0001d0 f0 5b f4 bd 16 54 00 3e 28 e0 24 3e 93 a4 24 be
       -0.11931598 0.12532076 0.16101134 -0.16078405
0001e0 a0 65 bc 3c be 14 80 3d 1a 57 a2 3d 76 f4 1b 3e
       0.022997677 0.06253956 0.079267696 0.15229973
0001f0 e8 be 02 be dd cc e5 3d d8 4e 03 3e 88 0d e3 bd
       -0.12768137 0.11220715 0.12823045 -0.11086565
000200 54 8a 1c 3d 90 14 15 be 27 14 9d bb ba 07 e0 3d
       0.038217857 -0.14558625 -0.004793662 0.10938974
000210 a7 5a 42 3d 27 75 00 3c bb db 18 3d fe b4 25 be
       0.047449734 0.007840431 0.037318926 -0.16182324
000220 27 50 16 bd 07 1c 34 3e 1e 2e 34 3e 80 ca e5 bc
       -0.036697533 0.17588817 0.17595717 -0.028050661
000230 a9 58 8b bd 8a 4e 23 3e 53 a9 af bd 15 76 f5 bc
       -0.0680402 0.15947929 -0.08577218 -0.029963532
000240 51 df e9 bd 1d 11 bf 3d 3d 62 4c 3e e0 c8 16 3e
       -0.11419547 0.09329436 0.1995935 0.14725065
000250 20 56 6e bd d7 f7 4d 3e 32 42 23 bb fc ad 8d 3b
       -0.058187604 0.20114075 -0.0024911282 0.004323719
000260 01 8e d2 3c 0a 8b de bd 6d 90 2d bd ec 2c f9 3d
       0.025702478 -0.10866363 -0.042374063 0.12166771
000270 97 d2 01 3e 56 be 1c be 26 fb e6 bd c5 24 02 3e
       0.1267799 -0.15306982 -0.112783715 0.12709339
000280 cf 6e 50 3d 28 14 e0 bd f6 e0 f1 bd ef 72 5c 3d
       0.050886925 -0.109413445 -0.11810486 0.053820547
000290 7b c3 9b bd 3b f5 9f bc 3a 8d 39 be 59 21 2a bd
       -0.07605644 -0.019526115 -0.1812028 -0.04153571
0002a0 37 1a 0c 3c 8b db d6 3d 82 06 e1 bb ca b4 15 be
       0.008551172 0.10491093 -0.006867231 -0.14619747
0002b0 fb a4 c6 bd 45 c6 a2 3d bc 92 7a 3d d0 94 25 be
       -0.09699436 0.07947973 0.061175093 -0.16170049
0002c0 b2 d7 66 3e 36 68 39 be 8e 2f b5 bd 8d c1 15 3e
       0.22543219 -0.1810616 -0.08846961 0.14624615
0002d0 30 20 ac bd df 8c f7 3d ad ef 44 bd 99 b6 3c 3e
       -0.08404577 0.12087416 -0.048080135 0.1842903
0002e0 8b 3d b0 bb 7e ed 03 be 03 13 8e bd 16 be 37 be
       -0.0053784302 -0.12883565 -0.0693722 -0.17943606
0002f0 8a 8b 38 3e ef 69 d0 bc 53 23 f2 bd 79 5e 1f 3e
       0.1802198 -0.025441138 -0.11823144 0.15563382
000300 cc 08 f2 bb 54 d3 e3 bc f8 f8 76 3d 3d a6 01 3e
       -0.0073863026 -0.02781073 0.06029603 0.12661071
000310 46 f4 f2 3d ee 28 15 3e d8 bd 05 be 21 2e 8d 3d
       0.11862998 0.14566395 -0.13060701 0.06893564
000320 07 7c 73 3d 71 13 c2 bd f7 8d 08 3e 57 32 0c be
       0.059444454 -0.094763644 0.13335405 -0.13691078
000330 eb 16 ea bd 79 e3 83 bd 39 e1 2b 3e d9 d5 04 3e
       -0.114301525 -0.06439871 0.16785134 0.12972201
000340 39 67 24 be 3b e7 88 bc c1 bc c9 3d 47 97 02 be
       -0.16055001 -0.016711822 0.09850455 -0.1275302
000350 ba 62 d1 bd ff 12 98 bd 70 0e 01 be 49 49 24 3e
       -0.10223909 -0.07425498 -0.12603164 0.16043581
000360 ce e6 4e 3c 6d db 0a 3d 45 e3 d9 3d e3 9b 33 3d
       0.01262827 0.033900667 0.10639051 0.043849837
000370 b0 bd d8 3c b5 57 4c 3e f2 b0 3b bd b0 e6 37 bc
       0.026457638 0.19955333 -0.045823045 -0.011224434
000380 c9 ae 46 3d ab 6b 38 3e ce 7c 24 be 1b bd 41 be
       0.048506532 0.18009822 -0.16063234 -0.18919794
000390 5a ef fe bd df 71 90 3c 64 3f 27 3e 23 d5 c2 3d
       -0.124479964 0.017632423 0.16332775 0.09513309
0003a0 e6 e4 9a bd ff 13 41 3d 99 88 dc 3d 9b 31 2e be
       -0.0756319 0.04713821 0.107682414 -0.1701111
0003b0 0d a3 86 bd cd 70 30 be b3 d3 22 3e 7b 05 19 3e
       -0.06574068 -0.1723053 0.1590107 0.14943497
0003c0 1a ec 6d 3b ee 3c 06 be 84 a5 1d be 06 53 34 3e
       0.0036304058 -0.1310918 -0.1539517 0.17609796
0003d0 2b 23 df bd 81 0e cc 3d 54 ec 20 3d ec 3a 34 3e
       -0.1089538 0.09963704 0.03928788 0.17600602
0003e0 28 dd cf bd 2f a6 15 3d 85 ed c4 bd dd 47 96 ba
       -0.10149604 0.03653544 -0.09615616 -0.0011465509
0003f0 57 67 e5 3d 25 8e 9a bb 63 64 94 bd 80 07 35 3e
       0.11201351 -0.004716652 -0.0724571 0.17678642

u_model.model.6.bias f4 [42]
000000 a5 be b6 bd ba 87 aa bd 51 85 06 3e 61 91 62 bc
       -0.08923081 -0.08326669 0.13136794 -0.013828606
000010 4f d0 21 bd 01 15 dc bd f0 f7 94 bc ea 2f 60 bd
       -0.0395053 -0.10746194 -0.018184632 -0.054733194
000020 da a4 1b be 39 53 1f bd 5d 32 d3 3d 9d d5 0b be
       -0.15199605 -0.038897727 0.103123404 -0.13655706
000030 3f dc 93 3c 7b 62 16 3e c5 68 e6 bc 18 71 a1 3c
       0.018049357 0.14686005 -0.02812613 0.019707248
000040 6a 5d ff bc a2 ad d4 bd e3 a6 cf bd aa 10 e5 bd
       -0.031172473 -0.1038468 -0.10139253 -0.11184819
000050 a1 84 5d 3d ba ce 99 3d 9e d0 0d be 60 35 ea 3d
       0.054081563 0.07510133 -0.13849112 0.11435962
000060 68 07 1f bd 30 48 95 bd ec e6 e5 3d 23 3b 00 be
       -0.038825423 -0.07289159 0.112256855 -0.12522559
000070 43 7b 0a be 9f e4 48 bd 80 49 8d 3d 05 03 b2 bd
       -0.13523583 -0.049046155 0.06898785 -0.08691982
000080 10 a1 a0 3d 68 6b e0 3d f4 59 3d bd 8d e7 a4 3d
       0.0784322 0.10957986 -0.046228364 0.08051977
000090 73 6e 6c 3d 90 25 2a 3d 95 78 96 3c be 0a d3 3d
       0.05772252 0.04153973 0.018368045 0.10304783
0000a0 ed df 43 3d d1 ea 14 3d
       0.047820974 0.03635675

u_model.model.8.weight f4 [42, 42]
000000 63 9a 19 3e c4 2f bf 3d ca a3 99 3c 91 cd 04 3e
       0.150003 0.093352824 0.018754859 0.12969042
000010 2d 97 5e 3e d5 ec 14 3b b9 be 3c be 65 10 4d be
       0.21737356 0.002272417 -0.1843213 -0.20025785
000020 a0 42 42 bd 02 42 a7 3d c7 fa a9 3d 45 80 0f bd
       -0.04742682 0.08166887 0.08299785 -0.035034437
000030 eb 00 4a be 3a 67 21 3e a4 5f 96 3d 57 ef b5 3d
       -0.19726913 0.15762034 0.07342461 0.08883541
000040 34 b1 6a 3d 38 b5 66 3d 86 58 a5 bd 3d 34 1d be
       0.0572979 0.056325167 -0.08073525 -0.15351959
000050 4c d1 4f be a6 01 56 be 05 50 bc 3c 30 c2 38 bd
       -0.20294684 -0.20899066 0.022987375 -0.045107067
000060 b7 e8 ef bb ba 42 55 bd 61 8a b2 bc 9b 7f 0a 3e
       -0.007321443 -0.05206559 -0.0217945 0.1352524
000070 44 4b 2e be 58 dc 2d 3d a8 01 e5 3d bd 04 cb 3d
       -0.17020899 0.042446464 0.111819565 0.09913013
000080 46 a1 24 3d db 10 ab bc 18 92 0e 3c 68 d9 ff 3c
       0.040192865 -0.02088206 0.008701824 0.031231597
000090 fc 6e 47 3d 7d 45 30 be 71 da f9 3d ae 50 af 3c
       0.048689827 -0.17214008 0.121998675 0.021400776
0000a0 a9 c6 02 3d 83 6b 7b 3d 1d 1d 14 3e 4c a9 31 3e
       0.03192774 0.061381828 0.14464231 0.17349738
0000b0 05 58 fc bd b1 b8 a6 3d c8 df b5 bc 27 29 ef bd
       -0.12321476 0.08140696 -0.022201434 -0.11677771
0000c0 7a 8b ba bd 41 75 12 be 70 13 2b 3e 42 ae ff 3d
       -0.09108634 -0.14302541 0.16706634 0.12484409
0000d0 e1 1c 0c 3d b0 f8 41 3e db c3 61 bc 29 2e 0f 3e
       0.03420723 0.18942523 -0.013779606 0.13982452
0000e0 a0 d0 2e bc 77 8e 8c bd 0b 4b fb 3c df 43 b7 bd
       -0.010669857 -0.068631105 0.030675432 -0.08948492
0000f0 b3 a8 13 3e 8b 73 8f 3d c6 ba 79 bd 26 8d 38 3c
       0.14419822 0.0700446 -0.060969137 0.011264121
000100 9b d2 7c 3d a2 d0 d1 bb af ea 89 bd 22 84 33 3e
       0.061724287 -0.006403045 -0.067342155 0.17530873
000110 58 ba ca 3d c3 3f d5 3d e8 10 11 3d 30 61 1a 3e
       0.098988235 0.10412552 0.035416514 0.15076137
000120 39 c4 2d 3e 5b b5 48 3d 3f 3d 96 bb 95 14 be 3d
       0.16969384 0.04900108 -0.004584938 0.092812695
000130 8d 3d 10 be fa 74 6a bd 4b 48 43 be d6 c0 d5 bc
       -0.1408598 -0.057240464 -0.19070546 -0.026092928
000140 4a 4c 35 be df 20 0b bd a3 14 66 3d 73 ea b3 bd
       -0.17704883 -0.033966895 0.056172024 -0.08784952
000150 4e 53 30 3d 37 48 b0 3d 5d 24 02 3e 98 b0 b4 3d
       0.043048196 0.08607524 0.12709184 0.08822745
000160 90 a5 cc 3c 14 0e 9a 3d 64 f3 d6 bd f9 cc 28 bd
       0.02498129 0.075222164 -0.10495642 -0.041211102
000170 b9 ea 02 be fe 0e 17 3e 53 02 a3 3c 8a 4d e7 3d
       -0.12784852 0.14751813 0.01989857 0.11294086
000180 af 82 f8 bd 60 5b a6 3d 9d 69 2f 3e d8 8f 10 be
       -0.12134301 0.08122897 0.17130132 -0.14117372
000190 c2 51 d3 3d 71 c0 2a be 67 06 f4 bd 82 03 3a 3c
       0.103183284 -0.16674973 -0.11915284 0.011353375
0001a0 51 73 42 be 4b 5f 8f bc bf 30 90 bd bd 86 1a bb
       -0.18989302 -0.017501494 -0.070405476 -0.0023578845
0001b0 37 fa 06 3e 49 78 39 3e 4e 4e 34 be b8 4c ea 3d
       0.13181387 0.18112291 -0.17607996 0.11440414
0001c0 76 33 03 be 58 08 1c 3d c7 8d f6 3d 98 6d 37 3e
       -0.128126 0.038093895 0.12038761 0.179129
0001d0 c0 d6 2c 3e 1c fa 21 be 8a 8a ec 3d 4e 97 8f bd
       0.16878796 -0.15818065 0.11549862 -0.07011281
0001e0 cb c2 f4 bd 37 31 24 be f7 50 d8 3d a2 b5 19 3e
       -0.11951216 -0.16034399 0.10562318 0.15010694
0001f0 75 37 01 3e 4d 5a 31 be 67 88 6d be b1 a0 84 3d
       0.12618811 -0.17319603 -0.23196565 0.06475962
000200 e6 00 c9 3d 29 6c a8 bd ea 07 31 bd be 22 dd 3d
       0.098146245 -0.08223755 -0.043220438 0.10797642
000210 80 fd 06 bd 71 f1 09 bd bc cc 0c 3d 38 d7 84 3d
       -0.0329566 -0.033677522 0.034374937 0.06486362
000220 62 5e 53 bd 76 63 04 be d1 e7 89 bb 66 78 e1 3d
       -0.051603682 -0.12928566 -0.004208543 0.11009292
000230 8f de 08 be f6 32 8e bc e7 9b a1 bd 46 c0 f9 bd
       -0.1336615 -0.017358284 -0.07891064 -0.121948764
000240 13 65 c9 3d 0c 04 15 be 7f 86 55 bd cf 36 15 3e
       0.098337315 -0.14552325 -0.05213022 0.14571689
000250 92 d1 71 bd f5 8a 93 bd 89 a8 f1 3d 68 5a 90 bd
       -0.059037752 -0.07204238 0.11799724 -0.070484936
000260 a1 30 ca bd fe 8d 37 be b5 67 ab 3d fc f0 d0 bd
       -0.098725565 -0.1792526 0.0836939 -0.10202214
000270 45 0c 88 bd 57 1d e2 3d 42 72 29 3e 9a 64 90 bd
       -0.06642965 0.110407524 0.16547492 -0.07050438
000280 9a 0b e9 3d ca 28 19 bd 29 ee dc 3d 42 0c 1e 3e
       0.11379166 -0.037392415 0.10787613 0.15434363
000290 df 15 13 be 37 fe 84 3a fe 88 c9 3c 5b ed 07 3e
       -0.14363812 0.0010146563 0.024601456 0.13274138
0002a0 9f fe 06 3e 64 a4 e8 bd 9f 9e 2f 3d e3 35 f9 bc
       0.13183068 -0.1135948 0.042875882 -0.030421203
0002b0 3f de 11 be 4f 41 36 bc 80 fe 3e 3d c5 f1 12 be
       -0.14244936 -0.011123969 0.04662943 -0.1435004
0002c0 ee 0c c8 3d a9 12 d7 3d 5b 8d 84 3d 8b 1d be 3d
       0.09768091 0.10501606 0.06472274 0.092829786
0002d0 88 40 19 3e 60 4f bf 3d a3 01 89 3d c5 d0 22 3e
       0.14966023 0.093413115 0.06689765 0.15899952
0002e0 4c 8c 2b 3d ab 18 97 3c 24 e7 27 3e 02 7a 24 be
       0.041881844 0.01844438 0.16396767 -0.16062167
0002f0 70 59 2d be 43 52 a5 3c 39 fa 1e 3e 4f 93 90 3d
       -0.16928649 0.020180827 0.1552514 0.07059347
000300 98 3f 61 bd 32 3d 96 3c e9 2e 66 3d 3b 25 0c 3e
       -0.05499229 0.018339727 0.05619708 0.13686077
000310 17 9f ee bd 46 de 8a bd ce 15 e7 3d 3c c6 5f bd
       -0.11651438 -0.067806765 0.11283456 -0.05463241
000320 be 6d c8 bd 49 5c c7 3c c8 6b 79 3d c4 71 4e bd
       -0.09786557 0.024335997 0.060893804 -0.050401464
000330 b5 bc 7d bd 0c 7d aa 3d c0 9a 36 be f3 e9 85 3d
       -0.061947543 0.08324632 -0.1783247 0.06538763
000340 13 54 b4 bd 8c 8d 47 bb 0a ef 0c be db f8 01 bd
       -0.088050984 -0.0030449359 -0.13763061 -0.031731468
000350 cc b6 49 bc d3 b0 b2 bd bc ef 1e be 1b 6b e9 bd
       -0.012311649 -0.08725133 -0.15521139 -0.11397382
000360 87 46 9b 3d a0 40 5b 3e ee 08 dd 3d 22 35 2c bd
       0.075818114 0.21411371 0.10792719 -0.04204286
000370 3a 18 19 bb b9 6c 1a 3d 1f b3 9c 3d af c3 88 bd
       -0.0023360387 0.037701342 0.07651352 -0.06677949
000380 3f aa 0f be cd 9b c9 3d c0 54 1b bb f5 15 4e 3c
       -0.14029787 0.0984417 -0.0023701638 0.012578477
000390 d0 8f 34 3d b0 84 a5 3d 70 c3 8d 3d 41 c2 50 3d
       0.044082463 0.08081949 0.06922042 0.050966505
0003a0 e7 3f 7d bd 9d 0b 38 be 7e 6e 03 3d 78 99 c6 bd
       -0.06182852 -0.1797318 0.032087795 -0.096972406
0003b0 8f 8e 9e bc 0e b6 03 be 7f 75 22 be ab 5a 29 be
       -0.019355087 -0.12862417 -0.15865134 -0.16538493
0003c0 6c 24 de 3c 71 9e 66 be 77 2c 83 bc ec f3 76 3d
       0.027116977 -0.22521378 -0.016012413 0.060291216
0003d0 a0 fa ed bc f9 b5 04 3d 0b 70 b1 3d 7b c6 01 3e
       -0.029050171 0.032400105 0.086639486 0.1267337
0003e0 f3 eb cd bd 7a 5a 0f bd 24 0f 0b be f6 25 08 3e
       -0.10054769 -0.034998395 -0.13579994 0.13295731
0003f0 49 78 95 3d 33 73 94 3d 36 76 b8 bd 9a 15 8e bd
       0.07298333 0.07248535 -0.09006922 -0.06937714

u_model.model.8.bias f4 [42]
000000 cf ad ed bd a2 db 7b bd 0b 18 03 3d fb 48 a7 bd
       -0.11605417 -0.061488755 0.03200535 -0.08168217
000010 82 51 43 3d 15 d3 97 3d 33 ee 2a 3d a7 90 e7 bd
       0.047685154 0.074133076 0.04173107 -0.11306887
000020 37 80 9f bc 4f ce 32 bd 92 07 13 bd 59 7f 5e 3d
       -0.019470317 -0.043653782 -0.03589589 0.054320667
000030 29 69 08 bc 4f 6f f2 bd 4c dc a9 3d a7 55 fa 3d
       -0.008325853 -0.11837637 0.082939714 0.12223368
000040 02 d3 f7 3d 94 30 89 bd cb 3d a3 bc 5a f5 3e 3d
       0.121007934 -0.06698719 -0.019926926 0.046620704
000050 2e 3c 24 be d3 93 70 bd 51 a9 43 3d d6 c0 04 3e
       -0.16038582 -0.058734726 0.047768895 0.12964186
000060 11 ef 2f bd 4e d9 8d bd 61 1e 35 bd 05 ba 0f be
       -0.0429526 -0.06926213 -0.044218425 -0.14035805
000070 04 7e c2 3b 66 de 76 bd 9b 27 b0 3d ab f3 bf 3b
       0.0059354324 -0.06027069 0.08601304 0.005857905
000080 69 57 90 3d f1 82 95 bd 9b 98 a4 3d 71 b1 b6 3d
       0.07047922 -0.07300366 0.0803692 0.08920563
000090 5c bf 2a bd c7 78 c6 3b 05 7e 87 3d 05 e0 1d 3e
       -0.0416864 0.0060568783 0.06615833 0.15417488
0000a0 07 b0 33 3d 73 05 f8 bd
       0.043869045 -0.12110414

u_model.model.10.weight f4 [42, 42]
000000 97 a7 dd bd 7e d4 20 3d ef b4 d1 bd 97 0a 6e 3d
       -0.10822981 0.03926515 -0.102395885 0.058115568
000010 d8 e0 04 bd 20 f9 87 bd 07 4f df 3c 12 85 eb bd
       -0.03244099 -0.06639314 0.027259363 -0.114999905
000020 72 2a 6e 3e 9e 5a 4c 3e b2 ec 5d 3d 6b f0 3e 3e
       0.23258379 0.19956443 0.05418081 0.186464
000030 f4 5a 18 3e 4e 02 98 bc 04 04 56 be e2 86 3e 3c
       0.14878446 -0.018555786 -0.2089997 0.011628838
000040 65 6e 8d 3d 37 2d 0a be 2a 3d bb bd 71 50 b1 3d
       0.06905822 -0.1349381 -0.091425255 0.08657921
000050 b4 b9 17 3d 27 68 4e bd a3 de 9c 3d 13 01 07 be
       0.037042335 -0.050392296 0.07659652 -0.13184004
000060 ff bd 08 3d 67 cf 94 3c c0 ab e2 bd 03 80 44 3d
       0.03338432 0.018165303 -0.11067915 0.047973644
000070 d5 a0 3a 3e 23 c4 d4 3d 79 11 ce ba 17 64 01 bd
       0.18225415 0.103889726 -0.001572176 -0.031589594
000080 c7 ad 86 3d 4c 1b 78 3d 7c 10 9a 3b 56 be d0 3d
       0.06576114 0.060572907 0.004701672 0.10192554
000090 97 4b 26 be bf f2 7a 3c 54 83 09 3e 47 fc 45 be
       -0.16239773 0.015316664 0.13429004 -0.19334517
0000a0 6b 2d bb 3d 90 77 47 bd 57 35 e6 3d f1 ff d4 bd
       0.09139522 -0.048698008 0.112406425 -0.104003794
0000b0 ed cd d8 3d 72 a8 12 3d f6 2a 53 3d 88 40 67 bd
       0.10586152 0.035805173 0.051554643 -0.056458026
0000c0 cc 36 ad bb 00 aa 30 be 77 4d 03 3e c5 09 75 3e
       -0.0052860733 -0.1725235 0.12822519 0.23929508
0000d0 47 38 53 be f6 4b 90 3e 5f d8 9e 3e 09 15 df bd
       -0.20626937 0.28182954 0.31024453 -0.10892684
0000e0 d7 7e 52 bd cf b8 73 3e 2d b9 b8 3e 10 a6 81 be
       -0.051390495 0.23800968 0.36078778 -0.25322008
0000f0 ec 3e ab 3d cc 03 74 3d 5c 3c 0a 3e 82 40 32 be
       0.08361611 0.059573933 0.13499588 -0.1740742
000100 25 09 12 3e 1f 44 8d be 39 2e 15 3e 39 f4 13 be
       0.14261301 -0.27591035 0.14568414 -0.14448632
000110 6d a3 30 be 0d 2c e1 bc ad f4 98 3c 52 4c bf 3d
       -0.17249842 -0.027486825 0.018671358 0.09340729
000120 ae 77 14 bd b1 31 55 be 3e cb f3 bc 21 3d 4b 3e
       -0.036246948 -0.20819737 -0.02976 0.19847538
000130 ff a1 4c 3e c8 60 11 be 7a 91 88 be 09 d5 c7 3d
       0.19983672 -0.14197075 -0.2667349 0.0975743
000140 80 da 47 3d e1 b7 90 3d 0a e2 04 be a6 50 17 be
       0.048792362 0.07066322 -0.12976852 -0.14776859
000150 31 47 01 be 69 22 a8 3d 57 75 f9 bc 73 46 04 be
       -0.12624814 0.08209688 -0.03045146 -0.12917499
000160 74 b0 61 3e 20 54 ea 3d 03 ac 2f 3e dc 48 e0 3d
       0.22039968 0.11441827 0.17155461 0.10951397
000170 65 1f e7 bc c6 13 13 3e 22 d8 86 bd bb 61 19 bc
       -0.028213212 0.14363012 -0.06584193 -0.00936168
000180 73 b8 8c bd e5 4a 37 3e f1 0a 8f be d9 f7 9b bd
       -0.068711184 0.17899664 -0.27938035 -0.076156326
000190 53 4a 44 3e 4c f5 44 be 59 21 70 3e ca b3 56 bd
       0.19168977 -0.19234198 0.23450221 -0.052417554
0001a0 5a 09 0a 3e 9e 48 2c 3d e4 45 35 3e b0 de 6e be
       0.1348013 0.04206144 0.17702442 -0.23327136
0001b0 4f f2 78 3d ec 4d d6 bb 5d e3 a3 bd 9a df 05 be
       0.06077796 -0.0065400507 -0.080023505 -0.13073578
0001c0 fa eb 06 3e 1e 95 51 3d 95 bf 43 be 62 d3 4c be
       0.13175955 0.0511676 -0.19116051 -0.20002511
0001d0 e4 e4 ab 3d ee a7 37 bd eb 66 4f 3e d9 80 ea 3d
       0.08393267 -0.044837885 0.20254104 0.11450357
0001e0 a2 2e 01 be 1f 96 4b be ab 6d 0a bd c5 83 c8 bd
       -0.12615445 -0.19881485 -0.033795994 -0.09790758
0001f0 9b cd 2e 3c 66 73 34 bc e0 ec b0 3d f8 8c 3b bd
       0.010669137 -0.011013841 0.0863893 -0.045788735
000200 02 02 36 3e a3 2d 4d 3d 31 03 2d bd b4 03 b7 3d
       0.17774203 0.05009235 -0.04223937 0.08936253
000210 24 8b 25 3e 5b 7c d6 3d db 71 4a bc 6c 60 01 3e
       0.16166359 0.10472938 -0.012356247 0.12634438
000220 ef cc e0 3d 13 20 62 3d f9 7e 3a bd d2 eb d6 3d
       0.10976588 0.05520637 -0.045531247 0.10494198
000230 07 7d 47 3d 0d 90 ca 3c ed f0 13 be bb d7 41 bd
       0.04870322 0.024726892 -0.14447375 -0.047324877
000240 4b ad 85 3d dd 00 85 bd e4 f0 3f be e4 9a 51 bd
       0.06527194 -0.06494305 -0.18744236 -0.051173106
000250 61 90 ff 3d ee 73 34 be 60 18 da 3c 78 07 c4 bc
       0.1247871 -0.17622349 0.026622951 -0.023929343
000260 b0 61 ff bd 9a eb 3c 3d d4 64 12 be 9e 44 08 3d
       -0.12469804 0.046123125 -0.14296275 0.033268563
000270 96 07 0b 3e 8a 19 23 3d b1 e7 8f 3d 9d 50 83 bd
       0.13577113 0.039819278 0.070266135 -0.0641186
000280 80 f8 14 3e 8a e4 09 be a8 cc 14 bc 91 50 20 bd
       0.1454792 -0.13466087 -0.009081997 -0.039139334
000290 ce 9b e2 3c 60 12 6f 3d 54 1a 1d be 4e ea 6e bd
       0.027662184 0.058367133 -0.15342075 -0.05832892
0002a0 03 2e 3c be 52 82 da bd 2d fa 30 be 49 b5 1f 3e
       -0.18376927 -0.10669388 -0.17282934 0.15596499
0002b0 7c d4 77 3d 1f c3 20 3e ec ca 35 be 65 32 80 bc
       0.060505375 0.15699433 -0.1775319 -0.01564903
0002c0 ed f3 d5 3d 57 b0 6b be 94 46 eb bd eb 48 55 bc
       0.10446916 -0.23016487 -0.11488071 -0.013017873
0002d0 48 4f 20 bd e2 31 94 3c d1 24 e4 bd ee eb 60 bd
       -0.03913811 0.018090192 -0.11139835 -0.0549125
0002e0 a9 ed 20 bd 5a 6b 10 3e cc 53 0c be 0a ac c8 bd
       -0.03928915 0.14103451 -0.13703841 -0.09798439
0002f0 20 24 15 3e 84 9f d2 bd 4e 07 11 3d c4 47 40 3e
       0.14564562 -0.102843314 0.035407357 0.18777376
000300 97 8e ba bd 89 1c af 3a 68 49 a2 bd 5b 52 6e 3d
       -0.09109228 0.0013359945 -0.079241574 0.05818401
000310 29 65 1d be f1 48 d2 bb 4c 25 f2 3d e1 26 d9 3d
       -0.15370621 -0.0064173867 0.1182352 0.10603119
000320 94 68 44 3e 48 65 00 be 9c a2 42 3b 75 7a 7a bc
       0.19180518 -0.12538636 0.0029698974 -0.015287985
000330 62 3a ff bd f1 bc 38 3d a1 b1 cc bd 2b 1c 52 3b
       -0.124623075 0.045102064 -0.099948175 0.0032060246
000340 cf cd 1e 3d 82 6b e1 bd 90 ca 04 be 5d 67 3e be
       0.038770493 -0.110068336 -0.12967896 -0.18594117
000350 aa ea 43 be fe 11 63 bd 3d c2 de 3d 29 c9 f4 3d
       -0.19132486 -0.05543708 0.10876892 0.11952431
000360 a1 81 4f 3b 45 ed db 3d 1e 5f 48 3d c7 78 12 3c
       0.0031662958 0.10738615 0.048918836 0.008939928
000370 d8 d4 28 3e 3e 86 b4 bd 33 3e 4d bd eb 28 0a 3d
       0.16487443 -0.08814667 -0.050108146 0.03373043
000380 05 9c 92 3d a7 f9 1b bd 77 a9 7e 3d eb 05 2f 3e
       0.071586646 -0.038079884 0.062173333 0.17092101
000390 14 3a 40 3c c7 73 5c bd d9 0f 0f 3d 41 65 eb 3d
       0.011732597 -0.05382135 0.034927223 0.11493922
0003a0 fc 7f a3 3d d2 e5 19 3e 82 27 36 be e2 a4 1a be
       0.079833955 0.15029076 -0.17788509 -0.1510196
0003b0 73 01 e2 3d 26 37 ed bd a0 86 0b be 1e 2b 04 be
       0.11035433 -0.11582784 -0.13625574 -0.12907073
0003c0 8e d9 a2 bd 26 fd 0b 3e d7 dc 81 bb 87 64 3e be
       -0.079516515 0.13670787 -0.0039630937 -0.18593036
0003d0 b7 eb 14 be 95 5a 1d 3e 41 87 33 bd d1 cf 3e 3e
       -0.14543043 0.15366586 -0.04383016 0.18633963
0003e0 9e 12 13 be ae b1 93 bc 80 72 3b 3e fc 44 3e 3e
       -0.1436257 -0.01802906 0.18305397 0.18581003
0003f0 ad 18 21 3e f5 7e 17 3e a2 75 11 3d a2 af 01 be
       0.1573207 0.14794524 0.035512574 -0.12664655
