saved_models/1d_burgers/pinn.pt (torch, 68377 bytes, 38 tensors)

u_model.model.0.weight f4 [42, 2]
0	0x3fa37d23	1.2772564
1	0xbd0a9f5a	-0.033843376
2	0x3e021e3a	0.12706843
3	0xbf087267	-0.53299564
4	0x3e98aaf8	0.2981794
5	0xbf4d6eeb	-0.8024737
6	0x3ef960f1	0.48706773
7	0x3e24bfc2	0.16088775
8	0x3e1ce508	0.15321743
9	0x3ea70ccb	0.32626948
10	0xbedc053f	-0.42972752
11	0x3f5586bc	0.83408713
12	0x3ebc25b7	0.36747524
13	0x3f225d86	0.63423955
14	0xbde844ea	-0.11341269
15	0x3f1ec484	0.6201861
16	0x3eca2e44	0.39488423
17	0x3ed11d04	0.4084245
18	0x3f41bb58	0.7567649
19	0xbe897fce	-0.2685532
20	0x3fb0119e	1.3755376
21	0x3e048468	0.12941134
22	0x3f02086d	0.50794107
23	0x3f5c7e19	0.8612991
24	0x3e7cfbcf	0.24705432
25	0xbeca4cab	-0.39511618
26	0xbd94c5ed	-0.07264314
27	0x3eb42a16	0.3518836
28	0x3e0763c3	0.1322165
29	0xbed91dab	-0.42405447
30	0x3ebfa644	0.37431538
31	0x3ee79aad	0.45235196
32	0xbe82e292	-0.25563484
33	0x3d4d9f14	0.050200537
34	0xbddd716b	-0.108126484
35	0xbf1074f8	-0.5642848
36	0x3e8c7b59	0.27437857
37	0xbedc2979	-0.4300039
38	0xbec2fc8b	-0.380833
39	0xbe94b1e0	-0.29041958
40	0xbe9336e6	-0.28752822
41	0x3f4b2244	0.7934916
42	0x3d855bd1	0.06511653
43	0x3f390220	0.7226887
44	0x3e6a4198	0.22876585
45	0x3eb5c6b1	0.35503152
46	0x3f0b554d	0.54427034
47	0x3d99c244	0.07507756
48	0xbf018dfc	-0.50607276
49	0xbf0cbaab	-0.5497233
50	0xbe7aa91e	-0.24478576
51	0xbec0504a	-0.37561256
52	0x3e9003ec	0.28127992
53	0x3ebef698	0.3729751
54	0x3fa6574a	1.2995389
55	0x3e31ccb0	0.17363238
56	0xbe08b517	-0.1335033
57	0xbf11f104	-0.57008386
58	0xbecf59b1	-0.40498117
59	0xbedddc91	-0.4333234
60	0x3d33cb18	0.043894857
61	0x3f056053	0.52100104
62	0x3f5188c9	0.8184934
63	0xbecd36d7	-0.40080902
64	0xbca41c38	-0.020032987
65	0xbe9cfad9	-0.30660132
66	0xbc865e73	-0.016402459
67	0x3eba7c44	0.36422932
68	0xbc7c9256	-0.015415749
69	0x3d3a28e9	0.04544917
70	0x3dd01487	0.10160165
71	0x3ed6a971	0.4192615
72	0xbe1a85e1	-0.15090133
73	0xbef0ac6b	-0.47006544
74	0x3e5eabfa	0.21745291
75	0xbe1b5958	-0.151708
76	0xbed8d032	-0.4234634
77	0x3ef8abc1	0.48568538
78	0x3c79a6c7	0.015237517
79	0xbec8e083	-0.3923379
80	0xbeccb4d3	-0.39981708
81	0xbe898ed2	-0.26866776
82	0xbfa5267e	-1.2902372
83	0x3dd891aa	0.10574658

u_model.model.0.bias f4 [42]
0	0x3d560b55	0.0522569
1	0x3eec1123	0.46106824
2	0xbe33f15f	-0.17572545
3	0x3d4b36af	0.049612697
4	0x3e56fa7e	0.20993993
5	0x3f1b8aed	0.6075886
6	0xbeccda69	-0.40010384
7	0x3ec7e54f	0.39042136
8	0x3e396961	0.18106605
9	0xbe9cb780	-0.3060875
10	0x3d680069	0.056641016
11	0xbf014d7d	-0.5050886
12	0xbe8aa798	-0.2708099
13	0xbe9e8a90	-0.3096509
14	0xbefa77d9	-0.48919562
15	0x3f17f61f	0.59359926
16	0xbf2de4c8	-0.6792722
17	0x3ebd9dfe	0.370346
18	0xbf229436	-0.635074
19	0xbd1a1002	-0.037612922
20	0x3e61fa68	0.22068179
21	0x3f053031	0.5202666
22	0xbe8816b2	-0.26579815
23	0x3e28b481	0.16475107
24	0x3e54d0ea	0.2078282
25	0x3ee79a91	0.45235112
26	0xbc0036d2	-0.00782557
27	0x3e9108bf	0.28326985
28	0xbed70ddc	-0.4200276
29	0xbf0b046a	-0.5430361
30	0x3f148f3c	0.5803106
31	0xbed0c66b	-0.4077638
32	0xbe33aeed	-0.17547198
33	0xbde2df24	-0.11077717
34	0x3f2ed474	0.6829293
35	0xbe1fe2e2	-0.15613893
36	0xbf1baa8c	-0.6080711
37	0xbe8f45d0	-0.2798295
38	0x3ece43a8	0.40285993
39	0x3e858939	0.26081255
40	0x3f16e6f3	0.5894615
41	0xbe454a2a	-0.19266573

u_model.model.2.weight f4 [42, 42]
0	0xbe3a96dc	-0.18221611
1	0xbea53e08	-0.3227389
2	0x3d6a44dd	0.05719458
3	0xbc9d1171	-0.019173356
4	0x3dc4879f	0.0959618
5	0xbdda7711	-0.10667241
6	0x3d4bfdb8	0.049802512
7	0x3d04acd1	0.032391373
8	0xbe186b59	-0.148847
9	0xbe0fe8b4	-0.14053613
10	0xbeaa68d9	-0.33283117
11	0x3dd6362f	0.104595535
12	0x3d428ac3	0.047495615
13	0x3e404699	0.18776931
14	0x3c782f01	0.015147925
15	0x3c5326d0	0.012887672
16	0xbc93c576	-0.018038493
17	0xbdef9d46	-0.116999194
18	0xbcc99334	-0.024606325
19	0xbd17e6c2	-0.037085302
20	0x3e024c11	0.1272433
21	0xbe178959	-0.14798488
22	0x3db7c0b5	0.08972303
23	0xbe87bf0e	-0.2651295
24	0xbc85cba2	-0.016332451
25	0xbdda2d9f	-0.10653233
26	0x3d9dc67a	0.07703872
27	0xbe6a4903	-0.22879414
28	0x3de77833	0.11302223
29	0xbdafeae0	-0.08589721
30	0x3d930073	0.0717782
31	0xbde819cd	-0.11333046
32	0x3d17e200	0.037080765
33	0x3dc95c58	0.09832066
34	0xbcde2b6a	-0.02712031
35	0x3dc7c904	0.097551376
36	0x3df5b57d	0.11997507
37	0x3c5c3f02	0.013442757
38	0xbdf47311	-0.1193601
39	0xbde22449	-0.11042077
40	0xbe0a59c3	-0.13510804
41	0x3edbb0ea	0.42908412
42	0x3c870a51	0.016484411
43	0x3e309689	0.17244925
44	0x3c8fb7bd	0.017543668
45	0xbc3fb6c0	-0.011701286
46	0xbe103979	-0.14084424
47	0xbcb5dcf0	-0.022200078
48	0xbdb9ee2e	-0.09078632
49	0x3c4dafab	0.01255409
50	0xbc4d3664	-0.012525175
51	0xbe073f28	-0.13207686
52	0x3d316110	0.043305457
53	0xbe6993d1	-0.22810294
54	0x3d03529c	0.032061204
55	0xbe55d6d2	-0.20882729
56	0x3e1f7f2c	0.15575856
57	0x3decd0e8	0.11563283
58	0x3bac5281	0.0052588587
59	0x3e92aa48	0.2864554
60	0xbddfa39a	-0.109198764
61	0x3d8a3511	0.06748403
62	0xbe6fcfb7	-0.2341908
63	0x3c33ab37	0.010966114
64	0xbe8cc396	-0.2749297
65	0xbdafab8e	-0.08577643
66	0x3e65a410	0.22425866
67	0x3e4a428a	0.19751945
68	0xbe3a2561	-0.18178321
69	0xbe0801fa	-0.13282004
70	0x3d775e64	0.060392752
71	0x3d8e9fb6	0.06964056
72	0xbd41463a	-0.047186114
73	0xbd27ba04	-0.040948883
74	0xbc30973b	-0.010778244
75	0xbe14317c	-0.14472002
76	0x3e32be3d	0.17455383
77	0xbe7c61cb	-0.2464668
78	0x3db69e5d	0.08916924
79	0x3dc6d450	0.09708464
80	0x3d8a5284	0.0675402
81	0x3e373416	0.17890963
82	0x3d6f738f	0.058459815
83	0x3dcb67aa	0.09931882
84	0xbce4c390	-0.027925283
85	0x3e0ea6dd	0.13930841
86	0xbd254e00	-0.04035759
87	0x3ba82418	0.005131256
88	0x3ddcd322	0.10782458
89	0xbdb5c787	-0.088759474
90	0x3cbb1159	0.02283542
91	0xbc90f5d6	-0.017695349
92	0x3d8e387f	0.069443695
93	0xbdfc589f	-0.12321591
94	0xbd38c58a	-0.045110263
95	0x3db93b2b	0.090444885
96	0xbe3256f0	-0.17415977
97	0xbe01d913	-0.12680463
98	0xbdd32bda	-0.103110984
99	0x3dcac6c6	0.09901194
100	0x3dd4ba03	0.103870414
101	0xbddd29ed	-0.10799012
102	0x3bd94869	0.0066309464
103	0xbd0e31ed	-0.03471558
104	0xbda6fe34	-0.08153954
105	0x3e0a06c1	0.13479139
106	0x3d6bfcdf	0.057614204
107	0xbd951d72	-0.07281007
108	0x3d72a26c	0.05923693
109	0x3d65259f	0.05594408
110	0x3c036ea7	0.008021987
111	0xbdbea9e7	-0.0930975
112	0xbdcbf0f4	-0.099580675
113	0x3dd32efa	0.103116944
114	0x3d09e993	0.03367002
115	0xbb549fcf	-0.0032443886
116	0xbd86baa8	-0.065785706
117	0x3db35573	0.087565325
118	0x3e04d153	0.12970476
119	0x3dbcf75c	0.092268676
120	0x3cf0f386	0.029412996
121	0x3dd544e8	0.104135334
122	0x3d101814	0.035179213
123	0x3d1bfc7f	0.038082596
124	0x3e2f31b6	0.17108807
125	0x3e804cc7	0.25058576
126	0xbc4f168b	-0.012639652
127	0x3e35fbbd	0.17771812
128	0x3dee0625	0.11622266
129	0xbc3822cb	-0.011238764
130	0x3dcfe26c	0.101506084
131	0xbe23089a	-0.1592125
132	0x3d57beda	0.052672245
133	0x3dcb469b	0.09925576
134	0xbde3fd68	-0.11132318
135	0xbd90c7d1	-0.07069362
136	0xbe1a3c53	-0.15062074
137	0xbda930c6	-0.08261256
138	0xbd988748	-0.07447678
139	0xbdb6976a	-0.08915599
140	0x3dc35638	0.09537929
141	0x3db55855	0.088547386
142	0x3dc9e6eb	0.09858497
143	0x3e0aa11d	0.13538022
144	0x3de7b650	0.1131407
145	0xbdb31753	-0.08744683
146	0xbe3af1ae	-0.18256256
147	0xbc946663	-0.018115228
148	0x3de107e6	0.10987835
149	0x3c154b63	0.009112212
150	0xbaa8ec8c	-0.0012887879
151	0xbdec206c	-0.115296215
152	0xbdcc6d8f	-0.09981834
153	0xbdece37a	-0.11566825
154	0x3e1d507f	0.15362738
155	0xbbc227b7	-0.0059251445
156	0xbe3288c7	-0.17434989
157	0x3d1efea5	0.038817067
158	0x3d8e7964	0.06956747
159	0xbda9151a	-0.08255978
160	0x3cdaed34	0.026724435
161	0x3ce55565	0.02799482
162	0xbde34c8b	-0.11098584
163	0xbd8ac788	-0.06776339
164	0xbd842b8a	-0.06453617
165	0xbdeaab80	-0.11458492
166	0xbe14e47e	-0.14540288
167	0x3db06aa7	0.08614092
168	0xbebf3b97	-0.3735015
169	0x3d54e28d	0.05197387
170	0xbe30edd8	-0.1727823
171	0xbeeaf929	-0.4589322
172	0xbcadd668	-0.0212204
173	0x3cd51860	0.0260126
174	0xbefa1014	-0.48840392
175	0xbdf1c911	-0.118059285
176	0xbe2242ac	-0.15845746
177	0xbe9f9441	-0.31167796
178	0xbebafead	-0.36522427
179	0xbeeaad73	-0.45835456
180	0xbe28b356	-0.16474661
181	0xbd996ca8	-0.07491428
182	0x3d7f998e	0.0624023
183	0xbe344eb8	-0.17608154
184	0x3d0ef5d8	0.034902424
185	0x3e3a367e	0.1818485
186	0xbe198e76	-0.14995751
187	0x3ef02922	0.46906382
188	0x3dcb1282	0.099156395
189	0x3d97a1b5	0.0740389
190	0xbebe2d02	-0.37143713
191	0xbea287a4	-0.3174411
192	0x3ec14f8f	0.3775601
193	0x3e9ac1b5	0.30225912
194	0xbf018e4b	-0.50607747
195	0xbe28660c	-0.16445178
196	0x3dfb63b6	0.12274878
197	0x3e1ac6ce	0.151149
198	0x3d9725f0	0.07380283
199	0xbe9a8b66	-0.30184478
200	0x3e3bce48	0.18340409
201	0xbe92ca6c	-0.2867006
202	0x3c794710	0.0152146965
203	0xbe5f875a	-0.21828976
204	0x3db79591	0.089640744
205	0xbe444f38	-0.19170845
206	0x3dd7722b	0.10519823
207	0x3c7eb47a	0.015545959
208	0x3e9bf4c8	0.3046019
209	0x3e93bbd7	0.28854248
210	0x3eaeb7c1	0.34124568
211	0x3e03f08a	0.12884727
212	0x3eb8013e	0.35938448
213	0x3dd6d357	0.104895286
214	0xbcd18f89	-0.025581138
215	0xbd653989	-0.055963073
216	0x3de54745	0.11195234
217	0xbe2ee4b4	-0.17079431
218	0xbd1487ab	-0.036262196
219	0x3e835485	0.2565042
220	0x3eaf6248	0.3425467
221	0x3d8dbdbb	0.06920954
222	0x3e8a22a1	0.26979545
223	0xbe53d6a0	-0.20687342
224	0x3e16cd89	0.14726843
225	0xbd77181b	-0.060325723
226	0x3d2f96bf	0.042868372
227	0x3e281d89	0.16417517
228	0x3dee0a91	0.11623109
229	0xbcbe223f	-0.02320969
230	0xbea3703e	-0.31921571
231	0xbe1c3546	-0.15254697
232	0xbdeb0e48	-0.11477333
233	0x3e8ab065	0.27087703
234	0xbd9bac6e	-0.07601248
235	0xbe17e2f9	-0.14832677
236	0x3e2cbf7c	0.1686992
237	0x3eb129fb	0.3460234
238	0xbe0e3d49	-0.13890566
239	0x3d8b1449	0.067909785
240	0xbb724075	-0.003696469
241	0x3e6c8021	0.23095752
242	0x3e3ffb5d	0.18748231
243	0xbc48c37c	-0.012253638
244	0x3d5558b8	0.052086562
245	0x3d98d525	0.07462529
246	0x3d9c39e8	0.07628232
247	0x3e12f30b	0.14350526
248	0xbe9be90e	-0.30451244
249	0x3dc266a9	0.09492237
250	0xbe22adf3	-0.15886669
251	0xbe949763	-0.2902175
252	0x3db089ad	0.086200096
253	0x3c5dbcd9	0.013533794
254	0xbdb1bcb4	-0.086785704
255	0x3b17cb79	0.002316205

u_model.model.2.bias f4 [42]
0	0xbd5b8374	-0.05359216
1	0x3c854e79	0.01627277
2	0x3d4881cc	0.04895191
3	0xbbb5a174	-0.0055429284
4	0x3dbe3793	0.09287944
5	0x3c579d34	0.013160039
6	0x3d2ac783	0.041694175
7	0x3dadc032	0.08483924
8	0x3dabfe90	0.08398163
9	0x3dfd5bb1	0.123710044
10	0xbdeaa956	-0.114580795
11	0xbd1b1f1e	-0.037871473
12	0x3deab4d2	0.1146027
13	0xbd8d250c	-0.06891832
14	0x3e15e6fb	0.14638893
15	0x3d22e0a8	0.03976503
16	0x3d9bcfb4	0.076079756
17	0xbd5b9533	-0.053609084
18	0x3d0befe7	0.034164336
19	0xbe0785ec	-0.13234681
20	0xbe241560	-0.16023779
21	0x3e416f4b	0.18890111
22	0xbe230064	-0.15918118
23	0xbe174b81	-0.14774896
24	0xbda44e25	-0.080227174
25	0x3d0febef	0.035137113
26	0x3cd3a61e	0.025836047
27	0xbd85b39d	-0.06528399
28	0x3c952337	0.018205268
29	0xbd7e24e7	-0.06204691
30	0x3d975958	0.07390088
31	0x3e8de52d	0.2771391
32	0xbaad35f7	-0.0013214935
33	0x3cee0f83	0.029060131
34	0x3e08cd6a	0.13359609
35	0xbe3e8d2f	-0.18608545
36	0x3d852f48	0.06503159
37	0xbe313e36	-0.17308888
38	0x3e2e06e2	0.16994813
39	0xbdbca70a	-0.09211548
40	0xbc14d51e	-0.009084014
41	0xbdfb2161	-0.12262226

u_model.model.4.weight f4 [42, 42]
0	0x3e4770e8	0.19476664
1	0xbd867474	-0.065651804
2	0x3ebba5a6	0.36649817
3	0xbe17a797	-0.14810024
4	0x3e940250	0.28908014
5	0xbee71cc1	-0.45139125
6	0xbd8d76d5	-0.06907431
7	0x3e3f891d	0.18704648
8	0x3e2b9409	0.1675569
9	0xbeafad05	-0.3431169
10	0xbede86ca	-0.4346221
11	0xbe68a51c	-0.22719234
12	0x3e305955	0.17221577
13	0x3eec472f	0.4614806
14	0x3ed0c57e	0.40775675
15	0xbdf01574	-0.11722842
16	0x3e023817	0.12716709
17	0xbc274985	-0.0102103995
18	0x3ef301a5	0.47462192
19	0xbe970b89	-0.29500988
20	0xbf07bf4c	-0.5302627
21	0xbcd1c7a8	-0.025607899
22	0x3ba221e8	0.0049478896
23	0x3e16bf2d	0.14721365
24	0x3d86f4f5	0.065896906
25	0x3e0b9dde	0.1363444
26	0x3e1e61db	0.15467016
27	0x3de99572	0.114054576
28	0x3e64e3ff	0.22352599
29	0xbe58da31	-0.21176983
30	0x3e86a805	0.26300064
31	0x3e189161	0.14899208
32	0x3ecac741	0.39605144
33	0xbe4a38a0	-0.19748163
34	0xbe057ac6	-0.13035116
35	0x3e6c7695	0.2309211
36	0x3e7dbcc1	0.24779035
37	0x3e3939aa	0.18088403
38	0x3eef0982	0.4668694
39	0x3da541b8	0.080691755
40	0xbe7eaaf2	-0.24869898
41	0x3db7f3d0	0.089820504
42	0x3d9936fb	0.0748119
43	0x3db4a37b	0.08820244
44	0xbe054576	-0.13014778
45	0x3c63deea	0.013908127
46	0xbe0c0daf	-0.13677095
47	0xbd50c6e1	-0.050970916
48	0x3dd4c2ab	0.103886925
49	0xbd7e748e	-0.062122874
50	0x3d653402	0.0559578
51	0xbdb4c3ce	-0.08826409
52	0x3e1460fe	0.14490125
53	0x3dbc4bad	0.091941215
54	0x3dc0ed69	0.094202824
55	0x3cff6099	0.031173991
56	0xbc673699	-0.014112138
57	0xbd8efa52	-0.069813386
58	0xbdc5b9e7	-0.09654599
59	0xbe057d3f	-0.13036059
60	0x3de4dd7d	0.11175058
61	0xbd15c931	-0.036568824
62	0x3d71cad4	0.059031323
63	0xbe136b5b	-0.14396422
64	0x3cc44cc9	0.023962395
65	0xbda23dde	-0.079219565
66	0xbe29a7fe	-0.1656799
67	0x3cc38039	0.023864852
68	0xbe32a9f4	-0.17447644
69	0xbb7f82df	-0.0038987917
70	0xbdf31184	-0.11868575
71	0x3dfe003e	0.1240239
72	0xbe2078c0	-0.15671062
73	0x3b63e9f3	0.0034776896
74	0x3d22e09c	0.039764985
75	0xbdf9e7c1	-0.12202407
76	0x3ddb662b	0.10712846
77	0x3dae9dd2	0.085261956
78	0xbdf6a50c	-0.12043199
79	0xbd1f8a54	-0.03895028
80	0x3d257e00	0.040403366
81	0x3e16a03b	0.1470956
82	0x3e0a7bbf	0.13523768
83	0xbe032141	-0.12805654
84	0xbcd64332	-0.026155088
85	0xbe38f517	-0.18062244
86	0xbdfc295c	-0.12312576
87	0x3df0b147	0.11752563
88	0x3d606082	0.054779537
89	0x3e1944f3	0.14967708
90	0xbe707b7f	-0.2348461
91	0xbe446889	-0.19180502
92	0xbe58062d	-0.21096106
93	0xbe019216	-0.12653384
94	0x3e5e4331	0.21705319
95	0xbd09c5d5	-0.033635933
96	0xbe39237f	-0.18079947
97	0xbdbdd7d3	-0.09269681
98	0xbe0e538d	-0.1389906
99	0xbe64eae0	-0.22355223
100	0x3e2e8426	0.17042598
101	0x3d8a7249	0.067600794
102	0x3d90cbf9	0.07070155
103	0x3d9b0fd6	0.0757138
104	0xbc84a48a	-0.01619174
105	0xbe48ac08	-0.19596875
106	0x3e5cbb53	0.21555834
107	0xbda4d379	-0.08048148
108	0x3dd7e0e9	0.10540945
109	0xbd3929bd	-0.04520582
110	0x3e3bfcf9	0.1835822
111	0x3d9de041	0.07708789
112	0xbda9ce70	-0.08291328
113	0xbcb5202e	-0.022110071
114	0x3d8df4ac	0.06931433
115	0xbec0f7b4	-0.37688982
116	0x3ce6ce02	0.028174404
117	0x3b9ac1fa	0.004722831
118	0x3cfc4c15	0.030797997
119	0x3d4ef9d8	0.05053124
120	0xbe319014	-0.17340118
121	0xbdb4eab0	-0.088338256
122	0xbe4663ee	-0.19374058
123	0xbd068246	-0.032839082
124	0x3bfbb5f4	0.0076816026
125	0xbd1f1efb	-0.038847905
126	0xbd3d7e59	-0.046263073
127	0xbddca3d2	-0.10773434
128	0x3dec5418	0.11539477
129	0x3dc05324	0.09390858
130	0x3d4a6d39	0.04942057
131	0x3e57ff09	0.21093382
132	0xbe0e6d2c	-0.13908833
133	0xbddbcbf4	-0.1073226
134	0xbe1a7683	-0.15084271
135	0x3de7a23e	0.11310242
136	0x3df41d49	0.11919648
137	0x3e1aebcf	0.15129016
138	0xbe0bd110	-0.1365397
139	0xbe0bf318	-0.13666952
140	0x3dcb088b	0.09913739
141	0xbdefb666	-0.117047116
142	0xbde4ffee	-0.11181627
143	0x3cd4196b	0.025891026
144	0xbe433c18	-0.19065893
145	0xbc3e242a	-0.011605302
146	0x3df09747	0.11747604
147	0x3dce81b5	0.100833334
148	0xbd0f70b6	-0.0350196
149	0xbe0ddef3	-0.1385458
150	0x3df520f3	0.11969175
151	0x3e318d69	0.173391
152	0xbe127327	-0.1430174
153	0xbca8c470	-0.020601481
154	0xbdf3ab82	-0.11897947
155	0xbd535a8c	-0.051600024
156	0x3d3923ae	0.045200042
157	0x3cbb9a78	0.022900805
158	0x3d663e54	0.056211784
159	0xbe2056dd	-0.15658136
160	0xbcb587e9	-0.022159534
161	0x3ccb4979	0.024815308
162	0xbd3f54ae	-0.046711616
163	0xbd737e72	-0.05944676
164	0xbe0331ed	-0.12812014
165	0x3e42a490	0.19008088
166	0xbda9cac9	-0.08290631
167	0xbe09c7b9	-0.13455094
168	0x3d9f9501	0.07792092
169	0xbdb70399	-0.08936233
170	0x3deba598	0.11506194
171	0xbdcda43a	-0.10041089
172	0x3b8c7365	0.004286217
173	0xbe032389	-0.12806524
174	0x3e2091ec	0.15680665
175	0x3e1ff6c9	0.15621485
176	0x3d609efc	0.05483912
177	0xbad2f70c	-0.0016095354
178	0xbdd2ac2f	-0.10286748
179	0xbdbe3b4e	-0.09288655
180	0xbcb4744e	-0.022028115
181	0x3dee1c44	0.11626485
182	0x3d54cc56	0.051952682
183	0x3dc024c8	0.093820155
184	0x3c92d8b7	0.017925603
185	0x3d7e7e59	0.062132213
186	0xbd679c4f	-0.056545552
187	0x3c984c67	0.018591119
188	0xbe5fb3e5	-0.21845968
189	0x3d971c47	0.0737844
190	0x3d86a767	0.06574898
191	0x3cdb8b3a	0.026799787
192	0x3da4bdda	0.08044024
193	0xbc0ba720	-0.008523732
194	0xbd43c11e	-0.047791593
195	0xbdec48ef	-0.115373485
196	0xbdf23ec5	-0.118283786
197	0x3d1d30d2	0.038376637
198	0x3dac47af	0.0841211
199	0xbda51084	-0.08059791
200	0x3d332214	0.04373367
201	0xbd0b85c8	-0.03406313
202	0x3e00b6f0	0.12569785
203	0xbd3b4e48	-0.04572895
204	0x3e34eaec	0.1766774
205	0x3df29009	0.11843879
206	0x3e128f10	0.14312387
207	0x3db85d96	0.09002225
208	0xbbb46b6d	-0.00550597
209	0x3d87f242	0.06638004
210	0xbdfe9625	-0.124309815
211	0xbd8e8876	-0.069596216
212	0x3d1c2585	0.03812172
213	0x3d35db38	0.044398516
214	0xbd89cdc6	-0.06728701
215	0xbb1f7027	-0.0024328323
216	0x3e0c92be	0.13727853
217	0x3e03c803	0.12869267
218	0x3e4107af	0.18850587
219	0xbd85cf87	-0.06533723
220	0xbd1382bc	-0.03601335
221	0xbd920af7	-0.07130998
222	0x3e37ad2f	0.17937158
223	0x3d821a6e	0.06352697
224	0x3db8da8f	0.09026062
225	0xbe0cb36a	-0.13740316
226	0x3e1eee93	0.15520696
227	0x3d2fb862	0.04290045
228	0x3e2ad7f4	0.16683942
229	0xbe4706a3	-0.19436125
230	0xbe892c1e	-0.2679147
231	0x3d171ce1	0.036892775
232	0xbdb79105	-0.08963207
233	0x3d613c23	0.05498899
234	0x3c8d0d62	0.017218295
235	0xbd890b80	-0.066916466
236	0x3df76c9e	0.12081264
237	0x3d8f1fe2	0.06988503
238	0xbdb97b82	-0.0905676
239	0xbe520c69	-0.20512547
240	0x3e1ced67	0.15324937
241	0xbd4bfbfd	-0.04980086
242	0x3dba6352	0.09100975
243	0xbd721179	-0.059098694
244	0x3d2dbb2a	0.04241482
245	0xbd1361d5	-0.03598197
246	0x3de4545b	0.11148902
247	0xbcb4eb01	-0.022084715
248	0xbba71be6	-0.0050997613
249	0xbdb6eb1b	-0.089315616
250	0xbd152a64	-0.03641738
251	0x3e05aeff	0.13055037
252	0x3c615e65	0.013755416
253	0x3c60049e	0.013672976
254	0x3e17a326	0.1480833
255	0x3dccc3f2	0.09998311

u_model.model.4.bias f4 [42]
0	0x3dd5d69c	0.10441324
1	0x3da545b8	0.080699384
2	0xbe0a12a6	-0.13483676
3	0x3dd8da44	0.10588506
4	0xbd9d3215	-0.07675568
5	0x3dcefd3f	0.101068966
6	0x3e192b15	0.1495784
7	0x3ce46ff2	0.027885411
8	0xbc348b2a	-0.011019507
9	0xbdfd8bb0	-0.12380159
10	0xbd4ed0ae	-0.05049198
11	0xbdc92c3c	-0.0982289
12	0xbe1f2b56	-0.15543875
13	0xbd2701ab	-0.040773075
14	0x3e1e55c0	0.15462399
15	0x3d214921	0.03937638
16	0x3e9b377d	0.30315772
17	0xbdef54b1	-0.116860755
18	0x3dc9cc5d	0.09853432
19	0x3e0e11c5	0.13873966
20	0x3e2e343a	0.1701211
21	0xbd3e2a92	-0.046427317
22	0xbe2d7112	-0.16937664
23	0xbbd3af20	-0.0064600855
24	0x3e17d241	0.14826299
25	0x3c31d1cc	0.010853242
26	0x3df9aee1	0.12191559
27	0xbdedc537	-0.11609881
28	0xbddf2917	-0.10896509
29	0x3e0d3741	0.13790609
30	0x3db63a46	0.088978335
31	0xbe50abf8	-0.20378101
32	0x3e2dc65c	0.169702
33	0xbd7869e8	-0.060647875
34	0xbddc2535	-0.10749284
35	0x3d39e5dd	0.04538523
36	0xbd2c836d	-0.042117525
37	0xbd698450	-0.05701095
38	0x3d3da4fa	0.046299912
39	0x3d3a32c2	0.045458563
40	0x3e145e81	0.14489175
41	0x3e1b0da1	0.15141918

u_model.model.6.weight f4 [42, 42]
0	0xbe3f1563	-0.18660502
1	0xbb0beda4	-0.0021351362
2	0x3e90edc7	0.2830641
3	0xbd795d2b	-0.060879868
4	0xbd85312a	-0.06503518
5	0xbdb0966f	-0.08622443
6	0xbdf7d5a8	-0.121012986
7	0xbd871823	-0.065964006
8	0x3d6e288c	0.058144137
9	0xbc6ef254	-0.014584143
10	0xbdbcf771	-0.09226883
11	0x3d4b6794	0.049659327
12	0x3e1241d7	0.14282928
13	0x3e87f7e8	0.26556325
14	0x3c1439a0	0.009046942
15	0xbd82cf79	-0.063872285
16	0x3de6a7f0	0.112625
17	0x3dfd0733	0.12354889
18	0xbc1aab1b	-0.009440209
19	0x3e0dccd7	0.13847671
20	0xbe5ccb97	-0.21562038
21	0xbdafc405	-0.0858231
22	0x3e3e4d8b	0.18584268
23	0xbddb274f	-0.10700857
24	0xbdc8537a	-0.09781547
25	0xbdf0987d	-0.11747835
26	0x3a6616a0	0.0008777175
27	0xbbbd57e8	-0.0057783015
28	0xbcc47b48	-0.023984566
29	0xbe3ff362	-0.18745187
30	0x3c4614bd	0.012089905
31	0xbc9251f5	-0.017861346
32	0xbdf5233c	-0.11969611
33	0x3e1cf4e0	0.15327787
34	0xbe13e68f	-0.1444342
35	0xbe159d78	-0.14610851
36	0xbd51f3be	-0.05125784
37	0xbdd7fbd3	-0.105460785
38	0xbc2ee101	-0.010673762
39	0xbe4ecdad	-0.20195647
40	0x3cf9c94d	0.030491496
41	0x3cb7b73e	0.022426244
42	0xbde5bb51	-0.112173684
43	0x3dfbc3c5	0.122931994
44	0x3e489d82	0.19591334
45	0x3daaf3cd	0.083472826
46	0xbe0527b0	-0.13003421
47	0xbd5e7eac	-0.054320022
48	0x3dc2b0ae	0.09506355
49	0x3ddd9786	0.108199164
50	0xbdd84680	-0.10560322
51	0x3dc2303b	0.094818555
52	0xbe1a4f6d	-0.15069361
53	0x3d071d98	0.032987207
54	0x3e20e152	0.15710953
55	0x3dd3c967	0.10341149
56	0xbe605191	-0.21906115
57	0xbba93155	-0.0051633515
58	0x3dabc139	0.08386464
59	0x3ddf62be	0.109075055
60	0xbdd10d00	-0.10207558
61	0x3bfd1b70	0.007724218
62	0xbd814f08	-0.06313902
63	0xbc9d963f	-0.019236682
64	0xba3e37a6	-0.0007256217
65	0xbd8e6bf9	-0.06954188
66	0x3d4b5348	0.04963997
67	0x3d9c374a	0.07627733
68	0x3d9216dd	0.07133267
69	0x3dcf96d0	0.10136187
70	0xbd47bb3a	-0.048762538
71	0xbd25074e	-0.04029017
72	0x3d26185f	0.040550586
73	0xbc0ae649	-0.008477756
74	0xbde9881f	-0.11402916
75	0xbc199c98	-0.009375714
76	0x3c089b95	0.008337875
77	0xbe16247c	-0.14662355
78	0xbe13c973	-0.14432316
79	0xbe2b271d	-0.1671414
80	0xbda7c048	-0.081909716
81	0x3c5c2125	0.013435637
82	0x3db164b1	0.086617835
83	0xbe316676	-0.17324242
84	0xbda73f47	-0.08166366
85	0x3dc36262	0.095402494
86	0xbda7bb12	-0.08189978
87	0x3dbb81a2	0.09155585
88	0xbad86925	-0.0016510828
89	0xbe1fcbfd	-0.15605159
90	0x3b9dca14	0.0048153494
91	0xbdc4256b	-0.095774494
92	0x3cacddc9	0.02110185
93	0xbe1686bb	-0.14699833
94	0x3e0e4188	0.13892186
95	0xbdbafd3c	-0.09130332
96	0x3dfef472	0.12448968
97	0xbd889d72	-0.06670655
98	0xbe4290fc	-0.1900062
99	0x3d80a972	0.06282319
100	0x3dc802f8	0.09766191
101	0xbc28425f	-0.01026973
102	0xbe38a15c	-0.18030304
103	0xbd100f50	-0.035170853
104	0xbe0c69fc	-0.13712305
105	0x3cee9b91	0.029126914
106	0x3cf0413a	0.029327977
107	0x3dc3d1a0	0.09561467
108	0x3e11830f	0.14210151
109	0xbd8a960b	-0.067669
110	0x3e6afa8d	0.2294714
111	0x3dec378c	0.11534032
112	0x3c13c67d	0.009019491
113	0xbe4e7dd6	-0.2016519
114	0xbde7e3cd	-0.113227464
115	0x3da4aa4d	0.08040295
116	0x3d5e168a	0.054220714
117	0x3d045f0d	0.03231721
118	0xbd25351c	-0.040333852
119	0xbe2d6e38	-0.16936576
120	0xbe2e987d	-0.17050357
121	0xbdcd5875	-0.100266375
122	0xbcf27738	-0.029597864
123	0x3c124a59	0.008928859
124	0x3dde65f5	0.108592905
125	0xbe1949bc	-0.14969534
126	0x3dbe8100	0.093019485
127	0x3dc94500	0.09827614
128	0xbe0c44d1	-0.13698126
129	0xbdd78501	-0.10523415
130	0xbd05385f	-0.032524463
131	0x3ca33848	0.019924298
132	0x3e0346c5	0.12819965
133	0x3d3508bb	0.04419778
134	0x3d914e55	0.07095019
135	0x3e082e29	0.13298859
136	0x3de8c032	0.11364783
137	0xbe405ab8	-0.18784606
138	0xbe025d1c	-0.12730831
139	0x3d23901d	0.03993236
140	0xbbe4c073	-0.0069809495
141	0x3c67015e	0.014099447
142	0x3e0ae114	0.13562423
143	0x3e12cd57	0.14336143
144	0xbca4de6a	-0.020125587
145	0xbd873917	-0.06602686
146	0xbc27d79d	-0.010244277
147	0x3cb78e2c	0.02240666
148	0x3d9f715c	0.077852935
149	0x3d24a2dc	0.040194377
150	0x3cfcd8c1	0.030865075
151	0x3d978571	0.07398499
152	0x3dee5809	0.11637885
153	0x3df40049	0.11914117
154	0xbc70da74	-0.014700521
155	0xbe0ba21a	-0.13636056
156	0x3e12f3a4	0.14350754
157	0x3bec542f	0.007212184
158	0xbe05c3b8	-0.13062942
159	0xbd05a77d	-0.032630432
160	0x3df3f859	0.11912603
161	0xbce4fa58	-0.027951404
162	0xb9811bd5	-0.00024625534
163	0x3d44348e	0.047901683
164	0x3e2a6193	0.16638784
165	0xbc903f67	-0.017608358
166	0xbe03c4b7	-0.1286801
167	0xbd486441	-0.048923735
168	0xbde8ee9c	-0.11373636
169	0x3c53e9d5	0.012934168
170	0xbd71d42f	-0.059040245
171	0x3e011dc3	0.1260901
172	0x3d364ea8	0.044508606
173	0xbe0d1972	-0.13779238
174	0x3da1d22c	0.07901415
175	0x3c041796	0.008062264
176	0x3e23b3da	0.15986577
177	0x3d61961b	0.055074792
178	0xbd1c672a	-0.038184322
179	0xbe2d8654	-0.16945773
180	0xbded8bc9	-0.115989275
181	0x3d23c29b	0.039980512
182	0x3e1a0290	0.1504004
183	0xbe0a01b8	-0.13477218
184	0x3d6f5d14	0.058438376
185	0xbdcaac80	-0.09896183
186	0xbdb83545	-0.08994535
187	0xbd0b1c11	-0.033962313
188	0xbe1d994c	-0.1539051
189	0xbdcf0ceb	-0.10109886
190	0xbccb0b20	-0.024785578
191	0x3c6c8151	0.014435128
192	0x3d98ced2	0.07461323
193	0x3d9e7d3a	0.07738729
194	0x3d5becbc	0.053692564
195	0xbd2d5f44	-0.04232718
196	0xbd4308e3	-0.047615897
197	0xbdd9e354	-0.106390625
198	0x3e0be4f5	0.13661559
199	0x3e39e132	0.18152311
200	0xbe319603	-0.17342381
201	0xbdee8973	-0.1164731
202	0xbe0d680e	-0.13809225
203	0xbcb712d3	-0.022347843
204	0x3a85c60e	0.001020612
205	0xbdab59cb	-0.08366736
206	0x3e15beaa	0.14623514
207	0x3baea63e	0.005329876
208	0xbdfc14a4	-0.123086244
209	0xbe12edc7	-0.14348517
210	0x3dedbc40	0.116081715
211	0x3e2e1dd7	0.1700357
212	0x3ce346c0	0.027743697
213	0xbd874c33	-0.06606331
214	0x3db7c9c7	0.08974033
215	0x3dad779c	0.08470079
216	0xbbe88614	-0.0070960615
217	0x3e1827cf	0.14858936
218	0xbe21d8db	-0.1580538
219	0xbd4e9c0d	-0.05044179
220	0x3dea4da3	0.11440589
221	0xbe4459b6	-0.19174847
222	0xbd8a557a	-0.067545846
223	0x3ca78b41	0.020452144
224	0xbc7c422b	-0.015396635
225	0x3e0932bd	0.13398261
226	0x3e47406b	0.19458167
227	0xbe03c84e	-0.12869379
228	0xbd6574d3	-0.056019615
229	0xbbee9bb7	-0.0072817462
230	0xbd7b505d	-0.061355937
231	0xbd7740e2	-0.06036461
232	0xbe1786d4	-0.14797527
233	0x3e0c94a7	0.13728581
234	0x3e021097	0.12701641
235	0x3d54eebe	0.051985495
236	0xbcf3ac75	-0.02974532
237	0xbe2abbe2	-0.16673234
238	0xbd646e3b	-0.055769186
239	0x3be54970	0.00699728
240	0x3d00a48e	0.03140693
241	0x3dea0308	0.114263594
242	0x3d54732e	0.051867656
243	0xbd11706b	-0.0355076
244	0x3dcdb00e	0.100433454
245	0x3e1c17ce	0.15243456
246	0xbe26eadf	-0.16300534
247	0xbb7d1fd0	-0.0038623698
248	0xbdd0ecd9	-0.10201425
249	0xbd5f39f6	-0.054498635
250	0xbd3e911a	-0.0465251
251	0x3e318b21	0.1733823
252	0xbe333408	-0.17500317
253	0x3ca63826	0.020290446
254	0xbd909c00	-0.07061005
255	0x3d105485	0.035236854

u_model.model.6.bias f4 [42]
0	0xbd1e56f0	-0.03865713
1	0xbe14c158	-0.1452688
2	0xbd8a244f	-0.067452066
3	0xbd8ba0b7	-0.06817763
4	0x3cf8eafd	0.030385489
5	0xbcdb4788	-0.026767507
6	0x3c9b9ec4	0.018996604
7	0x3e1c036b	0.15235679
8	0xbcbcee77	-0.023062928
9	0xbd1d17f1	-0.03835291
10	0xbdcf1205	-0.10110859
11	0x3ce0e4db	0.027452877
12	0xbde22907	-0.110429816
13	0x3e16ff40	0.14745808
14	0x3e06d9e6	0.13169059
15	0x3d056cd7	0.0325745
16	0x3e1fcc9b	0.15605395
17	0x3dc042ae	0.09387718
18	0x3dd1594a	0.10222109
19	0x3e66e46b	0.22548072
20	0xbe03011a	-0.12793389
21	0xbcb9561e	-0.022624072
22	0x3e15d139	0.14630593
23	0xbd68d7e9	-0.056846533
24	0xbdc6bcb3	-0.0970396
25	0xbd3b8d16	-0.045788847
26	0xbd86fdc7	-0.06591373
27	0xbd334465	-0.043766398
28	0xbdc3805f	-0.09545969
29	0x3c07dacf	0.008291914
30	0x3da31bfb	0.07964321
31	0xbde11528	-0.10990363
32	0x3dad97b2	0.08476199
33	0xbdfff74d	-0.12498341
34	0xbddc4fb9	-0.107573934
35	0x3ce501d2	0.02795497
36	0x3dfd38a0	0.12364316
37	0xbdf77483	-0.1208277
38	0x3c37d3da	0.011219943
39	0x3d0c2b18	0.034220785
40	0xbdb18cde	-0.086694464
41	0xbdd66c68	-0.104698956

u_model.model.8.weight f4 [42, 42]
0	0x3d8f60ac	0.070008606
1	0xbdb8f18e	-0.09030448
2	0x3dcc7c1a	0.09984608
3	0xbdf96161	-0.12176777
4	0x3e04e2e7	0.12977181
5	0xbdd1dfcf	-0.10247766
6	0x3db3e13e	0.08783196
7	0x3d4f2756	0.050574623
8	0xbdf2fc4c	-0.11864528
9	0xbdb2025f	-0.086918585
10	0xbd8ef461	-0.06980205
11	0x3cbd74f2	0.023127053
12	0x3da1ebae	0.079062805
13	0xbd3083d1	-0.04309446
14	0x3c11e34f	0.008904292
15	0xbdb96826	-0.09053068
16	0xbda1221b	-0.07867833
17	0x3df86eff	0.12130546
18	0xbd50cdb0	-0.05097741
19	0xbdd30ea5	-0.103055276
20	0x39e5f2f5	0.000438593
21	0xbc5827b1	-0.013193057
22	0x3d8f6f6b	0.07003673
23	0xbd7a1cca	-0.06106261
24	0xbba138e7	-0.0049201134
25	0xbd76c281	-0.060244087
26	0xbe11f76b	-0.14254539
27	0x3cfd5fb1	0.030929418
28	0x3d3f083e	0.04663872
29	0xba3f2879	-0.00072921027
30	0x3e18ad48	0.14909852
31	0x3ca4a07e	0.02009606
32	0x3d1e0f42	0.03858877
33	0xbd40d7a6	-0.04708066
34	0xbe25502a	-0.16143861
35	0x3db9d89e	0.090745196
36	0x3e14db2a	0.1453673
37	0x3ca3b098	0.019981667
38	0xbe0b9ed0	-0.13634801
39	0x3df48c5f	0.11940836
40	0x3be8b198	0.007101249
41	0x3dcc432f	0.09973752
42	0x3dbe04b7	0.09278243
43	0x3d49f03b	0.049301367
44	0x3cb62f05	0.022239218
45	0x3ce487ee	0.027896848
46	0x3e28aa90	0.16471314
47	0xbbf9d0cb	-0.007623767
48	0x3cb71656	0.022349518
49	0xbde4d305	-0.11173061
50	0xbd5d381d	-0.054008592
51	0x3d03a5d8	0.032140583
52	0xbe1e359c	-0.15450138
53	0x3e92cc66	0.2867157
54	0xbdebd490	-0.115151525
55	0xbd577811	-0.05260474
56	0x3de8780c	0.11351022
57	0x3e3f4936	0.18680272
58	0xbdd5785f	-0.104233496
59	0x3dc0382a	0.093857124
60	0x3e4a3e4a	0.19750324
61	0x3e7ce27c	0.24695772
62	0xbdab8cc6	-0.0837646
63	0x3d4574c4	0.04820706
64	0x3e86eba1	0.26351646
65	0x3e60aef6	0.21941742
66	0x3b1b2c85	0.0023677659
67	0x3e0b5478	0.13606441
68	0xbe955177	-0.29163715
69	0xbd3a6bdc	-0.04551302
70	0x3e3f7fe9	0.18701138
71	0xbe849996	-0.25898427
72	0xbd735cd8	-0.059414715
73	0xbd98f8e7	-0.07469349
74	0x3e2aa35b	0.16663878
75	0x3cf35c45	0.029707083
76	0xbe08a822	-0.13345388
77	0x3db42fdd	0.08798192
78	0x3e52e4d7	0.20595108
79	0xbe38d225	-0.18048914
80	0x3b11c294	0.0022241222
81	0xbe0cedfe	-0.13762662
82	0xbe601b3c	-0.21885389
83	0xbe3ef44d	-0.18647881
84	0xbd2ffc32	-0.04296512
85	0x3d98ba47	0.074574046
86	0xbd12f2ef	-0.03587621
87	0x3e381c29	0.17979492
88	0xbe579e21	-0.21056415
89	0xbdd2902e	-0.10281406
90	0x3ccf6db3	0.025320863
91	0x3e182404	0.14857489
92	0x3dfebd39	0.12438435
93	0xbe5b9d18	-0.21446645
94	0x3e164707	0.14675532
95	0xbe6a5eff	-0.228878
96	0xbca65ced	-0.020307982
97	0xbc03e905	-0.008051162
98	0xbaf9cf28	-0.001905893
99	0xbd8ee3e8	-0.069770634
100	0xbe266de2	-0.16252854
101	0xbe3f2a8b	-0.18668573
102	0xbe25e3c9	-0.16200174
103	0x3dacab0b	0.08431061
104	0x3daa86ca	0.0832649
105	0x3df9eda0	0.122035265
106	0xbe64942a	-0.22322145
107	0xbe488c79	-0.19584836
108	0x3e43f469	0.19136204
109	0x3dea1943	0.114305995
110	0x3d1bd2bf	0.03804278
111	0x3da6a046	0.081360385
112	0x3df58d6c	0.11989865
113	0x3e599d61	0.21251442
114	0xbdf48280	-0.119389534
115	0xbda762ba	-0.081731275
116	0x3d4b4789	0.049628768
117	0x3e0e971b	0.1392483
118	0x3dcddb91	0.100516446
119	0xbd95de8c	-0.07317838
120	0xbdc4386e	-0.095810756
121	0x3e582fb0	0.21111941
122	0xbd91d8bb	-0.07121416
123	0x3deb5de2	0.11492516
124	0xbda5d84e	-0.080978975
125	0x3d5b2da9	0.05351034
126	0xbdfa0c0c	-0.12209329
127	0x3db5eca1	0.08883024
128	0xbe117b63	-0.14207225
129	0x3b582808	0.0032982845
130	0xbe159291	-0.14606692
131	0xbcba1fb5	-0.022720197
132	0xbd75f558	-0.06004843
133	0xbd7fb647	-0.062429693
134	0xbdadee0a	-0.08492668
135	0x3d4d849f	0.050175305
136	0x3ca33e42	0.019927148
137	0x3c46a6d7	0.012124739
138	0x3df8ec35	0.12154428
139	0x3be4e0ed	0.006984821
140	0xbda2113c	-0.079134434
141	0x3a6a5086	0.00089383905
142	0xbd8a94fd	-0.067666985
143	0xbd18aa94	-0.03727205
144	0xbddfd60a	-0.109294966
145	0xbb80d847	-0.0039320323
146	0xbdf8fc08	-0.12157446
147	0xbdf369a6	-0.11885385
148	0xbc60bc35	-0.013716747
149	0xbddf909d	-0.10916255
150	0xbba6f3c4	-0.005094977
151	0x3dbb890f	0.09157001
152	0xbd9370e5	-0.07199267
153	0x3e189cfc	0.14903635
154	0xbc68e1a5	-0.014213954
155	0x3d9c014d	0.076174356
156	0xbdb126fb	-0.08650013
157	0x3c88167b	0.016612282
158	0xbddebd99	-0.10876007
159	0x3d91af22	0.07113482
160	0x3c9e529c	0.0193265
161	0xbd5f0942	-0.05445219
162	0xbd9e1374	-0.07718554
163	0x3d82cdfb	0.06386944
164	0x3e19cfe7	0.15020715
165	0x3d25e839	0.040504668
166	0x3de28a9f	0.11061596
167	0xbe044cf4	-0.1291998
168	0xbd8b7beb	-0.06810745
169	0xbdf8ce60	-0.12148738
170	0xbdce9678	-0.100872934
171	0x3d2e679e	0.042579286
172	0xbd80d025	-0.062897004
173	0x3ce9f29b	0.028558066
174	0xbd949da1	-0.07256628
175	0xbe0180de	-0.12646815
176	0xbdeda772	-0.11604203
177	0xbe61733e	-0.22016618
178	0x3d09636c	0.03354208
179	0xbdf191af	-0.11795365
180	0x3e0a125b	0.13483565
181	0x3c141fa5	0.009040748
182	0xbe152e29	-0.1456839
183	0xbd2e413d	-0.042542685
184	0xbe187eb6	-0.14892086
185	0x3e0ab3bf	0.1354513
186	0xbd3ab98c	-0.045587108
187	0xbd8aa6c9	-0.06770093
188	0x3c554747	0.013017482
189	0x3dac3102	0.08407785
190	0xbdb00747	-0.08595138
191	0x3d055dac	0.032560036
192	0x3db4e41f	0.08832573
193	0x3b96c599	0.004601192
194	0x3e03d32e	0.12873527
195	0xbdcf9137	-0.101351194
196	0xbd88c6fb	-0.066785775
197	0x3d121c35	0.03567143
198	0x3c1e8e71	0.009677515
199	0x3c91c58b	0.017794391
200	0x3dd245f0	0.10267246
201	0xbdf1d77f	-0.11808681
202	0x3d87d51d	0.06632445
203	0x3c8cafe2	0.017173711
204	0x3dd15800	0.10221863
205	0x3dc9e1fa	0.09857555
206	0xbbc2ecdd	-0.0059486465
207	0xbd2c4923	-0.042061936
208	0xbdce900b	-0.10086068
209	0x3d16d9ab	0.036828678
210	0x3e19ba3a	0.15012446
211	0x3dccab19	0.09993572
212	0x3e214f7c	0.15752977
213	0x3d5fe39b	0.05466042
214	0x3dbba033	0.09161415
215	0x3b7a1450	0.003815908
216	0xbe2212c3	-0.1582747
217	0xbd6525cd	-0.055944253
218	0x3e3649ca	0.17801586
219	0x3e1b3931	0.15158536
220	0xbc00a94d	-0.007852864
221	0x3dda9308	0.10672575
222	0x3dcbb2ee	0.099462375
223	0xbd83f653	-0.06443467
224	0xbddaf5e7	-0.106914334
225	0xbd8ec3f8	-0.06970972
226	0xbc5276a6	-0.012845671
227	0x3d0488cd	0.032357026
228	0x3dd64e63	0.1046417
229	0x3dcda101	0.10040475
230	0xbdd15abe	-0.10222386
231	0x3ddf5350	0.109045625
232	0x3d447f8b	0.047973197
233	0xbdd25e70	-0.10271919
234	0xbdd2eebb	-0.102994405
235	0xb85197d9	-4.9970902e-05
236	0x3e511a41	0.20420171
237	0xbe0fc9eb	-0.1404187
238	0x3c9a446c	0.018831454
239	0xbe1e8300	-0.1547966
240	0x3d94745d	0.07248757
241	0x3dfdf948	0.12401062
242	0xbd19558a	-0.037435092
243	0x3dd5438c	0.10413274
244	0x3dd501af	0.10400712
245	0x3de1f748	0.11033493
246	0x3d34332c	0.043994114
247	0xbd1fb2e9	-0.03898898
248	0x3dbdafb4	0.09262028
249	0x3d07f9d0	0.033197224
250	0xbe3c0552	-0.18361405
251	0xbd1f2454	-0.038853005
252	0x3dd87d4f	0.10570776
253	0xbd33c9ee	-0.043893747
254	0x3e269b87	0.16270266
255	0xbc7225e3	-0.014779541

u_model.model.8.bias f4 [42]
0	0xbd3d744d	-0.04625349
1	0x3dd508bd	0.10402057
2	0xbdd13b1f	-0.102163546
3	0x3bf020ac	0.0073281135
4	0x3e22563d	0.1585321
5	0xbe1fde76	-0.15612206
6	0xbb81ed92	-0.003965088
7	0x3d26ed32	0.04075355
8	0x3e6831b5	0.22675212
9	0xbcc7b447	-0.024377955
10	0xbe0400c6	-0.1289092
11	0xbdc1cd83	-0.094630264
12	0x3d20d80f	0.03926855
13	0xbde807bc	-0.113296
14	0xbe0eb252	-0.13935211
15	0x3ad5858f	0.0016290414
16	0x3d94c6d1	0.07264484
17	0xbdcd6d3e	-0.10030602
18	0xbd54b0fd	-0.0519266
19	0x3db01777	0.085982256
20	0xbdbd6da6	-0.092494294
21	0xbdcd3585	-0.10019974
22	0xbcea64d7	-0.028612537
23	0x3df9c20a	0.12195213
24	0xbcb75987	-0.022381557
25	0xbe1ba425	-0.15199335
26	0xbdce8e05	-0.10085682
27	0xbcda8b78	-0.026677832
28	0x3e1c3cc8	0.15257561
29	0x3d844470	0.06458366
30	0xbd231ae3	-0.039820563
31	0xbe0cb3e7	-0.13740502
32	0xbcb1706b	-0.02166005
33	0x3c9b922d	0.0189906
34	0x3dfe1ce4	0.12407854
35	0x3da4cb01	0.080465324
36	0xbc3945dd	-0.011308161
37	0x3daa68fc	0.083208054
38	0x3ca13aea	0.019681413
39	0x3d1756d2	0.036948033
40	0x3d82d029	0.0638736
41	0xbd7caf10	-0.06169039

u_model.model.10.weight f4 [42, 42]
0	0x3d1af2ed	0.03782933
1	0x3c8c437a	0.01712202
2	0x3d2e2132	0.042512126
3	0x3b566133	0.0032711744
4	0x3dd6a720	0.10481095
5	0xbe4c3977	-0.19943796
6	0x3d7ac807	0.061225917
7	0xbe03f3d6	-0.12885985
8	0xbdaaaa14	-0.08333221
9	0xbd404142	-0.046937235
10	0x3c4bc78b	0.0124377115
11	0xbc37db58	-0.011221729
12	0xbe29c7a1	-0.16580059
13	0x3dc94f73	0.09829607
14	0x3c558fed	0.013034803
15	0x3e39a440	0.18129063
16	0xbe06f890	-0.13180757
17	0xbde6c4e9	-0.112680264
18	0xbd8628f5	-0.06550781
19	0x3e405c36	0.18785176
20	0x3ddf9ee1	0.109189756
21	0x3dd8af31	0.1058029
22	0x3dbe6f68	0.09298593
23	0x3d942f7b	0.07235619
24	0xbd46c6f6	-0.048529588
25	0xbe03c2de	-0.12867305
26	0xbdcd4291	-0.10022462
27	0xbe0b3129	-0.13592972
28	0xbca85a83	-0.020550972
29	0x3dfde4ab	0.123971306
30	0x3ac9dca5	0.001540084
31	0xbdd1b8ad	-0.10240302
32	0x3ccbde19	0.024886178
33	0x3e1a310f	0.15057777
34	0xbc69cc13	-0.0142698465
35	0xbc0f2aac	-0.008738201
36	0xbe1be018	-0.15222204
37	0xbda0ff44	-0.07861188
38	0x3e27a1c1	0.16370298
39	0xbde7aac5	-0.113118686
40	0xbd186ddd	-0.03721415
41	0x3c389867	0.011266804
42	0xbdb46ae3	-0.088094495
43	0xbdbd029d	-0.09229014
44	0x3daa8708	0.083265364
45	0x3d3ab7b4	0.04558535
46	0xba16eb94	-0.000575715
47	0x3cf803fb	0.030275336
48	0xbd67ed52	-0.05662281
49	0x3de7e56b	0.11323055
50	0xbddd9fcd	-0.10821495
51	0xbdc7c0ed	-0.097535945
52	0xbdeb9ea2	-0.11504866
53	0xbd52de52	-0.051481552
54	0xbe0af6e1	-0.1357074
55	0x3dc30898	0.095231235
56	0x3e62f0e3	0.22162203
57	0xbda559dd	-0.08073781
58	0x3de87678	0.11350721
59	0xbd72fc0e	-0.05932241
60	0x3b0412ca	0.00201528
61	0xbe1b8e3e	-0.1519098
62	0xbdbe7b26	-0.093008325
63	0x3dcf0a46	0.101093814
64	0x3d9428f3	0.07234373
65	0x3e07dce4	0.13267857
66	0xbd4bcd5a	-0.049756385
67	0x3d0b4a3a	0.034006335
68	0xbe223b38	-0.15842903
69	0x3e49aada	0.19694081
70	0xbdfeaa6d	-0.1243485
71	0xbbd9d5b8	-0.0066477917
72	0xbd933740	-0.071882725
73	0x3cd1d2e3	0.025613254
74	0xbdbaad62	-0.091151014
75	0xbdde0c8c	-0.10842237
76	0x3d677a9b	0.05651341
77	0xbd725c6c	-0.05917017
78	0x3e3edffb	0.1864013
79	0x3ca01769	0.019542413
80	0xbda7ab27	-0.081869416
81	0x3c8b81f2	0.017029736
82	0xbe16efca	-0.1473991
83	0x3e1f2749	0.1554233
84	0x3daa3d07	0.08312421
85	0x3e554026	0.20825252
86	0xbe7f2531	-0.24916531
87	0xbd00df9f	-0.03146326
88	0xbe81edc2	-0.25376707
89	0xbe1b0bc4	-0.15141207
90	0xbdb0df11	-0.086362965
91	0xbbf84f2d	-0.007577798
92	0x3e9040d3	0.28174457
93	0x3d951cf9	0.07280917
94	0xbd91374a	-0.07090624
95	0x3c34a61c	0.011025932
96	0x3deca147	0.11554199
97	0x3de4febc	0.11181399
98	0xbe2e76f8	-0.1703757
99	0xbe0a3ba0	-0.13499308
100	0x3df2d93f	0.11857843
101	0xbd1cd990	-0.03829342
102	0xbe396c4f	-0.18107723
103	0x3db9bd5f	0.09069323
104	0x3db50aef	0.08839976
105	0xbdedfdfb	-0.116207086
106	0xbe02fb56	-0.1279119
107	0x3d8afba3	0.06786277
108	0x3c00ecd2	0.007868962
109	0xbd8708d0	-0.06593478
110	0x3d1b2b86	0.037883304
111	0x3e30537b	0.17219345
112	0x3e05217e	0.13001058
113	0x3e0abc36	0.1354836
114	0x3cd985a7	0.026552988
115	0xbca99a6a	-0.020703513
116	0x3e27d34a	0.16389194
117	0xbd4368c1	-0.047707323
118	0x3dc52d71	0.09627808
119	0x3e25e1fa	0.16199484
120	0xbe4422f3	-0.19153957
121	0x3e339b31	0.1753967
122	0xbceda633	-0.029009914
123	0xbe12a6a8	-0.14321387
124	0x3e31878f	0.17336868
125	0xbe3b56d3	-0.1829484
126	0x3d7d6e3b	0.061872702
127	0xbe0710d4	-0.13190013
128	0xbd3c2cdc	-0.04594122
129	0xbdd42a1d	-0.10359595
130	0x3e1b0d0f	0.151417
131	0x3d3b9923	0.04580034
132	0x3da56a5d	0.08076928
133	0x3cbd6a5d	0.023122007
134	0xbd8242e4	-0.063604146
135	0x3c40cd4a	0.011767695
136	0x3e0bed2d	0.13664694
137	0xbdfcb99f	-0.12340092
138	0xbdc5f564	-0.09665945
139	0xbe35a6c6	-0.177394
140	0xbdc13fe1	-0.09436012
141	0x3d3ad823	0.04561628
142	0x3e18ad08	0.14909756
143	0x3db82dce	0.089931116
144	0xbe0653a4	-0.13117844
145	0xbd80459c	-0.06263277
146	0x3e07f40f	0.13276695
147	0x3bcd4ce2	0.0062652687
148	0xbd8cb529	-0.06870491
149	0x3cddf4bf	0.027094243
150	0xbd208649	-0.039190564
151	0x3d8d92ab	0.0691274
152	0xbcc829db	-0.02443402
153	0x3d9ccd94	0.076563984
154	0x3dca4303	0.09876063
155	0x3d296c13	0.041362833
156	0x3d10bc8c	0.035336062
157	0xbd8a46d6	-0.06751792
158	0xbdf40b88	-0.11916262
159	0xbacdd048	-0.0015702331
160	0xbdfdcdea	-0.123927906
161	0xbe07f4a8	-0.13276923
162	0xbdf5e35b	-0.12006255
163	0xbd3f21cd	-0.046663094
164	0xbdda2893	-0.1065227
165	0x3d04cf74	0.032424405
166	0x3d1ea59e	0.038732164
167	0x3dac50f6	0.084138796
168	0xbe354953	-0.17703752
169	0x3e03acc6	0.12858877
170	0x3d56f6e5	0.05248155
171	0x3e194524	0.14967781
172	0x3dae83eb	0.08521255
173	0xbcda06e1	-0.026614608
174	0xbd502565	-0.050816912
175	0x3e0a1586	0.13484773
176	0xbded92b4	-0.11600247
177	0x3e2efda5	0.17088945
178	0x3e12cd04	0.1433602
179	0x3d3f0201	0.04663277
180	0xbda5c916	-0.08094995
181	0xbe00c8ea	-0.12576643
182	0xbc89cb6f	-0.016820638
183	0x3e159fe5	0.14611776
184	0xbc2aaf26	-0.010417735
185	0xbcddb1ac	-0.02706226
186	0xbe207d4f	-0.15672801
187	0x3d731638	0.05934736
188	0x3db074e5	0.08616046
189	0x3ce7c48c	0.028291963
190	0x3db21480	0.08695316
191	0xbe017575	-0.12642463
192	0x3d8b8f71	0.06814469
193	0x3d25cf19	0.040480707
194	0xbe14ab4a	-0.14518467
195	0x3df6fe7d	0.120602585
196	0x3d91261c	0.07087347
197	0xbc0610bd	-0.008182702
198	0xbdbf6e30	-0.093471885
199	0x3e1a3f9c	0.15063328
200	0x3e0d9ee2	0.1383014
201	0x3caa663b	0.0208007
202	0x3e0af703	0.1357079
203	0x3da2595b	0.079271995
204	0x3d046678	0.032324284
205	0xbd95e90f	-0.07319843
206	0xbbda7f52	-0.00666801
207	0x3d619a09	0.05507854
208	0xbda9783e	-0.082748875
209	0xbe24deeb	-0.16100661
210	0x3d2c6475	0.04208799
211	0xbd78edb4	-0.060773566
212	0x3e1ce1b5	0.15320475
213	0xbd0ee28d	-0.034884024
214	0xbd7e947b	-0.06215332
215	0x3c99a33a	0.01875459
216	0x3c3dc6f0	0.011583075
217	0x3d900713	0.07032599
218	0xbe24fb25	-0.16111429
219	0xbe2f49da	-0.17118016
220	0x3b0f6155	0.0021878083
221	0x3e2c86bf	0.16848277
222	0xbdbeb3cc	-0.09311637
223	0xbdf37afc	-0.11888692
224	0x3cef4deb	0.029211959
225	0x3de038dd	0.10948346
226	0x3e25d658	0.16195047
227	0xbd46ebcc	-0.048564717
228	0x3d3d45af	0.046209034
229	0xbe076141	-0.13220693
230	0x3de416c8	0.11137158
231	0x3d4a6d39	0.04942057
232	0x3cc1d997	0.023663325
233	0xbe330d3f	-0.17485522
234	0x3d9ac2a3	0.07556655
235	0xbdb15a0d	-0.08659754
236	0xbd93d58f	-0.072184674
237	0x3e11ea57	0.1424955
238	0x3d6f607d	0.058441628
239	0xbdb08be6	-0.086204335
240	0x3e6d9efd	0.2320518
241	0x3e141635	0.14461596
242	0x3ce83459	0.028345274
243	0xbdf5eae9	-0.12007696
244	0xbd3810ac	-0.044937775
245	0xbe3fc56c	-0.18727654
246	0xbbfc05a9	-0.0076911044
247	0xbe292d08	-0.16521084
248	0xbd96da6b	-0.07365879
249	0xbd8c6ea5	-0.06857041
250	0x3d77e89a	0.06052456
251	0xbde2234a	-0.11041887
252	0xbe5d34fe	-0.21602246
253	0xbdffbcef	-0.12487208
254	0x3c89c848	0.016819134
255	0x3de10c7e	0.10988711

u_model.model.10.bias f4 [42]
0	0x3d67b0ff	0.05656528
1	0xbd60a936	-0.054848872
2	0xbd8412fc	-0.064489335
3	0x3d4dd16e	0.050248556
4	0x3dfc6c4b	0.12325343
5	0xbe11f01d	-0.14251752
6	0x3e0f43be	0.13990685
7	0x3e1db7ab	0.15402095
8	0xbc2bd665	-0.010488127
9	0xbe2104ae	-0.15724441
10	0xbd77e12f	-0.060517486
11	0x3d7d3bfa	0.061824776
12	0xbd7ccdde	-0.061719768
13	0xbd6e37c7	-0.058158662
14	0xbd8ebff0	-0.06970203
15	0x3de6b48b	0.112649046
16	0x3e0241ee	0.12720463
17	0xbdf49e59	-0.11944265
18	0xbdda628a	-0.10663326
19	0x3e338a3a	0.17533198
20	0xbaac4df1	-0.0013145787
21	0xbda4eafe	-0.08052634
22	0x3bc2d88b	0.005946224
23	0x3de70a83	0.11281302
24	0xbccdc14b	-0.025116583
25	0xbe0e082e	-0.13870308
26	0xbd60dc14	-0.054897383
27	0x3d8d8295	0.06909672
28	0xbc345894	-0.011007447
29	0x3dbc818a	0.09204395
30	0x3d888f18	0.06667918
31	0xbb36ad65	-0.0027874347
32	0x3d554d9e	0.052075975
33	0xbd27cff2	-0.040969796
34	0xbe0f5a7d	-0.13999362
35	0xbdfb9527	-0.12284308
36	0xbdeaeeb2	-0.11471309
37	0xbd6dc57b	-0.05804966
38	0xbdd647b7	-0.10462897
39	0x3cd0b91b	0.02547889
40	0xbbecaf45	-0.007223042
41	0x3de555b4	0.11197987

u_model.model.12.weight f4 [42, 42]
0	0x3d369c50	0.044582665
1	0x3c821d0e	0.015882995
2	0x3e29d0e1	0.16583587
3	0x3b51ebc0	0.0032031387
4	0xbde21ec7	-0.110410266
5	0xbe438be9	-0.1909634
6	0xbe4bbfe0	-0.19897413
7	0x3cb7f0a6	0.022453617
8	0xbd9b11d9	-0.075717635
9	0xbcb570ba	-0.022148479
10	0x3dd47c5f	0.103752844
11	0x3e1a2557	0.15053307
12	0x3c442d4c	0.01197369
13	0x3da6af72	0.08138932
14	0x3d964532	0.07337417
15	0x3d232c2c	0.039837047
16	0x3db9de2f	0.09075581
17	0xbdf75a20	-0.12077737
18	0xbdd6f527	-0.10495978
19	0x3e779486	0.24177751
20	0x3e0ac8aa	0.1355311
21	0xbdb2b942	-0.087267414
22	0x3d4ccfc1	0.050002817
23	0xbe2c2742	-0.1681185
24	0x3c55263f	0.013009607
25	0xbdefa606	-0.11701588
26	0x3cc0c5ee	0.02353188
27	0xbdd338dc	-0.103135794
28	0x3cb03d74	0.021513678
29	0x3e3279e6	0.17429313
30	0x3c45c9c1	0.012072028
31	0xbe1d144d	-0.15339775
32	0x3e10f787	0.14156924
33	0xbde5f747	-0.11228805
34	0x3d8a99df	0.0676763
35	0x3dd34855	0.103165306
36	0x3d52eb92	0.05149419
37	0xbe2a8f96	-0.16656336
38	0x3e2b3a73	0.16721515
39	0x3e0c2d85	0.1368924
40	0xbda881bd	-0.082278706
41	0xbdd9af32	-0.10629119
42	0xbd304418	-0.04303369
43	0x3d449471	0.047993127
44	0x3d731b97	0.059352484
45	0x3d408034	0.046997264
46	0x3dbf3bca	0.09337576
47	0x3e2c8e72	0.16851214
48	0x3d13a9eb	0.03605072
49	0x3d726d30	0.05918616
50	0x3d84e433	0.06488838
51	0xbc031c34	-0.00800233
52	0x3d31c8f7	0.043404546
53	0x3e0e55a2	0.13899854
54	0x3d664dbb	0.056226473
55	0x3daf4908	0.085588515
56	0xbdf25ebf	-0.11834478
57	0xbd855929	-0.065111466
58	0xbd8ae826	-0.0678256
59	0xbe163cbf	-0.1467161
60	0xbc2a51f8	-0.010395519
61	0x3dda3836	0.10655253
62	0x3da40327	0.08008414
63	0xbdca9e9e	-0.09893535
64	0x3b6a1b7b	0.0035721946
65	0xbddb61ca	-0.10712011
66	0xbdf336b9	-0.11875672
67	0x3c12b8e0	0.00895521
68	0xbdf14301	-0.11780358
69	0x3d609f92	0.054839678
70	0x3df6add2	0.12044872
71	0x3d5280de	0.05139243
72	0x3e017630	0.12642741
73	0xbdce39c4	-0.10069612
74	0x3b712309	0.0036794564
75	0xbe2061b4	-0.15662271
76	0x3c7db8e4	0.015485976
77	0xbe12412d	-0.14282675
78	0x3df78974	0.12086764
79	0xbdf3413c	-0.11877677
80	0x3c28ed18	0.010310434
81	0xbde7b012	-0.113128796
82	0x3d2e0de7	0.042493727
83	0x3c265753	0.010152656
84	0xbda143f9	-0.07874293
85	0xbd84c82c	-0.06483492
86	0x3d5003e7	0.05078497
87	0xbdb90b1e	-0.090353236
88	0xba2cce91	-0.000659206
89	0xbcf3d6d0	-0.029765517
90	0xbd950a8c	-0.07277402
91	0xbd684e50	-0.05671531
92	0x3e3ee7fb	0.18643181
93	0x3e51a0f9	0.20471562
94	0xbde14a87	-0.11000543
95	0x3aa1b62c	0.0012337617
96	0x3d746218	0.059663862
97	0x3e1af27a	0.1513156
98	0x3c3f4a72	0.011675464
99	0xbc31fe5f	-0.010863869
100	0xbce20dbd	-0.027594442
101	0x3d8fe779	0.07026572
102	0xbe4dae8a	-0.20086113
103	0xbe4a6f0f	-0.19768928
104	0x3d958aee	0.07301889
105	0xbe3146aa	-0.17312112
106	0xbd9f95e7	-0.077922635
107	0xbd365301	-0.044512752
108	0x3d71afb6	0.05900546
109	0x3dae45fe	0.08509444
110	0x3aad039f	0.0013199932
111	0xbd852f69	-0.065031834
112	0x3e1770b7	0.14789091
113	0x3bbca01e	0.005756392
114	0x3d90b7f6	0.07066338
115	0xbc95b5a0	-0.018275082
116	0xbd0e7813	-0.03478248
117	0xbd9461cc	-0.07245216
118	0xbd099cc9	-0.033596788
119	0xbd6b6d7e	-0.057477467
120	0xbdbba87b	-0.091629945
121	0x3e439104	0.19098288
122	0xbdcc2840	-0.099686146
123	0x3db06fb5	0.086150564
124	0x3cc945d3	0.024569428
125	0xbd5fe02c	-0.054657146
126	0x3d976696	0.073926136
127	0xbd29f64a	-0.041494645
128	0xbd2d4a21	-0.042307023
129	0xbdcb6b9a	-0.09932633
130	0xbdc82475	-0.097725786
131	0xbe4a9ab7	-0.19785582
132	0x3d93ec6c	0.07222828
133	0x3e3c5c1b	0.1839451
134	0xbdb6ecb2	-0.08931865
135	0xbbcc1dd9	-0.006229144
136	0x3d87c640	0.0662961
137	0x3dbb1638	0.09135097
138	0xbdc058f4	-0.093919665
139	0xbd9668af	-0.073441856
140	0x3e18387d	0.14865299
141	0x3d9efc55	0.07762972
142	0x3e3af859	0.182588
143	0x3d894406	0.067024276
144	0xbd4973da	-0.04918275
145	0x3e770228	0.24121916
146	0x3b2f492f	0.0026746502
147	0xbce2783f	-0.027645228
148	0xbce6cc8b	-0.028173706
149	0x3dd5e45d	0.104439475
150	0xbd60a193	-0.05484159
151	0x3d2e3fcc	0.04254131
152	0xbdea5c4d	-0.11443386
153	0x3d896879	0.0670938
154	0xbd8b17bb	-0.067916356
155	0xbd3e20cb	-0.046417993
156	0xbb61cf61	-0.0034455883
157	0x3d07fe02	0.033201225
158	0x3ccb7251	0.024834784
159	0xbd2f58cc	-0.042809293
160	0xbdfaf012	-0.12252821
161	0xbdd961d3	-0.106143616
162	0x3d765454	0.060139015
163	0xbd9bbab1	-0.07603968
164	0xbdfd41b9	-0.12366051
165	0xbd4f9f84	-0.050689235
166	0xbe3cd8ba	-0.1844205
167	0xbb86725e	-0.004102989
168	0x3d15762b	0.036489647
169	0x3e198923	0.1499372
170	0xbdcd84dd	-0.10035107
171	0xbdb7db03	-0.0897732
172	0x3d5291f3	0.05140872
173	0xbd74b87b	-0.059746247
174	0x3e00eec7	0.12591086
175	0x3c96aa0f	0.018391637
176	0xbc96196b	-0.018322667
177	0xbcdfcf49	-0.027320521
178	0x3da9b5c2	0.08286621
179	0xbdd771ae	-0.105197296
180	0x3d617bdf	0.055049773
181	0x3db6288a	0.08894451
182	0xbd2eaf06	-0.042647384
183	0xbe19509a	-0.14972153
184	0xbdd9df14	-0.10638252
185	0x3dc8f302	0.09811975
186	0xbd8ceb3e	-0.068808064
187	0xbd8694e2	-0.06571366
188	0xbd786b3b	-0.060649138
189	0x3dda85d3	0.10670056
190	0xbde2e29a	-0.11078377
191	0x3c7f99c1	0.015600623
192	0x3dfdd93a	0.12394948
193	0x3d8bcd5e	0.0682628
194	0x3d48b93b	0.049004775
195	0xbe11003e	-0.14160249
196	0x3d5f9067	0.054581072
197	0xbd57f088	-0.052719623
198	0x3def225f	0.11676478
199	0x3d7fc017	0.06243905
200	0xbd270845	-0.04077937
201	0x3dc85a45	0.097828425
202	0xbd706593	-0.05869062
203	0x3d213540	0.039357424
204	0x3c3ea1a5	0.011635219
205	0xbc3f2508	-0.011666544
206	0x3d98254e	0.0742899
207	0x3df2fc8a	0.11864574
208	0xbd84db9d	-0.064872004
209	0x3e21358a	0.1574308
210	0xbc611f05	-0.013740306
211	0x3e0ec9aa	0.13944116
212	0xbaede36e	-0.0018149444
213	0x3cbd3329	0.023095684
214	0xbb56c26d	-0.0032769695
215	0xbdd1613d	-0.10223625
216	0xbe0aed9a	-0.135672
217	0xbde7199f	-0.11284184
218	0xbdf68bac	-0.12038359
219	0x3decb791	0.1155845
220	0x3da53967	0.08067589
221	0x3d7d2360	0.061801314
222	0xbe553805	-0.20822151
223	0x3d8cc1b6	0.06872885
224	0x3e222aa9	0.15836586
225	0xbdc1501a	-0.09439106
226	0x3d6025a5	0.0547234
227	0xbe263df0	-0.16234565
228	0xbd64927d	-0.055803765
229	0xbde14ff5	-0.11001579
230	0xbe69cac6	-0.22831258
231	0x3db290c0	0.08719015
232	0x3bc9627f	0.006145775
233	0x3da73113	0.08163657
234	0x3e0bda4f	0.13657497
235	0x3d63d0f8	0.05561921
236	0xbe1af6e1	-0.1513324
237	0xbd875e0c	-0.06609735
238	0x3d7b15e3	0.06130017
239	0xbe1d6d3c	-0.15373701
240	0x3d5d64b9	0.054051135
241	0x3cbbaf56	0.022910755
242	0xbe308941	-0.17239858
243	0x3e375734	0.17904359
244	0xbdbd61fb	-0.09247204
245	0xbd8f5793	-0.06999125
246	0xbd6f0009	-0.058349643
247	0xbdb317ff	-0.08744811
248	0xbcf2b68b	-0.029628059
249	0xbca1ddce	-0.019759085
250	0xbd6b73e4	-0.05748357
251	0x3df8ae79	0.12142653
252	0xbde14680	-0.10999775
253	0x3ded97db	0.1160123
254	0x3d42cdd8	0.04755959
255	0xbda9c8bf	-0.082902424
