saved_models/1d_burgers/pinn.pt (torch, 23513 bytes, 38 tensors)

u_model.model.0.weight f4 [20, 2]
000000 fd a1 50 bf 46 5a a5 3f 1c 3d 09 bf 5e 27 37 bf
       -0.81497175 1.2918174 -0.5360887 -0.71544445
000010 26 01 fc 3f c9 f4 20 be 8a 92 04 3f 99 98 2e 3f
       1.968785 -0.15718378 0.517861 0.68201596
000020 cb 2b 39 bd 55 9f ef 3e b8 ce 56 bd 87 d7 2c 3f
       -0.04520778 0.46801248 -0.052443236 0.6751637
000030 60 51 6d 3f 11 4b 08 3e 52 c7 42 bf 3e 4c d1 3e
       0.92702293 0.13309886 -0.7608539 0.4087848
000040 aa ef a5 3f b3 da f6 3d 47 a0 9c 3e 7b d9 d8 3e
       1.2963765 0.12053432 0.30591032 0.42353424
000050 c7 da f6 be e1 ea c5 be e7 21 99 be 55 b3 5a bf
       -0.4821379 -0.3865576 -0.29908678 -0.8542989
000060 53 63 42 bd 53 17 19 bf 42 e1 9b bf 6d e8 9f 3e
       -0.047458004 -0.59801215 -1.2178118 0.31232014
000070 fc 1a 90 3d f1 3f f0 3e f4 f5 6c 3e a8 66 e7 be
       0.07036397 0.46923783 0.23140699 -0.45195508
000080 45 c8 07 3e bc 74 41 bf 95 a3 82 3c 9e 0a 07 3f
       0.1325999 -0.7556875 0.015947143 0.52750576
000090 b2 b9 dd bd ab 45 7c 3e 8e 99 0f 3f de f8 50 3f
       -0.10826434 0.24635951 0.5609368 0.8162974

u_model.model.0.bias f4 [20]
000000 bf 76 26 3f ce 66 07 3f 49 ba b9 3e 7a 36 2e be
       0.6502494 0.5289124 0.36274937 -0.17012969
000010 cb 2b 16 bf 20 04 b4 3c ab b8 f7 3e 1c fd 49 3b
       -0.5866057 0.021974623 0.48383078 0.003082103
000020 8c 2b c4 3e 38 2f 06 bf e0 91 91 3d 3e 33 24 3f
       0.38314474 -0.524158 0.071079016 0.6414069
000030 c3 dd 1a bf 45 a0 b8 bd 96 0f 89 3e c8 e7 3d bf
       -0.6049463 -0.09014944 0.26769704 -0.74181795
000040 a4 9e 9e be 88 7f 76 be 3a af c8 3e 49 aa 62 be
       -0.30980408 -0.24072087 0.39196187 -0.22135271

u_model.model.2.weight f4 [20, 20]
000000 92 f6 5f 3d cc c0 86 3e be 37 f8 3d de fd df bd
       0.054678507 0.26318967 0.12120007 -0.10937093
000010 9c f1 52 3b cf 05 d5 bc 94 fb 91 3e 0c a1 11 be
       0.0032187467 -0.026003746 0.2851225 -0.14221591
000020 64 26 90 3e d2 bd 0d be 02 a4 d8 3d c7 f1 9a 3e
       0.2815429 -0.13841942 0.10578157 0.30262586
000030 23 f2 07 be 8b 11 eb bd 54 da 8a bd 04 03 96 3d
       -0.13275962 -0.114779554 -0.06779924 0.07324794
000040 69 0f ff bd 4f aa df 3d 8d 9e e2 bd c0 7c e8 bd
       -0.12454111 0.10921156 -0.110653974 -0.11351919
000050 7b e1 57 be fc 67 eb 3e 54 96 2f 3e 86 7e f8 bd
       -0.21082108 0.4597777 0.1714719 -0.121335074
000060 20 59 8a bd 5e b2 c7 be 48 31 5d 3d d4 01 31 3e
       -0.067552805 -0.3900327 0.054002076 0.17285854
000070 f4 bc 2f 3c 06 c0 c9 be 9a c8 3e bc f7 50 e9 3e
       0.010726202 -0.39404315 -0.011644507 0.45569584
000080 39 1b 83 3c af a1 e5 3c 3a bb 2a be 9b 7d bd 3d
       0.016004192 0.028031198 -0.16672984 0.09252473
000090 03 56 f9 3d af 38 2b 3d f9 6e 22 3e 5c 23 99 be
       0.121746086 0.041802105 0.15862645 -0.2990979
0000a0 3b 9e 83 3d 31 3a bd 3d 97 11 27 be e6 32 4b be
       0.064266644 0.09239615 -0.16315304 -0.19843635
0000b0 f6 71 9e be 06 fc 8e be 81 3e 1c be 17 56 bf bc
       -0.3094632 -0.27926654 -0.15258218 -0.02335648
0000c0 7b cf 8a bd 7e b4 5d be 46 e6 b7 3e aa 13 4b 3e
       -0.06777855 -0.21650884 0.35917872 0.1983172
0000d0 48 8e 06 bb 07 fe 98 3d aa 75 6d be 40 17 6b be
       -0.0020531584 0.07470327 -0.23189417 -0.22958088
0000e0 99 0f b3 3e 48 67 d4 be e8 d3 23 3d 2f ba bb bd
       0.34972838 -0.41485047 0.03999701 -0.09166371
0000f0 c0 b7 db 3e ba 95 4b be d1 35 41 3e 90 7b 64 bd
       0.42913628 -0.19881335 0.18868186 -0.0557819
000100 6a 8a 91 bd 24 91 82 3e 47 58 73 bd 94 2c 37 bd
       -0.071064785 0.25501359 -0.05941036 -0.044720247
000110 49 13 c4 3d b4 d0 80 3e 38 29 88 3d ec de 6a bd
       0.09573991 0.25159228 0.06648487 -0.0573415
000120 1a 9d 03 3d 36 f0 83 3e b5 38 8d 3c 1f 6d 96 3d
       0.032132246 0.25769204 0.017238954 0.07345032
000130 39 33 f6 bd da cd 92 3e 83 56 f6 bd 07 2b e2 3d
       -0.12021489 0.28672677 -0.120282196 0.11043363
000140 16 04 1a bd bf 2f 89 3d db 87 12 be 41 a9 d2 bd
       -0.037601553 0.0669856 -0.14309637 -0.10286189
000150 a7 1c 54 be 90 23 d8 bd a5 6a 44 3e 73 96 8b be
       -0.20714055 -0.10553658 0.19181307 -0.2726322
000160 26 bd 84 3c b9 2c 44 3d f7 71 e8 3d 29 f9 97 3e
       0.016203474 0.047894213 0.11349862 0.29682282
000170 de ea 42 3d 31 2b 69 3d c8 e3 62 3d a7 38 07 be
       0.047587268 0.056925956 0.05539301 -0.13205205
000180 16 6b 24 be dc dc 5c be 07 6b 17 be 47 33 72 be
       -0.16056475 -0.21568626 -0.14786921 -0.23652373
000190 29 7c 8b 3d dd 8b 4c be be 7e 28 be 0a 52 9c 3d
       0.06810791 -0.19975229 -0.16454598 0.07632835
0001a0 93 58 fa bd 5d c2 49 3d c9 2c 50 bd 24 7f a5 bb
       -0.122239254 0.049257625 -0.05082396 -0.0050505567
0001b0 3a 26 e5 3d d0 fb 5d 3e 7e dc 5a be ed 6d 60 be
       0.11188932 0.2167809 -0.21373174 -0.21916933
0001c0 11 35 24 be 13 5e 1e be ce 51 56 3e 2c 13 43 3e
       -0.16035868 -0.15465574 0.20929644 0.19050282
0001d0 d1 15 e2 39 c1 5d 0c 3e a6 6e b3 3d 42 e9 8a 3e
       0.00043122334 0.1370764 0.08761339 0.27131087
0001e0 58 4a f2 3e c9 8b 8c 3e 02 c9 2c 3e 61 98 49 bd
       0.47322345 0.27450398 0.16873553 -0.049217585
0001f0 ca 7b a8 bd 72 10 73 3e fd dc 8f 3e 86 df 6e 3e
       -0.08226736 0.23736742 0.28098288 0.23327455
000200 c9 e4 de 3e 68 57 c6 3d 71 2c 18 3e bd d4 67 3e
       0.43533924 0.0968464 0.14860703 0.22639747
000210 68 29 97 be 95 bc 94 bd 2e e0 bd 3e 02 f6 7e bd
       -0.29523778 -0.07262532 0.37085098 -0.06224633
000220 80 f9 ca be 88 45 ad 3d 34 43 8e 3e 32 73 67 be
       -0.39643478 0.08460528 0.27785647 -0.22602537
000230 96 f2 28 bf 8f 3e 12 be 00 4c a2 3e a7 c7 91 bd
       -0.65995157 -0.14281677 0.31698608 -0.07118159
000240 95 ba 15 be 60 9a 6c be 9a 5b 1f be 6f 3e f2 be
       -0.14621957 -0.23105764 -0.15562287 -0.47313258
000250 c9 78 30 3e 54 ad 7a 3d 17 8e ae 3d 25 ef 6c 3e
       0.17233576 0.061200455 0.08523195 0.23138101
000260 e9 1b 12 3e 09 80 4f be 4f d8 bf be e8 b0 bc 3e
       0.1426846 -0.20263685 -0.37469718 0.3685372
000270 ca 8e a8 3e 11 d3 0f be 50 7d db be b0 8d ba bd
       0.3292144 -0.14045359 -0.42869043 -0.09109056
000280 d2 25 6e be 48 06 1e 3e 62 fe 00 3e 79 f2 3e 3e
       -0.23256615 0.15432084 0.1259704 0.18647183
000290 70 a2 3a 3e b7 f1 3f 3c 66 6e 3e 3d 17 94 2b 3e
       0.18226027 0.011715344 0.046492003 0.1675571
0002a0 34 d3 4f 3e 61 64 2d be e6 3f 5b be ab 7a 37 be
       0.20295411 -0.16932823 -0.21411094 -0.17917888
0002b0 c0 47 40 3e aa 18 38 3d 86 a4 6d 3e 6b 61 84 bd
       0.1877737 0.044945396 0.23207292 -0.064638935
0002c0 92 58 90 bd f6 af fb 3d e2 75 85 bd 5f 37 83 3e
       -0.070481434 0.12289421 -0.06516625 0.25628182
0002d0 b7 38 b8 3e 74 7d 98 be b0 af 78 bd 71 bc 92 3e
       0.3598077 -0.29783213 -0.060714424 0.28659394
0002e0 f3 bb 86 3e 9f 02 d1 3e bb ef 71 3e 62 d8 ff 3d
       0.2631527 0.40822312 0.23626606 0.124924436
0002f0 62 e8 16 be dd bd d6 3c 64 fc d8 3c e5 aa 5c be
       -0.14737085 0.02621358 0.026487537 -0.21549566
000300 c4 80 76 be 77 d1 fe bc 7b 43 26 3c 79 db a8 3c
       -0.24072558 -0.03110574 0.010147925 0.020612465
000310 f2 9c bb bd d0 dd 8c 3d 05 8b 04 3e b4 b8 8d 3e
       -0.09160794 0.06878245 0.12943657 0.2767998
000320 23 b4 32 3f da 0a 90 3d fd 22 fc bd 95 19 d3 bd
       0.69806117 0.0703332 -0.12311361 -0.10307614
000330 b1 0b cd bc 98 fc 05 3f 18 0c 6e bc f6 0c fa 3e
       -0.025029989 0.5233855 -0.014529251 0.48838013
000340 1a 0f ed bd 6d ac 0d 3e 0b 6a f5 3d 97 2a de bd
       -0.11575146 0.13835306 0.11983117 -0.10847967
000350 14 39 26 be 1c f6 82 3d 8a 0a ea 3e 0a c9 9a be
       -0.16232711 0.06394598 0.45711166 -0.30231506
000360 07 b7 72 be d0 bb c6 3d f0 27 96 3d 49 9c 59 3d
       -0.23702632 0.09703791 0.07331836 0.05312756
000370 bb 6c 4d be 9f f1 5f 3d 35 d6 56 be b3 74 28 3e
       -0.20061009 0.054673787 -0.20980151 0.16450767
000380 f2 bf 82 3e 31 c3 1d 3e 14 9f 7b be 05 c2 d3 3d
       0.25537068 0.15406491 -0.24572402 0.10339741
000390 db 5d 9e bd d8 d7 d3 bd b7 79 1f be bc 2b 34 be
       -0.07732745 -0.10343903 -0.15573774 -0.17594808
0003a0 13 5a 8e 3e d5 51 a1 3e 69 b5 e8 bd 8e 67 52 3e
       0.27803096 0.31507745 -0.11362726 0.20547315
0003b0 2b ee 09 3e 1c e5 66 3e 12 23 1c 3e 90 7e 43 3e
       0.1346976 0.22548336 0.15247753 0.19091249
0003c0 8d 2f 41 3e 59 32 d8 be 9e 97 c1 3d 8d ec 55 3e
       0.18865795 -0.42225912 0.09452747 0.20891018
0003d0 7f b2 4a 3d f1 25 9e 3e 89 60 40 3e 2b 5e bc 3d
       0.049486633 0.30888322 0.18786825 0.091976486
0003e0 7d 07 12 3e 1e 03 a9 3e a3 ca f5 bd c4 5f e6 be
       0.14260669 0.3301019 -0.120015405 -0.44994938
0003f0 d5 0c b1 bc 13 84 f7 3d 65 ad ed bd e7 bd 7e 3e
       -0.021612564 0.12085738 -0.11605338 0.2487713

u_model.model.2.bias f4 [20]
000000 d6 a0 00 bd 7b 05 54 bc 2f b4 ec 3d 88 23 bd 3d
       -0.031403385 -0.01294076 0.11557805 0.09235293
000010 68 a8 64 3e d9 35 12 3e 33 20 94 3c 7c 62 f0 bd
       0.22329867 0.14278354 0.01808176 -0.117375344
000020 35 f7 75 3d b7 20 4b 3d e7 83 8a 3d 2a 6a 8c 3d
       0.060050208 0.049591746 0.067634396 0.06856187
000030 9c f0 3d bd a8 f6 86 3d 6b c4 39 be af 4d b9 bd
       -0.04637204 0.06590015 -0.18141334 -0.0904802
000040 b1 83 08 3e 34 cd 1f 3e a0 7e ed bd 27 b7 9f be
       0.13331486 0.15605623 -0.115964174 -0.31194422

u_model.model.4.weight f4 [20, 20]
000000 9f 67 47 be ce 34 07 bc 87 e9 b1 be 79 d5 a9 be
       -0.19473122 -0.008252336 -0.3474848 -0.3317068
000010 92 a0 04 be d8 f7 78 3e 5f 8f 71 3e 7c 19 de 3e
       -0.12951878 0.24313295 0.23589848 0.43378818
000020 54 c4 52 3f 39 d2 ac 3d b3 cb 0a bf ce 73 77 3c
       0.8233082 0.08438534 -0.5421707 0.015103294
000030 dc c8 82 3d 07 22 d1 3e bd 13 19 3e 5f b7 12 3f
       0.06385967 0.40846273 0.14948936 0.5731105
000040 7c 1a 54 3f 25 97 e7 be 36 25 5f bd 00 90 89 3b
       0.8285291 -0.45232502 -0.054478846 0.0041980743
000050 5b 81 3d be 33 82 94 3d bd af 92 bd df 04 f6 3e
       -0.18506376 0.07251396 -0.07162426 0.4805059
000060 b1 08 15 be c2 42 35 bd 3c f4 d4 3e e1 36 eb be
       -0.14554097 -0.04425312 0.41592586 -0.45940307
000070 fe 31 ab be 94 b7 22 3e 11 c0 55 3f ae 6e 8a 3e
       -0.3343658 0.15890342 0.83496195 0.27037567
000080 2c 9d b2 bc d3 1e d4 be 12 6e 77 be 82 f6 f2 be
       -0.021803461 -0.41429767 -0.24163082 -0.47453696
000090 65 b0 f8 be ea d6 a5 3d b7 00 8c 3d c8 1d 94 be
       -0.48572078 0.08097632 0.06836074 -0.2892897
0000a0 30 d0 22 be 0f 27 12 3c f0 6f 54 3e ad 6b 00 3e
       -0.1589973 0.008920445 0.20745826 0.12541075
0000b0 e3 6f e3 3d e1 a2 c1 bd cb da d7 3e 46 a8 8e be
       0.11105325 -0.09454895 0.42159113 -0.27862757
0000c0 bf 4b 70 3e 18 2b 8c 3d 8b 7e 7d 3e 48 e2 8a 3c
       0.23466395 0.06844157 0.24755304 0.016953602
0000d0 6c c3 f7 3d bb f0 f9 bd 20 30 3e be d2 2b 1b be
       0.12097821 -0.12204119 -0.18573046 -0.15153435
0000e0 3d 59 e0 3d f5 1d 87 3e e4 6f 86 3e d5 88 94 be
       0.10954521 0.26390043 0.2625724 -0.29010645
0000f0 f8 01 d9 3d 73 6d 0b 3e af c7 55 bd 44 cc 32 bc
       0.10596079 0.1361597 -0.052192386 -0.0109129585
000100 2f b6 73 be 1c 2f 04 bb fb 1e 25 be aa 59 1b 3e
       -0.23799966 -0.002016968 -0.161251 0.15170923
000110 3a da 87 3e 75 55 2a 3e 42 d3 49 be 67 fd 35 3e
       0.2653368 0.16634162 -0.19709495 0.17772447
000120 77 fb f9 bc ee 79 6f be 59 9e 85 be 17 01 aa 3e
       -0.030515416 -0.23386356 -0.26097372 0.33203956
000130 8a 0a 54 3e 89 77 df bc 88 82 95 3e 4d 04 27 be
       0.20707145 -0.027278678 0.2920115 -0.16310234
000140 5c 06 5d 3e 33 76 90 3e 43 0a 2b 3e 71 b4 3c bf
       0.21584457 0.2821518 0.16703133 -0.7371283
000150 2a e7 4d 3c f2 7c ac be f8 9d 13 be 76 5f c9 3e
       0.012567321 -0.33689076 -0.14415729 0.39330643
000160 cf d1 16 be 02 01 3f bf 23 f8 27 bc 06 5c 35 bd
       -0.14728473 -0.7461091 -0.0102520315 -0.044277214
000170 80 8a 2c 3b eb a7 ab bd 1e 72 3d bc 2c 85 61 bc
       0.002632767 -0.08381637 -0.011562852 -0.013764661
000180 55 43 98 bd 52 f9 63 3e a2 6b 52 bd 68 2b 9f 3e
       -0.074347176 0.22263077 -0.051372178 0.31087804
000190 5a 31 87 be bf 02 49 be 67 19 72 be 86 19 f3 bd
       -0.2640484 -0.19629954 -0.23642503 -0.118701026
0001a0 31 01 84 3d 02 b1 f3 bd 4c 40 f7 be 8f d7 42 3c
       0.0644554 -0.11898996 -0.48291242 0.0118922135
0001b0 55 5b ac be 23 6a 42 be 5a b8 37 be 19 20 05 3e
       -0.3366343 -0.189858 -0.17941418 0.13000526
0001c0 08 fe ff bd f8 39 06 be 2a dd 00 3f 5b 13 6a 3e
       -0.124996245 -0.13108051 0.5033747 0.22858946
0001d0 0f 70 b9 be 30 12 92 be e3 2a a5 3d 28 df 9a 3e
       -0.36218306 -0.285295 0.080648206 0.3024838
0001e0 1a 2a 95 3e 3d 76 92 3e 2d 4b b7 bd 25 ab e1 be
       0.29133683 0.28605834 -0.089498855 -0.44075885
0001f0 f6 69 fe 3d 2c 16 04 bd 38 a7 6d be 92 11 e9 3e
       0.12422554 -0.032247707 -0.2320832 0.45521218
000200 7e d6 66 3e e8 ff b5 be 02 eb ef bd a9 6f 57 be
       0.2254276 -0.35546803 -0.11714746 -0.21038689
000210 e6 89 24 be a5 cf 7e 3c 90 de 93 3e 9a 40 01 3e
       -0.16068229 0.015552436 0.2888074 0.126223
000220 e9 9e 1d 3e e2 0e d0 bc 97 b3 71 3c 2c 47 82 3e
       0.1539265 -0.025397722 0.01475229 0.25444925
000230 78 57 53 bd 59 03 f6 bb d0 d8 5e 3e 57 30 1d 3d
       -0.05159709 -0.0075077233 0.21762395 0.03837618
000240 4b 7b c3 3d 4f d3 2b bd 3d f6 2c be 1a 28 0a bd
       0.09545001 -0.041949566 -0.16890807 -0.03372965
000250 16 7c c0 bc e4 37 1f 3d 3d 90 85 bd 27 91 c3 bc
       -0.023496669 0.03887166 -0.06521652 -0.023872925
000260 f1 99 f6 bc dd 01 56 3e c1 27 9e 3d 95 b7 70 be
       -0.030102702 0.20899148 0.07722426 -0.23507531
000270 25 4a 48 bd 44 2a 5e 3d c8 f1 33 be bc 21 9c bd
       -0.048898835 0.054239526 -0.17572701 -0.07623622
000280 82 ea 80 bd 2b f2 99 bd f4 14 6c be 8d 9a 1f 3e
       -0.06294729 -0.07516893 -0.23054868 0.155863
000290 ed 45 4e be 71 64 25 3e 74 73 49 3e 1f 99 46 be
       -0.20143862 0.16151597 0.19672948 -0.19394349
0002a0 b3 61 7c 3e 3a b3 c9 3e 39 78 c6 3e 02 3f 3e 3d
       0.24646644 0.39394552 0.38763598 0.046446808
0002b0 02 dd d5 3d 4f 89 05 be ff 8a 94 be 90 9a 43 bd
       0.104425445 -0.1304066 -0.29012296 -0.047754824
0002c0 c9 1e 2d 3d b3 a2 5d bd 1a 4a 2b 3e ef 59 17 bd
       0.042265687 -0.05411024 0.16727486 -0.036951
0002d0 ce 38 31 be ca e3 66 3e 49 04 16 bd dd 1c 98 be
       -0.17306826 0.22547832 -0.03662518 -0.2970952
0002e0 5f 8a b4 3d 44 02 02 3c c8 e6 d8 be 90 13 cc 3e
       0.08815455 0.0079351105 -0.42363572 0.39858675
0002f0 f3 fb 48 3e f8 bd f8 bd 32 6c b6 be 59 f3 51 b9
       0.19627361 -0.12145609 -0.3562942 -0.00020022447
000300 3f 38 0c 3d ab ca d8 3e 74 a4 d5 3d 14 52 4a 3e
       0.034233328 0.42342123 0.104317576 0.19757873
000310 f1 4c 3e bd 47 01 46 3e 02 07 d8 3a e2 c2 1f 3e
       -0.046460096 0.19336425 0.0016481581 0.15601686
000320 17 9e 92 3e f3 b3 48 3e 82 3a 15 3d 68 45 b4 bd
       0.28636238 0.19599895 0.03643275 -0.08802301
000330 e6 53 05 3c b2 d1 27 bd d3 7f 15 be 70 07 a7 be
       0.008137679 -0.040971465 -0.14599542 -0.32622862
000340 c6 4b c5 bd 8f 69 1d bd d6 e7 f9 3d 84 49 9c be
       -0.09633593 -0.038430747 0.12202422 -0.30524838
000350 fe 8c 1e be a8 93 6b 3e 4d 19 07 3c 4c b3 0f 3d
       -0.15483472 0.23005545 0.008245778 0.0350831
000360 65 1c 2d be b8 11 b6 3d f3 ce 7c be da 74 39 be
       -0.16905363 0.08890098 -0.2468832 -0.18110982
000370 ba d6 54 3c 1f c9 92 bd 58 1a 88 3e 1d f5 85 3e
       0.012990648 -0.07167267 0.265826 0.2616357
000380 94 5e 25 be ee 6c f0 bd aa 89 93 3e cd c8 dd be
       -0.1614936 -0.11739527 0.28815967 -0.4331726
000390 35 43 b2 3d 28 93 d8 3d 1e 57 af 3e 9a a8 5c 3e
       0.08704225 0.10574943 0.34246153 0.21548691
0003a0 46 b2 12 be 03 54 ab be 3c 51 7f be 6f 80 a1 be
       -0.14325818 -0.33462533 -0.24933332 -0.315433
0003b0 9e 17 42 bc 6e 09 78 3e f8 28 83 3e b3 86 9f 3d
       -0.011846451 0.24222347 0.25617194 0.07789364
0003c0 8a 83 3a be a0 12 a5 bc cf 43 7c bd b4 fe 12 be
       -0.1821424 -0.020150483 -0.061588105 -0.14354974
0003d0 9b 4f e1 3c 49 62 8a 3e 6a de 76 be c4 55 98 3d
       0.02750378 0.2702811 -0.24108282 0.074382335
0003e0 b5 b3 50 3e 78 ed 18 be cb ba 11 be 3c b9 8d 3e
       0.20381053 -0.14934337 -0.14231412 0.27680385
0003f0 e0 1e c8 3d 5d 51 9d be b0 9d 72 bd 80 37 05 3e
       0.09771514 -0.30726138 -0.059232414 0.13009453

u_model.model.4.bias f4 [20]
000000 e6 06 01 3e dc 0b 4e 3d 06 61 8b bd 13 a4 76 be
       0.12600288 0.05030428 -0.06805615 -0.24086027
000010 b7 f9 0c 3e aa 06 4d be ae e0 07 be d5 db 2f 3d
       0.13767134 -0.20022073 -0.13269302 0.042934258
000020 70 2e e7 3d fa a6 09 be 5d 96 81 3e ba e1 c9 3c
       0.11288154 -0.13442603 0.2531003 0.024643768
000030 8e 90 e5 bc 30 a7 25 be f7 95 5c 3e ea 0b be bd
       -0.02802303 -0.16177058 0.21541582 -0.09279616
000040 91 2e 73 3e 84 22 4e be 96 05 44 3e 56 a2 80 be
       0.23748232 -0.20130354 0.19142756 -0.25123852

u_model.model.6.weight f4 [20, 20]
000000 46 cc 43 be 8c 6d b6 3e 57 4b 6b 3d aa cf 85 3d
       -0.19120893 0.35630453 0.057444897 0.065337494
000010 da 2e 61 bd 65 a2 71 3d 8e 0e 71 bd 30 31 0f 3e
       -0.05497632 0.058992762 -0.05885177 0.13983607
000020 b0 4f 15 3e 2f 9d 83 be 35 39 79 bc 6b 8a af 3e
       0.1458118 -0.2570586 -0.015211393 0.34285292
000030 77 1c ce 3d 21 4b ff bc 30 5f 04 3d 2d 39 d6 3d
       0.10064023 -0.031163754 0.03231734 0.10460124
000040 8d c5 50 bd dc 44 c1 bd 0e 46 55 bd db 40 29 be
       -0.05096965 -0.09436962 -0.052068762 -0.16528647
000050 ef 45 be bd 07 94 de bd de 84 99 3e 9b 6c 09 3e
       -0.092906825 -0.10868078 0.29984182 0.13420336
000060 00 e0 1e be 99 4c 5b be 4f 49 76 be 37 c7 05 3d
       -0.15515137 -0.21415938 -0.24051403 0.03266069
000070 7c 63 b3 bd 19 ca 86 be 12 fe 91 3d 5a 08 d3 3d
       -0.087592095 -0.26326063 0.07128538 0.10304327
000080 40 28 5d 3d 93 3b 9e bb ca bd 68 3e 88 4e 1d bd
       0.053993464 -0.004828879 0.22728649 -0.03840497
000090 8d b1 1e 3e 57 e8 e4 bc 16 e0 c4 3e 6c 59 99 be
       0.15497418 -0.02794282 0.38452214 -0.29951036
0000a0 b0 1f 27 3e 35 2c 9b bd 55 47 1a 3e 47 68 1d be
       0.16320682 -0.07576791 0.15066274 -0.1537181
0000b0 ab 89 5a bd f7 b5 de bc c1 f1 18 be 5d d8 77 bd
       -0.053353947 -0.027186377 -0.14935972 -0.060509074
0000c0 07 3d 59 3e 74 a7 8b bd 13 42 69 bd 18 ce 32 3e
       0.21214686 -0.068190485 -0.05694778 0.17461431
0000d0 16 b3 36 3e 4b 95 e7 3d 1f cc 15 be 03 3b 44 3e
       0.17841753 0.11307772 -0.14628647 0.19163136
0000e0 16 59 c2 bd ec 79 a5 3e cf 31 bf 3d 39 b6 bc 3d
       -0.09489648 0.32319582 0.09335672 0.09214444
0000f0 72 82 03 3e ee b8 44 be b5 71 d9 be 45 4a be bd
       0.1284273 -0.1921117 -0.42469564 -0.092915095
000100 aa df 97 3b 8e cb 3f 3e c7 a5 99 3e 44 a6 6a 3e
       0.004634817 0.18729994 0.3000929 0.22914988
000110 41 2c d4 bb 39 58 c3 3e 30 13 ea 3d a2 f8 b5 be
       -0.006475002 0.38153246 0.11429441 -0.35541254
000120 7c f6 80 bd 91 42 86 bd 1f df 15 bd 25 73 38 be
       -0.06297013 -0.06555665 -0.036589738 -0.18012674
000130 12 36 b0 3c e1 e0 ca 3d e3 2d 19 be 04 48 a3 3e
       0.021510158 0.099061735 -0.1495891 0.3189088
000140 94 68 28 be 9d d3 5d 3d 6b ae ca 3d 9e 79 81 3c
       -0.16446143 0.05415689 0.09896549 0.015805062
000150 8c 7c dd 3d 90 5e 7d 3e c7 a3 4e be 03 15 7f bd
       0.10814771 0.24743104 -0.20179664 -0.062275898
000160 33 b3 26 3e 07 23 1c bd 8b 21 6b 3e 60 dd 2e be
       0.16279297 -0.038119342 0.22962014 -0.17076635
000170 33 84 68 bd 38 e5 04 3d 53 d2 30 3e 04 7f 35 be
       -0.0567667 0.032445163 0.17267732 -0.17724234
000180 e5 0e 07 3c be be 3b 3e eb e6 51 be a7 05 98 3d
       0.008243297 0.18334481 -0.20498244 0.07422953
000190 43 a0 a6 3d 11 ab 57 3d ae 5a 88 3d 74 76 9c 3d
       0.08136036 0.052653376 0.06657921 0.07639781
0001a0 88 52 0b 3e 78 1f 29 3c 0a d9 64 3e 61 e2 2a be
       0.13605702 0.010322444 0.22348419 -0.16687919
0001b0 53 ee 79 be 0e 4e 82 3d cb c0 37 3e e8 6d 2e 3e
       -0.2440732 0.06362544 0.17944638 0.17034113
0001c0 4a f9 ba bd 43 36 1d 3d 85 9b 34 3d 7e d6 40 be
       -0.09129579 0.038381826 0.044093627 -0.18831822
0001d0 74 5d 0e bd 54 e7 dd bd f2 d5 1e be 4e 8e 20 3e
       -0.034757093 -0.10835138 -0.15511301 0.15679285
0001e0 17 5e 41 3e 72 4c 58 be fd 22 a4 ba 1c c7 2f 3e
       0.18883549 -0.21122912 -0.0012522634 0.17165798
0001f0 96 70 10 3e e0 e5 ce 3d 19 89 03 be 8d e8 16 be
       0.14105448 0.10102439 -0.12845267 -0.14737149
000200 33 f1 57 be 7c 38 1c be e5 ad 72 be e5 7f d6 bd
       -0.21088104 -0.15255922 -0.23699148 -0.10473613
000210 fa 30 a8 3d ea 70 41 3e 6d c0 f9 bd 61 e7 80 3e
       0.082124665 0.1889073 -0.121949054 0.25176528
000220 24 e9 a5 3d a6 43 0e 3e 07 f5 a5 3d 63 7e 5a bc
       0.08101109 0.13892993 0.08103376 -0.013335797
000230 d0 89 4b bd a7 60 0c be 54 35 b7 be 65 1b 31 bd
       -0.049691975 -0.13708745 -0.35782874 -0.043239016
000240 48 44 78 bd 23 1b 3b 3b ea 4f b5 bc 5c 70 80 3e
       -0.060611993 0.002855011 -0.022132833 0.25085723
000250 3b 53 cc 3c dc 9b 99 3e c3 32 e7 3d a5 57 3b bd
       0.024942031 0.30001724 0.11288979 -0.04573788
000260 40 88 18 be 84 19 3b bd 48 4e e4 3c 39 41 bb 3d
       -0.14895725 -0.04567863 0.027869359 0.091432996
000270 17 c4 32 be 41 e3 b8 3e 19 d8 f1 bc 88 a2 99 3e
       -0.17457615 0.3611088 -0.029521989 0.30006814
000280 15 86 c4 bd b7 f1 e4 3d af 42 41 3e 97 c1 f0 3d
       -0.095958866 0.11178916 0.18873094 0.11755674
000290 d0 ea f2 bd 78 49 2c bd c8 fe 7f be af b8 3c be
       -0.11861193 -0.042062253 -0.24999535 -0.18429826
0002a0 84 15 c7 bd 9d 00 01 3e e7 1d 56 be 78 6c ff 3d
       -0.09720901 0.1259789 -0.20909844 0.12471861
0002b0 2a 4a b5 3c b9 ce 5c 3c f3 99 16 3d 29 8e f4 bd
       0.02213009 0.013477021 0.03676791 -0.119411774
0002c0 42 31 56 3d b8 8a 2e 3e 5c e5 20 be 70 ac 0b 3d
       0.05229307 0.17045105 -0.15712494 0.034099996
0002d0 67 ae 75 be 32 b6 e1 3d 05 c8 76 bd 68 e3 36 be
       -0.2399231 0.11021079 -0.060249347 -0.17860186
0002e0 67 74 8e 3e 70 84 67 bd 4c cc f4 bd 6d 5e 83 3d
       0.27823183 -0.056522787 -0.11953029 0.06414495
0002f0 54 bd 9e 3d 56 e8 08 be 95 97 bd 3e 6e 1a c0 ba
       0.07750955 -0.13369879 0.3702971 -0.0014656314
000300 e0 38 8b be 2d 50 2f be 43 4f b7 3e 68 94 01 bf
       -0.2719183 -0.17120428 0.3580266 -0.50617075
000310 d9 91 58 bd 63 ea ed be 0e 52 71 3d 2c 55 31 be
       -0.052873466 -0.46467885 0.058916144 -0.17317647
000320 ea 2a 72 3e 5a aa f6 3b 03 19 b8 3d 1e 92 4b 3e
       0.23649183 0.0075276317 0.089891456 0.19879958
000330 e5 62 0f be 83 fb 3b bd 64 6c 7d 3d 35 8c 39 be
       -0.14002569 -0.045894157 0.061870947 -0.18119891
000340 eb 69 57 3e 18 66 96 bd e4 28 46 be c0 70 f4 3c
       0.21036498 -0.073436916 -0.19351536 0.02983892
000350 81 75 92 bd 34 7d b3 3e 5d ec 85 bd 16 2d 7c 3e
       -0.07151318 0.3505646 -0.06539223 0.24626574
000360 79 36 af bd e0 92 38 bd 90 86 be 3c 0e 63 97 bd
       -0.08555312 -0.045061946 0.023257524 -0.0739194
000370 2e f5 b5 3c bb 12 88 3d 07 8a b5 bc ee ff 58 be
       0.022211637 0.066441976 -0.022160543 -0.2119138
000380 a8 87 a6 be 0d 1b 64 3e 8e 11 20 bd d7 26 2a bc
       -0.32525373 0.22275944 -0.03907924 -0.010385237
000390 c0 29 83 3e e0 6c bd 3c db de 72 3c db b6 80 bd
       0.2561779 0.023123205 0.014823641 -0.06284877
0003a0 f4 62 1b be fb 2f 39 be 96 b6 61 bc 4d c4 70 bd
       -0.15174466 -0.1808471 -0.013776442 -0.058780957
0003b0 65 91 36 be e9 ec e8 3c 5a 3f 25 3d fb 49 90 3d
       -0.17828901 0.02843328 0.04034362 0.07045361
0003c0 60 c7 20 be 9f 0f 05 be b6 1b c1 bd 09 bc d4 bd
       -0.15701056 -0.1299424 -0.094291136 -0.10387427
0003d0 fe 77 a3 bd d1 28 ba bd 61 2b 60 3e dd 40 29 3e
       -0.07981871 -0.09089816 0.21891548 0.1652865
0003e0 92 55 8a 3e e5 1d 88 3e 6d 0b aa bd fe f7 f8 3d
       0.2701841 0.26585308 -0.083029605 0.12156676
0003f0 98 64 8d bd 8f 55 6a 3e 4b 15 24 bd 24 a7 5b be
       -0.06903952 0.228842 -0.04005937 -0.21450478

u_model.model.6.bias f4 [20]
000000 d9 2e 26 3e 2e 2d 39 3d 2d fc c8 3d 6c e2 80 3d
       0.16228808 0.045209102 0.09813724 0.062931865
000010 3e d4 80 bb 68 9a 48 3d a2 8d 21 3d e4 2d fd bc
       -0.0039315512 0.04897538 0.039441712 -0.030905671
000020 23 dd 3e 3e f4 d0 86 3e 87 cf 0b be 49 f0 93 bd
       0.18639044 0.26331294 -0.13653384 -0.07223565
000030 75 cc cb bd 39 6f 99 bd 32 b6 2c 3d 67 30 0d 3e
       -0.099511065 -0.07491917 0.042165942 0.13787995
000040 67 5c a9 3c 73 24 14 bd 39 b8 b5 be e0 2d 3d be
       0.020673944 -0.036167573 -0.35492113 -0.18474531

u_model.model.8.weight f4 [20, 20]
000000 c5 a1 4b bc 2b ee 46 bc c2 3b d3 bb f4 57 3a 3d
       -0.012428706 -0.012141745 -0.0064463327 0.045494035
000010 c2 1b 43 3e b8 7c 7a 3e 44 97 4f be a3 c6 5f 3e
       0.19053558 0.24461639 -0.20272547 0.21853118
000020 08 52 c3 bd ff 1f 4a 3d 74 33 67 be c4 d3 f7 3d
       -0.095371306 0.04934692 -0.22578222 0.12100938
000030 c6 52 35 3e 00 5c 15 3e 14 bc 69 be a0 dc 86 be
       0.17707357 0.14585876 -0.22825652 -0.263402
000040 51 35 a9 be f3 5e c0 bd 6a d9 28 3e 31 4a 5b be
       -0.3304849 -0.0939311 0.16489187 -0.2141502
000050 ce da 95 bd 12 ce 75 bd db 44 b2 3d 37 08 db 3d
       -0.07317124 -0.060010977 0.087045394 0.10694926
000060 f6 a8 81 be 1f 95 39 be 57 c2 2b 3e 3a 74 c9 3d
       -0.2532422 -0.18123291 0.16773354 0.098366216
000070 37 76 56 3e a9 53 52 be 12 71 97 3c b2 16 34 be
       0.20943533 -0.20539726 0.018486533 -0.17586783
000080 6e 7a 0e 3c ad 86 25 3e d4 53 02 bc b7 4d 71 bd
       0.008696182 0.16164656 -0.0079545565 -0.058912005
000090 ca 50 71 3e 71 f1 3d 3e f6 9c 22 3d c5 85 a0 3e
       0.23565975 0.18549134 0.03970047 0.31352058
0000a0 5d be e5 be 76 b9 04 3e 49 57 3d 3e 7c 46 7e 3e
       -0.44871798 0.12961373 0.18490328 0.24831575
0000b0 65 a7 8c be 77 8b 7e be c2 22 bc 3e cf 82 d8 bd
       -0.27471462 -0.24857889 0.36745268 -0.10571825
0000c0 55 6f 7c be 04 25 e4 bd 0c 1f b5 3e cc 9a bb be
       -0.24651845 -0.11139873 0.3537525 -0.36641538
0000d0 d4 7a 89 3d b7 be 02 be 2f ed e2 be 57 8f 9a 3c
       0.06712881 -0.12768064 -0.44321582 0.018867178
0000e0 79 e8 ce 3e 1e 69 9a bd 35 c1 b5 be 81 ad fa 3e
       0.40411738 -0.07539581 -0.35498968 0.48960498
0000f0 a6 d6 8a 3e da 56 b8 3e a7 d1 9e 3c a6 4f 23 39
       0.2711689 0.36003762 0.01938708 0.00015574563
000100 b2 99 f9 bd 2d 83 65 3d 5c d0 a9 3d 9f 85 94 be
       -0.12187518 0.056033302 0.082916945 -0.29008195
000110 84 91 5e 3e 30 5c 26 3e 46 0d 4b 3e 6b ce 20 bd
       0.21735197 0.16246104 0.19829282 -0.039259356
000120 f3 a8 10 be 82 8e da 3d 77 cc 6b bd 8a 52 14 be
       -0.14126949 0.106717125 -0.05756804 -0.14484611
000130 6b e4 89 3d 7c b1 30 3e ee 70 95 bd cc 04 32 3e
       0.067330204 0.17255205 -0.0729693 0.17384642
000140 53 b9 e8 bc 0e a9 01 be 40 51 4e be 2c 46 12 be
       -0.028408682 -0.12662145 -0.20148182 -0.14284581
000150 bc b6 23 3d e8 b6 19 3e 3e f9 2e be 17 fe 85 3b
       0.03996919 0.1501118 -0.17087266 0.0040891278
000160 3d 88 d8 bd 16 eb ad 3e 67 9b c0 3d 04 d6 dd bb
       -0.105728604 0.3396842 0.09404641 -0.0067698974
000170 06 e7 cc 3d ad 2d 84 be 40 a6 cf 3c ac 24 52 be
       0.10005002 -0.25816098 0.025347829 -0.20521802
000180 42 ac 88 3d e5 dc a0 bd 42 2f e1 3d 9a 09 d7 bd
       0.066734806 -0.07854632 0.10995342 -0.10499878
000190 cd 68 fc 3d 27 99 4b bd 1f 5a e9 3d cf 7f 8f 3d
       0.12324677 -0.049706604 0.11394142 0.070067994
0001a0 a1 fe 04 3e a5 10 96 3b 6f b0 82 be 42 85 aa 3d
       0.12987758 0.004579621 -0.25525233 0.08326198
0001b0 bf c3 71 be af dd aa 3d 3a c2 21 be 96 87 8c 3e
       -0.23609827 0.08343064 -0.15796748 0.27447194
0001c0 96 98 f4 bd 4f 5f 02 be d0 45 d1 3d f1 c5 79 be
       -0.11943166 -0.1273167 0.10218394 -0.24391915
0001d0 08 3c 43 bd 96 69 63 be f8 58 dd 3c 65 56 02 3e
       -0.047664672 -0.22208247 0.027019963 0.1272827
0001e0 a6 bb 8a 3e ae f3 bc 3d cc 9e 2c be 48 78 19 3d
       0.2709629 0.09226166 -0.16857451 0.037468225
0001f0 b7 8d 02 3d 19 77 44 3d 2e d3 12 3e 2b dd ce bd
       0.03187343 0.047965143 0.14338371 -0.10100778
000200 92 da 79 3e dd 51 95 be e8 92 0f 3d a2 85 58 be
       0.24399784 -0.2916402 0.03505221 -0.21144727
000210 7c 3a 9d be ae 23 98 3e cd f4 fd 3d 37 f2 76 3d
       -0.30708683 0.2971472 0.12400208 0.060289588
000220 22 b6 b2 bd a1 ca ae bd 6a 6d 3e be 04 0c 24 3d
       -0.08726145 -0.08534742 -0.18596426 0.04005052
000230 0f 92 9a 3d 55 46 be 3e 82 e1 8d 3d d1 a2 09 be
       0.0754739 0.37163034 0.06927778 -0.13441016
000240 84 b6 ff 3c f4 6b 4f be ac b5 e0 3d b9 07 0b 3d
       0.03121496 -0.20256025 0.10972151 0.03394291
000250 59 b9 6d bc fd 38 c0 3c 5b 7c 30 be df 4d d9 3d
       -0.014509522 0.023464674 -0.17234938 0.10610556
000260 c7 7d f2 3d 0e 6f 43 3e 1d ff ea 3d 5d 71 74 3e
       0.118403964 0.19085333 0.1147444 0.2387137
000270 d4 b7 3a 3e 01 0e 21 3e 18 65 b7 bd 23 65 0f be
       0.18234187 0.15727998 -0.08954829 -0.14003424
000280 66 4b 9b bb 94 8a dd bd 37 fc 70 be f7 53 9b 3e
       -0.004739213 -0.10817447 -0.23533712 0.30337498
000290 f3 48 57 3d b5 6e 05 3e c1 ad 7f bd f4 a5 9e 3e
       0.052559804 0.13030513 -0.062421564 0.30985987
0002a0 dc af 9f 3a c8 2f 4b 3e 7f cf 81 be 54 80 3b be
       0.0012183147 0.19842446 -0.2535362 -0.18310672
0002b0 0f 4c de 3d 31 67 d3 bc 05 c9 aa be 8f 94 25 bd
       0.10854351 -0.025806041 -0.3335649 -0.04042488
0002c0 2a 17 6b be 5a 7b 42 be db 55 86 3e c6 d6 f3 bd
       -0.22958055 -0.18992367 0.26237378 -0.11906199
0002d0 11 a8 09 3d 86 89 23 be 1e 77 a7 be d9 17 c6 3e
       0.033607546 -0.1597043 -0.32708067 0.3869007
0002e0 5e 9c 81 bd 14 7c ae 3e 04 35 94 be d8 f8 13 be
       -0.06328653 0.3407904 -0.28946698 -0.14450395
0002f0 d5 91 c8 be 14 f7 ba 3e 07 ee 80 be 81 41 78 3e
       -0.3917376 0.3651663 -0.251816 0.24243738
000300 63 1d da 3d 48 ea b1 3e e4 7b d3 be bd 17 c2 be
       0.10650136 0.34749055 -0.4130546 -0.37908736
000310 a0 a5 b8 bd 9d 46 d1 3d a5 af a6 3e 45 51 2d bf
       -0.090159655 0.102185465 0.3255588 -0.6770213
000320 9e 30 93 be 13 b2 61 3a d3 f9 37 be c4 03 9e 3d
       -0.2874803 0.0008609604 -0.17966394 0.07715562
000330 75 43 33 3e cd 03 cf 3d 98 81 07 3e e6 b1 1a 3e
       0.17506202 0.10108147 0.1323303 0.15106925
000340 03 16 56 be 62 fa 82 3d dc d1 cd 3c 6d 3d a0 3d
       -0.20906834 0.06395413 0.025124483 0.07824216
000350 98 54 b3 bc 16 4c 86 3e ff 79 b6 be 1f 05 c4 3d
       -0.021890923 0.26229924 -0.3563995 0.09571289
000360 5a 68 1d 3d cc 81 e8 bd 4c 2c 6c 3e 91 23 bb be
       0.038429596 -0.11352882 0.23063773 -0.36550573
000370 44 b1 c6 3d d1 27 ad 3d 82 c5 50 3d 96 24 1d 3e
       0.097017795 0.0845486 0.050969608 0.15345988
000380 a8 15 44 be 32 73 ad 3d d1 02 50 3e 20 6c 01 be
       -0.19148886 0.084692374 0.20313574 -0.12638903
000390 71 2c 57 be 71 b5 7a be 94 a0 ad 3d 96 9c 51 be
       -0.21013047 -0.24483277 0.084778935 -0.20469889
0003a0 f2 d3 1f be aa 14 2e 3d 14 2d 84 3d af 69 08 3e
       -0.15608194 0.042500176 0.064539105 0.13321565
0003b0 fa 47 ee bd 02 90 74 3e b2 da 32 3c da 2f b7 bd
       -0.11634822 0.2388306 0.010916399 -0.08944674
0003c0 c7 c7 c8 3d df 55 50 3c 7c 41 23 bd de 87 93 3d
       0.098037295 0.012715786 -0.039857373 0.07203649
0003d0 2c d9 d2 3c 23 d2 90 bd a4 65 9e bd a3 a6 75 3d
       0.025738321 -0.070713304 -0.0773423 0.05997337
0003e0 2a 54 5d 3d 6b 59 32 be 26 cd 60 3e 07 9b fe bd
       0.054035343 -0.17416923 0.21953258 -0.12431913
0003f0 86 28 91 be 86 77 c4 bd 26 f9 0b 3d f6 a4 87 3e
       -0.2835123 -0.0959311 0.034173153 0.26493043

u_model.model.8.bias f4 [20]
000000 77 0d 63 bd 88 d9 8f be 28 e8 79 bd ed 51 0d 3e
       -0.055432763 -0.2809565 -0.061012417 0.13800783
000010 85 87 05 3e 5f cf 66 3d aa 07 aa bd f6 48 09 3e
       0.13039978 0.05635011 -0.08302243 0.13406739
000020 61 a4 a1 bd 38 45 35 bd a2 6d 2f be d5 ce af 3d
       -0.07892681 -0.044255465 -0.17131665 0.08584372
000030 ba b4 27 be 16 f6 af 3d e9 06 cb bc 2f 62 2f 3c
       -0.16377535 0.08591859 -0.024783568 0.010704561
000040 1c ef 46 3e c6 bd 4b be d8 1b ba 3d 10 26 fa bd
       0.1942715 -0.19896612 0.09087342 -0.12214291

u_model.model.10.weight f4 [20, 20]
000000 b0 6e 9c be 2a b3 cd 3c c1 6e 40 be af 2c c8 3e
       -0.30553198 0.025109846 -0.1879225 0.3909659
000010 2e 55 3a 3e 9a 08 f5 3c 7c 85 70 3e f5 29 6f bb
       0.18196556 0.029911328 0.2348842 -0.0036493514
000020 80 df 49 be dd 57 2c bd 76 6e c7 be 74 1d 15 3d
       -0.19714165 -0.04207598 -0.38951463 0.03640504
000030 8a 18 bd 3d 78 55 d8 3e 07 89 ad be dd c3 a0 3e
       0.09233196 0.42252707 -0.33893606 0.31399432
000040 4a 79 13 3d 0e 1d a7 be 88 db a1 be 9c e0 22 39
       0.036004342 -0.32639354 -0.31612802 0.00015533197
000050 19 06 bd 3e b4 96 ac be aa ba 5f be 7d 47 ae 3d
       0.36918715 -0.33708727 -0.2184855 0.08509729
000060 cd b0 e4 3b 14 0c 89 be 59 a9 7d be 71 1e 18 3e
       0.006979084 -0.26767027 -0.24771632 0.14855362
000070 95 75 cc 3e 2a 31 02 3f 45 53 a6 3e f7 6d 61 be
       0.39933458 0.5085627 0.32485405 -0.22014605
000080 e6 4f a8 be dd dc 47 be 69 e3 50 3e d2 3c 96 be
       -0.32873458 -0.19517846 0.2039925 -0.29343277
000090 e7 7b 95 bd ba cf cb 3e 98 a2 ef 3e 5d da 20 be
       -0.07299023 0.3980692 0.46803737 -0.15708299
0000a0 09 dd 49 bd ce b4 c1 bd 65 1f 20 be 5d fd 41 be
       -0.04928306 -0.09458314 -0.15636976 -0.18944307
0000b0 cb d5 90 3d 39 a6 61 3e 7d 2b 8c be da c4 00 3e
       0.07072028 0.22036065 -0.2737693 0.12575093
0000c0 32 4f 88 be 5c b9 3a be 9d f8 a4 3d c7 c2 e5 be
       -0.2662292 -0.18234771 0.08055232 -0.44875166
0000d0 b5 1f 52 be 27 e2 0a 3e 09 af 2e be 7d 87 b5 3d
       -0.20519908 0.13562833 -0.17058958 0.08863733
0000e0 18 ed 05 bd f9 3e 89 bd 87 85 1a 3d 83 1d 1a 3c
       -0.032696813 -0.06701464 0.037724998 0.00940645
0000f0 15 0e fe 3e 96 31 fc bd 34 4f 0c be f9 5f 86 be
       0.4962012 -0.12314145 -0.13702089 -0.26245096
000100 90 69 8d 3e e4 24 23 be 86 a9 fc bd 81 47 02 be
       0.276196 -0.15932041 -0.123370215 -0.12722589
000110 ce 61 c2 3e a0 9b 35 3f 4a c3 15 3f 53 56 31 3e
       0.37965244 0.7094059 0.5850111 0.17318086
000120 d3 b6 af be 18 f5 09 bf f7 aa 65 3e fc dc 86 be
       -0.3431917 -0.5388961 0.22428499 -0.26340473
000130 b0 b3 63 be 95 f1 e6 3e a2 35 f8 3e c9 a3 3c be
       -0.22236514 0.45106187 0.4847842 -0.18421854
000140 1e 1c d4 3d 37 45 08 3e 68 85 9f 3d db d4 3d be
       0.103569254 0.13307653 0.07789117 -0.18538229
000150 70 45 c4 bd 14 48 6c 3e 73 86 bb bd d5 83 4b be
       -0.09583557 0.2307437 -0.091565035 -0.19874509
000160 6d 21 0d be 89 73 31 be 8c a0 81 3e 19 11 5b be
       -0.13782282 -0.1732923 0.253178 -0.21393241
000170 33 1e 8b be 06 85 28 be 57 37 1b bd 5f 56 34 3c
       -0.27171478 -0.16456994 -0.037894573 0.011006921
000180 0f 65 c3 bd f6 a0 fc 3d 65 c5 ae bc 7e f3 92 bd
       -0.0954076 0.12335388 -0.02133436 -0.07175349
000190 93 d3 9b bd 5d c3 6e bc 55 49 35 3e 8e 50 81 3c
       -0.07608714 -0.014572945 0.17703755 0.015785482
0001a0 b3 83 e9 bc 1b f2 92 be 35 f9 8b 3e 42 a8 a1 3d
       -0.028505182 -0.28700337 0.27338567 0.07893421
0001b0 d6 75 11 3d 30 91 7d 3d 92 31 d4 bd 66 a6 91 bd
       0.035512768 0.06190604 -0.10361017 -0.07111816
0001c0 18 7b cf bd c9 58 0f 3d 78 7e 6d 3e f6 5d 6b be
       -0.101309 0.03499678 0.23192775 -0.22985062
0001d0 b4 bd d6 3d 97 cd fa bd ac 37 4d 3e 52 74 90 ba
       0.10485402 -0.122462444 0.20040768 -0.0011020994
0001e0 a4 fe 79 be ec 30 84 be 13 04 d5 3d 9a 28 c1 3d
       -0.24413544 -0.25818574 0.10401168 0.09431572
0001f0 a6 84 3f 3e 86 92 ff 3d 6a 58 57 be b9 bf 31 be
       0.18702945 0.12479119 -0.21029821 -0.17358293
000200 42 a8 84 3c 2b ee 72 be 79 02 0b 3e 19 63 2b be
       0.016193513 -0.23723666 0.13575162 -0.16737022
000210 4d 33 58 be c8 a1 d0 3c 99 08 a0 3d c1 24 e0 bd
       -0.2111332 0.025467768 0.0781414 -0.1094451
000220 b4 f4 03 be a5 c6 26 bc 45 85 d6 bd e4 a3 53 3e
       -0.12886316 -0.0101791965 -0.10474638 0.20667988
000230 b3 90 24 3e 1b e9 05 be f1 a7 65 be 04 1c 86 be
       0.16070823 -0.13077204 -0.22427346 -0.2619325
000240 44 93 a5 3d 8e b5 a5 3b 74 c2 8a bd ef 20 74 bc
       0.08084729 0.0050570434 -0.0677537 -0.01490043
000250 83 c9 a4 3e 9f 8c 47 3e 85 44 8a 3e 4d a5 c4 be
       0.3218499 0.19487236 0.270054 -0.38407364
000260 c8 e5 79 3d 71 5b bf be 16 d4 b6 3d 1d dd de be
       0.061010152 -0.37374452 0.08927171 -0.4352807
000270 c1 e8 4d 3e 7e 9b b3 3d ab 07 0e be d2 ef 5a be
       0.2010832 0.08769892 -0.13870113 -0.21380547
000280 9a 11 32 3e 5c 78 57 3e 0f 4b 1e 3e 3c 31 1c be
       0.17389527 0.21042007 0.1545832 -0.15253156
000290 81 e2 4a be bf ae 7c bd 58 92 b9 3d e7 76 a0 bc
       -0.19812967 -0.06169009 0.09061116 -0.019587947
0002a0 b8 69 7f 3e 36 7f 6d bd 74 45 13 3e 52 9b a7 3e
       0.24942672 -0.057982646 0.14381963 0.32735687
0002b0 56 28 14 be 09 85 35 be f4 39 12 be 11 8b 06 3e
       -0.14468512 -0.1772653 -0.1427992 0.13138987
0002c0 e8 e6 8e be 9c 25 20 bd b0 3f 43 bd 7e 37 81 bd
       -0.27910542 -0.039098367 -0.04766816 -0.063094124
0002d0 07 29 00 be 9d 77 90 be eb 3a 40 be 63 3b b8 bd
       -0.1251565 -0.28216258 -0.18772475 -0.08995702
0002e0 40 e2 af 3d 00 80 13 3e 02 83 76 bd 3d 40 19 be
       0.08588076 0.14404297 -0.060183533 -0.14965911
0002f0 32 9c 2a 3e 29 13 14 3e fa a2 22 be f4 43 f3 3d
       0.16661146 0.14460434 -0.15882483 0.118781954
000300 ac 03 d9 bd 2d 79 c4 bc 16 bf 37 be 89 48 e3 3d
       -0.105964035 -0.023983562 -0.17943987 0.11097819
000310 b0 7f f0 3d 25 dc 82 3d f2 72 ee 3d 74 f7 3b be
       0.117431045 0.063896455 0.11643018 -0.18356115
000320 07 02 85 3e ce b9 7b 3e 65 91 bc bd 22 f7 70 3e
       0.2597811 0.24582598 -0.09207419 0.23531774
000330 b3 3f 25 be db 3b 42 be 0d c6 07 3e 78 3b 95 3e
       -0.1613758 -0.18968146 0.13259144 0.29146934
000340 73 d7 14 3e 0f 60 06 bd a3 75 87 be 91 58 1f 3e
       0.14535312 -0.032806452 -0.26456937 0.15561129
000350 59 d9 98 bc bc e0 8a bc 1c e6 db 3c c3 47 10 3e
       -0.018658327 -0.016952865 0.026843123 0.14089875
000360 4b b1 9b bd 3c 82 81 3c 34 ae 3d 3d a4 4c 08 be
       -0.07602175 0.01580917 0.04630871 -0.13310486
000370 7f 49 6d 3e 0c 36 1a be 25 08 95 bc 28 97 57 be
       0.23172568 -0.1505968 -0.01819236 -0.21053755
000380 3f e3 1f bd 2e ff 6d 3e 2f 85 6e bc ea ea d8 bd
       -0.03903508 0.23241875 -0.014558121 -0.10591681
000390 c7 3d a6 bc c4 43 b1 bd 95 b2 c3 3d c8 31 16 be
       -0.02029313 -0.086555034 0.09555546 -0.14667428
0003a0 04 63 a6 3c 44 24 be be 95 86 ca 3e 0c 7b 2c be
       0.020310886 -0.37137043 0.39555803 -0.16843814
0003b0 8b 10 87 3e 85 49 59 3e 0f e1 6c 3e 2b df a1 bd
       0.2637981 0.21219452 0.23132728 -0.07903894
0003c0 b2 2c f4 3d 69 03 42 3e 2f f2 20 be 05 64 bb bd
       0.119225875 0.18946613 -0.15717386 -0.091499366
0003d0 52 32 09 3d 08 35 d7 b7 9a 5a 77 be ab bd 16 be
       0.033495255 -2.5654692e-05 -0.24155656 -0.1472079
0003e0 cf 5a e9 3d 30 8e 93 3e b0 23 47 bb 0a 3d 2a be
       0.113942735 0.28819418 -0.0030386262 -0.16624847
0003f0 aa 18 10 bb 2d 5e 45 be e9 9a aa 3e 4a 9c 47 be
       -0.0021987357 -0.19274206 0.33321312 -0.19493213

u_model.model.10.bias f4 [20]
000000 c6 7a 91 bd 81 9f 45 be 40 12 1d be b4 27 9c bd
       -0.07103495 -0.19299127 -0.15338993 -0.0762476
000010 1f ce 6e 3d 89 3f f2 3d 2c cb f5 bd d2 33 de bd
       0.05830204 0.118285246 -0.120016426 -0.10849728
000020 ca 8f 37 bd ce 6c 28 bd eb f2 ac bc 8b b4 19 bd
       -0.044814862 -0.04111939 -0.021111926 -0.037525695
000030 79 e0 be 3d e1 e3 52 be 65 1f f3 3c b8 e1 e8 bd
       0.093201585 -0.20594741 0.029678056 -0.113711774
000040 33 3d 2b be a2 a9 bb 3d 1b dd 92 3d 8c a7 09 3e
       -0.16722564 0.09163214 0.07171079 0.1344282

u_model.model.12.weight f4 [20, 20]
000000 cd 17 13 be 5c c2 e1 3c 49 78 6a be 35 87 0f be
       -0.14364548 0.027558498 -0.22897448 -0.14016421
000010 0e a8 5a bd bd 80 af 3d cf 52 90 bd 06 2c 09 3e
       -0.053382926 0.08569477 -0.070470445 0.133957
000020 d6 02 5a 3d ab ee 93 bd a7 5c 20 3e 2c 3c 35 3e
       0.05322536 -0.07223257 0.15660344 0.17698735
000030 60 fd 6a 3d b1 15 3b be 20 15 52 be 2e a5 90 3e
       0.057370543 -0.18269993 -0.20515871 0.28251022
000040 a2 6b 8a 3e 28 7a 27 3e c4 00 e3 bd 41 09 94 be
       0.27035242 0.16355193 -0.110841304 -0.2891331
000050 c5 32 6c be 21 0c 05 3e 34 84 7e 3e 06 f2 02 be
       -0.23066242 0.12992908 0.24855119 -0.12787637
000060 fc ef 8e be 64 ff 0a be e0 a5 ec 3d f6 d5 01 3e
       -0.2791747 -0.13573986 0.11555076 0.12679276
000070 df 19 12 be 41 4f 6f 3d c5 d5 5a be 1f e7 e0 bd
       -0.14267682 0.05842519 -0.21370609 -0.10981583
000080 b8 cb 01 be c8 88 c1 3d 03 b3 3a 3b 21 a3 c0 bd
       -0.12675369 0.09449917 0.0028488047 -0.09406114
000090 47 4d c1 bd ea 89 cf 3d 18 80 70 bd c7 86 9b bd
       -0.094385676 0.10133727 -0.05871591 -0.07594066
0000a0 ec 48 d4 3e 84 ff 8e be 92 cd a1 3e d5 6c fb be
       0.41461885 -0.27929318 0.3160215 -0.4910647
0000b0 4d 48 11 be 33 c6 88 be f2 e0 4b 3e ea 83 11 bf
       -0.14187737 -0.26713714 0.19910029 -0.5684191
0000c0 d2 8b 5c be 10 10 f9 bd dd e0 95 3e 4f 30 a7 be
       -0.21537712 -0.12161267 0.2927312 -0.32654044
0000d0 97 21 ce be e7 32 d7 bd f4 6c f2 bd 73 25 07 3f
       -0.40260002 -0.10507756 -0.118371874 0.5279152
0000e0 5e d5 3c 3e ee 78 c6 3e 29 93 eb be 1b 54 39 3e
       0.18440768 0.38764137 -0.46010712 0.1809849
0000f0 ec 4a c2 bd f9 54 99 3e 0d a1 72 3e 65 f8 0d 3d
       -0.094869465 0.29947641 0.23694248 0.034660716
000100 5a b5 b7 be 8e 06 95 3e 3d 0c 57 be bb d2 f2 3d
       -0.35880548 0.29106563 -0.21000762 0.118566
000110 70 ee a0 be 7e e1 12 be 23 1a 32 3f 17 9c 86 be
       -0.31431913 -0.14343831 0.6957113 -0.26290962
000120 64 c2 43 3e 79 a8 6f be 5e c8 60 be 3f e9 81 be
       0.19117123 -0.23404111 -0.21951434 -0.25373265
000130 78 80 25 3e f5 fd 5f 3d ec a8 79 bc ad 16 39 bd
       0.16162288 0.05468555 -0.015238028 -0.04518764
000140 5e fd ad 3d 6a 86 0a be 71 54 6e 3e a2 08 4c bd
       0.084955916 -0.13527837 0.232744 -0.04981292
000150 8c 6d a0 3e e0 11 15 3e d4 51 33 3e e3 8c 0b 3c
       0.31333578 0.145576 0.17511684 0.008517477
000160 c9 89 b9 bd 90 79 cc 3d 77 10 0e bd 61 7a 70 3d
       -0.090594836 0.09984124 -0.03468367 0.05871046
000170 e4 ea 7f 3d 2d 27 9b 3e 3c 40 47 3c c7 74 f8 bd
       0.06247987 0.30303326 0.012161311 -0.121316485
000180 22 22 7e bd 63 57 2e bd d8 f6 29 be f8 66 f9 3d
       -0.06204427 -0.042563807 -0.1659807 0.12177843
000190 b1 39 46 3d 70 98 2a be a9 1e a7 3c 34 08 5b bd
       0.048394863 -0.16659713 0.020400362 -0.05347462
0001a0 b0 79 0f bd c3 61 d5 3d 60 29 27 be ea 44 9a bd
       -0.03502816 0.10419037 -0.16324377 -0.075326756
0001b0 7f 20 fd 3d 16 5e 74 3c 50 89 d7 bd 5b 25 c9 bd
       0.12359714 0.01491501 -0.10524237 -0.09821578
0001c0 c7 3b 39 bd a3 a4 2e bd 23 fc b6 bd 95 bd 12 be
       -0.045223024 -0.04263748 -0.0893481 -0.14330132
0001d0 97 60 c2 bc e9 d9 98 3e 85 80 ef 3d 98 a2 ca bc
       -0.023727698 0.29853752 0.11694435 -0.024735734
0001e0 3c df 08 3e 8c 58 4e 3e bb 25 fb bd d1 31 68 3e
       0.13366407 0.20150965 -0.12263056 0.22675253
0001f0 53 ca ee bd 37 f6 cd 3c c7 36 c4 3d 6b b0 bc 3d
       -0.11659684 0.025141818 0.095807604 0.092133366
000200 3f cf bc bd d2 bb 17 3e b8 3f 3f 3f 5f 7b b9 3d
       -0.092192166 0.14817742 0.747066 0.09056734
000210 be 43 1d be 32 34 b2 be e1 e8 a4 be 2c a5 94 3d
       -0.15357873 -0.34805447 -0.32208923 0.072580665
000220 2e 0f 40 be 72 19 84 bd b5 36 e5 bc 58 86 1e bd
       -0.1875579 -0.06450166 -0.027980188 -0.03870234
000230 e1 6a 11 3c 9b 15 bf bb b9 76 c3 3a dc 6a 9d 3e
       0.00887558 -0.005831433 0.0014912701 0.3074559
000240 15 4d aa 3d 71 23 12 bb 0b ab 81 3e 63 35 64 3e
       0.083154835 -0.0022298957 0.25325808 0.2228599
000250 be 19 f4 3d d7 27 a3 be a8 13 ec bd 19 06 3d 3e
       0.119189724 -0.31866333 -0.11527187 0.18459357
000260 7b a1 8e 3d 30 a2 d8 bd c3 4c 4c bd 1a 2d 0d be
       0.06964394 -0.1057781 -0.049877893 -0.13786736
000270 b5 11 26 be 2a de 75 be 04 cd 98 3d a0 9f c7 3c
       -0.16217692 -0.2401053 0.074609786 0.024368107
000280 77 ab 2b be 0b 05 40 3e b2 c8 d8 bd d4 48 8d 3e
       -0.16764627 0.18751924 -0.105851546 0.27594626
000290 67 5c b6 be a5 47 9c bd 30 68 82 be fb c4 2b 3e
       -0.35617372 -0.076308526 -0.25470114 0.16774361
0002a0 da b6 32 bd 36 41 ea 3d ed a2 0d 3c d9 98 98 bc
       -0.043631412 0.11438219 0.008644802 -0.018627571
0002b0 d1 2b 87 3e 6e ab bd bd 25 11 df 3d 76 85 a1 be
       0.26400617 -0.09261213 0.10891942 -0.31547135
0002c0 fa d2 47 3e 14 d2 a6 be 35 13 c8 3e 8b 62 ed bd
       0.19514075 -0.32582152 0.39077154 -0.11591061
0002d0 7c 08 c1 ba 68 16 2e 3e a1 77 80 be 74 b0 9c bc
       -0.001472726 0.17000735 -0.2509127 -0.019127108
0002e0 13 9b 4a be 71 cc ac bd 43 bf 90 3d ed 09 d5 bd
       -0.19785719 -0.084374316 0.0706773 -0.10402284
0002f0 b3 be 2f 3e 4c 3c 19 3e 18 7c 8d 3e f1 5b 5b bd
       0.1716259 0.14964408 0.2763374 -0.05355448
000300 ed ee 2b be 68 17 c0 3c 8e a1 ca bd 67 24 6e bd
       -0.16790362 0.023448661 -0.09894095 -0.058140185
000310 d1 af 44 bd 63 90 3f 3e cb ea f7 bd b6 12 98 bc
       -0.048019234 0.18707423 -0.1210533 -0.01856361
000320 49 0f af bb f0 68 a7 bd d7 93 7f 3d 55 75 c7 3d
       -0.0053423983 -0.08174312 0.06239685 0.09739176
000330 ae 7d e4 3d c2 85 99 bb f9 85 be 3d d7 2f 0c 3d
       0.11156784 -0.0046851346 0.09302897 0.03422531
000340 76 d7 cf bb 75 8a 71 be c1 7f 87 3d da 7d aa 3c
       -0.0063428236 -0.23587973 0.06616164 0.020811964
000350 19 9e b5 3d 60 f7 fa bc 16 98 e2 bd 87 ba 08 3c
       0.08868045 -0.030635536 -0.11064164 0.008345253
000360 9b b8 98 3e bb 1b 5d 3e 96 31 56 3e 73 f4 ce bc
       0.29828343 0.2159261 0.20917353 -0.025263047
000370 90 0f 27 be c0 31 2d be 46 90 8e be 72 94 6c be
       -0.1631453 -0.1691351 -0.27844447 -0.23103502
000380 86 c2 08 be 24 f4 f1 3d 3d 3f 6a be b6 e8 90 bd
       -0.13355455 0.11814144 -0.22875686 -0.07075636
000390 0b 28 22 3e 14 1e b1 3d 0c 87 80 3d 9f d6 49 bd
       0.15835588 0.08648315 0.06275758 -0.049276944
0003a0 7f 10 82 bd e7 44 59 be e8 3f 1d 3c 26 86 50 3e
       -0.06350803 -0.2121769 0.009597756 0.20363674
0003b0 1b 12 16 3e 95 fc 3d 3e 44 c1 14 3e 3e f1 89 be
       0.14655344 0.18553384 0.1452685 -0.26941866
0003c0 58 ae 67 be 38 f2 8b be 4a a2 94 3d 78 82 70 be
       -0.226251 -0.27333236 0.07257517 -0.2348727
0003d0 e7 fb 47 3e 59 9e 4f be ee 22 94 3e 30 28 23 be
       0.19529687 -0.20275249 0.289329 -0.15933299
0003e0 e2 e0 47 be a2 31 73 be dd 79 f8 bd 7e 59 89 bd
       -0.1951938 -0.23749402 -0.121326186 -0.067065224
0003f0 c8 0d 3d 3d 61 82 8d 3d 75 c1 2a be 6b 06 a0 bc
       0.04615572 0.069096334 -0.1667536 -0.01953431

u_model.model.12.bias f4 [20]
000000 d0 a8 32 3d 56 36 cc bd c8 45 05 3e 14 81 91 3d
       0.043618023 -0.09971301 0.130149 0.07104698
000010 8f 0f fc 3d 06 ec c5 bd f0 34 d9 bd fb f8 fb bc
       0.12307655 -0.096641585 -0.106058 -0.030758372
000020 b2 f8 c5 bd 85 44 44 3d b7 37 25 be 21 27 fb 3d
       -0.096665755 0.047916908 -0.16134535 0.122633226
000030 66 e9 3f 3e 1c 45 9c bd 74 56 fd 3d 4a 28 52 3d
       0.18741378 -0.07630369 0.12370005 0.051307954
000040 7a ba 13 3d ff 6a 90 bc f3 58 3f 3e 0d 32 5a bd
       0.03606651 -0.017629145 0.18686275 -0.05327039
