saved_models/1d_burgers/piratenet_pinn.pt (torch, 93569 bytes, 50 tensors)

u_model.W f4 [20, 2]
00000000: 0ddf 31be db46 e9bf 737a 473f b9c7 81bf
00000010: f92e 623f 36ee 203f deb3 81be 5efc 29c0
00000020: 1ef2 44bf 23bb 643f 556c ea3e 38da 793d
00000030: faaf c23f 58fe 683f 8164 953e 2239 78be
00000040: 28cd 623d 3bbd fcbf 7f95 c43f 80d5 003f
00000050: 8843 9e3f ebf3 36bf 3301 853b 232a 013f
00000060: fff7 423f 5011 dbbf aa9a a43f 5249 9bbf
00000070: 53a6 a43e 181b 3dbf 5cfc 71bd c49f 18bf
00000080: f084 b53c 9fad 7a3f 1c9c b73e db97 ec3e
00000090: 2374 a03f 31a5 3b3f 396a f83e 7bee ccbf
-0.17370243 -1.8224748 0.7792122 -1.0139076 0.88352925 0.6286348 -0.2533254 -2.6560283
-0.7693194 0.8934805 0.45785776 0.060999125 1.5209954 0.910131 0.2917824 -0.24240544
0.055371433 -1.9745249 1.5358123 0.50325775 1.2364359 -0.7146594 0.004058981 0.5045492
0.7615966 -1.7114658 1.28597 -1.213175 0.32158145 -0.73869467 -0.05907856 -0.59618783
0.022158116 0.97921175 0.3586129 0.46209607 1.2535442 0.7329894 0.4851854 -1.6010278

u_model.b f4 [20]
00000000: 2f13 b440 9036 ad3f 788d 6740 83ba ca3f
00000010: 8d73 bc3f 3efb 5d3f 22c7 7e40 6bf6 173f
00000020: f374 3e40 07c8 c740 679a bb40 6667 923d
00000030: d27f ab40 4853 7540 e0a5 b840 8518 c13e
00000040: edaf 1140 ceb2 fb3f 54fd bd40 f5b9 b040
5.6273417 1.3532276 3.6180096 1.5838169 1.4722763 0.8671149 3.980904 0.5936038
2.975888 6.2431674 5.862598 0.07148628 5.359353 3.833208 5.7702484 0.3771402
2.2763627 1.9663942 5.937174 5.5227

u_model.gate_U.weight f4 [42, 42]
00000000: 14fd 95bd 7cd5 803e 8530 983c f388 e1bd
00000010: 1258 02be a94f 003e a9b4 00bd f4c1 1d3b
00000020: 7e3d a83d 3ab2 043e 949f 013e 0717 843d
00000030: cf01 2a3d 6e61 98bd 4c76 443d f08e dbbd
00000040: f084 c5bd eb06 273c d0ff 2abe 85b1 a3bd
00000050: a2a3 563e 03e4 03be d001 d7bd c9a4 edbd
00000060: 58bb 05bd f360 59be 6b79 ef3d 74a4 e33d
00000070: 53c0 7abe 7d37 f83c f4a4 723e b865 693e
00000080: 05f1 40bd f404 98bb 050b e0bd 393c b43d
00000090: 788c df3c 6706 b0bd 7b53 903d 9b2b 4abd
000000a0: 79b4 06bd adbc 47bd 1c6f 5a3e d2bf 04be
000000b0: cf40 de3d 9988 51be e97f 213e 19ab 1abe
000000c0: 02fc 633c 6f0e 4fbe 2449 6a3e ef9b 1fbe
000000d0: 75a9 9cbd 941c 4ebe bde7 39be 3fc2 c9bd
000000e0: 93d7 993c 1d01 d03c f54a ae3d ae89 bebd
000000f0: 1b61 9b3e 345b af3c 9435 b13d b983 663d
00000100: ea3b 423d 7557 b6bc fdb9 ef3d e737 0bbe
00000110: 3174 acbc fbe9 aabd a2ff 88bd bdf7 93bd
00000120: 3cc8 c7be e57c 753e 639f d03d 8b32 b2be
00000130: 25dd b53e e24a c3bd 2150 983d faa2 e83d
00000140: 1f5d 233e f1a2 18be 8b74 c13a ab00 063e
00000150: 373a 903d d5af 963e 065f f2bc 6fe7 1a3e
00000160: ae1d 8ebe 2f24 ba3d 0148 1fbe a5b5 843e
00000170: 453b a03d 4828 c53e e79c 9abe 6375 2b3e
00000180: b670 a73e be2c ae3e 416e b73d c2ae dcbe
00000190: 520b b13d 707a 213e 0354 babe 595f 6dbe
000001a0: eba4 6d3e eea1 593e 1ea5 05be eab2 333e
000001b0: 9465 e4bd 6464 d73d e1b9 653e f32f 253e
000001c0: 66ff 09be ba9a 313e 9caa a53e 7d7f 193c
000001d0: 2bcc f4bd 661c a83e 603c 13bf a2e9 3cbd
000001e0: 1aa3 bcbe 8501 b8bd f6b7 fa3d 71fb 993e
000001f0: 7ed7 0cbe 5c5e b6be 85e8 09bd 73ab e43d
00000200: 4e2f 21bd db16 f33d 38d0 43be 2189 8c3e
00000210: 1b0f 0ebe 636c ed3c c40a 073c e5ef c23c
00000220: d922 c43d 8166 4f3e 1d5e 853e 8d64 473d
00000230: a55d c4bb ab7a bb3d 43cf 413e 3bfa d83d
00000240: 14a1 80bc 3ea2 3dbd 48f0 1a3e 23ba d1bd
00000250: 6137 6bbe 0ef8 8d3e da1d f5bd 2657 7abd
00000260: 0616 113e f83e 6b3d 589b 4dbc 8eb8 293e
00000270: 61d4 323e 8357 863c fed5 4d3d f082 853e
00000280: d237 79bd 7eeb e33d 1620 b7bd fc09 643d
00000290: 9ea6 30bd 5bc5 3b3c 5c13 d73d 3138 02be
000002a0: 4bab 7dbd 00d8 b7bc b64b 463c 8ad8 663d
000002b0: c701 d0bd 3caa 923e 2273 39bd 6f6e ad3d
000002c0: fd54 95be 0d64 4f3e a70a 25bd b008 6d3e
000002d0: d34d a5bd 8911 1f3e e18a 31be 71a9 42be
000002e0: 5c9b e4bb e0f0 04bd a19f c2bd 92ad 4fbc
000002f0: 45ba 2e3d b009 0abe 91a9 5abc d278 c13c
00000300: 02ba 363d d484 cabd 9ee8 e73c e880 2d3e
00000310: d300 76be 8b76 003e 0a37 393d 0845 0dbe
00000320: 4d6a 83bc 75df fa3d 4784 49be ee27 243d
00000330: 9f00 01be 14ae 4dbd c25a 063d 5da3 113e
00000340: 810e 3cbe d50f 50be c90a 113e 8562 f13a
00000350: 0044 5dbe f150 213e 6eb4 863e 8ec3 cc3c
00000360: 9aac 1abe 720f e3be e0f9 833e 69fc 9abe
00000370: 684a 6d3e 24be 5cbe a3b3 3ebe cc9a 21be
00000380: 8333 0e3d 5674 0d3d 2c0c 0ebe cc83 94be
00000390: 2a82 283e ac8c f5bd fbc6 8ebe dfa3 f8bd
000003a0: d9ea f1bd caab 92be ecd3 ef3d 1764 acbe
000003b0: eebd 5dbe 94dc 1cbd 461b 4b3d aa60 aebc
000003c0: caa7 653e 7bf7 7b3d eeee 5b3d b0ad 1dbc
000003d0: 2b6c 56bd a365 273e 3260 fb3d 738e 21be
000003e0: bd38 8dbd 32c9 8abe 78ef 013e e6b5 d5bd
000003f0: 5831 9cbe 8b40 ebbd f45c 60be be83 373e
-0.073236614 0.25162876 0.018577823 -0.11012449 -0.12728909 0.12530388 -0.03142229 0.0024071904
0.08214854 0.12958613 0.1265853 0.064497046 0.04150563 -0.07440458 0.04796438 -0.107206225
-0.096444964 0.0101945205 -0.16699147 -0.079928435 0.20960858 -0.12879948 -0.104983926 -0.11603696
-0.032649368 -0.2122839 0.116930805 0.11115351 -0.24487428 0.030299896 0.23695737 0.22792709
-0.047104854 -0.0046392623 -0.10939602 0.08800549 0.02728866 -0.08594971 0.07047173 -0.04935799
-0.032886956 -0.04876392 0.21331447 -0.12963799 0.10852205 -0.20462264 0.1577145 -0.15104331
0.013915064 -0.2022035 0.22879463 -0.15586828 -0.07649509 -0.20128089 -0.18154807 -0.098515026
0.018779552 0.025391156 0.08510391 -0.09303604 0.30347523 0.021405794 0.08652797 0.056277964
0.04742042 -0.0222585 0.11705396 -0.13595544 -0.021051498 -0.083454095 -0.06689383 -0.07224987
-0.39019954 0.23973425 0.101866506 -0.34804186 0.35520282 -0.09535767 0.074371584 0.1135921
0.15953492 -0.14905907 0.0014759464 0.13086192 0.070423536 0.29431024 -0.029586326 0.15127347
-0.2775702 0.09088933 -0.15554811 0.25919834 0.07823805 0.38507295 -0.30197832 0.16743998
0.3270318 0.3401851 0.08956576 -0.4310208 0.08644737 0.15769362 -0.3639222 -0.23180903
0.23207442 0.21253178 -0.13051268 0.17548719 -0.11152187 0.10517195 0.22434188 0.16131572
-0.13476333 0.1734418 0.32356727 0.0093687745 -0.119530044 0.32834166 -0.57514 -0.046121247
-0.36843187 -0.08984665 0.12242119 0.30074647 -0.13754079 -0.35618865 -0.033669014 0.11165514
-0.039351754 0.11869594 -0.19122398 0.2744837 -0.1387295 0.028982347 0.008242313 0.023796031
0.09576959 0.20253946 0.26048365 0.048679877 -0.0059926086 0.091542564 0.1892672 0.10594603
-0.015701808 -0.046297304 0.15130723 -0.10240581 -0.22970344 0.27728313 -0.11968584 -0.061118267
0.14168558 0.0574331 -0.012549244 0.16574308 0.17463829 0.01639915 0.050252907 0.2607646
-0.06084425 0.11128901 -0.08941667 0.055673584 -0.04312765 0.011460627 0.105017394 -0.12716748
-0.061930936 -0.022441864 0.012103012 0.05635885 -0.10156589 0.28645504 -0.045275815 0.08468329
-0.29166403 0.2025301 -0.040293362 0.23147845 -0.080714844 0.15534033 -0.17338134 -0.1900995
-0.006976528 -0.03245628 -0.09503103 -0.01267566 0.04265811 -0.13480258 -0.013346092 0.023617182
0.044610985 -0.09888616 0.028309163 0.16943705 -0.24023752 0.1254522 0.045218505 -0.13795865
-0.0160419 0.12249652 -0.19679366 0.040077142 -0.12597893 -0.050214842 0.032801397 0.14222474
-0.18364908 -0.2031854 0.1416427 0.0018416202 -0.21607971 0.15753533 0.26309532 0.024995591
-0.15104905 -0.4434772 0.25776577 -0.302707 0.23172915 -0.21556908 -0.18623213 -0.15781707
0.034717094 0.034534775 -0.1387183 -0.29006803 0.16455904 -0.11989722 -0.27886185 -0.12140631
-0.11812372 -0.2864669 0.11710343 -0.33670112 -0.21654484 -0.038296297 0.049586557 -0.021286327
0.22427288 0.061515313 0.053694658 -0.00962393 -0.05234925 0.16347365 0.12274207 -0.15776996
-0.068955876 -0.27106625 0.12689006 -0.10435085 -0.30506396 -0.1148692 -0.21910459 0.1792135

u_model.gate_U.bias f4 [42]
00000000: d617 343e 9a13 e9bd 709e 863e 8d21 543e
00000010: df19 673d a351 9fbe c457 0fbe 408a b2be
00000020: a482 293c f7d9 193e 110c 3abe 6bf1 463e
00000030: a200 533e 7e7b c23d 6393 58be 7108 7f3e
00000040: cbc3 a6bd bfbd be3d 622b 343d 3193 903e
00000050: 7c91 5c3d 4b5e cb3e f2df 56be 83d2 683e
00000060: 2a2c a0bd 7522 283c a1dd bcbe a32b 0cbd
00000070: b82f 9dbe 933a 99bc bc53 93be 040b f8bc
00000080: 5408 6cbe c415 8dbe 7885 cabd be92 053e
00000090: 1feb 773e d22a dabd 81bb 5cbe 8fd7 a2be
000000a0: 69bf bc3d 0fee ee3d
0.17587218 -0.11380692 0.26292753 0.20715924 0.056421157 -0.3111697 -0.13998324 -0.348711
0.010346089 0.15024553 -0.18168665 0.19428031 0.2060571 0.094962105 -0.21149974 0.24905564
-0.08142813 0.09313535 0.043986686 0.28237298 0.053849682 0.39720377 -0.20983866 0.22736554
-0.078209236 0.010262121 -0.3688784 -0.034221303 -0.3070047 -0.018704688 -0.28774822 -0.03027869
-0.23050052 -0.27555668 -0.098887384 0.13044259 0.24210785 -0.106526986 -0.21555902 -0.31805083
0.09216196 0.116665

u_model.gate_V.weight f4 [42, 42]
00000000: 3fdb 1dbe 78e0 54bd c40e 283e e145 1b3e
00000010: 1a81 1d3b a24c 65be 0fba f2bc 4859 eb3b
00000020: c47b d13d 1ab1 803d 0d67 0abe e1a9 d9bd
00000030: 5b3a 8a3d cedf d2bc 5a40 193e 0a5c c03c
00000040: 2205 363c ad30 8abd 6b01 26be ad8d ddbc
00000050: 024e 67bd cfd6 613e 899d 713d e6e0 97bd
00000060: a675 85bd 72f9 803e 9c17 92bc 75d4 fabd
00000070: aa8e 8d3d 40ce 453c 965a 513d 4643 933c
00000080: 9c05 013b 0803 153e 9d63 6abe 3df2 b3bd
00000090: c4e5 e7bd 466b 693d 8f5c f23d e49a 27bd
000000a0: c154 9f3d e7aa 4ebe ad9f 0bbe f0f0 b43d
000000b0: 1112 04be 0d87 363e e438 47bd 822d a63e
000000c0: f66f 94bd 839d 9a3c a6f0 acbd ead4 023e
000000d0: 64b1 92bc edae f9bc 0161 2c3e 6518 093e
000000e0: f006 a6bd f770 83bc fa3e 273c 407d 28be
000000f0: 78bc 1dbe bee3 1e3c 21d1 a7bd 2bb9 983c
00000100: 1a10 61be b66f e73d b24f 6b3e 17f6 2dbb
00000110: 1ce8 323e 1e2f 0fbe bacc 3e3e 1dc2 69bd
00000120: 7947 d03e 3b23 4bbe 1a78 3ebb 11a0 b43d
00000130: 81c4 1dbe e4b9 27bd c61b 7abd ef7e 75bd
00000140: 3ee0 943d 50c2 e93d cee3 2c3d 1ae9 89be
00000150: aff1 513e eb81 4d3c d7c4 f3bc a1d1 23be
00000160: bf17 a9bd 7a3d 0a3d 635d 7cbd 84c6 d63c
00000170: 65ae 203e ce34 21bd cb56 d6bc 093d a83d
00000180: d98f f7bd b645 21be 8b8b 5bbe 7936 ad3e
00000190: 01ad f7bb 8a58 163d 1f92 7c3e a6ad 7aba
000001a0: 28f4 c33d b730 4a3c 565d c03d 8330 82be
000001b0: 669c ba3c c99c 8fbe ad1b 08be 7e15 a23d
000001c0: 9de8 77ba 7f42 15be 3dc3 173e 0f2d 4abc
000001d0: fded 843e 1963 0abe b4ae 053d f7c8 9d3d
000001e0: 23f1 233e af6b 693d 8341 c8bd 6d76 893d
000001f0: ce4b 05be 753a 703b d657 17be d6ce 8dbc
00000200: bb93 f53d 47cd 10bb d24d cd3c 8e62 a7be
00000210: 141c e4bd c720 3abe a244 8b3c 8f24 093c
00000220: 1c29 a7bd ecc6 96bd 93ac c33d 7bc8 573d
00000230: 98dd e9bd ceae 36be 7005 a13c 1b1e 44bd
00000240: 7bf2 0a3e 7721 e03d 6ee1 29be 1d47 b0bd
00000250: edac db3d d0fd 373c ad54 1abd 3862 fd3d
00000260: 8e65 f43d ee82 88bd ae97 b73d 3ef0 45be
00000270: b690 57be 1cc2 bbbd 3a6a 093d b268 703d
00000280: 9acd 0b3e bae1 c3bc cca2 7a3d 73df ad3c
00000290: 1b3a d2bd fed8 a1bd 8577 ca3d ea50 ce3d
000002a0: 6661 063e e1d3 573d dd86 9bbd 132e f0bc
000002b0: 0d2d 253e b9ee 7b39 8b5d 65bd b8b6 aabc
000002c0: caa5 6c3e ec86 fa3d 8803 693d 81ba 8dbe
000002d0: f642 e4bc 9046 17bd 9236 abbc 10c6 7d3d
000002e0: 8cbc 7bbc 3e1c 46bc e8af 4dbd 6188 ffbd
000002f0: ce6f 0abe 4342 a43d bcc0 0d3e e986 053d
00000300: 57a7 6e3d f889 813c 2aea 0f3e 74d3 adbc
00000310: 4985 143d ef36 c1bd d6e6 4abe 9288 2c3d
00000320: 3c0f 613d 2f00 723d 124f fa3d 444b c93c
00000330: 67ee 1dbe 8713 a63d 8d96 99bd 3979 3dbe
00000340: b481 4b3e f50b de3d c9da 48be 08d2 52bb
00000350: a64b 793e 6e24 1c3e 5d31 ffbd 7443 24be
00000360: 4b48 cabc 07cc 763e 3538 1dbe 5b02 5d3e
00000370: dc7a 2cbe bb1a 293e 7378 1d3d 5447 f83b
00000380: 65bd 3d3e b766 663b e8df fd3c e678 90bd
00000390: f45d 12be eec1 85bd 3f56 a5bd 70bf d0bc
000003a0: 8dbb 053d b199 e13b e41c 4abd fa27 ee3c
000003b0: 3936 a8bc a6d1 ce3d c272 dabc 3d0d 0b3e
000003c0: 2b7e 3ebe f02b 21bd b018 84be 8de8 8bbd
000003d0: 07a5 d63d 30b4 32bb 4bb4 9a3d 8b34 033e
000003e0: 2963 153c 180d 1f3d 82dd 993c 2baa 98bd
000003f0: af57 cc3e 8d57 54bc 202a 84bc 7059 e5bc
-0.15415667 -0.051971883 0.16411883 0.15163375 0.002403325 -0.22392514 -0.029629735 0.007182274
0.102286845 0.062837794 -0.13515873 -0.10628105 0.06749412 -0.025741484 0.14965954 0.023481388
0.011109622 -0.067475654 -0.16211478 -0.027045095 -0.05647088 0.22054599 0.058988128 -0.07415943
-0.0651658 0.25190312 -0.017833523 -0.12247554 0.06911977 0.0120731 0.05111178 0.017976414
0.0019687181 0.14551938 -0.22889562 -0.08786438 -0.11323121 0.05698707 0.118340604 -0.0409192
0.077798374 -0.20182382 -0.1363513 0.08835018 -0.12897517 0.17824955 -0.04863824 0.32456595
-0.07247917 0.018873936 -0.084443375 0.12776533 -0.017906852 -0.030478919 0.16833879 0.13388212
-0.08106792 -0.016045077 0.010207886 -0.16454029 -0.15403926 0.009697853 -0.08194185 0.018642982
-0.21978799 0.11300604 0.2297962 -0.0026544386 0.17471355 -0.13982818 0.18632784 -0.057069886
0.4067953 -0.19837658 -0.0029063285 0.08819593 -0.15406992 -0.040948763 -0.061061643 -0.059935506
0.07269333 0.11414015 0.04220944 -0.26935655 0.20502351 0.012543182 -0.029756946 -0.15997936
-0.08256482 0.033750035 -0.061612498 0.026217707 0.15691526 -0.039357 -0.026164433 0.082147665
-0.12087984 -0.15749249 -0.2143995 0.33830622 -0.0075584655 0.03670553 0.24665116 -0.0009562619
0.095680535 0.012340716 0.093928024 -0.25427637 0.022779655 -0.28049305 -0.13291807 0.079142556
-0.00094569643 -0.14576147 0.14820571 -0.012339844 0.2596282 -0.13514365 0.032637313 0.077043466
0.16009955 0.05698746 -0.0977812 0.06712041 -0.13017198 0.0036655937 -0.147796 -0.017310541
0.11991068 -0.002209501 0.025061522 -0.3269238 -0.11138168 -0.18176566 0.0170005 0.008370533
-0.08162138 -0.0736216 0.095544 0.052681427 -0.11419219 -0.1784012 0.019655913 -0.047880273
0.13569061 0.10943883 -0.16589901 -0.08607314 0.10726342 0.011229947 -0.03767841 0.12372249
0.119334325 -0.06665598 0.089644775 -0.19329926 -0.21051297 -0.09167883 0.03354857 0.058693595
0.1365265 -0.023911346 0.06119041 0.021224713 -0.10264989 -0.07902716 0.09886078 0.10074027
0.13123092 0.052692298 -0.075940825 -0.029318845 0.16130467 0.00024026156 -0.055997413 -0.02083908
0.23110119 0.122327656 0.056888133 -0.27681354 -0.02786396 -0.036932528 -0.020900045 0.061956465
-0.015364777 -0.012091694 -0.050216585 -0.12477184 -0.13519213 0.08020451 0.13843054 0.032599363
0.058265056 0.015812859 0.1405417 -0.021218993 0.036259923 -0.09434306 -0.1981462 0.04212243
0.05494617 0.059082206 0.12222113 0.024572022 -0.15422975 0.08109193 -0.074994184 -0.18503274
0.19873697 0.108421244 -0.1961471 -0.0032168645 0.24345264 0.15248272 -0.12460587 -0.16041356
-0.024692675 0.24101268 -0.15353473 0.2158293 -0.16843742 0.16514103 0.038444947 0.0075768624
0.1852928 0.0035156438 0.030990556 -0.070543095 -0.14293653 -0.0653113 -0.08073091 -0.02548191
0.032649565 0.0068847765 -0.04934396 0.029071797 -0.020533668 0.10098581 -0.026666049 0.13579269
-0.18602817 -0.039348543 -0.25800085 -0.06831465 0.10480695 -0.0027268045 0.075539194 0.12813012
0.00911788 0.038830847 0.018782381 -0.07454332 0.39910647 -0.012960327 -0.016133368 -0.027996749

u_model.gate_V.bias f4 [42]
00000000: 118f 3bbe 2fb8 ec3d 2a5b 9c3c 9002 2bbe
00000010: 7f09 05be 1f8f 123e 0802 a13c 5fcf 103e
00000020: fc1c 12be a55b 0abe 76f7 08bd 67f7 3ebe
00000030: 1eb5 453d 329f 1ebe f913 c6bc 0c7d 39be
00000040: 1d18 023e 2480 01bd f29a fabd 8373 6dbd
00000050: f040 643d b62d 0ebe 0d97 563e df03 e2bd
00000060: 0426 173e 8944 e83d 2073 593e e558 023d
00000070: de6c 083d 2934 993d 37b5 eb3d 1d85 2d3d
00000080: 7af1 c53d 05d6 3c3e 470e 09bc 70e5 dabd
00000090: 056c 91bc 1b8c ca3d d7ed f1bc e660 0c3e
000000a0: e29e ee3c 95dd 41be
-0.18316294 0.11558568 0.01908644 -0.16700196 -0.12991904 0.14312409 0.019654289 0.14141606
-0.14268869 -0.13511522 -0.033439122 -0.18649064 0.04826843 -0.15490416 -0.024179446 -0.18114108
0.12704511 -0.031616345 -0.12236585 -0.05797149 0.05572599 -0.13884625 0.20956059 -0.110358946
0.14760596 0.11341197 0.21235323 0.031823058 0.03330695 0.07480652 0.11509173 0.042363275
0.096651986 0.18441017 -0.00836522 -0.10688293 -0.017751703 0.09890004 -0.029532356 0.13708839
0.029128496 -0.18932183

u_model.blocks.0.W1.weight f4 [42, 42]
00000000: 8081 c1bd d06e 9cbd 53d8 553d ffb8 80ba
00000010: ad2e afbd 4805 88be f902 073e 540f adbd
00000020: de7e c6bd 31df 12be a390 1e3d c646 c1bd
00000030: 5b00 41be 1274 5abe 27c8 21bd 2983 603e
00000040: d5d3 373b 96ca c8bd a0e7 3a3e d6ba 143e
00000050: a211 19be 82d9 973c 0780 743e 8965 0abe
00000060: aa09 483e 183a 8b3d 9df8 3cbe df0d 77bd
00000070: cbcb 0c3e 9019 673c 8846 83be 4295 53be
00000080: 2437 b43b f1c9 c0bd 7427 30bd 1bf1 d53d
00000090: a742 6abc 03de b7bd 59aa f5bc 0ed5 5cbc
000000a0: 277b 81bd c2d1 523e 3321 3bbd 58e3 a63e
000000b0: 9ce7 d2bd 4766 6c3e a30f 513e 597b 30be
000000c0: f82f 74bd 4305 40ba e052 603e b15b 7bbe
000000d0: d04d 083e 1a07 2bbe 2bee 40be 3f80 92be
000000e0: d0ec 84bd 0235 ccbd 67bf 8dbe f381 4bbe
000000f0: ffe6 853d afac 0e3e ddfb 88be 96fe 7ebe
00000100: be0b b83d 2074 a3bd 4018 46bc 9ced 68be
00000110: 8f3b 26be f1f9 1fbe 2173 333e fad7 6fbe
00000120: f98e 1cbc 54bd 98bd dc16 a1bb 8fd0 583c
00000130: 0703 c33d ef73 6ebd a8c2 903d 51cf 29be
00000140: 475f acbe ec2a 44be 5f24 a1bb 4d54 94bc
00000150: 54af 4f3e c594 053e 6df3 88bc b476 9f3d
00000160: 0c6a 803e 3bc0 7a3e 7184 0ebe 840d e1bc
00000170: 00d5 6a3e 6e33 24be f904 2e3c 363c a73d
00000180: 3215 10be 92a2 50bd 2eaa 82bc 44e1 173d
00000190: fcda 993c e937 b03b 5cfa 243e 42e5 1b3d
000001a0: 209b adbc b6de b0bc 4d77 a3bd 83da 32be
000001b0: 46d9 29bc e109 b0bd cf86 c73c b9bd d1bc
000001c0: 772f 4b3d ef5a debd a067 a83e 2419 883e
000001d0: 98d5 833e 6169 b53d 7f58 3bbd 702d f3bd
000001e0: 5d84 c4bd 56f0 5ebe 26f0 0ebe 81ff c43c
000001f0: 2b25 f43c fb72 84bd 5b19 3e3e 31eb 5d3d
00000200: 7445 94bd 1500 d7bc a130 323e 94c1 b5be
00000210: 1f80 793d 436e c1bc c5fc 1d3e a412 9e3d
00000220: 7629 483e 65c6 88be 8fb3 97bc a443 5fbe
00000230: 8fdb c13c d706 eabd 40ec 47bd 0987 39be
00000240: e17f df3d 52ee 11be 3f9d 85be b3b2 eabd
00000250: b97f 5d3e 3cb8 e3bd e1d2 053d d16b b3bd
00000260: c494 bfbd e040 833b f0c2 403e eeea 00be
00000270: 23c3 7fbd e82b 173e 930c dc3d 7dfb e4bb
00000280: b764 2f3e 0ded e9bd 21ab 80bd 1f35 bf3a
00000290: e76d 44be ad90 40bc 31c2 723d 37d6 86bd
000002a0: 90d5 a33e 94bc 063e 462f a7bc 8080 32be
000002b0: c54f 303e 3fc5 87be 1aab 183e 1a67 a5bd
000002c0: 572c 693e 024f 7bbe 87b4 963c e0b4 8d3c
000002d0: 1231 adbd 65e7 bdbd 8663 17be 0e01 06bd
000002e0: d55d e1bd 9364 fdbd 3ed8 ae3d d1ee 18bd
000002f0: 5af7 2bbe 225e db3c 33da 143e 5c6e ccbd
00000300: 4aa5 a63d 8991 ac3d 9eb2 453d c5b4 25bb
00000310: 52f7 7a3d ecfe 323d 37d7 57be 33ce 9a3e
00000320: 461d 6b3e 3dbd fc3c 086c 52bd 7bd5 173d
00000330: abfa 0c3d 4f11 7f3b 6d92 22be 5eed 86bc
00000340: c92c a33e 10e1 173e 2025 ee3d 939d 953d
00000350: b0a1 26bb 6cdf 2ebc 1896 093d 47d0 ba3e
00000360: f227 47bd 1911 8bbc d19b 443e 1807 11be
00000370: d4b2 4f3e d91c 18bd 1ad1 7f3d 5ee7 31be
00000380: 386a afbc 2fe9 813e f77b 0abe 0e5d 903d
00000390: 1633 b3bd af8d 8dba eefd e73b 4bb4 afbd
000003a0: 920b 563d 57ad b2bc 4af2 f5bd cdf1 77be
000003b0: 578c 44be c62a afbc 1295 d53c b59c 2ebd
000003c0: adbe 373e d49e 41bd 3e8d 8cbd 03d0 b03c
000003d0: 7fa3 a4bd fc15 c73d 6e05 00bd e1b9 1abe
000003e0: 0bcf 98bd 74e7 51bd 7996 293e 3961 fc3b
000003f0: a7d9 88bd 3e1e 3cbe 95f5 6c3e 34b4 643c
-0.09448528 -0.07638323 0.052208256 -0.0009820758 -0.085538246 -0.2656653 0.13184728 -0.08450189
-0.09692167 -0.14342953 0.038712155 -0.09437327 -0.18847792 -0.2133334 -0.03949752 0.21925034
0.0028049846 -0.09804265 0.1825242 0.14524397 -0.14948133 0.018536333 0.23876964 -0.13515295
0.19534937 0.0679819 -0.18454213 -0.060315963 0.13749616 0.014105216 -0.2563975 -0.20662406
0.0054997373 -0.09413517 -0.043006375 0.10446378 -0.014298118 -0.08977892 -0.029988455 -0.013478531
-0.063223176 0.20587829 -0.045685958 0.32595325 -0.10298082 0.2308589 0.20416121 -0.17234553
-0.05961606 -0.0007325003 0.21906614 -0.24546696 0.13310933 -0.16701928 -0.18840854 -0.2861347
-0.06490481 -0.09971048 -0.2768509 -0.1987379 0.065382 0.13933061 -0.26754656 -0.24901804
0.08986615 -0.079811335 -0.012090743 -0.22746891 -0.16233657 -0.15622689 0.17524387 -0.23422232
-0.009555572 -0.074579865 -0.004916055 0.013233318 0.09522062 -0.05821603 0.07068378 -0.16582991
-0.3366644 -0.19156998 -0.004917666 -0.018106604 0.20281726 0.13045032 -0.016717637 0.07786313
0.25080907 0.24487393 -0.1391771 -0.027472265 0.22932816 -0.16035244 0.010621303 0.08165781
-0.14070585 -0.05093629 -0.015950289 0.037080064 0.018781178 0.0053777588 0.1611113 0.038060434
-0.021192133 -0.021590572 -0.07981739 -0.17466168 -0.010366743 -0.08595634 0.024356274 -0.025603162
0.049605813 -0.10857188 0.3289156 0.2658168 0.25748897 0.0885799 -0.045738693 -0.11873901
-0.09595559 -0.21771368 -0.13958797 0.024047615 0.02980288 -0.06467243 0.1856436 0.054179374
-0.0723981 -0.026245156 0.17401363 -0.3549925 0.0609132 -0.023612147 0.15428455 0.07718399
0.19547066 -0.26713863 -0.018518237 -0.21803147 0.023664264 -0.11427086 -0.04880929 -0.18117918
0.10913063 -0.14251068 -0.26096532 -0.114598654 0.21630754 -0.11119124 0.032671813 -0.08760799
-0.09354547 0.0040055364 0.18824363 -0.12589619 -0.062441956 0.14762843 0.10744586 -0.0069879876
0.17128263 -0.11422167 -0.0628264 0.0014587975 -0.1918255 -0.011753243 0.059267227 -0.06583827
0.31998873 0.13157874 -0.020408284 -0.17431831 0.1721793 -0.26517674 0.1490902 -0.08076306
0.2277082 -0.24541858 0.018396629 0.017298162 -0.08456625 -0.09272651 -0.14784059 -0.03271585
-0.11004225 -0.12372699 0.08537339 -0.037337128 -0.16793576 0.026778284 0.14536361 -0.09981987
0.08136995 0.08426196 0.048266046 -0.002528475 0.06127102 0.043700144 -0.21078192 0.30235443
0.22960386 0.030851955 -0.051372558 0.037068825 0.034418743 0.0038920229 -0.1587617 -0.016470607
0.31870106 0.14831948 0.11628175 0.073054455 -0.0025425963 -0.010673385 0.033590406 0.36487028
-0.04862208 -0.016975926 0.19200064 -0.14162862 0.20283061 -0.037136886 0.062455274 -0.17373416
-0.021412954 0.25373217 -0.13523851 0.07048999 -0.08749978 -0.0010799671 0.0070798313 -0.0857931
0.052257128 -0.02181117 -0.120091036 -0.24213333 -0.1919416 -0.0213827 0.026072059 -0.042629916
0.17943831 -0.04727061 -0.06862877 0.021583563 -0.08038997 0.0972099 -0.03125518 -0.1510997
-0.07461365 -0.05124612 0.16561307 0.0077020195 -0.06682139 -0.18370911 0.23140557 0.013958979

u_model.blocks.0.W1.bias f4 [42]
00000000: d994 83be c666 7b3b 512c 8b3d 6237 713d
00000010: c9c4 16bd 6b22 4bbd 6489 41bd 6d1d 2b3d
00000020: 2cf3 a7bd eda0 5cbe 8f24 0a3d 6c9c dfbd
00000030: f19d 273d c88e e23c f19c c53d cfd9 2cbe
00000040: 94e2 30bd 4104 483e 2b64 0bbc f3dc 5cbe
00000050: 0500 03be 87e8 223e 08a0 cfbc fef7 0fbd
00000060: 6236 eabd 87a8 823d 9be2 353d d33b 21bd
00000070: cb2c 863b d72d 4abe 408a 53be 095e 123d
00000080: ec9c 10be 87ef 88bd 5fdd 5cbe 4f16 1cbc
00000090: 38d1 163d 8123 b73c 4511 0e3c f6bd 0bbe
000000a0: adb8 0dbe 7057 123e
-0.256995 0.0038360818 0.06795562 0.058890708 -0.036808763 -0.04959337 -0.047250167 0.04177611
-0.08200678 -0.21545763 0.03372627 -0.10918507 0.04092211 0.027655974 0.09649075 -0.16879962
-0.04318483 0.19532873 -0.008507769 -0.2156866 -0.12792976 0.15909015 -0.025344864 -0.035148613
-0.11436154 0.063798 0.04440556 -0.039363693 0.004094695 -0.19744049 -0.20658207 0.03573421
-0.14122361 -0.06686311 -0.21568821 -0.009526803 0.03682062 0.022355797 0.00867111 -0.13646683
-0.1383998 0.14291167

u_model.blocks.0.W2.weight f4 [42, 42]
00000000: 97f8 aa3d 63fd db39 22ad de3d 5acc 8c3e
00000010: 5182 2d3e 9957 9f3a e843 2f3e 3a29 41be
00000020: 4cf9 a53d e4f3 843e 40d1 703d b3a5 34bd
00000030: 57d8 b03e 3b27 2c3b 242f 663e 2bc7 9c3d
00000040: 0a23 64bd d739 1b3e c403 a0bc 68b1 543e
00000050: b765 4d3e e5f5 333e 3bd0 043e 91f7 9c3e
00000060: 4eb1 83bc aaa8 babd f9a0 6ebe 70fd 293d
00000070: 9fbe 88be 9892 6e3e 8f85 abbd 6efb 1c3d
00000080: 96bc a9bd 43a4 25be adad 603e 3804 11be
00000090: 7424 cdbd a27e babd 4515 c43d 2375 393d
000000a0: 2900 b3b8 3361 4e3c bb98 13be b155 e8bd
000000b0: df2e e63d 9e87 8a3d a441 943e 6785 403e
000000c0: 1ec3 a9bc c773 1ebe 2eac 463e 7024 62be
000000d0: 9dcf f03d 12e1 e2bd 1031 523e 3b4b 2e3e
000000e0: 57b1 b23b 0069 063d 439b 10bb b05d 363c
000000f0: 13ae 84bd e427 7c3e c18e 283d b814 903e
00000100: 0040 3e3d 7fd8 c23d 60f7 6ebe c5fb ffbd
00000110: 37ec b0bd 28e3 ea3c 0f14 3cbe 07d1 c7be
00000120: 67b9 63bd cdf7 e6bd c630 60be 7956 09bd
00000130: fba9 8abd bb40 5d3d 1170 523d 699c 313e
00000140: db2f 2f3e beb3 3b3e c6ac 903d b90b d83d
00000150: 61e8 1bbe 9e63 17be 234f 383c 596b 4abe
00000160: ca94 f33c c3dd 01bd 46cb fc3d aa7f 75bd
00000170: 9c93 1ebe c685 353d 92c2 9abd 9872 563e
00000180: b674 513e 201e 1fbc 25f5 333e 0598 fdbd
00000190: 7a5c 6d3d 9115 0ebe ade3 f7bd 21c7 e63d
000001a0: 956a a63d 300f 613e 6f84 ef3d ceb3 213e
000001b0: 49ac 7cbe 581e ab3d c8be 23be 2f5c cb3d
000001c0: 95af 47be 7924 75be 216a 3bbd 61c0 ff3d
000001d0: 6a07 9e3d 510f b8bd 5d64 403e 14e8 6ebe
000001e0: 89ca a8bd ac93 4c3e 098e 613e 44aa 103e
000001f0: 87fd b83b 50f5 5f3d dcee 323d 2de2 793d
00000200: 1e33 0fbe d02d 11be 58c0 9fbe ad53 393e
00000210: 1860 e2bd 0446 163e 1f99 67be 82f9 a9bd
00000220: 135c 083c a369 933d f1d1 9ebe 4e82 e9bd
00000230: ce49 143d 71ee 233d 3c17 813d a858 af3d
00000240: 1eaf 8f3e 1296 cebd 3d52 01be 83b4 85be
00000250: 42dd 1c3a 204a 69be c886 543e 66b8 563e
00000260: 3ea3 373e 0bce a0bd a548 3c3e 50b2 5e3b
00000270: 437d bebd 3ab5 3c3d 81fe 5dbd f39a 333e
00000280: 9c3e 72be 7920 0f3e f2be dabd c612 e53d
00000290: 9d58 aabe 61a9 613e 401e 60bd d4e9 67be
000002a0: 24cd 81bd 6800 98be e1fe 46bd e186 7b3e
000002b0: f082 a93d b6d6 683d 78f9 233e eec3 1abd
000002c0: cda8 00bd 5c75 323e cfb6 35bc bbdf 44be
000002d0: ec2a 593d b2c0 803e 292d cc3d 9eeb 903d
000002e0: c41a c2bc 4ce7 9abd fa29 15be 5322 983e
000002f0: 24a5 053d 6bd2 c83d ec34 153d 68bd 3b3e
00000300: 3d3f 38be ea1a 52bd c969 0b3b ac55 803e
00000310: 4229 113d 1fe3 263e 03e4 e5bd e47f 8e3c
00000320: a681 dbbd 0dbf d4bd 5f0e 9b3d 5def 423d
00000330: f036 813e 81c7 6a3c 68d3 703d 1642 b0bc
00000340: 47c9 c33d 21cb 89bd 1695 b0bd ff12 55bc
00000350: a7df 963e 6ec1 10bc e3e1 593d deb0 d3bd
00000360: cf69 823e 1188 5bbe 2dac a9bd 8c9d e03d
00000370: e4f6 71be 1732 1e3e 927f 903d 9385 273e
00000380: e1fc 053d b7fd 50be 170f 213d 3c95 3bbe
00000390: a42b fdbd 430c 6b3d b888 753e c597 453f
000003a0: 1e1c 823e 29cf 2f3d 8a44 99bd 799b 663d
000003b0: 0b3d d53d 940c eebc 6524 adbe edbd b2be
000003c0: 99b7 a4bd 2418 233e 19f6 0e3e 4dd2 29be
000003d0: 0ad4 a63d 7e69 fcbd 6758 75bd aca9 8f3e
000003e0: 19da 513e 903e b2bc fabf 603e 7984 cb3d
000003f0: 667a 1a3b 9d65 3abe a390 c53c 7d4e 563e
0.08348196 0.00041959723 0.10872866 0.27499658 0.16944243 0.0012156843 0.17115748 -0.18863383
0.0810419 0.25967324 0.058793306 -0.044103336 0.34540054 0.00262685 0.2247892 0.07655176
-0.05569748 0.15158783 -0.019533046 0.207708 0.20058332 0.1757427 0.12970059 0.30657628
-0.016075756 -0.09114201 -0.23303594 0.041501462 -0.26707932 0.23298109 -0.08375084 0.03832572
-0.08287923 -0.16175942 0.21941252 -0.14161766 -0.100167185 -0.091061845 0.09574369 0.045277726
-8.535415e-05 0.012596416 -0.14413731 -0.11344469 0.11239409 0.06764148 0.2895633 0.18800889
-0.020722922 -0.15473853 0.19401619 -0.22084212 0.11758349 -0.11078085 0.20526528 0.17020886
0.0054532695 0.03281498 -0.00220652 0.011130735 -0.064785145 0.24624592 0.041151766 0.28140807
0.046447754 0.095139496 -0.23336554 -0.12499193 -0.086388044 0.02867277 -0.18367027 -0.39026663
-0.055596735 -0.11277733 -0.21893606 -0.033529732 -0.067707025 0.05401681 0.051376406 0.17344822
0.17108099 0.18330285 0.07064204 0.10549111 -0.15225364 -0.14784095 0.011249336 -0.19767512
0.029734034 -0.03170563 0.12343459 -0.059936203 -0.15485996 0.04431703 -0.075566426 0.20942152
0.20454678 -0.009711772 0.17573984 -0.12382511 0.05794952 -0.13875414 -0.121039726 0.112684496
0.08125798 0.2197845 0.116951816 0.15791246 -0.24675097 0.08355397 -0.15990746 0.09929692
-0.19500573 -0.23939694 -0.04575551 0.12487865 0.07716258 -0.089872964 0.18788286 -0.23330718
-0.082417555 0.19978207 0.22026838 0.14127451 0.005645457 0.054677308 0.043684825 0.061006714
-0.13984343 -0.14177632 -0.31201434 0.18098326 -0.11053485 0.14675146 -0.22617005 -0.08299543
0.008322733 0.07197883 -0.31019548 -0.11401807 0.036203198 0.040022317 0.0630326 0.08561832
0.2806329 -0.100872174 -0.12629028 -0.26114282 0.0005983898 -0.22782183 0.2075454 0.2096878
0.17933366 -0.078517996 0.18387087 0.0033980794 -0.093012355 0.04607127 -0.054197792 0.17539577
-0.23656696 0.13977231 -0.10680951 0.111852214 -0.33270732 0.22037269 -0.05471635 -0.22647792
-0.063379556 -0.2968781 -0.048582915 0.24563171 0.082769275 0.05684539 0.16013134 -0.03778451
-0.03141098 0.17427582 -0.011090948 -0.19225971 0.05301945 0.25147015 0.09969551 0.070761904
-0.023694403 -0.07563648 -0.14566794 0.29713687 0.032628193 0.09805759 0.036427423 0.18333972
-0.17992873 -0.0512952 0.002127277 0.25065362 0.035439737 0.16297577 -0.112251304 0.017394967
-0.10718088 -0.103880025 0.075711004 0.047591556 0.25237226 0.014329792 0.058795363 -0.021515887
0.09559875 -0.06728197 -0.08622186 -0.013005017 0.29467508 -0.00883518 0.053193938 -0.10336469
0.2547135 -0.21438624 -0.08284793 0.1096755 -0.23629338 0.15448795 0.07055582 0.16359548
0.032711867 -0.20409285 0.03932103 -0.18318647 -0.123618394 0.05738474 0.23977935 0.77184707
0.25412077 0.042922173 -0.07483776 0.056300614 0.10412034 -0.029058732 -0.3381683 -0.34910527
-0.08042831 0.15927178 0.13961066 -0.1658413 0.08145912 -0.123248085 -0.05989876 0.28059137
0.20493354 -0.021758348 0.21948233 0.099373765 0.002357149 -0.18202825 0.02411682 0.20928378

u_model.blocks.0.W2.bias f4 [42]
00000000: e206 093d dd54 e3bd 6702 d63d de79 5fbd
00000010: 09ed 3abc 6a98 c53d ac84 8a3d 4918 d9bd
00000020: b874 053e 90ab 47bc 5231 913d dc04 c4bd
00000030: f496 d8bd a995 08be 5bff fdbd f7f2 ccbd
00000040: 1f67 1a3e 9996 573d 1c64 b53d 62ee d33d
00000050: 62a7 8f3c d567 b0bd c5b4 b03d 29ff c63b
00000060: dc36 e6bd 8b7f 35bd 2842 ef3a 50db f8bd
00000070: bacf 193e 862c 6bbc e560 d43d ecae e8bd
00000080: 66e7 fd3d f3af cc3c 7ef5 5cbe 5d4e 1abe
00000090: adf4 89bd c480 003e 6acf 293e 7d0e c83c
000000a0: a568 983d 3d42 a2bd
0.03345383 -0.11100171 0.10449677 -0.05455958 -0.011409053 0.09648211 0.067635864 -0.10600335
0.13032806 -0.0121869 0.07089485 -0.09571239 -0.10575667 -0.13338341 -0.12402221 -0.10007279
0.150784 0.052633855 0.08856985 0.10348202 0.017535869 -0.086135544 0.08628229 0.006072898
-0.11240932 -0.044311088 0.0018253969 -0.121512055 0.15020648 -0.014353877 0.10370044 -0.11361489
0.123976514 0.024986243 -0.21578023 -0.15068956 -0.06736121 0.1254912 0.16583028 0.024420971
0.07441834 -0.0792279

u_model.blocks.0.W3.weight f4 [42, 42]
00000000: a4cc f6bc 9262 313d d91c b8bd f7cc c13d
00000010: 50d5 33be 070d ca3d d027 8f3b 711e 513e
00000020: 6e26 68be db88 e9bd 3b1c d1bd 6507 0e3e
00000030: 6ccf 31be dc6e 01be c767 073e 9300 303d
00000040: 6afd 3c3e 820a 363e d6ce 523d 23ea e5bd
00000050: a734 fc3d 1070 7bbd d249 153e 162e 24bd
00000060: 497e 03be c52f ae3d 3b69 92bc e4ac 7ebc
00000070: fa28 80bd 72ff a1bd 66a7 743e ef15 4cbb
00000080: 8b2a 933c 9a23 343e 60f2 04be 9d72 573e
00000090: 9516 e5bd 97c4 08be ef8e 2bbc 9ac5 773e
000000a0: fd20 5dbe 510e 103e 8804 6dbe 0669 e8bd
000000b0: 53cb 913e 953d 9a3e ad32 61bc e69e 77be
000000c0: 53a8 103e 9b74 8d3e e51f 82be 21b8 603d
000000d0: a887 71bd 0a62 193e cd8a f83c 6f6e 7dbd
000000e0: b2c9 40bc a6d4 73be bf28 0e3e 32d6 403c
000000f0: c564 4f3d 952c 4e3e 3e35 77bc c945 02bd
00000100: 65d3 c73c d1cc 9cbd df29 5f3e 1f4c ca3d
00000110: fac9 173e fb2c 2d3d 48fe 10be d89b 7ebe
00000120: 7d30 23be 1152 0a3d 2bb2 8dbd 5d8e 08be
00000130: 36a5 2ebe 55fe 1e3e b2bd 1f3d 58ec c3bd
00000140: 3dd1 973e 0a6e 313e 265c 08bd 8b13 463e
00000150: 96a6 03be 56ad b83d 9ad9 7cbe 4b9b 733e
00000160: 3813 f8bd db23 1c3e efe6 833d 8845 cdbd
00000170: ca1d 85be 57d2 ae3d 742e e3bd b292 1f3e
00000180: eb4f 88bd e76a 0dbd 65ac 363e 6bc6 c03b
00000190: 2ef7 de3d 9555 e93d 5212 4a3e 2989 6dbe
000001a0: 0ebd 14be ce1d 18be 010c be3d 6230 83be
000001b0: a408 5e3d db99 103e d554 76bd 4041 3cbe
000001c0: e664 03bd 0292 3bbe dd1f eebb 8904 4f3d
000001d0: d6b8 bd3d 7a4d f6bd 8b0c 70be ade6 d0bd
000001e0: d446 243b 4009 dabd bb36 ed3d 889e a8bb
000001f0: b688 07be 3fcf d5bd f38b 55bc 45ad 333d
00000200: cf1d ab3d cef7 66be 67ed 2d3e acdd c13d
00000210: 08cb 31be cde0 33be 4b0f c13d 6bdb 82bd
00000220: c7a0 81bd d72e 81bd 9b94 623e e252 193e
00000230: 0248 87be 5090 2f3e d1e5 33be 3939 553d
00000240: f1dc d23d 8f7d e83d e979 5dbd 8f6b 34bd
00000250: 4b03 5bbd 9cec edbc e51c 58bd 1981 40be
00000260: ad0e 40be 5059 9dbd 8e9b a1ba e437 a53c
00000270: ff2a ddbd deb2 1abe 3ef6 a0bd e9ea 88bd
00000280: 0d1c 083e 5405 b33d 80d5 a3bd 2fd8 9dbd
00000290: bc1e 0b3e 06c7 abbd 880b b23d 138d 133e
000002a0: 6d96 903d 19b0 ac3d c7a5 85be f8cb 183d
000002b0: 4393 a13d c1ad f23e 924f ecbd 6f2c 16be
000002c0: 961a eabc e6f4 6bbd 5b3c 343e 552f 45bd
000002d0: d4b7 993b d6f4 ea3e 96a9 d7bd baec 84bc
000002e0: 095d b6bb 463b 61be 7e1f 963d da81 19bd
000002f0: 4256 e7bd 39ed 18bd 952f f83d 1a9c b6bd
00000300: 4b9a 2dbe 6ac7 69bb a069 7bbe b054 193d
00000310: 99f4 bf3e bc6c b43e 5d26 a33e 855f 3f3d
00000320: da43 8ebe ef96 843e fcf9 0b3e cacb 913d
00000330: 84b1 373d 7d24 f03b 2906 93be 4e9a 3bbd
00000340: 921a c03d 8e42 9ebc 8cb8 713e e989 cabd
00000350: 81d1 4abe 4c5d 23be 9397 103d 9764 a23e
00000360: 04b7 a5bd bf54 2cbe 8bb0 95bd 0f08 51be
00000370: 615d 7c3e cc0b 003c 391b 34bc 2800 a03d
00000380: 8f48 b23d 420c f639 ac83 d23c 7963 e8bd
00000390: ad16 1a3d bfbf 2bbc 7794 64be 6b56 b0bd
000003a0: ea1e e7bd f414 363e 66af bfbd 85bc f7bc
000003b0: 1296 22bd a489 533e 3b21 cc3d 32bb 62bc
000003c0: f58c 143d 8c07 12bd acd8 31be aa71 3cbd
000003d0: a2b4 d63d e636 0a3e 1a66 0d3d 010e da3d
000003e0: b3ec 40be 7d8b 563e 8bbb 9abd 4014 063e
000003f0: ade2 d23d d0fc 2b3e 8004 8c3c 8664 b5bd
-0.030126877 0.043306895 -0.08989877 0.09462922 -0.17561841 0.09865766 0.0043687597 0.20421769
-0.2267091 -0.11403056 -0.10210463 0.13870008 -0.17364281 -0.12639946 0.13223182 0.042969298
0.18456045 0.17777446 0.051466785 -0.11226299 0.1231473 -0.061386168 0.14578941 -0.040083013
-0.12841143 0.08505205 -0.017872443 -0.01554415 -0.06257816 -0.079100505 0.23891982 -0.0031141003
0.017964622 0.17591706 -0.12983084 0.21039815 -0.11185948 -0.13356243 -0.01047109 0.24196473
-0.21594615 0.14067961 -0.2314626 -0.11348157 0.28475437 0.30125108 -0.013744992 -0.24181709
0.1412671 0.27628025 -0.2541496 0.0548631 -0.058967263 0.14978805 0.030339623 -0.061872896
-0.011766838 -0.23811588 0.13882731 0.011769818 0.05063321 0.20134194 -0.0150883775 -0.031804834
0.024392793 -0.07656253 0.21793316 0.098778 0.14823142 0.042279225 -0.141595 -0.24864137
-0.15936466 0.03376967 -0.069187485 -0.13335557 -0.1705521 0.15526707 0.038999267 -0.09566563
0.29651824 0.17327133 -0.033291005 0.19343393 -0.12856516 0.09017436 -0.24692383 0.23789708
-0.12113041 0.15248053 0.064405315 -0.10023028 -0.2599929 0.08536213 -0.110928446 0.15583304
-0.06655868 -0.03452578 0.17839201 0.0058830283 0.108869895 0.113932766 0.19733551 -0.23196854
-0.14525244 -0.1485512 0.09279633 -0.2562285 0.05420746 0.14121191 -0.060139496 -0.18384266
-0.032078646 -0.18317416 -0.007266982 0.050541434 0.0926377 -0.12026496 -0.23442285 -0.10200248
0.002506663 -0.106462955 0.11582705 -0.0051458515 -0.13235745 -0.1043992 -0.013033855 0.043866415
0.08355295 -0.22555467 0.16985093 0.09466109 -0.17362607 -0.17566223 0.09426745 -0.06389507
-0.06329494 -0.06307762 0.22127001 0.14973024 -0.26422125 0.17144895 -0.17568137 0.052056525
0.102960475 0.113520734 -0.05407134 -0.04404789 -0.053469937 -0.029043488 -0.05276193 -0.18799247
-0.18755598 -0.07683051 -0.0012329684 0.020168252 -0.107992165 -0.15107295 -0.07859467 -0.066854306
0.1329195 0.08741251 -0.07999706 -0.077072494 0.13585943 -0.0838757 0.08693606 0.14409284
0.070599414 0.084320255 -0.2610304 0.037303895 0.07889416 0.4739819 -0.11538614 -0.14665388
-0.02857713 -0.0576066 0.17601149 -0.048140842 0.0046911035 0.4588992 -0.10530393 -0.016226161
-0.00556529 -0.21995267 0.073302254 -0.03747735 -0.11295749 -0.03733561 0.121184506 -0.08916493
-0.1695339 -0.0035671839 -0.24552011 0.03743428 0.374913 0.35239208 0.31865206 0.046721954
-0.27786142 0.25896403 0.1366958 0.07118948 0.044847026 0.0073285685 -0.28715637 -0.045801453
0.09380068 -0.019318845 0.23605555 -0.098895855 -0.19806482 -0.15953559 0.035300802 0.3171737
-0.08091548 -0.16829203 -0.073090635 -0.2041323 0.24644996 0.007815313 -0.0109928185 0.0781253
0.08705246 0.0004692991 0.025697552 -0.11347098 0.03761928 -0.010482728 -0.2232226 -0.08610233
-0.11285193 0.1778143 -0.093596265 -0.03024126 -0.0396939 0.20657974 0.09967276 -0.013838576
0.03626724 -0.03565173 -0.1736781 -0.046006836 0.10483672 0.13497505 0.0345212 0.10647202
-0.18840294 0.20951648 -0.07555302 0.13093662 0.10297141 0.16795659 0.01709199 -0.08857064

u_model.blocks.0.W3.bias f4 [42]
00000000: a503 99bd c236 20be 0ef9 fabd 0cf8 ee3d
00000010: 4c73 3cbe 4bec 63bd 2948 18bc 4904 03be
00000020: 4f3e a5bd b727 b9bc 408d afbc 2118 f33d
00000030: 3702 733d 93f1 5d3c c48f 0cbd 7363 24be
00000040: e48c a1bc e548 5bbd e6e2 25be 426c 19bd
00000050: 1bb3 fabc a459 fa3d 6a81 abbc 564e a73d
00000060: 7965 db3d 8098 873d 0558 bdbc 3d37 d93d
00000070: db45 91bd cac8 2b3c 1d19 dd3c 317e 0dbe
00000080: 17ab 433d cb6f 4b3d db43 23bd 4570 c0bd
00000090: 7434 ddbc 2293 723e 0a5a a1bd fbcf b4bc
000000a0: fd27 f03d 4b4a bf3d
-0.07471398 -0.15645888 -0.12254535 0.11668405 -0.18403357 -0.05564527 -0.009294548 -0.12794603
-0.08068525 -0.022601945 -0.021429658 0.118698366 0.059328284 0.013546365 -0.034316793 -0.16053562
-0.019720502 -0.053536315 -0.16199836 -0.03745676 -0.030602982 0.12224129 -0.020935733 0.08169238
0.10712714 0.06620884 -0.02311326 0.10606239 -0.07093402 0.010484884 0.026989514 -0.1381767
0.047770586 0.04966716 -0.039859634 -0.09396414 -0.02700255 0.23688939 -0.07878502 -0.022071829
0.11726377 0.09340342

u_model.blocks.1.W1.weight f4 [42, 42]
00000000: d9cc 5fbd 505f dc3d 94dd 093d daf1 7cbc
00000010: 3f07 833c f440 76bd 62ff fcbd b940 10be
00000020: f668 87be 808e a3bc b68e 3a3d d18e 5ebc
00000030: 276d 82bd b360 3d3c 925c f4bd 18f6 16be
00000040: b13c a6bd 1ef4 bebc 04e7 233e 222f 503d
00000050: 4f6a 343d f3d7 0e3d 7720 3b3e 7a9d c1bd
00000060: 0c12 5a3e 80ba f9ba 0a4e 1bbd 5675 ed3b
00000070: 1c47 093e 2011 e1bd e3a7 92bd 8426 b2bd
00000080: 56eb 84bd ce45 a2bd f14f 1dbc 3631 173e
00000090: e575 823d dd36 24bd 664b 9cbd f34c 45bd
000000a0: e3e6 92be ff91 a3bd feb5 b0bd f97a 413d
000000b0: 6654 58be 1326 e23c 0e6f 403d f6c0 0fbe
000000c0: 2cb8 46be f9ea fc3d d4dc 2d3c 6dbd e0bd
000000d0: 9729 613e 9526 d1bd f810 12be 8c36 9dbe
000000e0: 0df3 aebe fbc2 d83d b562 a3be 59b7 78be
000000f0: 7e22 ff3d cfa9 373d 4741 013d 9152 bfbd
00000100: 62d1 253e d513 b2be fd11 a73d 319a 23be
00000110: 0f66 6abc 4e62 0bbe 0fe4 cabd f76d 40be
00000120: 8561 2cbd a70c 8fbd b490 393c d731 5e3d
00000130: fbe5 833e e4cc f43d 792c 183d 00e1 4fbe
00000140: 72dd adbe b5cb 66be 8101 92bd c06f 333e
00000150: 5a9d 893e d708 27be 11bf f2bb a21b 13bd
00000160: 389a 4d3d d7be bd3d 4324 67bd a852 30be
00000170: a3f9 8a3e 821e 32be 517f d53d 62e2 04bd
00000180: 0487 a2bd 81b5 b63d 2316 cabb 0197 c23e
00000190: 3e04 b8bd 49a4 273d 87eb b8bc 3fba 03be
000001a0: d415 babd ea2b 4dbe 8b96 2fbe d092 dd3d
000001b0: 2f65 02be 6248 eebd cbee c038 5c97 583d
000001c0: d45d 3ebd f80c 53bc c07d 143e 4b5c b53e
000001d0: b2e9 8b3d 4e72 863e dfde 613d 70bc 87bd
000001e0: 173c fe3d 6716 23be a6fa 273d 9489 9fbb
000001f0: f127 2b3d a22a 23bc a35b 78bd 548e b1be
00000200: 5e19 803e 7989 72be 3c4e d0bd d63e 83be
00000210: d485 3b3e 966f 893d a5da 01be 998a 4bbe
00000220: d058 34bc 614d 633d 2d21 6bbd 9fda d6bd
00000230: 8883 623d 9a7f be3d 2eec 2a3d b2db c2bd
00000240: 81df 303e 4b99 2e3e 38db 25be ea5e 043e
00000250: 660f 0c3c 137b d2bd d54f 313e adbf 043e
00000260: 43b1 56be 2f57 ef3c c85c f93c 9d0a 4ebe
00000270: 7d12 d6be 6e70 a1bc 9313 6a3e ab93 08be
00000280: 1c9e 8d3e cf79 a9bd 97ad eb3d 091f 5c3e
00000290: c700 3f3e 49e9 94bd 0d9c 21bd 7f3d b83e
000002a0: 72ae bc3e 0873 c1be ee6e 13bc f6d8 d0be
000002b0: 6b76 2a3e cccd a13e 24df a73e 1651 03bc
000002c0: d0ad d63e 545f 603d a486 27bd 0d42 2dbd
000002d0: e6ff 573d 6d25 b73d 43d7 183e 4aa3 253f
000002e0: 96b0 a0bc 1bef ca3d 8252 2cbe 60a3 81be
000002f0: 15d9 c0bd be81 993d 0fee 0ebe f663 01bd
00000300: 1871 28be 7e99 ae3b 58fd 003e 971d 803e
00000310: 9e2b 17be 36c2 973d c583 213e 4ab7 a43e
00000320: e446 213e c57a 8e3d 81f7 083e 5310 76be
00000330: 9c49 8d3d c062 63be 4878 80bd 6830 963c
00000340: a029 153f d64b 323e 662c b8bd f866 953e
00000350: be6f 91bd 67d1 263e 5d30 b7bd 135f 7f3e
00000360: 3275 72be 4093 dc3d acc4 193e f4a8 88bd
00000370: 9e94 903d a7ec 41bc 9d5c 8cbd 9120 86bc
00000380: 4687 12bd ec9d b4bd 5547 e23d 30f5 d8bd
00000390: 0056 81be ebc4 0fbe b56d dfbd dcfd 0ebe
000003a0: 0c2d 41be 949e ecbc 5f25 0b3e 0e43 8dbe
000003b0: 1f4e 1a3e fe1d 813c 0e25 fd3d 1ca6 b3bd
000003c0: cf08 593e 8cd4 973d 754c e2bd 51d8 b23d
000003d0: df29 b2bd 0055 3fbd 57d0 d4bd 0620 ed3c
000003e0: abcd 91bd 64e0 8e3d c208 d23b 41ef 92be
000003f0: 9822 a23d 9ed1 d6bd 18e0 a23e 7778 013d
-0.054638717 0.10760367 0.03365858 -0.015438521 0.015994666 -0.060120538 -0.12353398 -0.1408719
-0.26447266 -0.01996541 0.045546256 -0.013583855 -0.063684754 0.011558699 -0.11931719 -0.14742315
-0.08117045 -0.023309764 0.16006094 0.0508262 0.044046696 0.034873914 0.18274103 -0.094538644
0.21295947 -0.0019052774 -0.03791622 0.0072466535 0.13406032 -0.109895945 -0.07160928 -0.086987525
-0.06490199 -0.079234704 -0.009601579 0.14764866 0.06370143 -0.040091384 -0.076315686 -0.048169088
-0.28691778 -0.07986831 -0.08628462 0.047236416 -0.21125945 0.027606046 0.04698091 -0.14038453
-0.19406193 0.12349505 0.010611732 -0.1097363 0.21988522 -0.10212437 -0.14264286 -0.30705678
-0.34169808 0.105840646 -0.31911245 -0.24288692 0.12457751 0.044839676 0.031556394 -0.0934192
0.16193154 -0.34780756 0.08157728 -0.15976788 -0.014306559 -0.13611719 -0.0990678 -0.18791948
-0.04208519 -0.06984835 0.011326004 0.05424675 0.257614 0.11953142 0.037151787 -0.20300674
-0.33958012 -0.22538646 -0.07129193 0.17523098 0.26877862 -0.16311966 -0.007408031 -0.035915025
0.050195903 0.092649154 -0.056431066 -0.17219031 0.27143583 -0.1739445 0.10424674 -0.032442458
-0.079359084 0.08921338 -0.0061671897 0.38005832 -0.08985184 0.04092816 -0.022573246 -0.12864016
-0.09086195 -0.20036283 -0.17147271 0.10819018 -0.12733911 -0.116349 9.199752e-05 0.052878723
-0.0464762 -0.01288151 0.14501095 0.35421976 0.06831683 0.26259083 0.055144187 -0.066277385
0.12413805 -0.15926515 0.04101052 -0.0048686955 0.041786138 -0.009958895 -0.060634267 -0.346789
0.25019354 -0.23685254 -0.10171172 -0.25633878 0.1831277 0.067107365 -0.12681063 -0.1987709
-0.011007503 0.055493716 -0.057404686 -0.104909174 0.05530122 0.09301682 0.041729145 -0.0951456
0.1727276 0.17050664 -0.16196907 0.12926832 0.008548593 -0.10277381 0.1731561 0.12963744
-0.20966057 0.029216377 0.03043975 -0.20121236 -0.4181098 -0.019706931 0.2285903 -0.13337581
0.2765969 -0.08275186 0.11507719 0.21496214 0.1865264 -0.07271058 -0.039455462 0.35984418
0.3685184 -0.37783074 -0.008998616 -0.40790528 0.16646735 0.31602323 0.3278743 -0.008014938
0.41929483 0.054778412 -0.040899888 -0.04229932 0.05273428 0.08942685 0.14925866 0.64702284
-0.019615453 0.09908887 -0.16828349 -0.25319958 -0.09416405 0.074954495 -0.13958 -0.03158947
-0.16449392 0.0053283563 0.12596643 0.25022575 -0.14762732 0.0741009 0.15772922 0.32171088
0.15749699 0.0695701 0.13375665 -0.24029665 0.068988055 -0.22205639 -0.06272942 0.018333629
0.5826664 0.17411742 -0.08992843 0.2918012 -0.07101391 0.16290818 -0.089447714 0.24938612
-0.23677519 0.10770273 0.1501643 -0.0667285 0.070595965 -0.0118362075 -0.06853602 -0.01637295
-0.035773538 -0.08819184 0.11048762 -0.10593641 -0.25260925 -0.14039962 -0.10909597 -0.13964027
-0.1886484 -0.02888421 0.13588475 -0.2759022 0.15068863 0.015761372 0.12360583 -0.08771917
0.21194766 0.07413587 -0.11049739 0.08732665 -0.086993925 -0.04671192 -0.103913 0.028945934
-0.07119306 0.06976393 0.0064097354 -0.2869816 0.079167545 -0.104892 0.31811595 0.031609025

u_model.blocks.1.W1.bias f4 [42]
00000000: bb51 72be 73af 64be 9ec7 f83d e85c 4e3a
00000010: 0d7d 58bd 646e 1bbe 4387 22be 88a9 933d
00000020: 29d9 05be 4171 c4b8 f0bf 8b3d cd9c 25be
00000030: 5a32 5bbe 0c54 3bbe 3a18 ba3d cd40 0abe
00000040: 1d7e 04be 145e 8c3d 828b 2fbe 163b 06be
00000050: 26f3 56be 956f 19be 85c1 143e b6f4 0f3e
00000060: ff2a 403d a3aa 273d 72c1 293d 91ba 15be
00000070: 6239 5ebd 49f6 fdbc 31a7 383d 7d9e e0bc
00000080: 27a7 573d 47fd 88bd 0413 d03c fe72 43be
00000090: 0c4b df3c ce93 103d 12cf cabc 414a 863c
000000a0: 2710 33be 1f20 7fbb
-0.2366399 -0.22332554 0.12147449 0.00078721205 -0.052853633 -0.1517883 -0.15871911 0.0721007
-0.13071121 -9.3671035e-05 0.068237185 -0.16173096 -0.21405926 -0.1829378 0.09086652 -0.13501282
-0.12938733 0.068538815 -0.17143062 -0.13108477 -0.20991191 -0.14983971 0.14526947 0.14058194
0.046916004 0.040934216 0.04144425 -0.1462195 -0.054253943 -0.031001227 0.04508132 -0.027419323
0.052649643 -0.06688934 0.025399692 -0.19086835 0.027257465 0.035297208 -0.024756942 0.016392829
-0.1748663 -0.0038929058
