saved_models/1d_burgers/piratenet_pinn.pt (torch, 93569 bytes, 50 tensors)

u_model.W f4 [20, 2]
00000000: 0ddf 31be db46 e9bf 737a 473f b9c7 81bf
00000010: f92e 623f 36ee 203f deb3 81be 5efc 29c0
00000020: 1ef2 44bf 23bb 643f 556c ea3e 38da 793d
00000030: faaf c23f 58fe 683f 8164 953e 2239 78be
00000040: 28cd 623d 3bbd fcbf 7f95 c43f 80d5 003f
00000050: 8843 9e3f ebf3 36bf 3301 853b 232a 013f
00000060: fff7 423f 5011 dbbf aa9a a43f 5249 9bbf
00000070: 53a6 a43e 181b 3dbf 5cfc 71bd c49f 18bf
00000080: f084 b53c 9fad 7a3f 1c9c b73e db97 ec3e
00000090: 2374 a03f 31a5 3b3f 396a f83e 7bee ccbf
-0.17370243 -1.8224748 0.7792122 -1.0139076 0.88352925 0.6286348 -0.2533254 -2.6560283
-0.7693194 0.8934805 0.45785776 0.060999125 1.5209954 0.910131 0.2917824 -0.24240544
0.055371433 -1.9745249 1.5358123 0.50325775 1.2364359 -0.7146594 0.004058981 0.5045492
0.7615966 -1.7114658 1.28597 -1.213175 0.32158145 -0.73869467 -0.05907856 -0.59618783
0.022158116 0.97921175 0.3586129 0.46209607 1.2535442 0.7329894 0.4851854 -1.6010278

u_model.b f4 [20]
00000000: 2f13 b440 9036 ad3f 788d 6740 83ba ca3f
00000010: 8d73 bc3f 3efb 5d3f 22c7 7e40 6bf6 173f
00000020: f374 3e40 07c8 c740 679a bb40 6667 923d
00000030: d27f ab40 4853 7540 e0a5 b840 8518 c13e
00000040: edaf 1140 ceb2 fb3f 54fd bd40 f5b9 b040
5.6273417 1.3532276 3.6180096 1.5838169 1.4722763 0.8671149 3.980904 0.5936038
2.975888 6.2431674 5.862598 0.07148628 5.359353 3.833208 5.7702484 0.3771402
2.2763627 1.9663942 5.937174 5.5227

u_model.gate_U.weight f4 [42, 42]
00000000: 29f8 95bd cc9c f6bd b7a2 47be a32b 303e
00000010: de49 3cbd acfe bbbe aa77 d5bc c3cb 97bd
00000020: 5c0f 073e c8bb 2bbe 99a2 aa3c 45d2 26be
00000030: aef1 86be 577c 8fbe c16f 553a 71bf 3e3e
00000040: d4fa 55be 3f97 9abd 2142 4e3e a9ff 113e
00000050: 53c1 c5bd efcd 2ebe 9092 0f3e cd7a 69be
00000060: 405c 743e 8ff2 16be 24a0 2ebe 8f15 26be
00000070: 9738 fa3d b943 84be c3ba 6ebe f226 a83d
00000080: 0dd1 413d 3ab8 62bc 0561 a03e 8882 553e
00000090: 0813 253e ceef 42be 23b9 34be e88e 83be
000000a0: ce52 8a3d 3bd0 773d 9aa0 2dbe 90c2 83bd
000000b0: acdf 8e3d 8b9a 0d3d cd87 0abe 7b57 d23d
000000c0: a413 71be 1c7a 453e eac2 49be d613 2fbd
000000d0: 87c1 29bd 901c df3d 6da0 81be ddc3 06be
000000e0: 4a82 b13d 9a25 88be 41d5 02be 4bd1 00be
000000f0: 18da 90bd 3479 953e 0b16 8c3d 574d b43d
00000100: a17b ff3c e228 843c 9830 ac3e 4893 463e
00000110: 3dfa 68bd 5a54 00be 4085 963e 7f7e a4be
00000120: a051 5fbc f79b 3dbe 2477 90be 8aab c1bc
00000130: 9315 0fbe 8cb1 c1bb 3e9c b1bd e288 253d
00000140: 13ab b53d 98ec 8abc 3531 3bbe 98f5 e6bd
00000150: b2a0 7ebd b232 083e af2c 6dba ff73 063e
00000160: d5d2 80be 5ff7 973e e2f8 dcbd b072 d53d
00000170: 52b8 09be 405c 493e 3e2f 5fbe 444b 733e
00000180: 7ad7 513e 402e 6e3e 2591 493e 1bcb a9be
00000190: daed e2bc 37fc d63d 63ed 7cbe d315 26bd
000001a0: 1bef 3c3e e812 a13d 8869 7abe a46b 6f3e
000001b0: c723 58bc e917 8a3d a531 5e3d 4c00 773e
000001c0: a3ff d03c 8237 4e3e 76c5 083e c364 9c3d
000001d0: 0e6a 97bd aac0 e53d fa11 adbe 46da 9fbd
000001e0: 7404 5dbe 1c6d b03d 7772 83bc da5a 073e
000001f0: 62b5 bcbd ff57 95be 1b06 73be 34ed 17bc
00000200: b04a 883c 8e05 323e a730 d8bd 7624 553e
00000210: b38a 4ebe 9486 21be 4c61 6cbd cf34 3bbe
00000220: be39 40be 807f 3abe fbba bbbd 3a50 623d
00000230: ad0a afbd 364d 03be 17cd 7dbe 95a8 0fbd
00000240: 28a0 40be 3020 97bd e1b3 853d 1405 79be
00000250: 6e80 29be 07be 9f3c 9266 523e fd5a 703d
00000260: e4fa 17be 32c4 10be c259 803d c27a 09be
00000270: 6d7b 42bd dfdd 81be ecfd afbe 8579 d83d
00000280: 99ba 45be d249 163d 59b1 5bbe 0cf9 4ebe
00000290: a630 75be 696a b2bd 6bfe a8bd 420d 5fbe
000002a0: 3228 32bc ac34 d1be d90e 44be 8e16 10be
000002b0: 7a3a 03ba 8cd3 b6bd e4bf 7ebd b909 e4bd
000002c0: 9cb4 343c 2864 63be 69f9 e03d 9f52 73bc
000002d0: 467b 73bc 2bf4 43be e868 9abd 1951 823d
000002e0: ac02 afbd f116 57be 1eb0 163e fcd6 f83c
000002f0: 83cb 10bd a471 78bd 5ff7 9cbd aae0 1fbe
00000300: d765 883d cf28 36be df38 c5bd 3862 54bc
00000310: 3a78 423d 82dd 75be b2fc cebd 0174 55be
00000320: 824d e03c 21f8 c0bd e408 1f3e 8357 b73c
00000330: ab21 963e 4a61 f23d 44d1 86be 392a 47be
00000340: 4d90 77bc d218 583e 1c59 1fbd 88b1 7ebe
00000350: 4ba9 fcba b461 5ebe e959 3e3d 84a0 c5bd
00000360: a1c8 343e 9625 c83d 6a21 043e 03af af3d
00000370: e7d8 ddbd 3136 60bd ad62 07bc 96a5 2abd
00000380: 1900 e63d 78fa 4e3e 6686 133e 7ca5 483c
00000390: 3e20 773d 7365 96bd ccb8 413e 5e23 2a3e
000003a0: 55de c13d 33a0 16bd c9b3 30be c88e 193e
000003b0: 2294 803d 01b4 533e 4730 ab3d ab95 733e
000003c0: de67 6ebe 658f 0d3e 475c 063d d0a7 4fbd
000003d0: f6a7 be3d 82e1 aebc e38d 1bbd d679 893e
000003e0: f90c 833c c98b 1a3e 104d 95bd f504 353d
000003f0: 25c7 ccbd b395 213d 9bc9 5e3e ef26 763e
-0.073227234 -0.120416254 -0.19495665 0.17204146 -0.045968883 -0.36717737 -0.026058037 -0.07411911
0.13189453 -0.16770852 0.020829486 -0.16291149 -0.26356262 -0.2802455 0.0008141958 0.18627717
-0.20896465 -0.07548379 0.20142414 0.14257683 -0.09656014 -0.17070745 0.14020753 -0.22800751
0.23863316 -0.14740966 -0.17053276 -0.16219161 0.12217825 -0.25832918 -0.23313431 0.08210553
0.047318507 -0.013837868 0.3132402 0.20850575 0.16120541 -0.1903679 -0.17648749 -0.25694966
0.06754075 0.06050132 -0.16955796 -0.06433594 0.06976256 0.03457121 -0.13528366 0.10270592
-0.23542649 0.19284862 -0.1970326 -0.042743526 -0.041444328 0.1089412 -0.25317708 -0.13160653
0.08667429 -0.26591188 -0.12776662 -0.12579839 -0.07072848 0.29194033 0.06840142 0.08803814
0.03118688 0.016132776 0.33630824 0.19392121 -0.05687927 -0.12532178 0.29398537 -0.3212776
-0.013630301 -0.18516527 -0.28215897 -0.023641367 -0.13973074 -0.005911058 -0.08672379 0.040413745
0.088705204 -0.01695852 -0.1828049 -0.11277312 -0.06216497 0.13300589 -0.0009047491 0.13130186
-0.25160852 0.29680917 -0.10789658 0.104222655 -0.13449219 0.19664097 -0.21795365 0.2375918
0.20492354 0.2325983 0.19684274 -0.3316277 -0.027701307 0.10497325 -0.24699931 -0.040548157
0.18450586 0.07864934 -0.2445432 0.23380905 -0.013192124 0.06742842 0.054246563 0.24121207
0.025512522 0.20138362 0.13356575 0.07636406 -0.07393275 0.112183884 -0.33802778 -0.07805304
-0.2158373 0.08614561 -0.016045792 0.13218251 -0.092142835 -0.29168698 -0.23732798 -0.009272862
0.016637176 0.17384931 -0.10556155 0.2081469 -0.20170097 -0.15773994 -0.057709977 -0.18281864
-0.18772027 -0.182127 -0.09166523 0.05525229 -0.08546958 -0.12822422 -0.24785267 -0.03507288
-0.18811095 -0.07379186 0.0652845 -0.24318343 -0.16552898 0.019499792 0.2054694 0.058680523
-0.14841801 -0.14137343 0.0626712 -0.13425735 -0.04748099 -0.25364587 -0.34373415 0.10570053
-0.19309463 0.036691494 -0.21454372 -0.20212191 -0.23944339 -0.087117024 -0.082516514 -0.21782401
-0.010873841 -0.40860498 -0.19146289 -0.14071104 -0.0005005967 -0.08927068 -0.06219472 -0.11134667
0.011029389 -0.22206175 0.10985071 -0.014851241 -0.014860934 -0.19136111 -0.075395405 0.063631244
-0.085454315 -0.21004845 0.14715621 0.03037595 -0.035350334 -0.06065525 -0.0766437 -0.15613046
0.066600494 -0.17789005 -0.09629988 -0.01296287 0.04747794 -0.2401028 -0.101067916 -0.20845033
0.027380709 -0.09422327 0.15530735 0.022380596 0.29322562 0.11834963 -0.26331532 -0.194497
-0.015110088 0.21103218 -0.03890334 -0.2487241 -0.0019276527 -0.21716958 0.046472464 -0.096497566
0.17654659 0.09772794 0.12903371 0.08578303 -0.108323865 -0.05473918 -0.008263272 -0.04166182
0.112304874 0.20212734 0.14406738 0.012246486 0.060333483 -0.07343569 0.1891815 0.16615054
0.094662346 -0.03677387 -0.17256083 0.14995873 0.06278254 0.20674135 0.083588175 0.23787563
-0.2328181 0.13824232 0.032802846 -0.050697148 0.0930938 -0.021347765 -0.03797711 0.26850766
0.015997397 0.15092386 -0.07290089 0.04419418 -0.09998921 0.039449405 0.21756594 0.2403829

u_model.gate_U.bias f4 [42]
00000000: 09c6 43be 27fa 5cbe 842d c73c dff7 b0bc
00000010: 1d68 51be 3ed5 693e 9ee1 33bd fa85 4e3e
00000020: e20b 323e bede 9cbe c179 84bd 4d0f edbd
00000030: 044f 843d 6771 713d 51d9 e9bd e5de a73e
00000040: 16ba a6be 8c78 313e 509f 933d 4232 073e
00000050: 2297 803e a264 af3e f422 153e 0cdc 523e
00000060: 6b82 7f3d ca23 8fbc 4c97 5ebd fc6b 233e
00000070: d082 193e 9d62 4abe d798 233e da71 a63e
00000080: 9c36 6b3e a472 753e f050 9f3d d721 ffbc
00000090: 9e7e 46be 472c cb3c b10c 653e b004 0ebe
000000a0: 2ec3 eebd efa1 bdbd
-0.19118513 -0.215798 0.024313696 -0.02160257 -0.20449872 0.22835252 -0.043916337 0.20168296
0.17387345 -0.3063869 -0.06468535 -0.11575184 0.064603835 0.05894604 -0.11418403 0.32787243
-0.32563847 0.17331141 0.07208121 0.13202766 0.25115305 0.34256464 0.14564115 0.20591754
0.062380236 -0.01747312 -0.054343507 0.15959162 0.14991307 -0.1976418 0.15976273 0.32508737
0.2297005 0.23969513 0.077791095 -0.031144066 -0.19384238 0.024801387 0.22368123 -0.13868976
-0.11658321 -0.09259402

u_model.gate_V.weight f4 [42, 42]
00000000: 98ea 393e f789 293d 8c93 0a3e 8eee 0ebd
00000010: 7b99 303b 94d9 c13d e7fa 74bd 49e4 b4bd
00000020: 09fc a0bc d94e ce3d 8d52 3cbe 6e70 fb3d
00000030: 4787 d03d a563 f13d 5cc5 39bb fb0e 15bc
00000040: 18c1 ae3d 9979 853d eeae 6abe 5de5 13be
00000050: 8b11 f03d 8398 4d3e 818e 02be d8ee 1f3e
00000060: 9a7e 67be 4e8a 3c3e 2b69 5c3e c9cc 47bc
00000070: df0a 39be fb5c 5ebd 4e1c 27be e402 073e
00000080: 2289 a7bd c9f9 133e 328e 37be 12f8 bdbc
00000090: c6e5 8c3c acf3 c23d 4686 58bd 4a55 e6ba
000000a0: 4587 00bd e7c0 44be 3e69 4d3e dfba 0d3e
000000b0: 2bcb dfbd b02a c63d 9113 953d 6a81 36be
000000c0: 5b03 253e 4653 4ebd bda1 a53e f01a d93d
000000d0: 13e8 0e3e 80ed ddbd c410 763e 5388 173e
000000e0: 33c5 1e3e 5ad2 b3bc 68df 0abe bdbc d33c
000000f0: 63c5 00be 18a9 37bd fbf9 cebc dcbf bebd
00000100: b8a3 513d f47f c8bc 0c2c 4fbe 6562 10bc
00000110: 10f8 0e3e a3b1 893c 11af 083e d5d0 313e
00000120: d5a8 e3bc fe42 043e da42 0b3e 5d8f a83d
00000130: 89df 833d 7cbf c1bd 8d28 bfbc 1d83 40bd
00000140: 7bdf aabd 5ca1 48bd 61ab a23e d4c8 bb3d
00000150: 05b6 493d f5a9 86bd 1c31 9cbd 5ef0 b6bc
00000160: bc22 a3bd e4e8 463e bd3a 143e 7262 bebd
00000170: 30e4 c0bd 4270 90bd 5bbc c4bc 1d18 17bc
00000180: b734 a2bd c016 92bd 31d7 c7bc fdcc 593e
00000190: ae0a 9fbc d6c0 26be 4691 8ebc ae02 583e
000001a0: 5ac2 00bd 6d84 44bc 001a e73c c58e c33d
000001b0: c187 11bd a198 b63d a80d 04be e230 38be
000001c0: 1064 8dbd 55a4 2abb 88c3 bcbd 655f c03c
000001d0: 84b2 4f3e fd57 143d 4ae2 233e a30d 84bd
000001e0: 9d85 583e 63eb 453e 4cdc 3b3e bbc2 6c3d
000001f0: 8612 b03d d92d 0f3d 5120 2e3e 795e f7bc
00000200: c5cf 593e a968 8fbe 1560 fcbb 80ad a9bb
00000210: a462 babd 4769 a5bd b839 283e 8ec6 3f3c
00000220: 5c5f 0ebe 2b04 13bd d9f1 2c3e f840 283e
00000230: 4e55 dd3d 18a2 55bd 3914 2b3e b090 39bd
00000240: a15f 1a3d 1841 aebb d720 1e3e 6083 0f3e
00000250: 8224 503e 4aa5 2b3e f693 db3c ac68 b4bc
00000260: 91ff 21bd 3850 d63b 4274 b63d a79e ccbd
00000270: 9a31 0fbe ee8d 033e 3fd8 d23d 7e61 003d
00000280: dfd7 7a3e 148a f6bc f3fc 1ebc 79c1 273e
00000290: cae4 863d 3a94 54bd a4d2 793e 9964 473e
000002a0: 5e73 353e f383 d03d 6c30 5a3e 9ec0 46bd
000002b0: 7911 bdb9 406f c0bd 2512 bcbd 6e23 afbd
000002c0: 5cf4 0e3e 5e1f 8b3c e700 5dbe ce10 d7bd
000002d0: d9d0 0a3e 2887 323e 2943 0e3e c6d8 c9bd
000002e0: 9fdf 05be 8ad5 183e 5ac5 b9bd 0efc 19be
000002f0: 179f d6bc c165 123e 089c 053e 4774 3e3e
00000300: 87ab 55be 76e0 d73c c20a 353e 819a 96bd
00000310: 3a33 7e3b 53a7 083e f21b b7bc cf89 5e3e
00000320: 494c 03be eb71 6e3e 0905 b5bd 2833 183e
00000330: fd17 1abc d3f6 72bd 9190 acbc 0057 03be
00000340: 7721 843c 687e c8bc f06f cfbd b0bf 9c3d
00000350: 01ef 3bbd 110c 093e efaf 3c3e 221b 26be
00000360: ccb8 43bd d9af b4bc 0094 e33d 2c99 5b3d
00000370: 5cca d43d f0a4 23be 9361 243e 34f9 4639
00000380: 0060 803d 59ab 9ebd 7caf 5c3d ebb8 65bc
00000390: c87b efbd d274 243c b9ab 0bbe 60a7 383d
000003a0: 6139 133e 2b1e 603c d041 13be 3e3b 66be
000003b0: a033 123e 1de4 42bd ea15 8b3d ce32 493c
000003c0: a33c 0abe 342c 303e 5199 d3bd d75b 30bd
000003d0: 699d 0abe a80c 803d 7ae1 afbd 6afc 08bd
000003e0: a7eb 763c 731e 43be aaa8 093d cf75 003d
000003f0: 736c 1f3d 2547 6fbd cb18 05bd 1888 3bbe
0.18155897 0.04139134 0.13532847 -0.034895472 0.002694695 0.09465328 -0.05980959 -0.088326044
-0.01965143 0.10073633 -0.18390866 0.12277304 0.10182052 0.11786584 -0.0028346395 -0.00909781
0.085329235 0.065173335 -0.22918293 -0.14442964 0.11722096 0.2007771 -0.12749673 0.15618455
-0.22606888 0.18412134 0.21524493 -0.012194821 -0.18070553 -0.05428789 -0.16319391 0.13184696
-0.08180453 0.14450754 -0.17925337 -0.023189578 0.017199408 0.09519133 -0.052862428 -0.0017573026
-0.031379003 -0.19214211 0.20059678 0.13840817 -0.10927423 0.09676111 0.072791226 -0.17822805
0.16114561 -0.050372384 0.3234996 0.10600841 0.13955717 -0.10836315 0.24029833 0.14798097
0.15504913 -0.02195089 -0.13561785 0.025846833 -0.12575297 -0.044838995 -0.025265684 -0.09313938
0.051181525 -0.024475075 -0.20231646 -0.008812522 0.13961816 0.016808337 0.13348033 0.1736482
-0.027790466 0.1291618 0.1359972 0.082304694 0.0643912 -0.09460351 -0.023334766 -0.04700004
-0.08343407 -0.04898201 0.31771377 0.09169164 0.049245853 -0.065753855 -0.07626554 -0.022331413
-0.079656094 0.19424778 0.14475532 -0.09296121 -0.09418523 -0.070526615 -0.024015596 -0.009222058
-0.07920211 -0.071332455 -0.024394603 0.21269603 -0.019414272 -0.16284499 -0.017403256 0.21094772
-0.031435348 -0.011994463 0.02821064 0.095487155 -0.035529856 0.089158304 -0.12895834 -0.17987397
-0.06903851 -0.002603789 -0.09216982 0.023482988 0.20282942 0.036216725 0.16004291 -0.064479135
0.2114472 0.19328074 0.18345755 0.057802897 0.08597283 0.034955833 0.17004515 -0.030196415
0.21270664 -0.28009537 -0.0077018836 -0.0051781535 -0.091008455 -0.08076721 0.16428268 0.011705054
-0.13903564 -0.035892647 0.16889133 0.16431034 0.10807286 -0.052156538 0.16706933 -0.045304
0.037688855 -0.0053178184 0.15442215 0.1401496 0.20326427 0.16762272 0.026803952 -0.022022568
-0.039550368 0.0065403245 0.08908893 -0.09991198 -0.13983765 0.1284711 0.10295152 0.031342976
0.24496411 -0.030095138 -0.0097038625 0.16382398 0.06586607 -0.051899172 0.2439676 0.19471969
0.1771979 0.10181417 0.21307534 -0.048523538 -0.00036061907 -0.09396219 -0.09183148 -0.085516796
0.13960403 0.01698273 -0.21582375 -0.10501252 0.13556232 0.1743437 0.13892807 -0.098557994
-0.13073586 0.14925209 -0.09070845 -0.15037557 -0.026198907 0.14296629 0.13047802 0.18599044
-0.20866214 0.026352149 0.17679885 -0.07353688 0.0038787858 0.13345079 -0.022352193 0.21732257
-0.12822069 0.23285644 -0.08838851 0.14863265 -0.009405133 -0.05931742 -0.021065028 -0.12826157
0.016129239 -0.024474338 -0.10128772 0.07653749 -0.04588223 0.13383509 0.18426488 -0.16221288
-0.047783658 -0.022056507 0.11112213 0.053612873 0.103901595 -0.15980887 0.16052847 0.00018975587
0.062683105 -0.07747526 0.053878292 -0.014021139 -0.11693531 0.010037618 -0.13639726 0.045081496
0.14377357 0.013679068 -0.14380574 -0.22483537 0.14277506 -0.047580827 0.06791289 0.012280179
-0.13499694 0.17204362 -0.10331977 -0.043056335 -0.1353661 0.06252414 -0.08587928 -0.033443846
0.015070832 -0.19054584 0.033608116 0.03136235 0.038921785 -0.058417458 -0.032494348 -0.18313634

u_model.gate_V.bias f4 [42]
00000000: 5ac0 4c3e a68a 383d d559 35be f987 a83d
00000010: f7c5 333e 5859 6fbe 125e c13d ec9e 01bd
00000020: fe96 eebd 7a53 0fbd 2170 9bbd d5fd e43d
00000030: 127f 7cbc 08a2 ffbd 5c5c 213e d241 6bbe
00000040: a6cb 6f3e 1e73 25be 5bcd c5bd ebaf 04be
00000050: 23b7 60be 472c 11be a692 bcbd 8419 37bd
00000060: d76e a63d a5d6 00be 1a27 d23d f9b7 87bd
00000070: 8819 49bc 16ed 92bc e34d 523d 4e90 2abe
00000080: 6a59 1bbd 6193 3a3d b517 d3bd 04c9 53bd
00000090: aa79 3c3e 5ae3 2fbd e84d 6fbe ab74 863d
000000a0: f301 0fbe 0ad6 e13d
0.19995251 0.0450541 -0.1771005 0.0822906 0.17555986 -0.23373926 0.094417706 -0.0316457
-0.11649893 -0.03499172 -0.07589746 0.11181227 -0.015411155 -0.12482077 0.15757889 -0.22974327
0.2341753 -0.16157195 -0.09658309 -0.12957732 -0.21944861 -0.14177047 -0.092076585 -0.044702068
0.0812661 -0.1258188 0.10261364 -0.06626887 -0.0122741535 -0.017935317 0.05134381 -0.1665661
-0.03792707 0.045550708 -0.10307256 -0.051705375 0.18405786 -0.04294143 -0.23369563 0.065652214
-0.13965587 0.11027153

u_model.blocks.0.W1.weight f4 [42, 42]
00000000: b151 31bd be4d b2bd 9dff e9bd a97b 953d
00000010: 67bd a6bd 48a2 5dbe 97bd 033d dfde 383d
00000020: 8283 423e 4450 28be 0281 9d3d 55d9 fb3d
00000030: 16b1 7fbd 7905 fdbd fd4d 70bd 975d f43c
00000040: c063 fdbd 29c5 cbbd 0d46 413e 22a6 c139
00000050: 2956 3e3e 6b9b 4bbe 2232 dfbc bcfa b5bc
00000060: 7427 55be 512b 1abd 1f3a 7fbe 1c22 1a3e
00000070: 6f49 d7bd dd04 b1bc 9158 2b3d 1433 6b3e
00000080: beb3 113d 693c 1b3c 4191 533e 7f02 ec3c
00000090: 9131 3b3e bbf8 d93c 7d47 40be a4eb a1bd
000000a0: 9be3 893d 72aa 9d3e e4fc 0e3e 1734 a2be
000000b0: 4af2 40bd 8f98 1cbe 24b6 29be 6b5f 81bd
000000c0: 9d60 1a3d c5c5 fabd ef16 5cbe 053f 883d
000000d0: 6c77 753e e6ac 9f3e 71ea 3ebc d633 eabd
000000e0: 6ecf 823d 6920 0b3e f0e4 123d 592f c33d
000000f0: 41f0 b03c 9355 153e 0cf4 c73d 015c d63d
00000100: 9dd2 493e ffb7 a93b 248d 59bd 3b45 14be
00000110: 0409 10be d398 14bd adc9 34be fd71 1b3e
00000120: 2f10 35be edc7 d73d 6e67 a5bd 6c40 1cbe
00000130: 9c85 1c3e 2e27 f8bd 275a 2d3d 9090 023e
00000140: 5d75 b53d 4fa0 0d3e 33e6 01be bdab 0f3e
00000150: 90ec c9bd 62c7 80be 5b87 533e 232a 25be
00000160: f144 03be f47d c5bd 414a 50bd 267f f4bc
00000170: 01fa 5fbe b001 00be 8568 26be 1980 44bd
00000180: ec2f febc a1b5 7fbe 4cee a83c bbea 073e
00000190: 7841 edbd 2be6 73bd ac09 3c3e 0b0c 453e
000001a0: 3172 803d e3a3 14bc 8fa7 a23d 218d 5ebe
000001b0: 9704 a43e 4045 e53d e22c 8bbd f04f 4bbe
000001c0: 94e4 283d 3b18 41be 23f5 4fbe 5f67 07be
000001d0: a0c5 7ebd fc57 40be 74e2 db3d 8761 aa3d
000001e0: 5657 633e fd15 a83d 0530 3d3e c9d3 30be
000001f0: 5c7c 82be adf6 e53d b1bc 50bd e3ba 20be
00000200: 6db0 ce3d 1f31 a03d da4d 013e b32d db3d
00000210: 61dc 963d 08f9 51be e6a0 21be 54d5 023d
00000220: 1f39 3f3e 598a 793c 1fb6 fbbc 5e8c ffbb
00000230: bbad 38be d5d1 1ebd c664 b1bd b298 1bbd
00000240: 4490 353e 73bd 8fbd f666 933c 30fe 6d3d
00000250: 4d95 063e 728e 79bd 133a 1c3e 9a83 0a3d
00000260: 7be0 03bd c512 66be ca9c 05be 83c9 0fbe
00000270: cf12 8fbd 725a 07be cf14 1dbc 53b3 2bbb
00000280: af71 bc3d cc34 ba3c d58d 52bb 43ba 59bd
00000290: bcc9 e1bd a80e 873d e165 e63d a844 233e
000002a0: 5e63 79bd 331d bb3c 3aa7 a6bd 77a3 67bd
000002b0: 1684 d63c 4ffc 9cbd 5e87 13bc 9555 52bc
000002c0: 536e 043d 75af 763d 5e6e 7c3d c8f0 c43d
000002d0: 65cc 19bd e9c2 0abe 84f0 5bbd 8774 9fbc
000002e0: b47d 07bc dd25 133e b594 aebd bcf9 d4bd
000002f0: 8283 e03d 881a 28be dc08 393e 1e0b f73d
00000300: dd57 d93d b046 833d eb48 83bd 7d26 283e
00000310: c677 28bd 2ace 07be 8e24 d8bd 88e1 9dbd
00000320: 3a6c 12be 1537 ea3d d925 093e 808e 063e
00000330: 5737 aabd 62d7 8ebd 8d04 6d3d 9724 2d3e
00000340: d3c0 e8bb 310c a83d 4877 763e 0be9 8ebe
00000350: a829 ecbb e3bb 5cbe 6b21 bcbd fce2 8bbe
00000360: aba9 343e dbe9 df3d 9fc6 1a3e bc3f 033d
00000370: 9eec 953d 1ce3 8d3d 02b0 a9bb 64a5 9abd
00000380: b1c5 523e 16bf ce3d e609 3f3d ed6c efbd
00000390: bb9f 2d3e 3103 033d 5987 a83d 8f2d 97bd
000003a0: 0c16 db3c 0ac7 05be c244 17bd 2a7a 79bd
000003b0: ac1c 45be 4a86 2e3e 7d74 dfbd 9c82 793d
000003c0: 3678 f8bd 418e 44bd 3741 013e fffd 49be
000003d0: 6e91 a2bc 5525 d039 0409 b63d 6c57 063d
000003e0: 9395 72bd 4f3d 163e c879 cb39 b814 1bbd
000003f0: 5d77 55be 122b 123e 18e8 d13c ffcc 813e
-0.043290798 -0.087062344 -0.114257075 0.07298977 -0.081415944 -0.21643937 0.03216323 0.04513442
0.18995479 -0.16436869 0.07690622 0.12297312 -0.06242474 -0.123545595 -0.058668125 0.029829783
-0.123725414 -0.09949715 0.18874379 0.00036935607 0.18587555 -0.19883506 -0.027245585 -0.022214286
-0.20815831 -0.037638966 -0.24924515 0.15052074 -0.10512053 -0.021608764 0.04183251 0.22968704
0.035571806 0.009474852 0.20660879 0.028809784 0.18280627 0.026607862 -0.1877727 -0.07906273
0.067328654 0.30794102 0.13963658 -0.31680366 -0.047106065 -0.15292571 -0.16573387 -0.06317028
0.037689794 -0.12244753 -0.21493123 0.06652645 0.23971337 0.311866 -0.011652575 -0.11435668
0.0638722 0.13586582 0.035862863 0.09530515 0.021598937 0.14583425 0.09763345 0.10466767
0.19709249 0.0051794047 -0.053113118 -0.14479534 -0.14065939 -0.036278557 -0.17655058 0.15180202
-0.17681955 0.1053618 -0.08076368 -0.1525895 0.15285343 -0.12116848 0.042322304 0.12750459
0.08860276 0.13830684 -0.1268547 0.14030357 -0.09859574 -0.25152117 0.20657103 -0.16129355
-0.12819268 -0.09643164 -0.050852064 -0.029845785 -0.21872713 -0.12500644 -0.16250809 -0.047973726
-0.03102871 -0.2497163 0.020621441 0.13273136 -0.11584753 -0.059545677 0.18363065 0.19242875
0.0627178 -0.009072277 0.079421155 -0.21733524 0.32034752 0.11194849 -0.0679567 -0.19854712
0.041233614 -0.188569 -0.20308356 -0.13223027 -0.06220019 -0.18783563 0.10736552 0.08319383
0.22201285 0.08207319 0.18475349 -0.1726829 -0.25485504 0.1122869 -0.0509612 -0.15696292
0.10092244 0.07821869 0.12627354 0.10702076 0.07366253 -0.20505154 -0.15784034 0.031941727
0.18674134 0.015230739 -0.03072649 -0.0077987155 -0.18035023 -0.03877433 -0.08661799 -0.03798742
0.17730814 -0.070185564 0.017993432 0.05810374 0.13142891 -0.060926862 0.15256529 0.03381691
-0.032196503 -0.22468098 -0.13048092 -0.14041714 -0.06986009 -0.13218096 -0.009587481 -0.0026199415
0.09201371 0.022730254 -0.0032127996 -0.05315615 -0.11024806 0.06594592 0.112499006 0.15944159
-0.06088578 0.022841072 -0.08137365 -0.056552377 0.02618603 -0.076653115 -0.009004442 -0.012837787
0.032331776 0.060225923 0.06162869 0.09616238 -0.03754844 -0.13550915 -0.05369617 -0.019464744
-0.008269716 0.14369912 -0.08524457 -0.103991956 0.10962583 -0.16416371 0.18069786 0.12062667
0.10612462 0.06409967 -0.064103924 0.16420932 -0.04112985 -0.13262239 -0.10553847 -0.07709032
-0.14299098 0.11436287 0.13393344 0.13140297 -0.083113365 -0.06974675 0.057865668 0.16908489
-0.0071030646 0.0820545 0.2406894 -0.27912173 -0.0072071142 -0.21556048 -0.091860615 -0.27321613
0.17642848 0.10933276 0.1511483 0.032043204 0.07320522 0.06928083 -0.0051784525 -0.07551077
0.20583226 0.100950405 0.0466403 -0.11690698 0.16955464 0.031985465 0.082289405 -0.073817365
0.026743911 -0.13064209 -0.036930807 -0.06090752 -0.19249219 0.17043415 -0.1091089 0.060915574
-0.121323034 -0.047987226 0.12622534 -0.19725798 -0.019844737 0.00039700666 0.08888438 0.032798216
-0.059224676 0.14671825 0.0003880991 -0.037861556 -0.20846315 0.14274243 0.025623366 0.25351712

u_model.blocks.0.W1.bias f4 [42]
00000000: b66d 76bb 5cf0 cb3c 4815 4bbe eacb 38be
00000010: 3f50 c23d 3590 183d cf90 963c 6ce4 86bd
00000020: 81dd 5cbe e005 bdbd 2819 7ebe 0e5f b63d
00000030: 87a0 eebd 1316 30be e60c dbbd 3e0b 043e
00000040: faae 14bd 59cc 09be 5adf e0bd 3cf1 47be
00000050: ed39 0abe 24c0 683c 277f 9dbe 9d1c c3bc
00000060: ac43 f33d e5a7 b43d 2756 e8bd 7623 563c
00000070: a6b0 003d efd8 02be f7d4 90be 66bd a83d
00000080: 32f6 7a3d 9541 54be 4971 5e3d 7097 e2bd
00000090: 4e09 56bd 0a34 b73c c15f 40be ddd6 8abd
000000a0: f49d dabc 5e1f 163d
-0.0037602014 0.024894886 -0.19832337 -0.18046537 0.09487962 0.0372469 0.018379597 -0.06586537
-0.21568872 -0.09229636 -0.24814284 0.08904849 -0.11651712 -0.1719592 -0.106958196 0.12894914
-0.036299683 -0.13456859 -0.10980101 -0.19525617 -0.1349866 0.014205966 -0.30761072 -0.023817355
0.11878142 0.08821086 -0.11344557 0.013069978 0.031418465 -0.12778066 -0.2828748 0.0823925
0.061269946 -0.20728143 0.054307256 -0.11064041 -0.052254967 0.022363681 -0.18786527 -0.06779263
-0.026686646 0.036651008

u_model.blocks.0.W2.weight f4 [42, 42]
00000000: a6a3 283e 7aa2 cc3d 52e4 103e 36f8 f6bd
00000010: 4982 63be b162 bfbd 7c87 a73c 8de5 c33c
00000020: 3124 aabc 45cd 953d 1e5f 60be 2793 2d3d
00000030: 858d abbd 2920 853e d892 55bd 1109 2b3e
00000040: 0948 25bd 1350 003c d6b8 823b 310d c7bc
00000050: b192 64bd dfd1 673d 076f 173e 37dc 213e
00000060: a3d7 cf3d e63a 553e ee6c 1bbe 215f 39be
00000070: a6a2 9abb 0a8a 5c3e c4bd 8b3d 3f21 80bd
00000080: b3ab 60be 1899 833e 9d3d 25bd eca9 9cbc
00000090: fb44 803d ec52 eabd 9cfd d0bd ed3e 5c3e
000000a0: 92e6 00be b76b 11bd 545a 41bc 5e1f b2bd
000000b0: aed1 ae3d fedc 283e 6de7 10be e594 553e
000000c0: 86f6 8c3d 4e52 523d e4b6 05be 7ea4 27be
000000d0: 4fec 7e3e 95b9 22bd 5a79 79bb d7c8 493d
000000e0: 0627 a8be e066 3bbe af4e 4c3e ce94 56be
000000f0: 5065 cc3d 2a18 753e f2f8 44bc 9b58 3a3e
00000100: ec39 193d af5c 51be 1306 6ebd 15b5 81be
00000110: 3a56 c9bb c165 063e ce19 31be 1495 953d
00000120: d561 a3bc 4bed f93d dff9 08bd 2633 07be
00000130: 78e9 c4bd f237 b5bd 2a2c fbbd e1db 793e
00000140: db14 973e 78de 5abe 7018 dc3d 9d6d 153e
00000150: f0b2 4d3e ca06 2cbe dd95 643e d063 22be
00000160: 4c15 333d 5dc2 393c 445f 003e adec 713d
00000170: 7053 593e 3ab1 833e fd99 0dbe a85e 7f3c
00000180: 047f f4bd 50d4 393e 7ea2 293d 5962 07be
00000190: 8b18 9bbd 5dcd 8abd d16c 9abd b5b0 01be
000001a0: 4f0e 3cbe ec89 32be da4b 07be d2d6 87bd
000001b0: e62e 04bd 807f 853d 6dd9 66bc f9c2 fabd
000001c0: 35a1 1cbe 3ba6 d23c 87f5 613e ff37 88bd
000001d0: c5c4 663d 783e 373e d718 12bd 3106 4a3e
000001e0: 2812 08bc 153a 8a3d 67d2 4fbd 1216 87bc
000001f0: b45e e6bd c13c 0f3e 6777 2bbe fcfd 52be
00000200: 0806 023e 03c5 e6bb 21fa 55bd 7268 4b3e
00000210: 5602 933d 2f69 3a3e d387 8ebe 036f 18be
00000220: 6e03 753e 5b12 40bd 752f 033e 25cd 0e3e
00000230: 55d2 563d e100 ca3b 254d 773e b8c3 38be
00000240: 276b 2b3e ef66 283e e37b 9a3e 1481 d93d
00000250: c0bf 3d3e 6fab bebd c9a9 b8bd 224a 0d3e
00000260: 20f1 7dbc aed2 6d3e 45cc 4b3e 21b6 90be
00000270: de72 6bbe db06 09be b04e b6bc 42ec 2a3e
00000280: 76ce 81be 4c70 9cbb 7abd afbd 27ab b43d
00000290: bddd d23d b76c 6fbe 9f3e 3d3e 09a8 ba3d
000002a0: 0835 ce3c e42b ce3b b0cc d23d 6a88 933d
000002b0: 6b5f 89bd a407 823d 3b05 24bd f3a4 01be
000002c0: a9f2 a5bd 13e6 da3d 12a9 873d f864 4b3e
000002d0: 0e9b 0abe 62af 9abc 6801 10be 7830 073c
000002e0: 1f8e eb3d 21db 85be 0bc9 4d3d c0b2 933c
000002f0: d909 75bd af2b b43c d894 3c3e 1722 a03d
00000300: eb8d 373e 0286 26be 93bb ce3d c7bd e9bd
00000310: 680b 79be c001 b03d 71b1 6ebd 13bf 9e3c
00000320: c3de d53d a529 463e eecb 0fbe 67cc 36bd
00000330: fffe 79bd a6fe 383e 4ef0 08be 2ab9 76be
00000340: e83e dfbd 9619 e9bc 4301 34be 7aab 4c3e
00000350: 91aa c9bc d935 2c3e 991b 09be f7e5 0dbd
00000360: 269d c8bd 1fa2 39ba 1528 763e e7d1 dfbd
00000370: 87eb 0c3c 2e28 71bd 6867 023e 3c76 3abe
00000380: c23e f1bd a221 a8bd d759 81be f54b 1f3e
00000390: e3c7 603d fb73 d93c e69e 1d3d 1d4c d63d
000003a0: 334c ef3d 0949 00bc f854 983d 9a50 5ebc
000003b0: f98c 8cbc 677c 473d a62c 51bd 1405 193d
000003c0: efa1 d63d 01d3 b6bd 55a4 f6bd a6b6 b8bd
000003d0: 14c0 813e 6719 ae3d 4ef0 543d 0e8e 92bd
000003e0: 8871 dd3b 5d71 373d e0b8 d0bd 3d3e 853d
000003f0: 07b7 39be 569f a93b 1f0d bc3d ca1f 6cbd
0.16468677 0.099919274 0.14149597 -0.12059061 -0.22217669 -0.09344996 0.020450346 0.02391317
-0.02076921 0.07314543 -0.21911284 0.042376664 -0.08376602 0.260011 -0.052141994 0.16702677
-0.0403519 0.007831591 0.0039893193 -0.024298282 -0.05580396 0.056596633 0.14788447 0.15806662
0.10148551 0.20823249 -0.15178272 -0.18102695 -0.0047190962 0.21537033 0.06823304 -0.06256341
-0.21940498 0.2570274 -0.040341962 -0.019123994 0.06263157 -0.11441597 -0.10204622 0.2150838
-0.12587956 -0.035503116 -0.011801321 -0.08697389 0.08536087 0.16490552 -0.14150782 0.2085758
0.06882958 0.051348023 -0.13058048 -0.16371343 0.24894832 -0.039727766 -0.0038066716 0.0492638
-0.32842273 -0.18300962 0.1995189 -0.20955202 0.09980261 0.23934999 -0.012022244 0.18197863
0.037408754 -0.20445512 -0.05811126 -0.25333467 -0.006144312 0.13124754 -0.17295 0.07303825
-0.01994411 0.12203463 -0.03344142 -0.13203105 -0.09614843 -0.08848561 -0.12264283 0.24400283
0.295081 -0.21373928 0.107468486 0.14592595 0.2008779 -0.16799465 0.22322793 -0.15858388
0.043721482 0.011337844 0.12536341 0.059063602 0.21223235 0.2572115 -0.13828273 0.015586533
-0.11938289 0.18147397 0.04141473 -0.1322111 -0.075730406 -0.06777451 -0.07540286 -0.12665065
-0.18364833 -0.17435426 -0.13212529 -0.066327706 -0.03227129 0.06518459 -0.014089924 -0.12244219
-0.1529587 0.02571403 0.22066317 -0.066513054 0.056339998 0.17894924 -0.03566822 0.19728924
-0.00830511 0.067493595 -0.050737765 -0.016490016 -0.11248532 0.1398802 -0.16744767 -0.206047
0.12697613 -0.0070425286 -0.052240495 0.19864061 0.0717818 0.18204187 -0.27838 -0.14886098
0.2392709 -0.046892505 0.12811072 0.13945444 0.052446682 0.0061646556 0.24150522 -0.18043411
0.16740094 0.16445516 0.30172643 0.10620323 0.18530178 -0.09310042 -0.09016759 0.1379781
-0.015499383 0.23224899 0.19902141 -0.28263953 -0.22993037 -0.13381521 -0.022254318 0.16691688
-0.2535283 -0.004774129 -0.08581062 0.08821707 0.102961995 -0.23381315 0.1848092 0.091140814
0.025171772 0.0062918533 0.10292947 0.07203753 -0.06707653 0.063491136 -0.04004405 -0.1266058
-0.081029244 0.106884144 0.066240445 0.19862735 -0.13535711 -0.018882457 -0.14063036 0.008251302
0.11501717 -0.26143745 0.050240558 0.01802957 -0.059823845 0.021993486 0.18416154 0.07819002
0.17925231 -0.16262057 0.10094371 -0.1141315 -0.24320757 0.08594084 -0.05827469 0.01937822
0.10442879 0.19351824 -0.14042637 -0.044628527 -0.0610342 0.1806589 -0.13372919 -0.24094072
-0.1090067 -0.028454583 -0.17578606 0.19987288 -0.024617465 0.16817416 -0.13389434 -0.03464314
-0.09795599 -0.0007081348 0.24038728 -0.109287076 0.008601076 -0.05887621 0.12734759 -0.18209165
-0.11779548 -0.0820954 -0.25263855 0.15556319 0.054878127 0.026544562 0.038481615 0.10463736
0.11684456 -0.007829913 0.074380815 -0.013569022 -0.017157065 0.048702624 -0.05106797 0.03735836
0.10480105 -0.089269646 -0.120430626 -0.090192124 0.25341856 0.08500939 0.051986985 -0.07156001
0.0067579187 0.044785846 -0.10191512 0.06506012 -0.18136226 0.005176465 0.0918219 -0.057647504

u_model.blocks.0.W2.bias f4 [42]
00000000: f4ba cebd f08c bebd 2d61 b5bd b5b6 003c
00000010: e315 46be f0da 12be f110 32bd 101a 0b3e
00000020: 6cb9 bfbd ab0a 11be e28c b83b 29d5 05bd
00000030: 9f7a 553d 1f87 63bd adc1 20bd 557b d13d
00000040: 65c0 bebd ebe2 683c d184 9a3d 6e82 e93d
00000050: 7d03 75bd f16a d83d f2f0 58bc 7f41 5ebd
00000060: 80a0 913d 7810 393e c91c 133e 71f3 13bd
00000070: db3e b93c 6dd2 98bc 49e9 06be 2750 b6bd
00000080: b8b3 9e3d ecfa e93d 542a 903d dae1 7dbc
00000090: 37f0 823d c106 68bd 6a37 f5bc af9c b8bc
000000a0: 5a73 ddbd 0c79 11be
-0.10094252 -0.093042254 -0.088564254 0.007856061 -0.19344287 -0.1434133 -0.043473188 0.13584161
-0.09361538 -0.14164226 0.005632029 -0.03267399 0.052118894 -0.055548783 -0.039247204 0.10228602
-0.0931404 0.014214258 0.07544864 0.114018306 -0.05981778 0.105672725 -0.01324104 -0.05426168
0.07110691 0.18072689 0.1436645 -0.036120836 0.02261298 -0.018655026 -0.13174929 -0.089020066
0.077491224 0.11424813 0.070393234 -0.015495742 0.063934736 -0.056647066 -0.02993365 -0.02253565
-0.10813017 -0.14206332

u_model.blocks.0.W3.weight f4 [42, 42]
00000000: 1660 033e ad52 eb3c a002 e03d 1f59 c7bd
00000010: 30b1 563d 4bcd 0bbe 4dd2 0f3e 34b3 83be
00000020: 425a 083e f74a 0f3e 537e 7bbd 9a12 153e
00000030: 5748 b53d e5ef d13d b9b9 86bd d40f 28be
00000040: e0a5 30bc a9d2 56bd 5d69 5ebe 92e0 b9bd
00000050: 916c 363d 82ae 09be 2ed7 293e a25f 42bc
00000060: e4a4 d7bd ffab 1d3e 51b0 c6bd 86a3 30be
00000070: ebca a5bb 2f62 1c3e 707b 3cbd 484a 17be
00000080: ca27 10be 04a3 623c d633 e03d e998 15bc
00000090: 6e0b 83bd 570e f5bd 8e9e 27be 19c8 c6bd
000000a0: 63fa efbd 02c4 b63d 263e 2cbe f212 3c3d
000000b0: fab3 e13c 733d 8abd 8943 ad3d 9dd8 9e3d
000000c0: bc27 8fbd 6de1 06be 3388 e3bc fd62 bb3c
000000d0: cf9b 45be 76f6 ac3d d5ec 0f3e f02f 083e
000000e0: 7a2d c93d cd53 70bd a043 54be 3a96 85bd
000000f0: 8c35 76be 2aa4 d5bd ecb3 8e3c 20e4 9bbd
00000100: b6b6 163d 4e9d 603d 05c5 4a3d c9a7 a73d
00000110: 27df 20be 36d2 1dbe aa54 723d d757 8b3d
00000120: 39ff c33d 6c07 2dbd 6395 a33e 4266 57bc
00000130: 14e9 693d dc69 203e c446 5fbd 88ed a6bd
00000140: a94f 84be dd6c 203c 7468 69be 50ea 8bbc
00000150: 842d 883d 30f0 7c3e 350e f23c 96c0 de3a
00000160: 9566 473d 193f 4c3e 17e9 4abe a032 613e
00000170: d68d 46be e31b 803d 91b4 d33d 87aa 62be
00000180: feec 373e 9247 673d eca4 8cbe 86db a03d
00000190: 523d b5bb 519a 9e3d a70d cb3d 28d7 8bbd
000001a0: 21b7 be3d 178c b1bc 6a91 87be c8ca 37bd
000001b0: 06ba 693d 0cba 413d 681b 363e 6bda 5a3e
000001c0: abc0 1e3e 1ca8 053d de2d a2bd 281e d03d
000001d0: b01a 80be 6b93 b6bd 5c64 6b3d 650f 60be
000001e0: 91c4 97bd d800 f33b 5299 2a3e 729d 113e
000001f0: 1b54 053d 17aa 55bd 9f6e 0fbe 71f9 163e
00000200: 32b1 533e 4e15 ac3d 085f bcbd 88cc f83c
00000210: d2db 763e db0c 1b3c 2cac 8fbd 5191 f1bc
00000220: 8f32 b4bd 327c 713d eb4a 2d3e c9b3 223e
00000230: 3e31 e63d a194 81be f996 edbe 6a5e 0abe
00000240: d737 bfbe 7d36 67bc ca6b 44be abbb 40be
00000250: 77ce 643e 361d 233e 5733 c8bc a532 a53d
00000260: acf8 f13c 67fc 91bc a771 783c 5071 0c3e
00000270: fca3 223e 7d72 f13c 45b8 3d3e 77d0 bd3b
00000280: 0a5e 113e 4f6e 523e 3b95 dfbd fe8a 453c
00000290: 5f25 6abe 8cc9 f9bd f268 8dbd 5d4f 293e
000002a0: e4ba 3fbe 807d 413d d723 b43d bb4f b2bc
000002b0: 9e60 9a3d fb15 bd3d a1ad a23d 625e ccbd
000002c0: cede 823c a61b 2c3e 9508 73bd b014 b63d
000002d0: 235f 5abe ed15 77bd 71bd 133e b9dc f2bd
000002e0: d056 ddbc e060 d1bd 346d 1b3c 5302 efbc
000002f0: 5a23 803d 767b 873d db2a e73c 4187 8b3d
00000300: 814b 043e 9ce7 b7bd a85e 8e3b ff57 1dbe
00000310: 4d35 56be b288 24bd d6c4 5ebd 2110 173d
00000320: 82e6 013d d3c0 afbc d5be 1b3d 7225 f33d
00000330: 36f7 14be 22be 28be 014f 61be bcf1 0fbe
00000340: 4a17 3bbd a0b3 543c 2c4c 59be 2b8c 8f3e
00000350: 7059 b2bd a0db 3c3e 28cb d93d bd8d 113d
00000360: 15fc 7b3e da52 13be 5793 b33d 9750 1d3e
00000370: c62f 043e dcd6 6d3c c681 623d 8a3d b2bd
00000380: f653 ed3a db86 3fbd 46c4 abbe d36e 2abd
00000390: 5a30 5bbe f293 c8bc 2896 653d 6107 88be
000003a0: 4ce1 2cbb f472 073e 8a3e 3bbe 1679 24bd
000003b0: 0238 70bb 1a4e 453d 5417 3ebe a7b1 58bd
000003c0: 5cac 16be b6f7 d3bd e619 cb3e f07e de3d
000003d0: 8b95 2e3e 5564 173e 1979 a5bd d1d0 06be
000003e0: c216 82be 6dcf d8bd e485 56be 4862 613e
000003f0: b2ba 9a3c 3f2e 07bd 3d18 06be 606d 0b3d
0.12829623 0.028725946 0.10938001 -0.097337954 0.052415073 -0.13652532 0.14045067 -0.2572266
0.1331568 0.1399344 -0.06139977 0.14557877 0.08851688 0.102508344 -0.065783925 -0.16412288
-0.010781735 -0.052446995 -0.2171988 -0.090760365 0.04453713 -0.13445476 0.16585991 -0.011863621
-0.10529497 0.15397643 -0.097015984 -0.17249879 -0.00505959 0.15271829 -0.046016157 -0.1477443
-0.14077678 0.013832811 0.10947387 -0.009130695 -0.063986644 -0.11965626 -0.16369078 -0.09706134
-0.11717679 0.08924104 -0.16820583 0.045916505 0.02755164 -0.06750002 0.08460147 0.077561595
-0.069900006 -0.1317193 -0.027774906 0.02287435 -0.19297718 0.08445446 0.14055188 0.13299537
0.09823127 -0.05867367 -0.20728922 -0.06522794 -0.24043864 -0.104317024 0.017419778 -0.07611871
0.03679534 0.054837517 0.0495043 0.08186299 -0.15710126 -0.1541222 0.059162773 0.068038635
0.09570164 -0.042243406 0.3194991 -0.013146939 0.057107046 0.15665382 -0.054510847 -0.08150774
-0.25842026 0.00979158 -0.22793752 -0.017079502 0.066493064 0.24701 0.02954779 0.0016994651
0.048681814 0.19945945 -0.19815479 0.21991968 -0.19390044 0.06255319 0.10337175 -0.22135364
0.17961499 0.05646474 -0.27469575 0.07854371 -0.0055309916 0.07744277 0.09914713 -0.06828147
0.09312273 -0.021673245 -0.2647813 -0.04487112 0.05706217 0.04729657 0.17783892 0.21372382
0.15503184 0.032631025 -0.07918905 0.10162002 -0.2502036 -0.089148365 0.057468757 -0.21880873
-0.07410539 0.007415872 0.1666005 0.14220217 0.032550912 -0.052164163 -0.14007042 0.14743592
0.20673063 0.08402501 -0.09197813 0.030370966 0.24107292 0.009463514 -0.07015261 -0.029488238
-0.08798706 0.058956333 0.1692311 0.15888895 0.11239861 -0.25308707 -0.46404245 -0.13512579
-0.3734729 -0.014112112 -0.19181743 -0.1882159 0.22344385 0.15929112 -0.024438543 0.080663
0.029537521 -0.01782055 0.015163816 0.137151 0.15882868 0.029473538 0.18527324 0.005792673
0.1419603 0.20549892 -0.10917135 0.012057064 -0.22865818 -0.12196645 -0.06904782 0.16534181
-0.18723637 0.047238827 0.087958984 -0.021766534 0.075379595 0.09232708 0.07943273 -0.099789396
0.015975382 0.16807422 -0.059334356 0.088906646 -0.21325354 -0.060323644 0.14427735 -0.11858506
-0.027018934 -0.102235556 0.009486485 -0.029175913 0.06256743 0.06615345 0.028218677 0.06812907
0.12919427 -0.08979723 0.00434478 -0.15365599 -0.2091877 -0.040169425 -0.054386936 0.036880616
0.03171397 -0.02145425 0.03802379 0.118723765 -0.14547428 -0.1647878 -0.22002794 -0.14057058
-0.045676507 0.012982279 -0.21220464 0.28036627 -0.08708465 0.18443155 0.10634452 0.035535563
0.2460788 -0.14387074 0.08768337 0.15362774 0.12908849 0.0145165585 0.055299543 -0.08703144
0.0018106687 -0.046759468 -0.33548182 -0.041609596 -0.21405163 -0.024484608 0.056051403 -0.2656813
-0.0026379405 0.13227445 -0.18285576 -0.04015454 -0.0036654477 0.048170187 -0.18563586 -0.052903797
-0.14714187 -0.103499815 0.39668196 0.10864055 0.17049234 0.14784367 -0.08079738 -0.13165595
-0.25407988 -0.10586438 -0.20949513 0.22010148 0.018887851 -0.033003088 -0.13095184 0.034039855

u_model.blocks.0.W3.bias f4 [42]
00000000: 6fd6 853a 37d7 04be 80a0 873d 8f53 073e
00000010: 9467 233e a246 05bd da41 91bc abd1 123e
00000020: 29f4 dfbd 2da9 9d3d cb8a 0f3e 27cb 04bd
00000030: f089 09be 3e2f 23bd 8001 b53d dc58 a3bb
00000040: abf9 ebbd fb85 0abd d79f c23d 8ac0 81bd
00000050: 54e9 0abd 4240 913d b42d acbd 1768 903d
00000060: d9bd 80bd 3b1b 19bc 95cc d6bd 54ab 4bbd
00000070: 551a aebd 5268 7abd 74e9 1f39 981f 4a3d
00000080: 83a7 293e 563a fdba 26e1 aabd 7337 82bc
00000090: ef34 303e 188b 14be 0390 303e d826 ccbd
000000a0: a52b 71bd 6bd6 1c3d
0.0010211001 -0.12972723 0.0662241 0.13215469 0.1595748 -0.032538064 -0.017731596 0.14337794
-0.10935242 0.07698283 0.14017789 -0.032420304 -0.13431525 -0.039839976 0.08838177 -0.004984958
-0.1152223 -0.03381918 0.09503143 -0.06335552 -0.033913925 0.07092334 -0.08407155 0.070511036
-0.062862106 -0.009344871 -0.1048824 -0.049723938 -0.08501116 -0.061134644 0.0001525039 0.049346536
0.16567807 -0.0019319754 -0.08343725 -0.01589558 0.17207693 -0.14506185 0.17242436 -0.09968346
-0.058879513 0.038290422

u_model.blocks.1.W1.weight f4 [42, 42]
00000000: fd37 1f3e 82f3 b93d 94e6 96be b228 063e
00000010: e3fc 523e 3fb5 bd3e 1aa4 6a3d b727 063d
00000020: fe84 a03e 63ab 1fbe 3e4c aa3d eb69 0dbe
00000030: 0a61 9c3d 5f53 a5bd 9312 f93d d7fe 2c3e
00000040: 0fc8 0ebe a71e 8cbc 5508 5ebc c2d2 133d
00000050: c37e aabd 9dd6 ab3c 13f1 77be 80ed ef3c
00000060: 3022 fabc 7669 9cbe a2fe 66bd a300 8f3d
00000070: f62a ab3d 3921 333e 33ac 253e 2b6d 513a
00000080: a594 b93d ba80 b83d f114 893d 9426 83be
00000090: 5b72 83bd 8666 46be aba7 19be 684b 70be
000000a0: 496c 8f3c a2a8 1cbe 25e4 21bc d036 90bd
000000b0: f5a1 c63c 43fc 383d 449c 2f3e 3453 183e
000000c0: af73 c3bd 40f2 5abe 9299 0a3d cc46 3cbe
000000d0: 7365 0d3d be5c 58be b3e0 b9be c165 96bd
000000e0: ec5a d83b cbad 783c c3ca 7ebe dad8 73be
000000f0: 465f 53bc ff58 5c3d dc7c 2fbd d696 ca3d
00000100: 1edc abbd 42bd 94bd bcbd 903d 9769 083e
00000110: e070 89be e09b 5cbd 1fba 633e 4f7b e3bb
00000120: 230f 763c 8318 b63d c421 963d 3d15 abbe
00000130: 1c6f f4bc 25f7 2d3e e534 133e cd65 b83c
00000140: 9d1c 1fbe e9f2 2cbe 5b09 053e 48a2 963d
00000150: a4a5 e43d fdcb 5dbd bbf4 6c3e 6c96 3cbe
00000160: 4de1 65bb c969 7b3d 2ea1 3e3d e957 21be
00000170: deaf 053f 77a5 f1bd 2e60 7bbe 8a87 84be
00000180: d246 7abc 66ba 5cbc 0d67 5c3e a4d0 933e
00000190: 718c 7e3d b761 183d 7304 863c 41d3 32bd
000001a0: 6795 e1bd c122 403e 242d 7bbd fd81 ae3d
000001b0: d8e7 52be e0ac dbb9 e367 87bd e57c 3c3e
000001c0: 0982 1c3e a455 f13d c8bb 073d c4c7 daba
000001d0: 641b b83e 5ee1 19be 3252 303c e165 b23c
000001e0: 5ac3 b8bc d518 363e f8e0 4ebd daf1 2fbe
000001f0: 8e37 e73d 66a0 523c c547 48be 4f22 023e
00000200: 7666 a4be 373b 203e 319d 8b3d fa45 8f3e
00000210: b57d 81be 0e18 d33d d200 d03d 1ae7 67be
00000220: 177e 3d3e 3f36 493d 8a3e be3d a8fa 3cbd
00000230: 6704 4f3d 4a84 043d ea73 1fbe c047 1cbe
00000240: a873 fe3d d78f 7bbc ed0e d4bd 1563 99ba
00000250: 97cd 063e ed06 c83d b5aa 9d3e 258b 98be
00000260: 3a78 f53d 13bc b9bd 1676 6d3e d675 febd
00000270: 6bee b43d 2bbc 48bb 6a0a 61bd ec28 0bbe
00000280: 2200 ac3d 860a c63d cffe ac3c dbff 11be
00000290: c45e 0bbe a633 24be 437d 3a3d 05d8 d83d
000002a0: 8763 c0bd c344 3f3e 88f4 36be f0c2 de3d
000002b0: 9dbc eb3c fb3d c13d 7ccb 623d e296 543d
000002c0: 6454 873d 299f f4bc 03de 4ebd 205d 42be
000002d0: 8d7c f8bd 033c da3c 12ef c8bd ae65 0f3e
000002e0: edff ebbd 5aaf 1dbd 7ae2 f6bc 9681 55be
000002f0: 2e4b 57be 7d3e cabd cca7 80be 37e1 f73d
00000300: 7c6c b7bd 12bc 59be 7db5 1abe e439 34be
00000310: a97a 7b3e c11e 83bd 60de 403e c220 25be
00000320: 67fa e9bd 02bd 8dbd 48df 34bd e4e1 fabb
00000330: eb8a 9b3d 06b4 493c 067a 723c 5544 33be
00000340: 3afc 0c3e 5140 3bbe 3988 ef3d 4119 25bd
00000350: ec0b 253e e0a7 74be 8dfb 6dbe 73cf 8bbe
00000360: 3875 4a3e abb0 733b 3a4d a7bc 85cf c03d
00000370: de6b e73c 53f9 a5bc 1fb9 1cbe c257 fbbc
00000380: f2ca 003d e3d5 123b 62e7 a0bd 4a31 9e3d
00000390: 5418 a73d c395 4f3e 43f8 1f3d 21ca e43d
000003a0: dee6 2e3e ba44 c33d c66a cc3c 3859 393e
000003b0: 79de 253c c204 e3bd 47bc 83bd 960e 9fbd
000003c0: 5dd2 4ebd 155b e93d 47d7 133c 4f66 973b
000003d0: 62ec b3bc 3b98 0fbd dfb0 573c a3e2 743e
000003e0: 7103 6b3d 7eb0 adbb 2065 c73d f14b 593b
000003f0: ddbf 863e 8404 00be caf2 50be 218e 95bd
0.15548702 0.090796486 -0.29472792 0.13101462 0.20604281 0.37052342 0.057285406 0.03275272
0.31351465 -0.15592723 0.08315323 -0.13809936 0.07635696 -0.080725424 0.12161746 0.16894089
-0.13943504 -0.01710446 -0.013551791 0.036089666 -0.08324959 0.020976359 -0.24213056 0.029288054
-0.03053388 -0.3054921 -0.05639518 0.06982543 0.083578035 0.17493142 0.1617897 0.00079889846
0.09061555 0.09008928 0.066934474 -0.2561537 -0.06418296 -0.19375047 -0.15005367 -0.23466265
0.01750769 -0.15298703 -0.009881054 -0.07041705 0.024247149 0.04516245 0.17149454 0.1487549
-0.09543549 -0.21381474 0.033837862 -0.18386382 0.034520578 -0.21129128 -0.36304244 -0.07343627
0.0066026356 0.015178154 -0.24882035 -0.23813191 -0.012901133 0.05379581 -0.042843685 0.09892051
-0.083915934 -0.072626606 0.07067439 0.1332153 -0.2684393 -0.05385959 0.22238968 -0.0069421898
0.015018257 0.08891394 0.07330659 -0.3341464 -0.029838137 0.1698881 0.14375646 0.02250948
-0.15538259 -0.16889538 0.1299185 0.073551714 0.11164406 -0.054149617 0.23140232 -0.18416756
-0.0035076917 0.06138018 0.04654043 -0.15756191 0.5222148 -0.11799138 -0.24548408 -0.25884658
-0.015275674 -0.013472175 0.21523686 0.28870118 0.062145654 0.037202563 0.016359543 -0.0436585
-0.11014824 0.18763258 -0.061322346 0.08520887 -0.20596254 -0.00041899737 -0.06611612 0.18407018
0.1528398 0.11783913 0.033138067 -0.0016691615 0.35958397 -0.15027377 0.010761784 0.021777095
-0.022554088 0.1778291 -0.050507516 -0.17182103 0.11289893 0.012855625 -0.19558628 0.127084
-0.32109421 0.15647589 0.06817091 0.27983075 -0.2529122 0.103073224 0.101564065 -0.22646752
0.1850513 0.049124 0.09289272 -0.046137482 0.050541308 0.032352723 -0.15571561 -0.15261745
0.124244034 -0.015354118 -0.10354409 -0.0011702502 0.13164364 0.09766946 0.30794302 -0.2979366
0.11985822 -0.090690754 0.23189577 -0.12424819 0.08834537 -0.0030629735 -0.054941572 -0.13589829
0.08398463 0.09669976 0.021117596 -0.14257757 -0.13610369 -0.16035327 0.045529615 0.105880775
-0.09393983 0.18678574 -0.17866719 0.10877025 0.028776461 0.0943565 0.05536984 0.051901706
0.06607893 -0.02986105 -0.050504696 -0.18980837 -0.12133131 0.026639944 -0.09811224 0.14003631
-0.11523423 -0.038497306 -0.03013729 -0.20850214 -0.21024773 -0.098752 -0.2512802 0.12103503
-0.089562386 -0.2126315 -0.15108295 -0.17600209 0.2455851 -0.0640235 0.1883483 -0.16125777
-0.114247136 -0.06920816 -0.04415825 -0.007656323 0.07594856 0.012310987 0.0147996005 -0.17506535
0.13768092 -0.18286254 0.11695904 -0.040307287 0.16117829 -0.23892164 -0.2324049 -0.2730671
0.19771278 0.003718416 -0.020422567 0.09414581 0.028249677 -0.020260489 -0.15304993 -0.030681495
0.031443544 0.0022405318 -0.07856633 0.07724245 0.08158937 0.20271973 0.03905512 0.111713655
0.17080256 0.09534593 0.024953257 0.1810044 0.010123842 -0.11084892 -0.064323954 -0.07766454
-0.050493587 0.11394326 0.009023494 0.0046203504 -0.021963302 -0.035057288 0.013164728 0.2391458
0.05737633 -0.0053005805 0.09736085 0.0033156837 0.26318255 -0.12501723 -0.20405117 -0.073024996

u_model.blocks.1.W1.bias f4 [42]
00000000: f83b d73c e338 d8bd a011 81bd 2dd3 f73c
00000010: a45b afbc cb39 f8bd 8a9d 53be b150 3abe
00000020: c191 abbd b4e5 6e3c 3f55 95be 4dea 97bd
00000030: 14d2 d9bd a072 7ebc ea48 57be d5d7 3a3e
00000040: 434d a33d 3b3c 583d b1d2 4fbe e29c 66be
00000050: 7eb4 913d 1d2c 37bd 5be7 c4bd 6b76 12be
00000060: 45f2 eabd 7729 fdbc f9d4 9fbe b776 eb3d
00000070: 3863 e4bd 018e a8bd d97d ca3d c0ca 5bba
00000080: 7a54 a33d b37a 1dbe 25d5 dcbd 6f12 3fbe
00000090: 8b92 133e a96f 993d 9130 c23c e44b 7bbd
000000a0: d021 083c ec4f 52be
0.026273713 -0.10557725 -0.0630219 0.030252064 -0.021406002 -0.12120398 -0.20665565 -0.18194844
-0.0837741 0.014581133 -0.291666 -0.07417736 -0.10635772 -0.015530258 -0.21023908 0.18246396
0.07973721 0.052791815 -0.20295216 -0.22520784 0.07114504 -0.044719804 -0.0961444 -0.14302985
-0.114719905 -0.030903561 -0.31217173 0.114972524 -0.11151737 -0.0823021 0.09887285 -0.0008384399
0.07975097 -0.15378837 -0.107828416 -0.18659376 0.1441137 0.074920006 0.023704799 -0.06135167
0.008308843 -0.205383
