saved_models/1d_burgers/piratenet_pinn.pt (torch, 93569 bytes, 50 tensors)

u_model.W f4 [20, 2]
000000 0d df 31 be db 46 e9 bf 73 7a 47 3f b9 c7 81 bf
       -0.17370243 -1.8224748 0.7792122 -1.0139076
000010 f9 2e 62 3f 36 ee 20 3f de b3 81 be 5e fc 29 c0
       0.88352925 0.6286348 -0.2533254 -2.6560283
000020 1e f2 44 bf 23 bb 64 3f 55 6c ea 3e 38 da 79 3d
       -0.7693194 0.8934805 0.45785776 0.060999125
000030 fa af c2 3f 58 fe 68 3f 81 64 95 3e 22 39 78 be
       1.5209954 0.910131 0.2917824 -0.24240544
000040 28 cd 62 3d 3b bd fc bf 7f 95 c4 3f 80 d5 00 3f
       0.055371433 -1.9745249 1.5358123 0.50325775
000050 88 43 9e 3f eb f3 36 bf 33 01 85 3b 23 2a 01 3f
       1.2364359 -0.7146594 0.004058981 0.5045492
000060 ff f7 42 3f 50 11 db bf aa 9a a4 3f 52 49 9b bf
       0.7615966 -1.7114658 1.28597 -1.213175
000070 53 a6 a4 3e 18 1b 3d bf 5c fc 71 bd c4 9f 18 bf
       0.32158145 -0.73869467 -0.05907856 -0.59618783
000080 f0 84 b5 3c 9f ad 7a 3f 1c 9c b7 3e db 97 ec 3e
       0.022158116 0.97921175 0.3586129 0.46209607
000090 23 74 a0 3f 31 a5 3b 3f 39 6a f8 3e 7b ee cc bf
       1.2535442 0.7329894 0.4851854 -1.6010278

u_model.b f4 [20]
000000 2f 13 b4 40 90 36 ad 3f 78 8d 67 40 83 ba ca 3f
       5.6273417 1.3532276 3.6180096 1.5838169
000010 8d 73 bc 3f 3e fb 5d 3f 22 c7 7e 40 6b f6 17 3f
       1.4722763 0.8671149 3.980904 0.5936038
000020 f3 74 3e 40 07 c8 c7 40 67 9a bb 40 66 67 92 3d
       2.975888 6.2431674 5.862598 0.07148628
000030 d2 7f ab 40 48 53 75 40 e0 a5 b8 40 85 18 c1 3e
       5.359353 3.833208 5.7702484 0.3771402
000040 ed af 11 40 ce b2 fb 3f 54 fd bd 40 f5 b9 b0 40
       2.2763627 1.9663942 5.937174 5.5227

u_model.gate_U.weight f4 [42, 42]
000000 e4 2a 95 bd a5 e7 0a be 28 f6 1e 3e e0 5a 91 be
       -0.07283571 -0.13564928 0.15523589 -0.28389645
000010 c5 37 e0 3c 9b 8e 4b be b3 41 08 bc 7d 38 54 3d
       0.027370343 -0.19878618 -0.008316445 0.051811684
000020 b6 04 1d be 3d 0b 21 3d 58 b0 ea bb 3c e4 0f 3d
       -0.15333828 0.03931736 -0.007162135 0.03512977
000030 28 72 42 bd 20 96 01 3d 9c f9 8b bd 56 07 ae 3e
       -0.04747215 0.03163731 -0.068347186 0.33989972
000040 45 f9 fd bd d3 9d 93 bd 10 b4 96 3e a0 a9 7e 3b
       -0.1240106 -0.07207837 0.29434252 0.0038858429
000050 0e b2 1b 3e 50 93 3b 3d 6a 0f 94 3e f4 fd 2f be
       0.15204641 0.045794785 0.2891801 -0.17186719
000060 49 ad 5c 3d 00 fa 1d bd bc 74 7d bd de 7a d0 3d
       0.053876195 -0.038568497 -0.061878905 0.10179685
000070 66 84 8a 3d b8 23 71 3d 84 0b a6 be 63 73 98 3c
       0.06763534 0.058871955 -0.3243066 0.018609708
000080 c2 ea 1e 3e 16 58 b1 be fe 7e cf 3e 9e 0b 50 bd
       0.1551924 -0.34637517 0.40526575 -0.05079233
000090 6d cd 83 3e 3a 29 66 3e f8 f3 72 3e 02 8b 81 bd
       0.25742665 0.22476664 0.23725879 -0.06325342
0000a0 dd 60 d4 3c f4 51 a9 3e a0 53 82 be fe 02 bd bd
       0.025925094 0.33070338 -0.25454426 -0.09229086
0000b0 b8 6b a9 3d 4e 2d 8e be 43 99 a6 3e 15 aa 2d be
       0.08272499 -0.2776894 0.32538804 -0.16959412
0000c0 2f 83 af bd 65 3c 0d be 0c 3b a1 3b bf bd c3 be
       -0.08569943 -0.1379257 0.004920369 -0.38230702
0000d0 70 92 1a 3e c9 96 84 be 11 03 a1 be 67 12 62 be
       0.15094924 -0.2589629 -0.31447652 -0.22077332
0000e0 42 dc 53 3d 07 59 47 3e 6a e1 10 be 31 d8 a7 be
       0.051723726 0.19467555 -0.14148489 -0.32782128
0000f0 e1 f1 bb 3e fa db 8a 3e ab 2f c7 bd bd e7 e7 bc
       0.36707976 0.27120954 -0.09725889 -0.028308744
000100 d5 2b 96 3e 12 a5 a6 bd 3b 78 a3 3e 63 93 9d bd
       0.29330316 -0.081369534 0.31927666 -0.076941274
000110 45 17 81 be 11 48 e6 bd ed 66 b4 3e 35 f2 5d be
       -0.25213066 -0.11244214 0.35234776 -0.21674426
000120 43 df 3b be 52 9c 3e ba 2c 4b ab 3b 08 18 e4 bd
       -0.18346886 -0.00072712183 0.005227467 -0.11137396
000130 d5 4d f1 3d 4f b0 c5 3d bf e5 a2 3e 71 39 4b bd
       0.117824234 0.09652769 0.31815907 -0.049615327
000140 d0 6d 67 be e2 3a 4e be f5 55 06 be 75 0c 2c 3e
       -0.22600484 -0.2013965 -0.13118728 0.16801627
000150 72 a5 fb 3d 2b 9a 68 be cd df 95 3d 3e fd 1b be
       0.122874156 -0.2271506 0.07318077 -0.15233323
000160 8e af 3a be d8 03 a6 3d eb ca 6f 3e f3 b3 cc 3d
       -0.18231031 0.08106202 0.23417251 0.0999526
000170 b5 80 45 bd 4b 24 4b 3e 0e 37 a8 be 8b 41 fa bd
       -0.048218448 0.19838063 -0.32854503 -0.122195326
000180 07 9e 88 3e f2 43 38 3e a8 9f 9f 3e ae 90 96 bc
       0.26683065 0.17994669 0.31176496 -0.018379536
000190 94 a3 04 3e fe b2 9e 3d cb 6a f5 bd 88 56 30 bd
       0.12953025 0.07748984 -0.1198326 -0.043051273
0001a0 bd 15 76 3d eb da 98 3e 53 3a 60 bd ad c5 54 3e
       0.060079325 0.2985452 -0.054743122 0.20778532
0001b0 df b7 09 be 57 13 ec 3d 7f 0c 14 3e bd 52 20 3e
       -0.13449048 0.11527126 0.14457892 0.15656562
0001c0 b8 81 11 3c 7a d0 ca 3e af 4f 5b bd 7d 1a 06 3e
       0.008881025 0.3961218 -0.05354279 0.13096042
0001d0 f4 3f 84 3e b5 20 37 be 34 b0 62 be 37 13 b8 be
       0.25830042 -0.1788357 -0.22137529 -0.3595216
0001e0 23 9e 92 bd 1f 1b e3 3d 02 4b 9c 3e dc 42 86 3e
       -0.071590684 0.11089157 0.30525976 0.26222885
0001f0 e4 a1 bb 3d 70 4e 51 be 17 75 55 bd df 51 a3 be
       0.091617376 -0.20440078 -0.05211362 -0.318984
000200 bc f6 c0 3c e2 49 af 3d fb 9f 08 bd 9c 69 5c be
       0.023555152 0.08559014 -0.033355694 -0.21524662
000210 ee be 05 be 5a 37 cd 3d f7 24 cc be c9 2a 9f 3c
       -0.13061115 0.10020323 -0.39871952 0.019429581
000220 f1 9f 73 3d 59 14 9f 3d 26 70 4d be 23 90 4b 3d
       0.059478704 0.07767553 -0.20062312 0.049698006
000230 3f 4a fb bd ff 3f 7d 3c 15 10 cf 3c 8b 81 e4 bc
       -0.12270021 0.015457152 0.025276223 -0.027893802
000240 93 b1 37 3e 92 91 01 3e d2 f5 ae bd 4a 35 5f be
       0.17938833 0.12653187 -0.0854298 -0.21797672
000250 10 bd 35 3e cc 36 a9 be 8f 1c 42 3c e9 9d 04 bd
       0.17747903 -0.3304962 0.011847629 -0.032377157
000260 ba a5 7d bb f0 c5 57 be c2 d6 ff 3c 73 fe d6 bd
       -0.0038703517 -0.21071601 0.031230334 -0.10497751
000270 87 7e 57 be 21 44 79 be 65 5f 29 3d 0d 4c 77 be
       -0.2104436 -0.24342395 0.04135074 -0.24150105
000280 a8 19 44 3d 92 2e 19 3e f0 2c 62 3e 21 92 74 3e
       0.04787603 0.14959171 0.22087455 0.23883869
000290 b7 70 85 3d 9b 55 e8 bd af de bf be 0a 93 3f 3e
       0.06515639 -0.11344453 -0.37474582 0.18708435
0002a0 34 ca 87 3e e6 af cc bd 22 3a 37 3e 3c 27 26 be
       0.26521456 -0.099944875 0.1789327 -0.16225904
0002b0 d1 61 01 3c b8 cc c7 3d b0 12 9d 3e c7 bb 2b 3d
       0.007896856 0.09755844 0.3067832 0.041927125
0002c0 54 ed 17 3d b4 11 3b 3c 0d 12 2c be 91 e8 60 be
       0.037091568 0.011417795 -0.16803761 -0.21963717
0002d0 ae 54 84 bc 52 c6 61 3e b6 75 97 3c 53 f3 97 3e
       -0.01615366 0.2204831 0.018488746 0.2967783
0002e0 53 77 ba 3d 5a ce a6 bd f6 64 39 3e d7 e6 94 3c
       0.091047905 -0.08144827 0.1810492 0.01817648
0002f0 f6 bd 1b 3e c7 bd 4b 3e 5c a1 dd 3d 4f ad df 3d
       0.15209183 0.19896613 0.108217925 0.10921728
000300 65 8b 09 be 64 57 eb bd df 5a d4 bb 84 56 84 3d
       -0.13432081 -0.11491278 -0.0064805592 0.06461814
000310 e4 ac 9a bb 83 d9 be 3e 9b 9c 2f bd 9c 11 87 3e
       -0.004720317 0.37275323 -0.04287396 0.26380622
000320 de 9a c7 3e 87 b7 41 be 43 f4 00 3e 75 d8 91 be
       0.38985342 -0.18917666 0.12593178 -0.28485456
000330 d1 cb 0e 3e b6 93 7f 3e 8e eb 50 3e 49 d7 19 3e
       0.13944937 0.24958691 0.20402357 0.15023531
000340 de 1d 79 3e 18 2b 26 3d 4e 98 d4 be d3 5c ee bd
       0.243278 0.04056844 -0.4152245 -0.116387986
000350 76 4f 2b 3c 3a 26 03 3f 35 c6 80 be 06 ad 3b be
       0.010455957 0.51230204 -0.2515122 -0.18327722
000360 d7 ca 8d be 71 8b ab 3e 39 5f 21 bf be c8 5a bc
       -0.27693817 0.33504823 -0.63035923 -0.013353525
000370 ef 15 57 be 85 00 13 3e 3a 70 32 bd e5 05 92 3d
       -0.21004461 0.14355667 -0.04356406 0.071300305
000380 66 92 ef 3b d6 a1 19 bf 80 81 bd bb 9b d9 1c 3d
       0.007311153 -0.6001257 -0.00578326 0.038293462
000390 03 a8 33 be ed f9 45 3e c4 ba bb bc 75 b1 fa 3d
       -0.1754456 0.1933362 -0.022916205 0.122408785
0003a0 41 c1 a2 bd 2f 6d 36 3e 43 f5 7b 3e 57 d3 6e 3e
       -0.079470165 0.17815088 0.24605279 0.23322807
0003b0 4f 45 74 3d 25 37 57 be 89 fd 09 3e d4 76 fc bd
       0.05963641 -0.2101713 0.13475622 -0.12327352
0003c0 60 74 2b 3e de 27 06 bf f2 bc 2b bf f7 7d 07 be
       0.16743612 -0.5240458 -0.6708518 -0.13231646
0003d0 06 b8 aa be e5 58 e0 3c 42 24 a5 be 49 02 ab 3c
       -0.33343524 0.027386138 -0.32254225 0.020875113
0003e0 b9 53 a8 3d c6 fa 1e 3e 50 13 1a bf 02 68 62 be
       0.08219094 0.1552535 -0.6018572 -0.22109988
0003f0 ed 53 8d 3d 8d a0 a6 be 7c 97 2d 3e d0 53 fa bb
       0.06900773 -0.32544366 0.16952318 -0.0076393858

u_model.gate_U.bias f4 [42]
000000 27 0e 00 3e d0 b3 9b be b8 ec 99 3e 63 20 db bd
       0.12505399 -0.30410624 0.30063415 -0.10699537
000010 80 a1 64 3d 95 86 cd bd 9e 34 0b be 52 d9 15 3e
       0.05581808 -0.10035435 -0.1359429 0.14633682
000020 3b 10 04 3c d4 c3 82 3e b6 71 28 be 58 52 ab bc
       0.00806051 0.2554003 -0.16449627 -0.020913288
000030 81 3d 4c be ee a7 08 be b2 2f 94 3d 31 dc d5 3c
       -0.19945337 -0.1334531 0.0723566 0.026105972
000040 7d 73 b0 3e 44 13 a4 3d 19 4e b2 3e fb 39 02 be
       0.3446311 0.08011487 0.3482521 -0.1271743
000050 e4 68 4b 3e 7b af 68 be 0d 9e 7e be 44 1e bc 3e
       0.19864231 -0.2272319 -0.24864979 0.3674184
000060 ee 19 b3 3e 3f b0 9f 3e eb 3c 31 3e 48 d1 7b be
       0.3498072 0.31189153 0.17308395 -0.24591553
000070 5c de b8 3d f1 88 34 3e 07 0a 5f 3e f2 7a 55 3d
       0.09026787 0.17630364 0.21781169 0.052119203
000080 03 06 a4 bd 9a e7 89 be 62 a9 a6 3d 8c c7 85 be
       -0.08008959 -0.2693451 0.08137776 -0.26128805
000090 e5 19 b6 be 74 d0 43 3e c4 56 bd 3e 68 89 64 be
       -0.3556663 0.19122487 0.3698026 -0.22318041
0000a0 23 c0 1c 3e f2 74 04 3e
       0.1530767 0.12935236

u_model.gate_V.weight f4 [42, 42]
000000 d1 35 13 3e e1 6c 56 3e 11 af 45 3d 55 49 3a 3e
       0.14375998 0.20939972 0.04826266 0.18192036
000010 83 7d 4e 3e 4e ab b9 3c 09 46 91 bd b0 3c a4 3b
       0.20165066 0.022664692 -0.07093436 0.0050121173
000020 dc cd b8 bd e8 4b 9f 3d 1e 13 53 be 37 25 92 bd
       -0.090236396 0.0777815 -0.20612761 -0.071360044
000030 e3 8e d5 3d 6d b5 03 3d 89 0d 34 3e 09 4f ae bd
       0.10427644 0.032155443 0.17583288 -0.085111685
000040 2d da de bc d7 a6 d1 3d 4f 16 38 bd 2d 4b 4a bd
       -0.027203644 0.102369 -0.04494315 -0.0493881
000050 5f ad a5 bc a3 4d 9d bc f1 fe 42 bc 40 47 49 bd
       -0.020224271 -0.01920206 -0.011901603 -0.049140215
000060 14 2c 02 be 4d 93 32 3e 92 4d 0a bd 65 47 be bd
       -0.12712127 0.17439003 -0.033765383 -0.09290961
000070 22 65 12 3e 44 1b ad bd 61 a7 ff bc f5 68 3b 3d
       0.14296392 -0.08452466 -0.031207742 0.04575439
000080 fe a2 d3 bd ac e2 36 3e db de 41 bd 93 58 c3 bd
       -0.10333823 0.17859906 -0.047331672 -0.095383786
000090 d0 f7 f7 bd 1f 11 c7 bd a8 53 ab bc 5b e5 de 3c
       -0.12107813 -0.097200625 -0.020913914 0.027208975
0000a0 bb 65 05 3d 33 c7 e9 bd 77 d3 a8 bd 22 3a eb 3e
       0.03256772 -0.11414947 -0.08243459 0.4594279
0000b0 f1 f5 d5 bd 09 49 8d 3e b0 d0 a1 3d a6 42 a7 3e
       -0.104473 0.27594784 0.07901132 0.32668036
0000c0 26 a4 43 be 84 50 4c 3e 35 ac 0e be 8c a4 c4 bb
       -0.19105586 0.1995259 -0.1393288 -0.006001061
0000d0 7d 24 17 be 86 99 38 3e f1 00 f7 3b dd c4 31 3e
       -0.14760013 0.18027315 0.007537954 0.17360254
0000e0 6b 5a b4 3d 2d d2 2a be a0 e5 81 3d 74 2e 27 3e
       0.08806308 -0.16681738 0.063426256 0.16326314
0000f0 97 10 da bd 84 65 b1 3c 6b f8 8c 3d d5 eb da bd
       -0.106476955 0.021654852 0.068833195 -0.10689513
000100 54 30 50 be c7 b0 85 3e 09 ec d7 bd 17 b0 1b be
       -0.20330936 0.26111433 -0.10543067 -0.15203892
000110 cb 4c 1c 3e 07 64 46 3e a1 ce 8c 3d 75 65 93 3d
       0.15263669 0.19374095 0.06875349 0.07197086
000120 41 0c b9 3e 81 a2 91 bd 7e ac 54 3c ba 34 8a 3e
       0.3614216 -0.07111073 0.0129805785 0.26993352
000130 43 03 49 be ef 8b a5 bd c6 88 b2 bd 4c 04 b3 bd
       -0.1963015 -0.08083331 -0.08717494 -0.08741054
000140 3b 06 c6 bd 5c 4b a1 bd aa 57 af bb 8e 1a 65 be
       -0.09669157 -0.07875702 -0.0053510265 -0.22373411
000150 dd a6 1c bc c3 e6 22 bd 04 72 ec 3b 38 5d 66 3d
       -0.009561268 -0.039770853 0.00721574 0.056241244
000160 af 0d fb 3d a3 3d 15 bd 38 1a 56 be b2 9a b1 bd
       0.12258469 -0.036435734 -0.20908439 -0.08672084
000170 41 9c 27 be a0 75 a5 bd d7 e8 47 3d 70 9f be 3d
       -0.163682 -0.08079076 0.048806038 0.09307754
000180 e1 d8 a1 bd 20 8f 2e be 47 59 83 be e4 dd 0b be
       -0.079026945 -0.17046785 -0.2565405 -0.13658863
000190 0d 00 48 be 75 59 af bd 7c 5e 04 bd 06 c2 00 bd
       -0.1953127 -0.085619844 -0.03231667 -0.031435035
0001a0 f1 43 4f 3d e6 96 6a be c7 58 0d be 9a f5 a4 bd
       0.050601903 -0.22909126 -0.13803397 -0.08054657
0001b0 4c 1a 51 3e b2 fe 33 be 30 07 55 3d 04 97 39 bd
       0.20420188 -0.17577627 0.052008808 -0.045310035
0001c0 72 44 cf bd 45 34 62 be cf 7b 2a 3e f3 4a 4c 3b
       -0.10120477 -0.22090252 0.16648792 0.0031172603
0001d0 5a e0 02 bd b2 0f fe bd 0d 7d 79 3d d0 c3 b9 3d
       -0.03195224 -0.124053374 0.060910273 0.090705514
0001e0 3d 11 45 3d ed d6 2e be e1 15 24 bd 2d d7 88 3c
       0.048112143 -0.17074175 -0.040059928 0.016704166
0001f0 3e e5 38 be bb 15 3e 3d f0 7a 2a 3e e2 55 88 3e
       -0.18056199 0.046407443 0.1664846 0.26628023
000200 2a 4a 9a bd de 7b e5 3d d6 a9 6b 3e d6 cb 1c be
       -0.07533677 0.112052664 0.23014006 -0.15312132
000210 5e c1 04 3e 5b 74 ca 3c 8e cb 87 3e 17 e4 27 bc
       0.12964389 0.024713686 0.26522487 -0.010247252
000220 3e 6a 17 be de bb 3a be 2b b7 3e 3b 2f 9f e4 3d
       -0.14786622 -0.18235728 0.0029100876 0.11163174
000230 a7 eb 0e 3e 74 c6 ad bd 7a 24 c0 3c e4 0d 24 bd
       0.13957082 -0.084851176 0.023454893 -0.04005231
000240 3a 99 a7 bc fe 48 04 be 67 fe bc 3c 9d af 29 3e
       -0.020458806 -0.1291847 0.023070527 0.16570897
000250 2d 13 1c 3d 0d 1d 09 3e 81 c3 b7 bc 51 54 5c 3e
       0.038104225 0.13389988 -0.02243209 0.21516539
000260 c2 40 c0 bc 42 e8 49 3e 11 05 0b bc 32 05 46 3c
       -0.023468379 0.19717506 -0.008485095 0.0120862
000270 af 33 18 be f7 28 0f 3b 5e 36 61 bd 51 ae 4e 3e
       -0.14863466 0.0021844485 -0.05498349 0.20183684
000280 06 48 15 be 4e 32 1b be 5c c5 ab bd 12 63 83 be
       -0.14578256 -0.15155908 -0.08387253 -0.25661522
000290 50 c9 83 bc 0c 6f de bc 05 c4 4a 3e 3e ee fa bd
       -0.016087204 -0.02715256 0.19801338 -0.12252472
0002a0 5d 1e 08 be cf a7 ab 3e 27 09 83 be 38 f4 b5 3e
       -0.13292833 0.33526465 -0.2559292 0.35537887
0002b0 34 62 78 bd 30 a6 61 3e ed 57 a4 be ec d9 22 3e
       -0.06064053 0.22036052 -0.32098332 0.15903443
0002c0 4e 19 fe bc 99 9b 10 3e 4f 19 13 3e d4 34 d0 bd
       -0.031017926 0.14121856 0.14365123 -0.10166326
0002d0 33 92 e6 3d 07 b9 03 be 5c c5 9e bd 91 75 ab be
       0.11258354 -0.12863551 -0.07752487 -0.33488134
0002e0 51 47 14 3b 8f 66 88 bd 94 bd d9 bd 38 d3 29 bd
       0.0022625516 -0.066601865 -0.10631862 -0.0414612
0002f0 0c 3b e7 bd b8 ac c7 bd ae 65 38 be 24 64 85 bd
       -0.11290559 -0.0974974 -0.18007538 -0.06513241
000300 d9 a2 88 3d 65 31 2b bd fd c9 50 3e cf 08 b0 3d
       0.06671686 -0.041795153 0.20389552 0.0859543
000310 78 fb 87 3d 0c 31 f6 bd 2c 9b b3 3d 47 78 0f bd
       0.06639761 -0.12021074 0.08769831 -0.035026815
000320 14 1c ac be 0d aa 8e 3e d7 91 a9 bd 5a 7d 29 bc
       -0.33615172 0.27864113 -0.0827977 -0.010344828
000330 a2 db de bd 04 cf 24 be 07 f5 c9 bc fd 1d cc 3d
       -0.108817354 -0.16094595 -0.024652971 0.09966657
000340 07 dc be 3d 9d 64 aa be ad 52 31 3e 45 4b 36 3d
       0.09319311 -0.33279887 0.17316695 0.044505376
000350 53 0a d1 bd 98 12 90 be a8 d1 07 3d 54 7e a9 bd
       -0.10207047 -0.28139186 0.03315893 -0.08276048
000360 89 9d 8e 3b ed 44 1f bd 71 f3 80 3e 20 9f c9 bd
       0.0043522757 -0.038884092 0.2518573 -0.09844804
000370 55 fe 3e 3e f6 53 ab bd 91 86 ab 3d 26 cd a1 3d
       0.18651707 -0.08365624 0.08375276 0.07900457
000380 20 55 2f be ae b6 8f 3e 31 cd c5 bd 3e 79 cc bc
       -0.17122316 0.2806906 -0.09658278 -0.024960157
000390 00 50 21 3e 36 8f a7 3d d8 2c 37 3e 67 a7 f4 bd
       0.15753174 0.08181612 0.178882 -0.11945992
0003a0 14 43 19 3d 0b b1 09 be b5 1c 5b bd a0 92 02 be
       0.037417486 -0.13446443 -0.053494174 -0.12751245
0003b0 ac d9 27 be e9 b7 0a 3e c5 4e 45 be 6e 51 74 3c
       -0.16391629 0.13546719 -0.1926833 0.0149119925
0003c0 f9 d3 18 3e af 50 7b 3e cf 23 aa 3e 0e d8 3b bd
       0.14924611 0.24542497 0.33230445 -0.045860343
0003d0 4d 9a 5c 3e ed 9a a9 3d ea 31 27 3d 3e 76 d1 bd
       0.21543236 0.08281503 0.040819086 -0.10227631
0003e0 1a 5b 9b 3d 22 94 e5 3d 6b 68 98 3e f5 9a 81 bd
       0.075857356 0.11209895 0.29767165 -0.06328384
0003f0 08 2f 80 3d d7 5b a6 3e 97 8b 59 be ce 2d 8d bd
       0.062589705 0.32491943 -0.21244656 -0.06893502

u_model.gate_V.bias f4 [42]
000000 10 9c 8a bd 77 84 06 3d 72 6f 92 bd 4e e6 b2 bc
       -0.06768048 0.032841172 -0.07150163 -0.021838333
000010 2f 11 38 bd 67 02 07 bd b9 6b a5 bc 3d 5b 99 bd
       -0.044938263 -0.032961275 -0.020192968 -0.074881054
000020 78 75 b2 3d 22 c1 9f bd 4c 21 52 3d 7c 58 34 bd
       0.08713812 -0.07800509 0.051301286 -0.044029698
000030 8c ee 13 3e aa 9f d5 3d bb 84 be bd 95 82 61 3c
       0.14446467 0.10430844 -0.0930266 0.013764043
000040 cf 4b 8d bd c2 ca ee 3d 1b b7 40 be 96 03 18 3e
       -0.06899225 0.11659767 -0.18819849 0.14845118
000050 c7 df 21 be 2e 17 4f bd 4e 79 ed 3d 55 3a a6 bd
       -0.1580802 -0.050559215 0.11595403 -0.08116595
000060 21 3f 3b be e3 a1 4b be d1 34 0d 3c 5d ab ff 3c
       -0.182858 -0.19885974 0.008618549 0.031209642
000070 eb 2e af bd 04 0c 60 3d 60 74 56 be f8 36 d3 3d
       -0.08553871 0.05469896 -0.20942831 0.10313219
000080 1e 0b 05 bd c7 c0 29 3e 7d e2 dd bd df b5 ee 3d
       -0.032481305 0.16577445 -0.10834215 0.11655783
000090 22 92 a8 3d d0 fa cc bd 3b fb 50 be 66 0b 2e 3e
       0.082309976 -0.10008776 -0.20408337 0.16996536
0000a0 4e 6e 66 be 3f 9d f0 3b
       -0.22503015 0.007342964

u_model.blocks.0.W1.weight f4 [42, 42]
000000 65 07 59 be 9f 1b cf 3d 63 8e 78 bd d5 9c 0b 3e
       -0.21194227 0.1011269 -0.060682666 0.13634045
000010 e8 16 53 3e f0 47 40 be 23 b4 86 be b2 cf 7a bd
       0.20614207 -0.18777442 -0.26309308 -0.06123323
000020 50 4c 94 3a 90 84 99 be e6 39 5e 3d 8c 51 b7 3c
       0.0011314247 -0.2998395 0.054254435 0.022377752
000030 c2 63 a8 be 95 1f 21 be b2 1b b2 bd 73 b8 27 bd
       -0.3288861 -0.15734704 -0.08696689 -0.04094739
000040 34 0c 82 be ef 27 ce bc 7a 14 2a 3d a6 67 54 3e
       -0.25399935 -0.025165526 0.041523434 0.20742664
000050 7c b5 e0 bd d0 9a 27 bd 37 e3 dd bd 45 79 9d be
       -0.109721154 -0.040919125 -0.108343534 -0.30756584
000060 a5 28 79 3d 9d 1f 88 bd 1f 44 12 be d3 b5 84 be
       0.060829777 -0.06646655 -0.14283799 -0.2591997
000070 ef 1e 08 ba 79 50 24 be 52 52 30 3c 92 81 91 bd
       -0.0005192598 -0.16046323 0.010761814 -0.07104792
000080 32 a9 02 be 46 95 b5 3d 51 02 dd bd ca f4 99 3e
       -0.12759855 0.08866362 -0.107914574 0.30069572
000090 7c 6a b6 bd c9 c7 4e bd ec aa 99 be 56 cd 63 bd
       -0.08907029 -0.0504835 -0.30013216 -0.055615745
0000a0 e5 aa 28 be 0f 80 38 bc 5d ce 68 be 8a 00 0e be
       -0.16471441 -0.011261 -0.22734971 -0.13867393
0000b0 fe 0e d8 bd 9f f0 33 3e 02 60 2d be 6c 7d c5 bd
       -0.105497345 0.17572258 -0.16931155 -0.09643063
0000c0 8a 96 25 be ae c7 07 3e 75 8f 7e be ad 7f d0 3d
       -0.16170707 0.13259766 -0.24859412 0.10180602
0000d0 45 f7 1a 3e 25 54 00 3e e3 88 86 be 3c 31 65 3d
       0.15133388 0.12532099 -0.2627631 0.055955157
0000e0 d8 6d b6 bd d5 ef 9c bd c0 46 28 be 71 01 43 be
       -0.0890767 -0.07662932 -0.16433239 -0.19043519
0000f0 46 f7 21 3e 20 fb 03 3d 69 b1 04 be 0e 7b 4c be
       0.15816984 0.032221913 -0.12958302 -0.19968817
000100 a2 8b 54 3e 29 91 1c be f7 ba 8c 3d a3 2d 57 bd
       0.2075639 -0.15289749 0.06871598 -0.052533757
000110 7a c5 db bd f5 0f a8 bd 78 bc b0 bd 4f c3 87 3c
       -0.10731025 -0.082061686 -0.086296976 0.016572623
000120 0d e3 5f bd db fb d3 bd 30 2b c5 bd 31 36 22 3d
       -0.054659892 -0.10350772 -0.09627378 0.039602462
000130 c1 d4 30 3e fe da e5 3e 73 a3 b9 3c 2d 5a 30 bd
       0.17268659 0.4489364 0.022660946 -0.04305475
000140 46 d5 88 bd d8 f6 5b bd 69 9d 7a be cc de f7 3d
       -0.06681304 -0.053702205 -0.2447411 0.12103042
000150 bf 57 ef 3d 35 92 88 3e 59 6a 0a 3e 4e 86 14 3e
       0.11686658 0.26674047 0.13517131 0.14504358
000160 1a 12 8f 3d 06 57 05 bd db 4c 5d be 36 e7 1e bd
       0.069858745 -0.032553695 -0.2161135 -0.03879472
000170 ea c9 2e 3e ea 51 39 3e a1 e8 2b 3d 97 e8 8f bd
       0.17069212 0.18097654 0.0419699 -0.07026785
000180 64 aa 27 3d cc a3 81 3d 73 30 49 be 3c 47 a2 be
       0.04093398 0.0633007 -0.19647388 -0.31694973
000190 20 25 c0 bd e7 50 19 bd 5c 7a 23 be b2 ba 89 be
       -0.09382081 -0.03743067 -0.15964645 -0.2690025
0001a0 88 8a 61 bd 8a ee 2e be ad 5d 4e be ba cb 57 bd
       -0.055063754 -0.17083183 -0.20152922 -0.052684523
0001b0 1b 1b 26 be 0f 47 68 3e fe e6 95 3d 29 6c cf 3d
       -0.16221277 0.22683357 0.07319449 0.10128052
0001c0 bb 53 67 bd 96 f9 96 bd 78 64 a1 3e 4b 0c b4 bd
       -0.056476336 -0.073718235 0.31521964 -0.08791407
0001d0 fd cd 89 be 4f 2a a2 3e fb 7e 27 be 8c 3a c9 3b
       -0.2691497 0.31672904 -0.16357033 0.0061410125
0001e0 8c 68 b0 be 1f 87 eb 3c 7d f4 7b bd 58 aa 34 3d
       -0.34454763 0.028750954 -0.06151246 0.044107765
0001f0 f6 43 a1 bd 7c cf 63 be 70 a9 3b bd d1 b4 9e 3d
       -0.07874291 -0.22247118 -0.045815885 0.07749332
000200 62 96 9c bd e9 d2 ad 3d 8c 7a b2 3b 01 4e 6b be
       -0.07645871 0.084874935 0.0054467376 -0.22978975
000210 84 86 7a be 1a 66 39 bd de 2e e5 3c 79 7d 60 be
       -0.24465376 -0.045263387 0.02797645 -0.21922864
000220 23 0a cb 3d 90 87 14 3e fe a6 63 be a6 86 39 be
       0.09914043 0.14504838 -0.22231671 -0.1811777
000230 61 43 97 be 96 ca b7 bd b5 6a 6a be 10 93 6a bc
       -0.29543594 -0.08974187 -0.22892268 -0.014317289
000240 36 65 22 3e fc bb 54 3d ef 00 2c 3e ef 1a 13 be
       0.15858921 0.05193709 0.16797231 -0.14365743
000250 5d 0f fb 3d 4d 48 86 be 96 5e 75 3d 6d ec 5b 3d
       0.1225879 -0.26227036 0.059904657 0.05369227
000260 07 00 9b be e6 fc 8a bc 8b 8b 08 be fb ad c9 bd
       -0.30273458 -0.016966294 -0.13334481 -0.09847637
000270 12 50 16 bc 54 db e2 3d 95 15 1d be cf cb 6d 3d
       -0.009174364 0.1107699 -0.15340264 0.058055695
000280 ca 66 08 3e e5 4e a0 3e 36 fe c2 3d 3c 14 74 3c
       0.13320461 0.31310192 0.09521143 0.014897402
000290 af f2 6b ba ef f6 12 be 72 99 ff 3d c1 db d2 bd
       -0.0009000701 -0.1435201 0.12480439 -0.10295821
0002a0 60 08 87 bc d5 3b e5 3e fb 6f 24 be 5f 02 c0 3e
       -0.016483486 0.4477221 -0.16058342 0.3750181
0002b0 ff 6a 5d bc 7e dc b5 3e da f1 a3 be 4a a0 9b bd
       -0.013514279 0.35519785 -0.32020456 -0.07598932
0002c0 c6 d1 f0 bd 90 7b 40 3e ff de 74 bd af cf 41 3e
       -0.11758761 0.18797135 -0.05978298 0.18926881
0002d0 f1 73 26 bd 61 ee ee bd 36 25 fd bd 25 be 52 be
       -0.040637914 -0.11666561 -0.12360613 -0.20580347
0002e0 08 da 67 be e6 91 73 3d 59 ed f3 bd b2 8d ac 3d
       -0.22641766 0.05946531 -0.11910505 0.08425464
0002f0 9a b1 79 3d 33 9d 0e be d2 24 49 be 1b dc 9d 3c
       0.06096039 -0.13927154 -0.19642952 0.019269994
000300 48 bb 12 3e a0 c7 52 be e1 16 06 3d d2 56 e9 bd
       0.14329255 -0.20583963 0.032736663 -0.11393513
000310 88 5e e8 3d fb b1 0e bd 63 3b f5 3e ee 32 2b 3c
       0.113461554 -0.034837704 0.4789687 0.010449154
000320 e9 8a 1d be d6 7c b5 3e f1 6c 85 be 54 7e 8f bd
       -0.15385021 0.35446805 -0.26059678 -0.07006517
000330 6d 40 be be 7b 25 5a bd 6c 49 6d bd c1 f6 27 be
       -0.37158528 -0.0532584 -0.05793135 -0.16402723
000340 5f d3 bf bc cb 26 9f be 24 18 b4 3d 57 00 c4 3c
       -0.02341622 -0.31084284 0.08793667 0.023925943
000350 f2 c6 41 bd 5c 2b 52 be d8 fb b7 3e b3 7e c0 be
       -0.04730887 -0.20524353 0.3593433 -0.37596664
000360 88 e8 ba 3e 4d 18 5e be 57 42 a0 3e 9e d1 5f be
       0.36505532 -0.21688958 0.31300613 -0.21857306
000370 24 7c 28 bd 70 36 1c be 36 89 b0 bd c8 a7 7b be
       -0.041134015 -0.15255141 -0.08619921 -0.24575722
000380 f1 ff 55 3d 75 2d 22 3f b9 2d 8a 3d cc 60 1b be
       0.052246038 0.6335061 0.06747002 -0.15173644
000390 a8 2f 5d 3e e8 2f 1d bd 1c 08 cc bd 96 f0 f9 3d
       0.2160021 -0.038375765 -0.09962484 0.12204091
0003a0 8d 01 d8 3d e3 11 83 be 22 dc 60 bd 09 fb f3 3c
       0.10547171 -0.25599584 -0.054897435 0.029782789
0003b0 13 a0 a4 be e4 f4 37 3d 8f 24 c9 bb 5e ea 6f 3d
       -0.32153377 0.04491128 -0.0061383913 0.05857312
0003c0 4c 15 a8 be a3 36 81 3e ca 74 a8 3e f3 d8 a6 be
       -0.32828748 0.25236997 0.32901603 -0.32587394
0003d0 e3 47 9f 3e a1 36 c0 bc e4 5d 88 3e 95 cc 7c 3d
       0.31109533 -0.02346355 0.26634133 0.061718542
0003e0 4e d5 c4 3d 41 e5 19 be 74 5c da 3d a4 19 71 3e
       0.09610997 -0.1502886 0.10662165 0.23544937
0003f0 18 8d a8 be ee d4 2b be cc e4 56 bd dc 8e 6f 3e
       -0.32920146 -0.16780445 -0.05246429 0.2339434

u_model.blocks.0.W1.bias f4 [42]
000000 66 a5 53 be a3 ce 85 3d 7f ee 0b 3e c2 5f 60 be
       -0.20668563 0.065335535 0.13665198 -0.21911529
000010 b0 c0 1b be 97 aa 25 3b c9 de 1e be 41 73 81 bd
       -0.15210223 0.0025278681 -0.15514673 -0.06320811
000020 a1 64 f6 3d 49 d3 1a bd 0b 4d b0 be e6 0b 48 be
       0.12030912 -0.037799153 -0.3443378 -0.19535789
000030 83 ba 59 bd 87 71 45 be 5d af 7e bd 16 0a 7e bd
       -0.053156387 -0.19281588 -0.06217896 -0.062021337
000040 72 db c5 bd bf 51 5f be 45 a3 43 bd ee 76 0c 3e
       -0.096609965 -0.21808527 -0.047763128 0.13717243
000050 f3 8d 6d bd 7a d2 6a be 0e bc 65 be ce 39 07 be
       -0.0579967 -0.22931853 -0.22435018 -0.13205644
000060 f9 44 8b bb 25 64 01 be cb 86 c1 bd a8 da c4 bd
       -0.0042501655 -0.12635858 -0.09449538 -0.09612018
000070 35 af c9 bd 31 66 c7 3d aa e4 3f 3d ae d6 91 be
       -0.09847871 0.09736288 0.04684893 -0.284841
000080 9e c4 a8 bd 73 5f 2f bd 3b 72 0f bd 8e 1d b6 3d
       -0.08240627 -0.042815637 -0.035021048 0.08892356
000090 e2 3d 3d 3e ed 5c dc bd d1 38 2c bd 72 0a a1 bc
       0.18480638 -0.10759912 -0.04204637 -0.019658301
0000a0 1e 23 96 3d 17 3a 81 bd
       0.07330917 -0.06309908

u_model.blocks.0.W2.weight f4 [42, 42]
000000 7f 63 cc 3d b1 de 0f 3e d8 e6 54 3e d7 cd 4b bd
       0.09979915 0.14049794 0.20791185 -0.04975685
000010 1e 82 6e 3e ea bc 53 be a5 c2 2b 3e cf 4d 37 3e
       0.23291823 -0.20677534 0.1677347 0.17900775
000020 72 10 2b be ce c6 ed bc 6f e6 42 be 45 25 e0 bb
       -0.16705492 -0.029025462 -0.19033216 -0.0068403804
000030 18 5f fe bd 48 64 c6 3d 04 52 4e bd f5 fe 73 bd
       -0.124204814 0.09687096 -0.050371185 -0.059569318
000040 68 f0 07 3e 87 1a 84 3e 46 fd 0c be 6e db 71 bd
       0.13275301 0.2580149 -0.13768491 -0.059047155
000050 9f 1f e7 bd 93 9d 35 be 25 8e 8e 3d 5c 0d 35 bd
       -0.11285328 -0.17735891 0.06960706 -0.044202194
000060 d7 38 c1 bd 0f 66 ce bd 85 02 e1 3c a5 92 5f be
       -0.094346695 -0.1007806 0.027467022 -0.21833284
000070 0b ff 3b 3d 9a c3 8e be 7b 02 88 3e 5b 42 c6 bd
       0.045897525 -0.27883607 0.26564392 -0.09680625
000080 89 b6 23 be 41 e8 b3 bd a9 c2 4a 3e 64 90 ac 3c
       -0.159876 -0.08784533 0.1980082 0.021064945
000090 2a 05 9d bd dd d3 cc bc 39 00 b7 bd 6e 80 43 3e
       -0.076670006 -0.025003368 -0.08935589 0.19091961
0000a0 98 00 ae bd d4 9f f1 3b 8a 3b 23 be 4c e9 82 be
       -0.08496207 0.0073737893 -0.15940681 -0.25568616
0000b0 26 c2 32 be fe 52 52 3e 0a 8d f6 be 81 60 50 3e
       -0.17456874 0.20539472 -0.4815448 0.20349313
0000c0 6c b6 bc be b8 9e 36 bd e6 0f c5 3e a4 65 a9 3d
       -0.36857927 -0.04458496 0.38488692 0.082713395
0000d0 bf 28 7d 3e 87 db 6c 3e b7 1d 95 bc 75 de 75 bb
       0.24722575 0.23130618 -0.018202646 -0.0037516628
0000e0 3f 41 e9 bc d8 89 2d be ee 04 8a be 32 a1 12 be
       -0.028473495 -0.16947114 -0.26956886 -0.14319304
0000f0 0f 7f dd bd 3b 11 36 3e 72 c0 87 3e 17 b5 64 3d
       -0.1081525 0.1778001 0.26514012 0.055836763
000100 fe 07 5a bd 1b f4 73 bd 2e 30 4c 3d 1b 2f fe 3d
       -0.05323028 -0.05955897 0.049850635 0.124113284
000110 14 db 11 3e e2 73 ed 3d 57 cd a5 ba eb 6d 94 3d
       0.14243728 0.115943685 -0.0012649697 0.07247528
000120 c7 63 01 bf 71 d1 e4 3e ff e6 03 3f bb dd a7 3e
       -0.50542873 0.4469104 0.5152435 0.32786354
000130 12 7c f1 be 68 3b e9 3c 47 5d c9 3d 7b 11 cb 3d
       -0.4716497 0.02847071 0.09832244 0.099154435
000140 71 f4 95 3e b8 cc 1d 3d b2 dd be be 3e 74 92 3d
       0.29288056 0.038525313 -0.37278515 0.07151078
000150 1a d7 4a 3e 3e c4 3c 3e ef 16 06 3e dc 24 99 bd
       0.19808617 0.18434235 0.13094686 -0.074777335
000160 ff 0a 1c 3e 48 26 7a 3d a4 6f 8d 3e 01 f0 3c bc
       0.1523857 0.061071664 0.27624238 -0.011531831
000170 ba 14 1b 3e 9f 96 89 3d 2e 31 8a bd 08 46 d0 be
       0.15144625 0.06718182 -0.067476615 -0.4067843
000180 c1 02 18 3e 96 6b cf 3e bb d5 a0 3d 00 73 69 be
       0.148448 0.4051177 0.07853266 -0.22797775
000190 2c ec be 3e f5 72 6e 3e 75 1e 5e 3e cc f7 02 3d
       0.3728956 0.2328604 0.21691306 0.0319746
0001a0 17 6d ad 3d 48 dd 87 be 6b 79 ca 3d 40 20 2a be
       0.08468073 -0.26536012 0.0988644 -0.16613865
0001b0 5d 80 75 3e 08 0a 90 3b e9 63 1b 3e 90 61 1f bc
       0.23974748 0.004395727 0.15174831 -0.009727851
0001c0 1d f3 b5 be 4a 4e 87 be 17 39 4a 3e 73 a3 cb be
       -0.35537043 -0.26426917 0.1974834 -0.3977314
0001d0 ed 0a c1 be b2 ee 88 be dd 2a cd 3e ff e5 a5 bd
       -0.37703648 -0.2674461 0.40071765 -0.08100509
0001e0 d7 73 89 3e 8e 2f 58 be 23 1b 4e be 44 cd 1b 3e
       0.2684619 -0.2111189 -0.2012754 0.15215021
0001f0 47 2d 1e 3e c3 65 86 3e 04 85 a2 3e b4 93 80 3e
       0.1544696 0.26249513 0.31742108 0.2511269
000200 f9 61 7d 3e 5e 74 52 3d a8 8b 9c 3e a7 74 85 be
       0.24744405 0.051380508 0.305753 -0.2606556
000210 65 bc 31 3e c0 53 a6 3d b3 24 bf be bd 4a 9f 3d
       0.17357023 0.08121443 -0.37332687 0.07777927
000220 db 28 8c be a3 82 2f 3e ba 85 87 be 06 df 5b be
       -0.2737492 0.17139678 -0.26469213 -0.21471795
000230 94 12 50 3e 15 3f 3d bd 05 e8 02 3e 5e e9 7f 3e
       0.20319587 -0.046202738 0.12783821 0.24991366
000240 dd ad 9b bd 35 ac 84 be c0 f0 63 bd 66 bf 52 3e
       -0.07601521 -0.25912634 -0.05564952 0.20580825
000250 7b 52 04 be e9 13 f8 3d a0 40 86 3c 0e ad af 3d
       -0.12922089 0.121131726 0.016388237 0.085779294
000260 99 83 d1 bc c2 bf 30 be a6 c1 1e bd 60 cb 75 be
       -0.025575446 -0.1726065 -0.038758896 -0.24003363
000270 00 ac d6 3e 7d 7a b1 bd cb 20 f0 be 40 2a e6 bd
       0.419281 -0.08665941 -0.4690002 -0.11238527
000280 90 10 ba 3d 80 0e 4a be 86 b8 1b be 1f 61 56 3c
       0.0908519 -0.19732094 -0.15207109 0.013084679
000290 9c 13 b2 bd ac bd cb 3d cc d9 09 3e e1 29 f5 bd
       -0.086951464 0.099482864 0.13461989 -0.119708784
0002a0 dc be e3 bd b3 24 14 bd b9 30 0c 3d 76 d0 a0 3d
       -0.11120388 -0.03616781 0.034226153 0.07852261
0002b0 28 a8 5f 3d c3 e1 9e be d7 e1 50 3d 1c 41 de bd
       0.054603726 -0.31031618 0.050996628 -0.108522624
0002c0 ca 15 84 be 1a 94 a5 3d b8 c3 b4 bc 82 0c 50 3e
       -0.25797874 0.08084889 -0.022065982 0.20317271
0002d0 7a 38 78 be 6b 37 ad be 93 cc dd 3d 81 f4 93 3e
       -0.24240294 -0.33831343 0.10830035 0.2889748
0002e0 93 66 c3 bd d9 29 67 bd 14 58 7f bc ca 87 d4 bd
       -0.09541049 -0.056436393 -0.015584964 -0.10377462
0002f0 a4 8d 9d 3d 3f 7d 6c bd c5 71 47 be 06 dd f9 3d
       0.076930314 -0.05773663 -0.19476993 0.1220036
000300 3a 3d b9 bd 5f 2b f1 3b 58 c3 23 be 77 27 98 3d
       -0.09044881 0.0073599066 -0.15992486 0.07429402
000310 1a a9 a1 3e 9d 99 8a 3d 07 44 13 3e 74 99 85 3d
       0.31574327 0.06767581 0.14381419 0.065234095
000320 a4 09 36 bd 22 ba 5c be ff 56 28 be c0 bb 4a be
       -0.044442788 -0.21555379 -0.16439436 -0.19798183
000330 ab f6 15 bd 1d b0 3d 3e 45 93 b3 bd d7 e7 42 bd
       -0.036612194 0.18524213 -0.08768324 -0.04758438
000340 d8 d1 8c 3d 38 7a 54 be 53 5b 05 3e 5e a7 ba bd
       0.06875962 -0.20749748 0.13023119 -0.09113954
000350 9f 25 0c be bd cd 34 3d f0 68 19 3c 8c b6 b7 3e
       -0.13686226 0.04414152 0.009363398 0.3588146
000360 48 43 35 3e 4d 0d 2e 3e 07 f2 8d 3d 7a f6 46 bd
       0.17701447 0.16997261 0.06930929 -0.048574902
000370 7c 0c 82 bd 01 b0 a3 be aa fc 29 3d 06 6c 36 3e
       -0.063500375 -0.31970218 0.041500725 0.17814645
000380 eb 72 72 be 17 ef 97 bd 2a 8f ff bc 82 e6 3a 3e
       -0.2367665 -0.0741865 -0.031196196 0.18251994
000390 5c e9 9a 3d d4 13 fa bd 58 7a 01 3c 3f 3b 26 be
       0.07564041 -0.12210813 0.007902704 -0.16233538
0003a0 fb 0b e6 bd ea 28 92 bc 1b 8a 98 3d 60 7e f6 3d
       -0.11232754 -0.017841775 0.074482165 0.12035823
0003b0 bd 37 56 3e fa 09 8a bd ad 75 b9 be 2c 85 a0 3d
       0.209197 -0.06740184 -0.36222592 0.078379005
0003c0 75 40 57 be e0 e3 17 be 83 66 1e 3e 1c ab 5b 3e
       -0.21020682 -0.14833021 0.15468793 0.21451992
0003d0 20 6e f4 bd 18 db 3c 3e b2 e8 57 3e 49 91 8d be
       -0.11935067 0.18442953 0.2108486 -0.27649906
0003e0 80 e3 31 be b9 a4 77 3d 8e 98 22 be 6e 11 0d 3e
       -0.1737194 0.060459826 -0.15878507 0.1377618
0003f0 82 94 07 be a2 4d ae 3d 8a b5 f2 3d 3d 98 86 bd
       -0.13240245 0.08510901 0.11851032 -0.06572006

u_model.blocks.0.W2.bias f4 [42]
000000 ad 61 c3 bd 51 71 a6 bd b4 86 3a 3d 64 0d 48 3d
       -0.095401146 -0.08127082 0.04553862 0.048840895
000010 69 59 ce bd d4 86 9c bd bd 1d cb 3d 05 54 26 bd
       -0.100756474 -0.07642904 0.099177815 -0.04060747
000020 42 16 6f bb a4 3f 07 3e af 10 90 bc 53 96 91 3b
       -0.0036481773 0.1320787 -0.01758608 0.004442969
000030 40 19 1f be 0a 19 25 3d 63 a1 0c 3e c6 d8 71 3d
       -0.15536976 0.040307082 0.13733439 0.059044622
000040 a8 08 28 3e bb c2 86 bd 42 de 97 bd 8c 69 bd 3d
       0.16409552 -0.06580111 -0.07415439 0.09248647
000050 3d 43 4f bd 08 4a 17 bc 88 01 b2 3c f1 dd 26 bc
       -0.050601233 -0.009233959 0.021729246 -0.010184751
000060 a9 c7 9e 3d 08 23 e3 bc 2b 1f e5 bd 36 9b 23 3d
       0.07752926 -0.027726665 -0.111875854 0.039942943
000070 29 70 bd 3d 59 2b 14 be fb 9d 4d 3d d9 9b c0 bd
       0.092499085 -0.14469661 0.05019949 -0.094047256
000080 42 26 fb 3d e2 b0 fa 3c 88 36 95 bd 32 e4 df 3d
       0.122631565 0.030601922 -0.07285792 0.10932197
000090 75 5d 2c 3e 05 f5 4d 3d ec 6a 5b bd d3 35 b7 3d
       0.16832526 0.050282497 -0.053568766 0.08945813
0000a0 2b 04 76 3c 85 29 51 be
       0.015015642 -0.20425995

u_model.blocks.0.W3.weight f4 [42, 42]
000000 14 7c 15 3d bd d0 c9 bc 16 1c 8c be 95 e7 f3 3c
       0.036495283 -0.024635667 -0.27365178 0.029773513
000010 4e 0b 0d 3d c9 55 1d bc f4 90 a3 bd 17 4e 89 3d
       0.03443461 -0.009602972 -0.07986632 0.067043476
000020 35 90 21 be bc de 0e 3e e6 7b a7 bd 61 65 7d bd
       -0.15777667 0.13952154 -0.081779286 -0.06186426
000030 6f 32 53 bc 3c 78 0a 3e cb 0e b9 bd 43 83 3b 3e
       -0.012890442 0.13522428 -0.09036025 0.18311791
000040 a9 4f ac bd 15 f2 66 be 27 fd 5c bd ab b5 1f be
       -0.084136315 -0.22553284 -0.053952362 -0.15596645
000050 80 b4 1c 3e 10 b3 41 3e fe 0c a5 3d 0e 3e 0e be
       0.1530323 0.18915963 0.08059119 -0.1389086
000060 81 46 81 be f6 bf 4b bd c9 57 bb be 41 35 83 be
       -0.25249103 -0.049743615 -0.36590412 -0.25626567
000070 78 4f 86 3e 65 29 ef bc c9 2d 95 be c4 6d a7 3e
       0.26232505 -0.029194543 -0.29136494 0.32700932
000080 68 d6 3d 3e bf c3 86 3e 2e 1d 33 be 1a 3c 6a bd
       0.1853882 0.26321217 -0.174916 -0.057186224
000090 4f 92 53 bd 24 f3 8b 3e 85 74 36 bd cc 88 20 be
       -0.051653203 0.2733394 -0.044544715 -0.15677184
0000a0 b9 9f 6f be 8d af a7 bd 71 b6 e4 be 12 87 3f bd
       -0.23400773 -0.081877805 -0.44670442 -0.046759672
0000b0 d7 6c 90 3c ef e9 33 3e 99 78 1d 3e a2 d0 80 3c
       0.017630024 0.17569707 0.15378036 0.015724484
0000c0 06 6e c2 bd e8 f1 c1 bc 62 21 f9 bd 29 18 12 be
       -0.094936416 -0.02367492 -0.121645704 -0.14267029
0000d0 4b 2d eb bc a7 dd 85 3d 0c c4 84 3e b3 52 0f be
       -0.02870812 0.065364175 0.25930822 -0.13996391
0000e0 32 31 1c be 59 37 82 3d a4 c4 1d bd 51 c0 f2 bc
       -0.15253142 0.06358213 -0.03851761 -0.02963272
0000f0 d3 d2 35 be ea b7 ae bd 86 0f 08 3d c0 31 90 3d
       -0.17756204 -0.085311726 0.03321793 0.07040739
000100 7b 88 15 bd 41 4c 87 be 6e 98 69 be dc 9a ef bd
       -0.03650711 -0.26425365 -0.22812054 -0.11699459
000110 b2 25 17 bd e9 06 14 3e 8a 80 db 3d 72 dc 6a bd
       -0.036901183 0.14455761 0.10717876 -0.05733914
000120 46 6e 70 3e 26 6b b5 bd 44 75 94 3d 58 73 e9 3d
       0.23479566 -0.088583276 0.07248929 0.11398953
000130 48 c0 d5 bb f5 d1 25 be 75 64 fb 3d a9 a7 55 3e
       -0.006523166 -0.16193374 0.1227502 0.20864739
000140 1a 7c ea bd 19 3e 24 3e 11 3d ea bb 87 8a bb 3b
       -0.11449452 0.16039313 -0.007148393 0.005723301
000150 27 0c 15 bd 15 5c d4 3d 21 b8 2c 3d ee 14 7b be
       -0.036388543 0.10369126 0.042167787 -0.24519703
000160 39 bd 36 bd 20 99 07 3c 9a 84 55 3e 73 7d 8c be
       -0.04461405 0.008276254 0.20851365 -0.2743946
000170 4a 12 7c 3e b5 88 52 3d cf 8e 22 ba cf 8f 1c 3c
       0.24616352 0.051399905 -0.000620109 0.009555771
000180 35 6b c2 3d e0 e4 02 3d a3 98 4e bd 6e d5 9c bd
       0.09493104 0.031956553 -0.050438534 -0.07657896
000190 87 9a d0 3d 9c 21 61 3e 5d 4e 1f 3e 73 f7 46 3e
       0.10185724 0.21985477 0.15557237 0.19430332
0001a0 69 2f ac be 02 e1 50 bd 4e cd 57 be ec be f6 3d
       -0.3362992 -0.050995834 -0.21074411 0.12048134
0001b0 12 3c 48 3e a8 8a 43 bb 77 42 8c 3e 33 b3 91 3e
       0.19554165 -0.0029837284 0.2739446 0.2845703
0001c0 e1 95 06 3c f4 31 fa 3d 88 75 14 3e b1 30 b3 3c
       0.008214445 0.12216559 0.1449796 0.021873804
0001d0 59 83 58 be af 48 46 be 9e 2a 08 3e 07 62 7a bd
       -0.21143855 -0.19363664 0.13297507 -0.061128642
0001e0 24 9b 73 be 35 58 a0 3d 5d 2e b1 3d d8 0d eb 3d
       -0.2378965 0.07829324 0.08651421 0.1147725
0001f0 33 37 9a 3e e9 a6 eb 3d 0b ff 15 be 52 43 91 3e
       0.3012024 0.11506445 -0.14648072 0.28371674
000200 48 c7 82 3e 0f 05 49 be 0b 07 e2 bc 27 18 10 3e
       0.25542665 -0.19630836 -0.027591249 0.14071713
000210 ec 23 e2 3d c4 75 43 be 89 c5 a3 bd 10 94 bb be
       0.11042008 -0.19087893 -0.07996661 -0.366364
000220 a1 c2 1e 3e 4b b3 72 be db 22 0a 3e a5 9f 04 3e
       0.15503933 -0.23701207 0.13489859 0.12951525
000230 66 3c 16 be 1e 34 77 bd 93 3d 89 be 58 fd cf 3d
       -0.14671478 -0.060352437 -0.2680479 0.10155743
000240 85 c9 64 be 3d 0b f8 3d de d7 a1 be 1d a1 a6 be
       -0.22342499 0.121115185 -0.31610006 -0.32544795
000250 4e a9 96 3d 17 34 bc be 65 e6 a9 be 46 4d b5 be
       0.07356511 -0.3675849 -0.3318359 -0.35410517
000260 98 9c 93 3e da 4f 2e 3e d8 fc 1f bd 02 40 21 be
       0.2883041 0.17022648 -0.03905949 -0.15747073
000270 74 98 b1 3e 63 a2 ef bd 23 89 7f be 21 3f 97 bd
       0.34686625 -0.11700895 -0.24954657 -0.07385088
000280 78 8a 02 3e d2 f8 20 3d 69 3b b4 3e ab f5 c9 bc
       0.12748134 0.039299794 0.35201576 -0.024653276
000290 a7 30 1b be 21 73 4d 3e d3 99 83 3e 5f 9c 6d 3d
       -0.15155278 0.2006345 0.25703296 0.058010455
0002a0 e1 43 91 be 0c 7b 03 3e 56 70 81 3d 77 93 58 be
       -0.283721 0.12839907 0.063202545 -0.21150003
0002b0 97 61 b7 3d 2d 19 fc bd 97 09 d4 bd ab 52 56 3d
       0.08954161 -0.123094894 -0.103533916 0.052324932
0002c0 9c 2a 15 bd 9a 8c fa 3c fd 35 2d 3e 96 bf 83 bd
       -0.03641759 0.030584622 0.16915126 -0.064330265
0002d0 29 83 ae 3e 37 63 22 3e 0c 06 d7 be a2 26 a8 3c
       0.34084442 0.1585816 -0.419968 0.020526234
0002e0 72 2e 57 be b8 ae d1 3d 19 e7 8e be 72 3e 46 3d
       -0.21013811 0.10238403 -0.2791069 0.048399396
0002f0 c6 cb 31 3e e1 95 4d be 4f e3 30 be 69 48 c9 be
       0.1736289 -0.20076706 -0.17274211 -0.39313057
000300 69 d3 88 be 2e 4a 62 be 09 45 77 3e 06 bd 82 3d
       -0.26723793 -0.2209861 0.24147429 0.063837096
000310 05 3a 62 bd 08 ec 8c bc 41 3e 3f 3e 60 c8 a4 3d
       -0.055231113 -0.017202392 0.18676092 0.08046031
000320 bc aa 41 be 15 16 97 bd 3f 36 03 be c2 48 38 be
       -0.18912786 -0.07377259 -0.12813662 -0.17996505
000330 61 40 64 3e 09 96 38 bd 3e 9d 66 bd c6 d9 67 3e
       0.22290184 -0.04506496 -0.0563023 0.22641668
000340 ed eb 14 3c ef 52 e2 3d 90 59 d2 bd 79 03 cf 3e
       0.009089452 0.110509746 -0.10270989 0.40432337
000350 bc 22 93 3e 39 69 a2 be 80 09 c7 bd b1 56 21 3e
       0.28737438 -0.31720904 -0.09718609 0.15755726
000360 db a1 1f 3e ed 8f 50 be fc 21 27 3d fc e7 cd be
       0.15589087 -0.20367403 0.040803894 -0.40216053
000370 4b 49 82 3d 67 f5 39 be b7 72 26 3e 2c ab 83 3d
       0.06361636 -0.1816002 0.16254698 0.06429133
000380 3f 17 bc bc 53 05 00 be 81 37 ff be 84 49 4e 3e
       -0.022960303 -0.12502031 -0.49847034 0.20145231
000390 63 bb 8d be 12 4d 3e 3e f4 ae 24 be cf e2 87 be
       -0.27682027 0.18584087 -0.16082364 -0.2654023
0003a0 f6 03 38 3e ab e9 ce be 7b 0d d7 be 19 71 6b be
       0.17970261 -0.4041265 -0.42002472 -0.22992362
0003b0 dd 4f 5f 3e e4 d3 ae 3e 38 99 89 be 37 70 23 be
       0.21807809 0.34146035 -0.2687471 -0.15960775
0003c0 41 d3 d3 3e 56 58 5e be 7a 26 2e bd 86 84 52 be
       0.4137211 -0.21713385 -0.042517163 -0.20558366
0003d0 f7 c6 29 3e 15 30 d5 3d 6b 00 d6 3e ed d6 71 bd
       0.16579805 0.104095615 0.41797194 -0.05904286
0003e0 76 1b 36 be 33 cd 8a 3e 7f 00 ab bb 2b d8 c0 3d
       -0.17783913 0.2710968 -0.005218565 0.09416231
0003f0 73 e4 4e 3e df 92 8e be 6e 82 1b bd 19 ea 85 3d
       0.20204334 -0.2784643 -0.037966184 0.06538791

u_model.blocks.0.W3.bias f4 [42]
000000 76 e7 95 bd 1e 49 fd bd 4c bb 82 bd 1a 0f 8a 3d
       -0.07319538 -0.123674616 -0.0638338 0.06741162
000010 60 d9 ad bd 1f 22 df 3d 77 62 d2 3d 13 e4 9b 3d
       -0.084887266 0.1089518 0.10272687 0.07611861
000020 02 98 43 3e c3 9e e5 3d bd aa 4a bc d0 a6 57 bd
       0.19100955 0.11211922 -0.012369809 -0.05264932
000030 f2 17 69 3d 3e 52 53 bd c0 6f 14 3d cb 73 88 3d
       0.0569076 -0.051592104 0.036239386 0.06662711
000040 f2 c2 20 3d f5 6d b3 bd aa 59 a0 3d ad 61 41 3d
       0.039248414 -0.08761207 0.07829602 0.04721229
000050 51 8e 63 bd 4b 7c df 3d 0a 49 43 3d e8 ef 6b 3d
       -0.055555645 0.10912379 0.047677077 0.05760184
000060 c2 c5 13 3d 9d 26 c5 3d 4a 85 5d be 36 0e ea 3d
       0.03607727 0.096265055 -0.21632877 0.11428492
000070 60 93 05 be d9 fc 06 3d 6c db 05 3e 1f 2b dc bd
       -0.130445 0.032955978 0.13071984 -0.10750412
000080 c4 d1 24 3e f7 82 b8 3b eb 20 6e 3d 43 ef 66 3d
       0.16095644 0.0056308466 0.05813686 0.05638052
000090 b9 9c 82 bd 9a 9c b0 3c ad 8e 02 be 58 1d 98 bd
       -0.06377549 0.021559048 -0.12749739 -0.07427472
0000a0 32 9e a6 bd 8a a6 26 3e
       -0.08135642 0.16274467

u_model.blocks.1.W1.weight f4 [42, 42]
000000 d9 11 81 3e 77 9b e8 bd 35 13 81 3e 1d 1b 93 be
       0.2520893 -0.113577776 0.25209966 -0.28731623
000010 d8 bc 41 bd 0c c0 14 be 22 f1 ed 3d 33 fc 06 3e
       -0.047299236 -0.14526385 0.11618258 0.13182144
000020 1b 11 cf bd 9a 57 8d 3d 7f bc 14 be 8d e7 46 bd
       -0.101106845 0.06901474 -0.1452503 -0.048560668
000030 ed f5 29 3e a4 01 55 3e c8 6f a8 3e e7 e5 1a 3e
       0.1659772 0.20801407 0.32897782 0.15126763
000040 ad 6b 7d 3e 06 32 49 3e c3 66 d4 bd e9 60 b5 bc
       0.24748106 0.19647989 -0.10371163 -0.022140937
000050 5f 75 ef 3d ed 8b 8f 3e 90 0c 44 3e c9 71 ac 3e
       0.11692309 0.28036442 0.19145417 0.3368056
000060 6b fb e3 bd 31 23 a5 3d ed 8a 95 3e 23 72 1e 3e
       -0.111319385 0.08063353 0.29207554 0.15473227
000070 f3 7a 0f 3d 52 ec 86 3e 4f ed 82 3d e9 ad 87 3e
       0.035029363 0.26352173 0.06392919 0.2649987
000080 73 03 92 3e 97 c5 54 bd b8 80 c3 bd 11 dc 7d be
       0.28518257 -0.05194625 -0.095460355 -0.2479098
000090 6a 54 f3 bc af 17 46 3e a7 76 48 3e de 9d 25 3e
       -0.029703338 0.19344972 0.19576512 0.16173503
0000a0 0e f1 05 3d 71 73 10 3d a7 47 49 3d 65 0f 5f 3d
       0.03270059 0.035266344 0.0491406 0.05445804
0000b0 8e 69 1b be 75 6e ac bb f9 1f 96 bd 3b 78 6f bd
       -0.15176985 -0.005262191 -0.07330317 -0.05846427
0000c0 3f fa 40 be b3 d4 a5 bd b9 cf 61 3d 5f 5e bf bc
       -0.18845461 -0.0809721 0.05512974 -0.02336043
0000d0 e5 57 39 3d f1 f5 5a bd 9a 58 2d be 89 30 3b 3d
       0.04524984 -0.053457204 -0.1692833 0.045700584
0000e0 3e 47 a6 bc 5e dd 19 bc 1d ea fa bd e6 fe 27 bd
       -0.020297643 -0.009391157 -0.12251685 -0.041014574
0000f0 5e f7 0b 3e ee e9 e3 b9 83 f8 3e 3e 39 81 a6 be
       0.13668582 -0.00043471105 0.18649487 -0.32520464
000100 2d df 79 3e a8 08 9d be 20 7f 80 bd db 20 f9 3c
       0.24401541 -0.30670667 -0.06274247 0.030411175
000110 21 07 d9 bc ec de d8 3d 86 f6 32 3d 35 73 38 be
       -0.026492657 0.10589394 0.043692134 -0.18012698
000120 51 7a 51 3c 0a 2f 76 3d 67 a4 56 bd 59 e2 4a 3d
       0.01278551 0.060103454 -0.05240288 0.04953227
000130 fc de 9c 3e 11 23 81 3e 35 85 1d be 8b 6b 80 be
       0.30638874 0.25222066 -0.15382846 -0.2508205
000140 17 38 28 be 44 e6 c7 bc 2c b9 15 3e 0d a3 69 3e
       -0.16427647 -0.024401791 0.14621419 0.22816105
000150 40 ea 13 be 05 af 3e 3e c5 e4 56 be 59 78 b2 3b
       -0.14444828 0.18621452 -0.20985706 0.0054464755
000160 66 aa fe 3d 8b 54 9d 3e 99 58 1c be 52 7b 7f 3d
       0.12434845 0.30728564 -0.15268172 0.062373467
000170 30 5e 33 3e 4d 7b 80 be 92 2d 1b 3e 19 02 08 be
       0.17516398 -0.2509407 0.15154102 -0.1328205
000180 1e cd 1d be 86 76 05 be 07 5c 31 be cd 40 6a bd
       -0.15410277 -0.13033494 -0.17320262 -0.057190705
000190 60 78 e6 3c f4 93 22 be 40 d4 76 be 1b ca 9c be
       0.028133571 -0.15876752 -0.24104404 -0.30622944
0001a0 65 4b b1 3b b1 25 57 be 00 71 04 bd 41 7e 56 3d
       0.005410599 -0.21010472 -0.032334328 0.0523665
0001b0 b9 f4 77 be c5 a4 55 be 6d c9 9e 3d e0 2e 48 be
       -0.24214448 -0.20863636 0.07753263 -0.19549131
0001c0 76 28 30 3e 0f 6d 13 3e 1a cf 2e 3c 35 11 41 3c
       0.17202935 0.14397071 0.010669494 0.011783888
0001d0 3b f0 95 be bb 52 8d 3e 7e 78 b6 bb 37 ac 35 3e
       -0.29284844 0.2760218 -0.005568563 0.17741476
0001e0 39 1c 9f be 28 ac 7c 3e fb b1 22 3e 03 b6 85 3e
       -0.3107622 0.24675047 0.15888207 0.26115426
0001f0 1e 0f d4 3d 2c 85 20 bd be 07 98 3e 4d 16 8b 3d
       0.10354446 -0.039189503 0.29693407 0.06791363
000200 e7 89 03 3e ce 4d c0 bd bf 7b 21 be af 12 7d 3e
       0.12845574 -0.0938984 -0.15769862 0.24714158
000210 20 45 21 3e 11 a0 08 bd 72 85 29 be 2e db 0e be
       0.15749025 -0.033355776 -0.16554812 -0.13950798
000220 01 e0 4a be 06 65 e7 3b 79 2d 30 3e ba 2e fa 3b
       -0.19812013 0.0070616035 0.17204846 0.007634965
000230 bb 19 8b 3c 53 d9 3d 3d 4c 09 fc 3c cd 5c 29 3c
       0.016980043 0.046349835 0.030766152 0.010337067
000240 e0 55 ed 3d 8f 04 27 bd de 18 2e be 4c 3f 78 3e
       0.11588645 -0.04077583 -0.17001674 0.24242896
000250 05 da 3f bd 2d 3b bb 3e d5 24 0d be 80 d4 28 bc
       -0.04683878 0.36568585 -0.13783582 -0.01030457
000260 d5 c3 16 3e c5 dc 23 3e 62 9a 50 bd ee 8b 8a 3e
       0.14723141 0.16002186 -0.05092848 0.27059883
000270 87 f3 14 bd 49 22 f9 3d 16 3b 4d 3d d9 29 fc bc
       -0.03636506 0.121647425 0.050105177 -0.030781673
000280 a4 8b 15 be f8 21 01 bd a9 4e 97 bd 26 5b d8 3d
       -0.1460405 -0.031526536 -0.0738805 0.1056426
000290 bc 7c c0 3c b2 43 c1 3d 1c c3 d3 3d 07 93 6b 3d
       0.023496978 0.0943674 0.103399485 0.057513263
0002a0 e3 9a ec bd b8 2c a5 3e b9 82 0b bd ab 8a 29 3e
       -0.1155298 0.3226068 -0.034060214 0.16556804
0002b0 20 4f a4 3c 5a 62 3c 3e a2 10 bb be f8 65 87 bd
       0.020057261 0.18396893 -0.36536127 -0.06611246
0002c0 c3 52 7e 3d 82 71 2a be 38 7f 8b 3d 2b 78 3d 3b
       0.062090646 -0.16644862 0.068113744 0.0028910737
0002d0 20 64 3c be 00 b3 35 be 2f 57 8b be e1 8c 67 be
       -0.1839757 -0.17744064 -0.27214953 -0.22612335
0002e0 82 4c 79 be 4f 0c 50 be d6 78 88 be 93 fc 2a be
       -0.24345592 -0.20317195 -0.2665469 -0.16697912
0002f0 20 4e 9a be 76 ce da bb 9b d0 97 bd d6 78 99 bd
       -0.3013773 -0.006677444 -0.07412835 -0.07493751
000300 e2 76 12 be 4f eb 08 bd 3c 6f aa 3d 87 57 43 bd
       -0.14303163 -0.033427533 0.083219975 -0.047690894
000310 23 70 1b 3e 8c d2 f3 bd c7 17 f3 3c 38 28 e2 3c
       0.15179496 -0.11905393 0.029674424 0.027607068
000320 41 8b c0 be cb a5 6d 3e f8 5a 0e be 85 f7 9a 3e
       -0.37606242 0.23207776 -0.1390189 0.30266967
000330 34 f0 c7 be ae 88 0b bd 40 57 1e 3d 21 97 cd bc
       -0.39050448 -0.034065895 0.038657427 -0.025096478
000340 2b 8b 6c 3e 1f 3c c5 be 9f 2b 56 bc 2e 89 a9 3d
       0.23099963 -0.3852243 -0.0130719235 0.08278118
000350 96 1c b8 bd ec b6 0b be 2a f1 62 3e a3 9a 02 bd
       -0.08989827 -0.13643998 0.2216231 -0.031885754
000360 0b 13 7d 3e 63 06 90 be 6d 6a 0a 3e 46 5b a6 be
       0.24714296 -0.28129873 0.1351716 -0.3249151
000370 45 3b 79 3e 6e a1 8f be 25 90 04 be 95 af a3 bd
       0.24339016 -0.2805285 -0.12945612 -0.07992474
000380 fe c5 41 be c0 44 26 3d 8a 19 71 bd 64 90 6d bd
       -0.18923184 0.04059291 -0.058862247 -0.05799903
000390 d4 24 00 3d 11 86 b3 3d d4 a9 84 bd 3c 12 1b be
       0.031285122 0.087658055 -0.06477705 -0.15143675
0003a0 f7 ca 96 3d 30 0f 67 be 71 44 4c 3e 58 dc 06 3e
       0.07362931 -0.22564387 0.19947983 0.13169992
0003b0 16 81 f0 be fd 8c 93 bd 8f b9 86 3e b6 3b ad bd
       -0.46973485 -0.07204626 0.26313445 -0.084586546
0003c0 4b a1 8c bd a5 5f 90 3e ea 2a 55 3e 4d b4 86 be
       -0.06866702 0.2819797 0.20817152 -0.26309434
0003d0 04 54 63 3e fd 59 33 3e 31 a0 f0 3d d3 07 0a be
       0.22200018 0.17514797 0.11749304 -0.13479547
0003e0 9a 45 8f be 27 36 17 be b3 cb 2d 3e 70 44 85 3d
       -0.2798279 -0.14766751 0.16972236 0.06507194
0003f0 f5 b6 c9 3e 6b 0f 26 3d d2 95 5a 3d 78 61 bc bd
       0.39397398 0.040542047 0.053365536 -0.09198278
