saved_models/1d_burgers/resnet_pinn.pt (torch, 77521 bytes, 42 tensors)

u_model.W f4 [20, 2]
000000 0d df 31 be db 46 e9 bf 73 7a 47 3f b9 c7 81 bf
       -0.17370243 -1.8224748 0.7792122 -1.0139076
000010 f9 2e 62 3f 36 ee 20 3f de b3 81 be 5e fc 29 c0
       0.88352925 0.6286348 -0.2533254 -2.6560283
000020 1e f2 44 bf 23 bb 64 3f 55 6c ea 3e 38 da 79 3d
       -0.7693194 0.8934805 0.45785776 0.060999125
000030 fa af c2 3f 58 fe 68 3f 81 64 95 3e 22 39 78 be
       1.5209954 0.910131 0.2917824 -0.24240544
000040 28 cd 62 3d 3b bd fc bf 7f 95 c4 3f 80 d5 00 3f
       0.055371433 -1.9745249 1.5358123 0.50325775
000050 88 43 9e 3f eb f3 36 bf 33 01 85 3b 23 2a 01 3f
       1.2364359 -0.7146594 0.004058981 0.5045492
000060 ff f7 42 3f 50 11 db bf aa 9a a4 3f 52 49 9b bf
       0.7615966 -1.7114658 1.28597 -1.213175
000070 53 a6 a4 3e 18 1b 3d bf 5c fc 71 bd c4 9f 18 bf
       0.32158145 -0.73869467 -0.05907856 -0.59618783
000080 f0 84 b5 3c 9f ad 7a 3f 1c 9c b7 3e db 97 ec 3e
       0.022158116 0.97921175 0.3586129 0.46209607
000090 23 74 a0 3f 31 a5 3b 3f 39 6a f8 3e 7b ee cc bf
       1.2535442 0.7329894 0.4851854 -1.6010278

u_model.b f4 [20]
000000 2f 13 b4 40 90 36 ad 3f 78 8d 67 40 83 ba ca 3f
       5.6273417 1.3532276 3.6180096 1.5838169
000010 8d 73 bc 3f 3e fb 5d 3f 22 c7 7e 40 6b f6 17 3f
       1.4722763 0.8671149 3.980904 0.5936038
000020 f3 74 3e 40 07 c8 c7 40 67 9a bb 40 66 67 92 3d
       2.975888 6.2431674 5.862598 0.07148628
000030 d2 7f ab 40 48 53 75 40 e0 a5 b8 40 85 18 c1 3e
       5.359353 3.833208 5.7702484 0.3771402
000040 ed af 11 40 ce b2 fb 3f 54 fd bd 40 f5 b9 b0 40
       2.2763627 1.9663942 5.937174 5.5227

u_model.model.0.linear.weight f4 [42, 42]
000000 67 e2 8f bd 02 21 16 be 6a d4 0c 3c 7d 02 98 3d
       -0.07025605 -0.14661029 0.008595565 0.074223496
000010 fe 48 d9 bc 24 88 3d 3c b2 b9 4c bd ed d4 ca bc
       -0.026524063 0.011568103 -0.04998178 -0.024759734
000020 dd f8 38 bd f0 8b 86 3c a4 4d 06 3e 95 3f 96 3d
       -0.04515921 0.01642415 0.13115555 0.07336346
000030 e7 35 68 3d e0 03 5b 3d f8 64 d1 bd 30 38 be 3d
       0.05669203 0.053470492 -0.102243364 0.09288061
000040 2a 8d 60 3d 88 24 c0 bd 71 38 2c 3e 0f ad 9f 3d
       0.054822125 -0.09381968 0.16818406 0.0779668
000050 be 3c a6 bc fb 28 b0 bd 93 08 07 3d 93 99 03 be
       -0.020292636 -0.086015664 0.03296716 -0.12851553
000060 e1 75 b9 bd c2 64 8e bd 3c ad ac bd ca e0 a7 3c
       -0.09055687 -0.06952812 -0.08431479 0.02049293
000070 3f 2d 19 3b cc 35 5d bd 6d 96 6b 3d 51 73 ea bd
       0.0023372916 -0.054006383 0.057516504 -0.11447776
000080 e1 de 00 be 4e 37 87 bd ad bd 19 3e 16 59 20 3e
       -0.12585022 -0.066023454 0.15013762 0.15658984
000090 a3 e9 22 3e f3 3d 8d bd 30 53 3f bd b9 7e 2c be
       0.15909438 -0.068965815 -0.046710193 -0.16845216
0000a0 7d e7 8c bc ff 3b 42 bd 69 31 3a 3d 5b a6 f6 bd
       -0.017200226 -0.047420498 0.045457277 -0.120434485
0000b0 da 38 be bd 73 66 f2 3c ab 8e db bc 17 66 68 be
       -0.09288187 0.029589867 -0.026801428 -0.22695194
0000c0 0e 7b 8d bd e2 6c f8 bd aa 4f 98 bd e7 64 d9 bd
       -0.069082364 -0.12130143 -0.0743707 -0.10614949
0000d0 59 e6 f7 3c 52 d5 50 bd 30 e3 d3 3d 49 19 e4 bd
       0.030261206 -0.050984688 0.10346067 -0.11137635
0000e0 ab 27 bc 3d 62 a1 f7 bd 24 1c 50 3d b0 18 c1 3c
       0.091872536 -0.12091328 0.050808087 0.023571342
0000f0 fc 40 d5 3c bf 9c 6b bd 53 05 b4 3c e1 82 bb 3d
       0.026031964 -0.05752253 0.021975195 0.091558225
000100 2a 82 9f bd cc 7d f3 bb b5 46 59 3d 65 8f 0a 3e
       -0.07788499 -0.0074307676 0.053045947 0.13531263
000110 2f 4d c6 3d 15 e7 02 3e 89 2d 0a 3e 6b 27 a6 bd
       0.0968269 0.12783463 0.13493933 -0.08112987
000120 4d 08 5c bd 7b a3 7a bd 21 8e 32 3c f9 a8 1f 3e
       -0.053718854 -0.061191063 0.010898144 0.15591802
000130 72 ab 06 3e b4 d1 91 3d 99 31 ab bc 3a 1c 82 3d
       0.13151339 0.07120076 -0.020897673 0.0635304
000140 0d f4 fb 3d 60 19 20 3d 33 ae 30 bd f3 01 84 bc
       0.12302408 0.0390867 -0.04313488 -0.01611421
000150 a7 b8 9d 3d 6d aa d2 bd d9 9f 00 3e 27 0b c9 3d
       0.07701235 -0.102864124 0.12560977 0.0981658
000160 2c a9 fa 3d c2 4c 6f be e6 d6 00 bd c1 80 d9 3d
       0.12239298 -0.23369125 -0.031454943 0.10620261
000170 99 13 9d 3c 9d b9 7b 3d 5e ac 30 3c 4c 45 37 3c
       0.019174384 0.06145631 0.010783283 0.011185955
000180 cb c7 59 bd 53 b7 c6 bd e1 dd 02 3d 8b 33 56 bd
       -0.053169053 -0.09702935 0.03194988 -0.05229525
000190 1f a4 07 be 4e 5a 8d 3d c0 82 2c 3a f2 57 6c bc
       -0.13246201 0.0690199 0.00065807626 -0.014425265
0001a0 14 04 db 3d 24 3e 36 bd ed 6f ce bb b2 3f 5a 3c
       0.10694137 -0.044492856 -0.0062999637 0.01332085
0001b0 74 47 39 3d c1 70 0b 3c b2 bd 56 bd 8e 0e 0c be
       0.04523416 0.008510769 -0.052427 -0.13677427
0001c0 19 63 24 be 2d 26 b1 3d 7a 6b fd bc 06 b0 09 3e
       -0.16053428 0.086498596 -0.030935038 0.13446054
0001d0 ca 74 c8 bd 3a b4 26 3e 40 04 e8 3d 92 16 f5 3d
       -0.09787901 0.16279688 0.113289356 0.119671956
0001e0 06 3b f4 3d 4f bb 01 be a3 72 f8 bd 76 8b fc 3d
       0.1192532 -0.12669109 -0.1213124 0.123312876
0001f0 93 58 0d 3e 3e e4 28 3d b1 65 53 3c 65 1e 39 3d
       0.1380332 0.041233294 0.012902663 0.045195002
000200 b2 27 7d 3d 3e 7a 12 bd 1b 06 10 bd c2 00 ee bd
       0.061805435 -0.03576111 -0.035162073 -0.11621238
000210 36 db 41 3d 63 74 3f bc 62 36 f3 3d fa ec 98 bd
       0.047328196 -0.011685464 0.11875607 -0.07467075
000220 43 9e 9c bc 3e 8c fc bd 71 e0 b9 bd b6 27 92 bd
       -0.019118434 -0.123314366 -0.09076012 -0.071364805
000230 f5 84 a9 3b b8 cb 51 bd 72 8e eb 3d ce 21 bf 3d
       0.0051733204 -0.051219672 0.11501779 0.093326196
000240 8b e6 c9 3c fa c9 20 be c4 0f d9 3d 6b d6 7c 3d
       0.024646064 -0.15702048 0.1059871 0.061727922
000250 66 3b 80 bd 3c 34 12 3e 57 e1 2b bd 04 9b e3 bd
       -0.06261329 0.14277738 -0.041962948 -0.11113551
000260 3c 78 83 bd 79 d7 12 be 4f 76 76 3c 0d 5d 9a 3b
       -0.06419417 -0.14340009 0.015042855 0.0047107995
000270 02 88 d8 bd e9 7a dd 3d a5 4a 82 3d b3 45 ea 3d
       -0.105728164 0.10814459 0.063618936 0.11439075
000280 33 7f 8b 3c 6b 21 69 3d ea 88 d3 bd 26 06 93 bd
       0.017028427 0.056916635 -0.10328849 -0.07178907
000290 29 c7 2d 3d 78 d1 f2 3d 3a 37 de bd f0 0f 0b 3e
       0.042426262 0.11856359 -0.108503774 0.13580298
0002a0 96 3b 39 bc d6 3a 13 3e 61 f9 e6 3d 11 7b aa bd
       -0.01130571 0.14377913 0.11278034 -0.08324254
0002b0 67 21 99 bd 66 ab 36 bd c1 9f 0c bd 97 e5 cd bd
       -0.07477074 -0.044597052 -0.03433204 -0.100535564
0002c0 7c b4 6f 3c 04 50 16 3e 2f e4 da 3c 09 51 46 3b
       0.014630433 0.14678961 0.026720135 0.0030260703
0002d0 de d3 36 3e 44 69 d7 bc 71 d3 7b bd 4e 56 ff 3d
       0.17854258 -0.026295312 -0.061480943 0.12467633
0002e0 54 90 18 3e 71 2a 12 be 5f de f2 3d c1 f5 e4 bd
       0.14898807 -0.14274003 0.1185882 -0.11179686
0002f0 e6 5d 05 bd 6d c7 06 3c f3 58 16 be 69 03 3b 3e
       -0.03256025 0.008226258 -0.14682369 0.1826302
000300 e8 10 0a be 1e a2 3d 3c c0 96 21 3d f5 2a 15 be
       -0.13483012 0.011574296 0.039450407 -0.14567168
000310 cf 6c 7d 3d 98 39 6f 3c 36 0a 80 3d 5c e9 3c 3d
       0.061871346 0.014601134 0.062519476 0.046120986
000320 cf 9e ff bd 61 e5 24 3b 61 f0 9f 3d fb 19 63 3c
       -0.12481462 0.0025161135 0.078095205 0.013861175
000330 09 ef a8 3d 21 59 1c 3e 11 b8 08 3e e2 b2 9e bc
       0.08248717 0.15268375 0.13351466 -0.019372407
000340 19 bc a0 bd 4d 0f 4d be 87 b4 05 3e dc 8b 68 3d
       -0.07848377 -0.20025368 0.13057147 0.056774005
000350 19 ce 94 3d ec ac bf 3d 3d df 06 3d 9a b5 19 3e
       0.072658725 0.09359154 0.03292774 0.15010682
000360 f9 07 63 3c 91 ea 4e 3d 6f 1d 1f be 64 78 16 bb
       0.013856881 0.05051667 -0.15538572 -0.0022959942
000370 4a c9 c4 bd 5b 4d 82 bc ab 25 e0 bd 3f bd fd 3d
       -0.09608705 -0.015906027 -0.109446846 0.123896115
000380 15 cb 86 3d ab de e2 bd 9b 06 ee 3c 47 09 e0 bd
       0.065817036 -0.11077627 0.029055884 -0.109392695
000390 aa a9 91 bd 92 92 15 bd 10 7f a8 bd 07 28 00 be
       -0.07112439 -0.036516733 -0.0822736 -0.12515269
0003a0 7f 36 e1 bd 18 4d cb bd 27 cd 16 bd 80 71 17 bc
       -0.109967224 -0.09926814 -0.036816742 -0.009243369
0003b0 54 ec 9b ba 6c 73 e4 3d ee db 97 bc d9 7f 56 3d
       -0.0011895993 0.111548275 -0.018537488 0.05236802
0003c0 99 11 21 3e ec cc bf 3d d6 89 d3 bd 91 c1 e5 bd
       0.15729369 0.093652576 -0.103290245 -0.112185605
0003d0 01 3b 10 3e 23 b3 bc 3d a4 76 05 3e 32 f3 c4 3d
       0.14085008 0.09213855 0.13033539 0.09616698
0003e0 05 29 0d be a4 16 19 bd a3 59 4f bd b0 5c a9 bd
       -0.13785179 -0.037375107 -0.050622594 -0.08269632
0003f0 2f cb 02 3c c3 08 d6 3d 9d d7 f6 3d f6 95 8d bd
       0.007983013 0.1045089 0.12052844 -0.069133684

u_model.model.0.linear.bias f4 [42]
000000 80 0e 91 3d a7 8f 30 3c 67 e0 02 bd 8a 9a cc 3d
       0.07082844 0.010776437 -0.031952288 0.099904135
000010 9e f6 d0 bd da bc 1e be 7d 6c a8 3d c5 f7 ac 3d
       -0.102032885 -0.15501729 0.082238175 0.08445696
000020 9c cb 41 bd 1a cf c7 bd a9 10 4d 3d 33 f9 f2 bd
       -0.047313318 -0.09756298 0.050064716 -0.11863937
000030 26 7a 84 3d a1 8c d1 bd 1a f9 f1 3d 04 9a d2 3d
       0.064686105 -0.10231901 0.118150905 0.102832824
000040 99 21 67 bd 2f bd a7 3b 4d 25 b2 bd e6 68 12 3e
       -0.056428526 0.005118988 -0.08698521 0.14297828
000050 17 61 a0 3d dc 7c 95 3d bd 86 8e bd 2f 12 0b be
       0.078310184 0.07299206 -0.06959293 -0.13581155
000060 08 6b 69 3d 99 35 d2 3d c1 5e 50 bd dd 99 01 3d
       0.05698684 0.10264129 -0.050871614 0.031640876
000070 f1 9c 06 bd fb bf b1 bd 10 f8 60 bd 83 06 91 bc
       -0.032864515 -0.086791955 -0.05492407 -0.0177033
000080 54 8a 61 bd d0 78 76 3d 07 43 15 3e a4 97 18 3e
       -0.05506356 0.06017381 0.1457635 0.14901596
000090 60 b6 4d 3d 02 61 b7 bd 48 bd 70 bd 03 28 05 3e
       0.050222754 -0.0895405 -0.058774263 0.13003545
0000a0 e0 12 90 bd 4f 7e 04 3e
       -0.0703485 0.12938808

u_model.model.1.linear.weight f4 [42, 42]
000000 5c 34 0d 3d 82 54 e8 bd f2 e5 d5 3b b2 a3 01 be
       0.034473762 -0.113442436 0.0065276558 -0.12660101
000010 95 80 4b bd 28 b9 d1 3c e3 38 8e 3c 3b 2d cd bc
       -0.049683172 0.025600985 0.01736111 -0.025045982
000020 33 16 e3 3d 69 d7 16 be 4a a9 12 3e 7d 50 b4 bb
       0.110882185 -0.1473061 0.14322391 -0.005502759
000030 66 b2 10 bc e5 1e 68 3d 01 84 97 bd 10 09 b4 3d
       -0.008831596 0.05667009 -0.073982246 0.08790791
000040 d2 19 41 3d 1c 77 87 3d 7c 29 76 bc 91 fc 67 bd
       0.047143765 0.06614515 -0.015024539 -0.05663735
000050 13 f0 a1 bd 4a 0e 11 3e 97 20 00 bd f7 d2 84 bd
       -0.07907119 0.14165607 -0.03128108 -0.06485551
000060 f9 c4 66 bc e1 59 82 3d 2c 7c 95 bc fe 5b 1c 3e
       -0.014085048 0.06364799 -0.018247686 0.15269467
000070 22 44 35 3d 1f e9 aa bd f7 10 de 3d 79 89 96 bd
       0.04425443 -0.083452456 0.108430795 -0.073504396
000080 21 87 a4 3c 9c c5 ca 3d 16 5d ee bd 51 c9 cb 3a
       0.020083966 0.09900972 -0.116388485 0.0015547668
000090 97 34 38 3d 0c 74 ee 3d c1 b9 d0 bc c5 05 09 3e
       0.04497203 0.11643228 -0.0254792 0.13381107
0000a0 d6 1f 69 bd d3 35 35 3e a6 36 23 3d 1c f0 79 3d
       -0.056915127 0.17696314 0.03984704 0.06102
0000b0 0e 85 7e 3d c2 ce cb bd 8a 59 92 3d 54 24 7f 3d
       0.06213861 -0.09951545 0.071459845 0.062290505
0000c0 fa c0 ff 3d 77 0b 06 be ce 26 37 be 57 33 08 be
       0.12487979 -0.13090311 -0.17885897 -0.13300835
0000d0 57 16 7d 3d c2 60 d9 3d b6 7c 12 be d3 69 8f bd
       0.061788883 0.10614158 -0.14305386 -0.07002606
0000e0 a9 d1 13 bd 9e f3 5c bd ae 6f 27 be 71 24 22 3e
       -0.03608862 -0.05394327 -0.16351196 0.15834214
0000f0 3b c1 3b 3d 78 cb 18 be 06 6b c5 bd 20 46 ff bd
       0.045838576 -0.14921367 -0.09639554 -0.12464547
000100 56 9a e9 3d 2a 6c 75 bd 02 5f d7 3d d2 07 07 bc
       0.1140639 -0.059917606 0.10516168 -0.008241611
000110 ef 23 ab ba 9b 98 08 3d 7a bd 34 bd 07 03 66 bd
       -0.0013056974 0.03334866 -0.04412601 -0.05615523
000120 58 62 a3 3d 70 e1 4f be 24 86 b3 bc 69 04 d6 3d
       0.07977742 -0.20300841 -0.02191455 0.1045006
000130 87 ce a6 bd 95 0f 09 3e be ae 03 be 6e 94 2b be
       -0.08144861 0.1338485 -0.12859628 -0.1675584
000140 16 eb ba bd 69 20 31 3d 55 71 9b bd c8 c5 f0 bc
       -0.0912687 0.0432438 -0.07589976 -0.029391184
000150 d6 c3 14 3e 83 d8 66 3d db 00 81 3d 52 92 e9 3c
       0.1452783 0.056358825 0.06298991 0.028512154
000160 93 0e fd 3d be 30 59 3c f7 80 ec 3d a1 86 fd 3c
       0.123562954 0.01325625 0.115480356 0.030947985
000170 4a 2c ef 3d c6 8a d6 bd 0a 46 7d 3d cc 7c 83 bd
       0.11678369 -0.10475688 0.061834373 -0.064202875
000180 fa 02 b1 bb 56 96 89 bd 02 91 73 bd 2b 4c 41 3d
       -0.005401966 -0.067181274 -0.059464462 0.04719178
000190 27 3f 43 bd 5a 9b d5 bd a4 e0 a3 3d de c1 54 bd
       -0.04766765 -0.104300216 0.08001831 -0.0519427
0001a0 82 98 29 bd 8a cd fa bd fc 61 cd 3d 19 4c a6 3c
       -0.04140521 -0.12246235 0.10028455 0.020299958
0001b0 9c b2 69 3d 3e 1f e6 bd e7 f2 23 be cb 8c 0b be
       0.0570551 -0.11236428 -0.16010629 -0.13627927
0001c0 e8 13 df 3d e2 99 fe 3d 15 03 39 3c 6d e4 7c bd
       0.10892469 0.124316946 0.011292239 -0.06174128
0001d0 8c 63 93 bd e9 db 65 bc 5a 86 02 bb 75 58 b1 bd
       -0.071967214 -0.014029481 -0.0019916506 -0.0865945
0001e0 8e e0 4d 3d 47 79 3d be a6 e9 09 3e 7d 62 f7 3d
       0.05026298 -0.18503295 0.13468036 0.12079332
0001f0 90 ee 39 3e 5a d8 a8 3c 5e 9f cf 3d f5 7a 25 bd
       0.1815741 0.020610977 0.10137819 -0.040400464
000200 34 b3 ab bd 46 1f be 3d 2c 5d 10 3d 71 3b c5 3d
       -0.0838379 0.09283309 0.035245106 0.09630478
000210 2f a3 77 bd 5c 9a 19 be f4 20 42 bd e0 99 17 be
       -0.06045836 -0.1500029 -0.047394708 -0.14804792
000220 2c 50 ad 3d e4 4e 1b 3d 3b 4d 55 bc ed 19 ed 3d
       0.08462557 0.037917033 -0.013018901 0.115772106
000230 c6 3f 1a 3d 6e c0 6e bd 10 f7 0b be 13 77 9f 3d
       0.037658475 -0.058288984 -0.13668466 0.077863835
000240 84 99 1b be 4e 04 18 bd 0f 78 ed bc 8f 08 a5 3d
       -0.1519528 -0.03711348 -0.028987912 0.08058273
000250 6a 16 08 be 86 d9 ba 3d b8 0f e2 3a 64 1d f9 bb
       -0.132898 0.091235206 0.0017247116 -0.0076023806
000260 9e a9 0f be e2 73 eb 3b a3 a1 b5 3d 83 28 8f 3d
       -0.14029548 0.007185445 0.088687204 0.06990149
000270 3c 80 62 bd a8 25 b5 3d 3a 39 ff bd 5a 93 a1 3d
       -0.055298075 0.08845073 -0.12462087 0.07889433
000280 ec 13 09 3e 56 15 06 3e b3 ce 0c be 31 3c 30 be
       0.13386506 0.13094077 -0.13750724 -0.17210461
000290 db 6e ef 3d 1e b8 d6 3c 57 04 99 3b 8d 51 be bd
       0.11691066 0.02621084 0.004669707 -0.09292898
0002a0 9c 23 b9 bd 14 0e df bd ff 80 1f be f7 b2 e4 3d
       -0.09039995 -0.10891357 -0.15576552 0.11166947
0002b0 1c 80 9f bd 88 1f 66 3e 86 0b a8 3c 3c 8f 9c 3d
       -0.07788107 0.22472966 0.020513307 0.07644507
0002c0 3f c6 72 3d 0c 23 6d 3d 54 46 e4 bd f2 b4 12 be
       0.059271093 0.05789475 -0.111462265 -0.14326838
0002d0 d6 07 ce bd 41 5a e7 3c bf 31 7a bd d6 71 8b bd
       -0.10060088 0.028241279 -0.061082598 -0.06808822
0002e0 81 9e 14 3e 24 93 c6 bc 27 7d f3 3b b3 dd bc bd
       0.1451359 -0.024240084 0.007430691 -0.09221973
0002f0 cc c1 e5 bd f2 e0 33 3e 00 aa d0 3c 68 f9 d9 3d
       -0.112186044 0.17566279 0.025471687 0.106432736
000300 ee c0 37 3e 9a 0b f8 3c 58 e9 09 3e 94 31 07 be
       0.1794469 0.03027897 0.1346792 -0.13202506
000310 28 f1 0e bc 49 8f 93 bd d8 64 d2 3d 4c 35 07 be
       -0.008724488 -0.07205064 0.10273141 -0.13203925
000320 72 bf 9d 3c c8 9f 16 be a0 44 0e be ad 82 e8 3d
       0.019256327 -0.14709389 -0.13893366 0.113530494
000330 61 85 f1 bb b7 a4 bc 3d 4d e3 1b 3c 3a d4 ea 3d
       -0.0073706363 0.09211104 0.009514642 0.1146626
000340 ac 7f d4 3d 93 c4 8d bd e4 39 a2 3c 0a fa df 3c
       0.10375914 -0.06922259 0.019802995 0.027340908
000350 95 9a b2 bd 53 eb 70 3d 67 8f ba bd 0c 87 80 3e
       -0.087208904 0.058818173 -0.09109383 0.25103033
000360 1e 42 d2 3a 11 fc b5 bd 9a 9c 0d 3c 5f 9a ed bd
       0.0016041433 -0.088859685 0.008643294 -0.116017096
000370 3b 2c ee 3c c3 62 bc bb f0 ff 53 3d b2 ce 68 bd
       0.029073825 -0.005749078 0.051757753 -0.056837745
000380 5e 40 15 be ef a3 1c bd 6c f4 5e bc 3a 01 da bd
       -0.14575335 -0.038242277 -0.013608079 -0.10644765
000390 d5 2f c5 bd 9f 51 0b 3e af d4 2f be 8c 70 58 bc
       -0.09628264 0.13605355 -0.17170976 -0.013210427
0003a0 73 bc b1 3d 06 9d b1 3c 01 85 4e bd ab d9 de 3c
       0.08678522 0.02168132 -0.05041981 0.027203402
0003b0 24 5f e6 bd c9 6e 47 3d ce db 79 bd f9 07 b6 bd
       -0.112486154 0.048689637 -0.061000638 -0.088882394
0003c0 a6 e6 f0 bd 79 10 92 3d 91 5e 83 bd 29 55 d5 3d
       -0.11762743 0.07132048 -0.064145215 0.10416634
0003d0 30 18 14 3e 51 dc 01 3e fa 1a 49 bd 66 43 af bd
       0.14462352 0.126817 -0.049097992 -0.08557777
0003e0 8b 68 40 3c 60 d9 1d bd 9e 20 4f bd 3e b0 f5 3d
       0.011743675 -0.038537383 -0.050568216 0.11996506
0003f0 65 d3 22 be a9 95 49 3d ac c9 4c bc d9 b3 c8 bc
       -0.15900953 0.049214993 -0.012499254 -0.02449982

u_model.model.1.linear.bias f4 [42]
000000 0c b1 af 3d a5 8a 8a bc 3b d8 de bd f2 99 39 bc
       0.08578691 -0.016911814 -0.108810864 -0.011328207
000010 e6 83 57 3d 84 13 11 3e 3b 5e 90 bd 13 26 14 3e
       0.052616023 0.14167601 -0.07049223 0.14467649
000020 30 85 6d 3d 62 41 47 bd fd 6c 38 bd 4a 44 09 be
       0.057988346 -0.04864634 -0.045025814 -0.13404956
000030 20 fb b3 bd 48 ec 61 3d 0f 6f e2 3d c9 80 58 3d
       -0.08788133 0.055156976 0.11056339 0.052857194
000040 29 20 b8 3d b1 01 11 be e4 fe d4 3d e6 b8 7f bc
       0.08990509 -0.14160801 0.10400179 -0.015608048
000050 80 35 fa bd 98 78 bf 3d 9c 4b 11 3e 33 2a c4 3d
       -0.122172356 0.09349173 0.14188999 0.09578361
000060 b6 1b 83 3d 33 eb 7a bd e9 a6 d9 bc 9e 46 d0 3d
       0.0640177 -0.06125946 -0.026568847 0.10169719
000070 44 84 47 3c fa 79 58 3d db a4 d3 bd 53 d0 07 3b
       0.012177531 0.0528507 -0.10334178 0.0020723536
000080 50 62 2d bd db 07 f7 bd 03 46 03 be da 24 f9 bd
       -0.042330086 -0.12062045 -0.12819676 -0.12165232
000090 4d 42 5e 3d b7 b1 36 3a 8b 6a 08 3c ac fc 7b 3d
       0.054262448 0.00069692306 0.008326183 0.061520264
0000a0 e4 ac 57 3b 16 fa cc bd
       0.0032909447 -0.100086376

u_model.model.2.linear.weight f4 [42, 42]
000000 95 32 1c bd 69 5c fd bd f6 66 b8 bd 60 0a 43 bc
       -0.038134176 -0.123711415 -0.09004013 -0.011904329
000010 b2 9a 41 bd f0 4a b6 bd 8d 7c 07 3d 97 7d 30 bd
       -0.04726667 -0.08901012 0.033077765 -0.04308852
000020 db 67 f0 3d 3b 3b f9 3d 69 e8 17 bd 0f 5b 9e 3d
       0.11738559 0.121695004 -0.037086878 0.07732212
000030 f4 dc d1 3d 12 8d fe bd 07 69 b6 bd 40 4d 8f bd
       0.102472216 -0.12429251 -0.08906751 -0.06997156
000040 d6 5d 01 be 40 49 95 3d 65 cd 0a bc c4 06 7b 3d
       -0.12633452 0.07289362 -0.008471821 0.06128575
000050 0f 74 c4 3d ab b0 76 bd de 15 87 bd 5b a4 05 be
       0.09592449 -0.060227077 -0.06595968 -0.13050978
000060 78 5e ec bd 3d 42 d6 3c e4 bd 58 bd c6 dc a4 bd
       -0.11541456 0.026154632 -0.05291547 -0.08049922
000070 11 7f 7e bd c1 ca 44 3e f9 fa 7c 3c 43 ac c8 bd
       -0.0621329 0.1921797 0.015440696 -0.09798481
000080 13 36 81 3c f2 41 2c 3d b3 c7 ec 3b 5c 33 9d bd
       0.015772855 0.042055078 0.0072259544 -0.07675812
000090 89 48 b7 3d 8b e1 38 bc 30 93 02 bd ba 69 0b bc
       0.08949382 -0.011284242 -0.03187865 -0.008509094
0000a0 4a de 3a 3d bd ce d0 3d 5c cb 13 3d e3 7e 9f 3d
       0.045622148 0.10195682 0.03608261 0.077878736
0000b0 9e 96 03 bd 69 2c e4 bd f9 36 8a 3c d2 ca 00 be
       -0.03212606 -0.11141283 0.016871916 -0.1257737
0000c0 1b 7c 0e 3d 82 44 bb 3c c6 b1 cf bd 05 10 eb 3d
       0.034786325 0.022859816 -0.101413295 0.11477665
0000d0 74 ad f8 bd 1f 65 a1 3d 05 ea 7b bd 2e a7 64 bd
       -0.121424586 0.078806154 -0.061502475 -0.055823497
0000e0 38 5a fc 3d ab f5 c2 bc 57 89 a7 3d 17 f4 05 3e
       0.12321895 -0.023798784 0.08180492 0.13081394
0000f0 30 ee dd bb b5 34 c2 bd cf 47 f0 3d e3 17 3f 3e
       -0.006772779 -0.09482709 0.117324464 0.18661456
000100 b7 58 79 bd 7b 4b 67 bc 00 04 59 bd 16 4f 9c 3d
       -0.06087562 -0.014117117 -0.05298233 0.07632272
000110 a2 f7 d7 3d dc 0c da 3d ae 53 65 3d 34 d4 4c be
       0.10545279 0.10646984 0.055988006 -0.20002824
000120 80 3c d8 3d 1d 7b ca 3c b7 ea 15 bd 7c 65 f0 3d
       0.105584145 0.024716908 -0.036600795 0.117381066
000130 f0 52 60 3b bb c9 b1 3c b7 da 21 bd 70 42 d9 bd
       0.0034229122 0.021702638 -0.039515223 -0.10608375
000140 9d 4c 26 be 7d ba c8 3d 72 94 e4 3d 81 65 a9 3d
       -0.16240163 0.09801195 0.11161126 0.082713135
000150 1f 21 b9 3d 20 2c 15 3e 49 71 02 3e da 5a 6e 3d
       0.090395205 0.14567614 0.12738527 0.05819211
000160 11 94 9a 3d ed ef 20 bd 13 88 d8 3b 30 43 06 3e
       0.07547773 -0.03929131 0.006608018 0.13111567
000170 44 38 e2 3d d3 04 1f 3d 36 d5 89 bd 0c 97 b8 3c
       0.11045888 0.03882296 -0.0673012 0.022532962
000180 67 d6 b8 bc ec c0 a5 3d e8 3f ff 3d d0 60 9f 3c
       -0.022563173 0.080934376 0.12463361 0.019455343
000190 6d 5c 07 be b5 3f af 3d a2 2d 97 bd 8a 18 19 be
       -0.13218851 0.08557073 -0.07381751 -0.14950767
0001a0 f4 06 c0 bb ee 34 12 be a2 44 a7 b9 5b ce b5 bd
       -0.005860204 -0.14278004 -0.00031903858 -0.0887725
0001b0 38 76 0b be 5c 78 90 3d ea 5f a7 3b 6a 1d 1f be
       -0.13619316 0.07054207 0.0051078694 -0.15538564
0001c0 23 08 b9 bd 68 b9 fd bd bd 3f 12 be 49 de c2 bd
       -0.09034755 -0.12388879 -0.14282127 -0.09515054
0001d0 f6 0f 86 3d 7a 46 ef 3b 4b 20 25 3e 38 b4 d7 bd
       0.06546013 0.0073021026 0.161256 -0.10532421
0001e0 02 6e 06 3e 76 b3 d0 bd 6d d8 85 3d a5 ac b4 3d
       0.13127902 -0.101904795 0.065354206 0.08821992
0001f0 cb bf f2 3c 32 ca 58 bd 33 38 84 bd 7b 8d 95 3d
       0.02963247 -0.052927203 -0.06456032 0.07302376
000200 cc 92 b5 bd 90 62 b9 bd 59 b9 f5 3d bf 12 3a be
       -0.0886589 -0.090520024 0.11998243 -0.18171214
000210 5a 37 18 be f6 81 84 bd b4 d0 a7 3d 6c 14 fb 3d
       -0.14864865 -0.064701006 0.08194104 0.122597545
000220 ce 42 87 3d d0 5c ae 3d 5f 47 29 3d 39 55 10 be
       0.06604539 0.08513796 0.04132783 -0.1409501
000230 1d 5a 2e 3d 7f ad 25 be 4c 76 6a 3d a6 df da bd
       0.042566407 -0.16179465 0.057241723 -0.10687189
000240 ce af 36 3c 4f d4 f1 bd 7e 2f 0e 3e e7 f3 a0 3d
       0.011150314 -0.11808073 0.13885304 0.07859021
000250 a9 6b e4 bd c2 8d 21 be d9 75 70 3b 22 88 68 bc
       -0.11153347 -0.15776733 0.0036691336 -0.014192613
000260 7a 70 b2 3c ff c2 0d 3d 6b a7 57 3d 2c 59 a3 bd
       0.021782149 0.03460979 0.052649897 -0.079759926
000270 df fb f5 3d ba 43 fc bd 69 1e 4b 3d bf 81 c1 bd
       0.12010931 -0.12317605 0.04958955 -0.09448575
000280 73 f0 95 3c 3f a7 99 bd b6 54 08 bd 88 52 c0 3d
       0.018303132 -0.07502603 -0.03328391 0.093907416
000290 9a 80 c3 bd 53 8f 24 3d 53 59 6c 3d 12 55 b6 3d
       -0.09546013 0.040175747 0.057702374 0.089029446
0002a0 e3 67 7c 3d 77 f0 6d bd c0 45 53 3d cb d3 ef 3d
       0.06162251 -0.058090653 0.05158019 0.11710318
0002b0 71 19 96 3d 48 7c 2b 3e a6 b9 da b9 49 65 05 be
       0.07329071 0.16746628 -0.0004171852 -0.13026918
0002c0 9d ff 7b 3d a8 fd 9a bd 60 07 cd bd 3a da 6d bc
       0.06152307 -0.07567912 -0.10011172 -0.014517361
0002d0 fd 49 b5 bc 14 09 21 be 42 49 93 3d e8 6a af 3d
       -0.022130007 -0.1572612 0.07191707 0.085653126
0002e0 59 27 9d bd 09 39 b7 3b 65 8c 12 be eb ff 9c bd
       -0.076735206 0.005591516 -0.14311369 -0.07666
0002f0 ad 5f b4 3d 8a 28 18 3e 3c 5d 27 be 41 5d 61 bb
       0.08807311 0.14859214 -0.1634416 -0.003438786
000300 d1 5b 36 bd 62 40 66 3d 10 bb 91 bd 59 22 32 3c
       -0.044521157 0.056213744 -0.071157575 0.010872447
000310 9b 3b 0a be 34 71 20 bd 16 e8 ca 3d 90 d3 01 3e
       -0.134993 -0.03917046 0.09907548 0.12678361
000320 ad 2d 7c 3d 51 da f4 bd 5a 1d dc bd 19 d1 5a bc
       0.061566997 -0.11955703 -0.10747786 -0.013355517
000330 c1 7e aa 3c bb 95 dd bd 9e 0a a9 bd b9 97 0e 3d
       0.020812394 -0.108195744 -0.08253978 0.034812663
000340 2f 6b 3f bd 7a fd c8 3d c8 89 17 be c4 73 1b bb
       -0.046733078 0.09813972 -0.14798653 -0.0023720125
000350 02 44 24 bd d8 25 9f bd 05 16 2d bd 7f 19 31 3e
       -0.04010392 -0.0777089 -0.042257328 0.17294882
000360 33 c1 16 bd d8 22 1f be c2 7a 1f 3c 09 92 07 3e
       -0.036805343 -0.15540636 0.009733858 0.13239302
000370 bd 3d 04 be d9 82 c3 3d b8 20 d0 bc 8f 56 d3 3d
       -0.12914176 0.095464416 -0.025406227 0.10319244
000380 22 d5 d7 bd 16 36 90 3d d4 cb 96 3d af 2d 4d be
       -0.10538699 0.07041566 0.07363096 -0.20036958
000390 c8 d6 07 bd 88 a3 8f 3c 88 9d 7e bd 4b e5 a7 3d
       -0.033163816 0.017534032 -0.062161952 0.08198031
0003a0 be 17 8c 3b 50 69 b5 3d a7 9f bd 3d 84 66 0d be
       0.004275291 0.088579774 0.09258967 -0.13808638
0003b0 e9 5c 9f 3d 2e df 35 3c 9a f9 0b be d7 0c 27 be
       0.07781393 0.011100573 -0.13669434 -0.16313492
0003c0 22 51 ce 3d 75 38 13 3d 92 50 9a bd e2 4c 3a 3c
       0.100740686 0.035942513 -0.07534899 0.011370869
0003d0 2c 8c 22 3d e8 93 b0 3c f0 11 dd bc 11 4e 48 3d
       0.03968446 0.021554902 -0.026986092 0.048902575
0003e0 fb 95 55 bd fa 0a 1b 3e dc 3e 31 bd 1f 2f d9 3d
       -0.052144986 0.15140906 -0.043272838 0.10604691
0003f0 db be a5 3d 7f e0 f1 bc 11 6e fd bd b2 6d b1 3d
       0.080930434 -0.029525993 -0.12374509 0.08663501

u_model.model.2.linear.bias f4 [42]
000000 eb 11 fe bd fa 0a fa 3d b7 c2 0f be df ce 74 bd
       -0.12405761 0.12209125 -0.14039122 -0.0597676
000010 b5 4d 37 3b 1a 24 e0 3d 7b 9b fe 3d fd 7d eb bd
       0.00279699 0.10944386 0.12431999 -0.1149864
000020 37 0a f9 bb 62 7e b0 3d 06 7a 34 bc 16 e7 37 bd
       -0.0076000947 0.086178556 -0.011015421 -0.044898115
000030 d2 da ed 3d fc 1d ab bd 43 90 d6 bd 0a 7d e4 3d
       0.11614002 -0.083553284 -0.104767345 0.11156662
000040 f4 70 f5 3d c2 44 05 3d 76 42 43 bc 9a 05 a4 bd
       0.11984435 0.032536276 -0.011917701 -0.08008881
000050 0a c4 c5 bd f9 67 c3 3d d5 6d ab 3d 90 5c f4 3d
       -0.09656532 0.095413156 0.08370558 0.119317174
000060 29 2f ee bd 0b f1 02 be 5c ff ce 3d dc a6 8e 3d
       -0.11630089 -0.12787263 0.101073 0.0696542
000070 f8 84 81 3d 9b 7c ed 3b 1f bf e3 bd 9b ec fa bd
       0.0632419 0.00724752 -0.11120438 -0.1225216
000080 24 a5 1a 3e b5 b0 3d bd 5d 10 43 bd 1c 5e c6 3d
       0.15102059 -0.0463111 -0.047623027 0.09685919
000090 e0 a3 7e 3d 90 9d 49 3d d2 75 19 be 39 ca 65 bd
       0.062168002 0.04922253 -0.14986351 -0.056101058
0000a0 e9 f3 88 3d 3f 50 44 3d
       0.06687147 0.04792809

u_model.model.3.linear.weight f4 [42, 42]
000000 72 b5 95 3d 66 d0 2c 3d 94 90 08 3e 11 04 e5 bd
       0.073099986 0.04219093 0.13336402 -0.11182416
000010 b8 f3 ec 3d d8 2a 8e 3c d3 a3 1b be d0 16 5f 3d
       0.11569923 0.017354414 -0.15199213 0.054465115
000020 12 91 98 3d 3e 6f 01 be 2f b0 cd bd ca a5 ce bd
       0.07449545 -0.12640092 -0.1004337 -0.100902155
000030 b2 3c 9b 3d cd 07 1d 3e e5 cb 23 be 92 da a2 ba
       0.07579936 0.15335007 -0.15995748 -0.0012424758
000040 b2 56 9d bd 8b e6 1d 3e d5 94 5a bd 20 b9 e8 3d
       -0.076825514 0.15419976 -0.053364594 0.11363435
000050 0d dd 13 be bc 72 ed 3d fc 91 88 bd da 91 0e be
       -0.14439793 0.115941495 -0.06668469 -0.13922825
000060 20 a6 13 be 95 50 17 3e bc 18 1b 3c c9 08 16 be
       -0.1441884 0.14776833 0.009466346 -0.14651789
000070 ae 7a f0 bd 43 07 44 3c 25 df c6 3d 98 59 87 3b
       -0.11742149 0.011964622 0.0971053 0.0041305535
000080 d3 d9 dc 3d f5 18 16 3e 6c cf fa bd 4b 1d 50 3d
       0.10783734 0.14657958 -0.12246594 0.050809186
000090 b9 60 d4 3d c6 a1 a9 3d 99 06 9b 3d 96 e7 da 3d
       0.10370011 0.08282809 0.07569618 0.10688703
0000a0 d3 87 16 be 14 65 dd 3d 06 c4 16 be e6 10 19 be
       -0.1470025 0.10810295 -0.14723215 -0.14947852
0000b0 2a 82 19 3e 6d 40 c4 3d 23 af 56 bd 1b 32 a6 bd
       0.1499106 0.09582601 -0.052413117 -0.081150256
0000c0 df 19 30 3e a4 1e 29 be e5 e9 d4 3d 10 d6 cb 3d
       0.17197369 -0.16515595 0.10396174 0.099529386
0000d0 75 a1 2e be 87 a9 07 be 62 60 e8 3d 85 4e 34 bc
       -0.17053778 -0.13248263 0.113465086 -0.011005049
0000e0 c3 cd e0 bc 7e b6 15 3e 38 fa 15 3e 1a 2b 44 bd
       -0.027441865 0.14620396 0.14646232 -0.047892667
0000f0 52 2a aa 3d 0a 37 06 be ac 37 0d 3c ad bd ef 3d
       0.08308853 -0.13106933 0.00861923 0.117061
000100 45 17 a4 3d 59 e3 d0 bd c0 3f 15 3e 68 f2 08 be
       0.08012251 -0.10199613 0.145751 -0.1337372
000110 1c 53 a9 bd 6e bf ed 3d 16 25 57 bc 01 03 70 3d
       -0.08267805 0.11608778 -0.013131401 0.058596615
000120 1c 4c 14 3e 72 06 be 3c a1 a8 16 be 59 c1 af 3d
       0.14482158 0.023196433 -0.14712764 0.085818
000130 81 50 4c be f5 ea a7 3c 91 ea c5 bd 24 fb 94 bd
       -0.19952585 0.020497778 -0.096638806 -0.07274464
000140 05 8d 59 3d 3c 13 be bd 88 1a b7 3d 7a 6e cb 3c
       0.053113002 -0.092810124 0.08940607 0.024832953
000150 be 6a c3 bc b0 7e 30 bd 43 4c ce 3d 01 08 c3 3c
       -0.02385461 -0.04308957 0.100731395 0.023807527
000160 64 e2 79 bc 3e 4c c0 3c 57 61 c5 3d 02 b4 1f bd
       -0.01525173 0.023473855 0.09637707 -0.03899003
000170 10 96 e6 bb 8f 38 66 3d 99 51 17 be 42 d4 05 3e
       -0.007036932 0.056206282 -0.14777221 0.13069251
000180 e2 59 f7 3d e1 30 9a 3c e3 5f 9d 3d 10 dc db 3d
       0.12077691 0.018822135 0.076843046 0.10735333
000190 ec 40 1c bb 85 53 89 bd 1c 52 04 be 0e 13 de bd
       -0.0023842407 -0.06705383 -0.12921947 -0.10843478
0001a0 fc 1f 18 3e a1 e1 bf bd 8d 09 28 3e 47 59 8b bd
       0.14855951 -0.09369207 0.16409893 -0.06804138
0001b0 b3 97 2a 3e a7 50 07 3e 8e 62 b6 3c 28 5a db 3d
       0.16659431 0.1321436 0.022263791 0.10710555
0001c0 76 cf 59 bc 5b 24 19 be 29 7b 39 bd 57 8c 13 be
       -0.013294091 -0.14955275 -0.04528347 -0.14409004
0001d0 57 11 20 be a0 b0 be bc 44 6e b9 3c 27 30 a7 bb
       -0.15631615 -0.02327758 0.022635587 -0.0051021758
0001e0 2d 14 8b 3d 37 ad cb 3c a7 08 af bd ec 2d 15 be
       0.067909576 0.024862869 -0.08546572 -0.14568299
0001f0 0b 0b dc 3d ee 9c 7e 3b 08 47 e7 bc 56 d7 8c bc
       0.10744294 0.0038850862 -0.028232113 -0.017192524
000200 a0 50 f9 bd a9 8c 18 3e 04 e3 1f bd 36 a9 9d 3d
       -0.12173581 0.14897408 -0.03903486 0.0769829
000210 96 9b ad 3d 69 a7 13 bc 16 03 09 3d 3b 54 06 be
       0.08476941 -0.009012082 0.03345021 -0.13118069
000220 b0 1a 49 3e 55 b4 78 bd cf b0 8e 3d 34 a5 61 bd
       0.19639087 -0.060718853 0.06967317 -0.05508919
000230 66 be 03 be e7 ff 08 3d d4 33 5f bc d4 ab 1e 3b
       -0.128656 0.033447172 -0.013623197 0.0024211304
000240 fe c0 68 bd 1d 21 dc 3d 70 14 88 bd e3 a7 7d bd
       -0.056824677 0.10748503 -0.06644523 -0.061927687
000250 35 36 38 3e 10 72 b0 bd bc 91 c4 3c b9 52 27 3e
       0.17989428 -0.08615506 0.023995273 0.1634015
000260 05 4a 31 bd ac c7 e0 3a 5a c2 18 3e bd 20 0f bc
       -0.04328348 0.0017149351 0.14917889 -0.008735833
000270 d5 95 0b be 5d 3c 0c 3c e0 77 6e 3d 4e 8a 85 bd
       -0.13631375 0.008559314 0.05821979 -0.0652052
000280 b8 1f 73 3c 0c 98 f6 bc 21 38 1b bd c5 9e fc 3d
       0.014839105 -0.030101798 -0.037895326 0.123349704
000290 75 60 21 be 45 c1 2e bc ce 46 4f bc 8d 0d 31 3e
       -0.15759452 -0.010666196 -0.0126511585 0.17290325
0002a0 c2 72 ae 3d 02 02 b6 3d 71 c5 21 be b2 e3 b3 3d
       0.08517982 0.08887102 -0.15797974 0.08783664
0002b0 88 2a 4b 3c bf 91 38 3e 03 63 9f bd e8 8d 85 bd
       0.012400277 0.18024348 -0.07782557 -0.06521207
0002c0 0f e1 01 be ed c2 e5 3d 35 90 c7 bb da c7 90 bd
       -0.1268351 0.1121882 -0.006090189 -0.07069369
0002d0 18 a2 a4 3d 32 60 31 bd 26 13 e3 bd 65 56 e1 3d
       0.080387294 -0.04330463 -0.11087637 0.110028066
0002e0 c4 93 13 3d fb ad 6a 3b 5f c1 40 3d 6d 68 4c 3d
       0.036029592 0.0035809267 0.047059413 0.049904276
0002f0 31 3a 0f be c6 c4 e8 3d c0 dc 3e be b2 4e c6 bc
       -0.13987042 0.113656566 -0.18638897 -0.024207447
000300 19 b9 43 be 94 ba ce bd b9 ac 10 be 75 4b 87 bd
       -0.19113578 -0.10094181 -0.14128388 -0.06606189
000310 12 99 f4 bd 61 9b 47 3d 06 c5 c9 bd d8 39 98 3d
       -0.11943258 0.048732165 -0.09852032 0.07432908
000320 55 c5 dd 3b 51 07 26 be 04 73 2b be 55 8c 06 be
       0.0067679086 -0.16213728 -0.16743094 -0.1313947
000330 b9 a1 46 3c 45 ec 16 3e 59 da dd bd 52 b9 a2 bc
       0.012123519 0.14738567 -0.10832662 -0.019863758
000340 39 1a 06 bd 4d 67 03 be 05 7f c0 3d ca 2d 15 be
       -0.03273985 -0.12832375 0.09399227 -0.14568248
000350 bd 81 ff bd 93 c7 7e bd 06 85 44 bd 10 0a 48 3d
       -0.124759175 -0.062202048 -0.047978424 0.04883772
000360 41 78 af bd ed 6c c4 3d c9 36 52 3d a6 19 93 3d
       -0.085678585 0.095910884 0.05132178 0.071826264
000370 1b c2 3a be 04 d9 ff 3d 09 2e 1d 3d e6 e6 d0 3d
       -0.18238108 0.12492564 0.03837398 0.102002904
000380 22 ba 9f 3c 10 62 31 3e 5b 99 ec bd f1 79 ea 3d
       0.019497935 0.17322564 -0.11552688 0.1144904
000390 75 3f 80 ba aa 60 05 be 9b 2f 8e bd 0f c0 c3 bd
       -0.0009784537 -0.13025156 -0.06942674 -0.09558117
0003a0 97 47 4f be 92 b4 20 3e 32 c7 57 bd 69 49 9a bd
       -0.20242153 0.15693882 -0.0526802 -0.07533533
0003b0 18 07 e8 bd 8b 31 de bc 2c f8 cf 3c b6 48 87 3d
       -0.11329478 -0.027123233 0.025386892 0.066056654
0003c0 6b 3b 15 3d 83 52 da bd 0a 77 3a 3d 62 cc ef bc
       0.03643362 -0.10660269 0.04552368 -0.029272262
0003d0 45 b7 96 3a 5d a3 44 be 97 ee 5e 3d 82 f8 de 3d
       0.001149871 -0.19202943 0.054426756 0.10887243
0003e0 6d 5b 80 3d 1f 57 a1 bd 2b 7f 0e bd c7 04 8e bd
       0.06267438 -0.07877945 -0.034789246 -0.06934505
0003f0 6a 8a 0e bd e3 53 13 be 10 0c 18 3e c7 52 10 be
       -0.03479997 -0.14387469 0.14848351 -0.14094077

u_model.model.3.linear.bias f4 [42]
000000 d4 d4 6d bc 0a e6 01 3e a2 d7 d4 bb 3f 0c 02 3d
       -0.014516074 0.12685409 -0.006495432 0.03174996
000010 58 54 77 bd a1 93 0a 3e 67 63 5a 3a a8 c0 15 be
       -0.06038317 0.13532878 0.0008330852 -0.14624274
000020 6b da ef bd c5 37 9c 3d a1 8c ce bd 7b 71 1b 3e
       -0.11711582 0.07627825 -0.100854166 0.15180008
000030 4e 13 e3 bd 3f aa d3 3d ec 36 11 be 5b 6c b7 3d
       -0.110876665 0.10335206 -0.14181107 0.08956214
000040 5f da dd bd 8f fb f6 bd db 96 23 3d 0a 75 08 be
       -0.108326666 -0.120597 0.03993879 -0.13325897
000050 68 16 d0 bd 6a 26 80 3d d3 aa 6d bb 05 43 b0 bd
       -0.10160524 0.06257327 -0.003626515 -0.08606533
000060 15 78 0d bd f7 e5 3c 3d 8d 23 ee 3d 67 f7 f2 bd
       -0.034538347 0.04611775 0.116278745 -0.118635945
000070 24 42 63 bd 26 46 80 bd bb 0a 9e bd 4e 7f a8 3d
       -0.055483 -0.0626338 -0.077168904 0.082274064
000080 1b c8 f6 bd 5d 5d 10 3d 8a c0 e3 bd bd d3 dc bd
       -0.12049886 0.03524529 -0.11120708 -0.10782573
000090 ac 41 ed bd d7 5f 22 3e d8 dc 3b 3d ac 92 2f bd
       -0.115847915 0.15856872 0.04586491 -0.042864487
0000a0 c6 fa ec ba d1 cb 7f 3d
       -0.0018080107 0.062450234

u_model.model.4.linear.weight f4 [42, 42]
000000 b9 d9 90 bd 5a 62 04 be 9b 0b c3 bd 5e a9 0a be
       -0.07072777 -0.12928143 -0.09523698 -0.13541171
000010 b5 7a 19 be 50 37 d3 bc f9 ec 96 bd d5 c0 31 3e
       -0.14988215 -0.025783211 -0.07369418 0.17358716
000020 b5 3c 8c bd f1 91 50 bd 71 7f 6f bc d5 81 9a bd
       -0.068475164 -0.05092043 -0.014617787 -0.07544295
000030 a5 f7 53 3d 27 3f 94 bc f9 a4 bf 3d ae fc 88 bd
       0.051749844 -0.01809652 0.09357638 -0.0668882
000040 c7 c3 d9 bc 10 31 18 3e c7 46 d5 3c 5b 01 83 3d
       -0.026582612 0.14862466 0.026034726 0.06396743
000050 ca 38 80 bd 51 9e b8 bc 76 37 0e 3b e1 85 ab 3c
       -0.06260832 -0.022536429 0.0021700538 0.020937862
000060 71 0f f0 3d b2 17 cd 3d 5e 25 4e 3d 07 e3 05 3e
       0.11721695 0.10014285 0.050328605 0.13074885
000070 9b a2 21 be e2 5a c1 bd bd 55 f7 bd e4 9b 18 be
       -0.15784685 -0.09441163 -0.120769 -0.14903218
000080 9c 7f 04 3e 0e 21 46 3c c5 0a a8 3d 16 e9 03 3e
       0.12939304 0.012092842 0.08205179 0.12881884
000090 70 8c 8f bd 6f c9 a7 bc 3d dd d8 bc e9 6a 8b bc
       -0.07009208 -0.020481793 -0.026472682 -0.017018752
0000a0 4a 81 e8 bd b8 2b d1 ba 08 a8 9b 3d 4a 80 51 3c
       -0.11352785 -0.0015958464 0.07600409 0.012786934
0000b0 bc 7c 17 3e de e8 ae bd 1a 59 18 be d3 ea 22 bc
       0.14793676 -0.0854051 -0.1487774 -0.009943682
0000c0 2b 83 05 3e 90 0e ea 3d 72 6a df 3d d2 c6 c0 3c
       0.13038318 0.11428559 0.10908975 0.023532305
0000d0 db 14 e6 bd 77 8e cb 3d 0b 1e 24 3d 75 47 04 3d
       -0.112344466 0.099392824 0.040067714 0.03229471
0000e0 7a 09 ef 3d 32 a0 8e 3d d2 da ac bd 02 ee 15 be
       0.116717294 0.069641486 -0.08440174 -0.14641574
0000f0 c7 bb 10 be db 5a 25 be a2 33 fc bc 4e 99 72 bc
       -0.14134131 -0.1614794 -0.03078634 -0.0148070585
000100 9a fb 9f 3d ba 8d 07 bd 46 26 a0 bd 88 eb 0f be
       0.07811661 -0.033094145 -0.078198 -0.14054692
000110 09 17 b7 3d 97 98 1c 3d b6 85 b3 bc cd b2 e9 bc
       0.089399405 0.03823146 -0.021914344 -0.028527642
000120 16 f9 90 bd b5 02 2a bd ef df 89 3d 9a 9f 7c 3d
       -0.07078759 -0.041506488 0.06732165 0.061675645
000130 5c 42 ca bb 7f 50 04 3b 8b ed d1 3d 3a 51 84 3d
       -0.0061724614 0.002018958 0.10250386 0.06460805
000140 35 63 01 be 5f 38 e2 3d fc 7a e5 3d 51 74 70 bd
       -0.126355 0.11045908 0.11205098 -0.058704678
000150 67 d9 25 be 3e 89 5f 3d a6 d4 a1 3c 40 0b 97 3d
       -0.16196214 0.054574244 0.019754719 0.07375193
000160 6c b1 9b bd 4d 66 da bd 95 7d 77 3d 87 63 83 bd
       -0.076022 -0.106640436 0.0604225 -0.06415468
000170 03 55 33 3d 8d b7 c9 3d 14 23 b0 bd 4b e9 f0 bd
       0.043782245 0.09849463 -0.086004406 -0.11763247
000180 72 13 dd bd 24 61 a9 3d 01 88 22 3e bf e1 55 bd
       -0.107947245 0.08270481 0.15872194 -0.05221724
000190 ac 32 ce bc f8 19 84 bd dd 5a b9 3c e7 83 63 bd
       -0.025170647 -0.06450266 0.022626335 -0.055545714
0001a0 ce c3 87 3d 50 33 8f 3d e5 ea 91 bd 73 1f df bd
       0.06629144 0.06992209 -0.07124881 -0.1089467
0001b0 7e 12 34 3e 1f 16 c5 bc 6c 69 a9 bd 5f 7d 4b 3c
       0.17585179 -0.0240584 -0.08272061 0.0124200275
0001c0 c5 04 d4 bd 23 c6 5a bd ee ea 1b be 87 a0 93 bd
       -0.10352472 -0.053411614 -0.15226337 -0.072083525
0001d0 13 73 34 3d cc e5 dc bd 3f ab 20 3e 7c 42 8c bd
       0.044055056 -0.10786018 0.15690325 -0.068486184
0001e0 37 c9 62 3c 6f 0e 27 bc 8b 61 6f 3d 4f 8a e9 3c
       0.013841919 -0.010196312 0.058442634 0.028508333
0001f0 60 30 93 3d 1d 17 0a 3d 2e b0 d0 3d ff 79 21 be
       0.07186961 0.03371345 0.101898536 -0.15769194
000200 df 96 4c 3d 3e 4e a4 bd e9 5b 09 be cb ce 54 be
       0.04994857 -0.08022736 -0.13413967 -0.2078201
000210 76 f8 08 be 85 f3 d2 bd 93 4e 0d 3d ab 65 52 bd
       -0.1337603 -0.10300354 0.034498762 -0.05136649
000220 ae 9d d7 3e 40 7f d6 bd cd d7 42 be 23 36 7f bd
       0.42112488 -0.1047349 -0.19027634 -0.06230749
000230 1e 33 0f be 71 25 fe 3d ed 76 ab 3e e2 34 1c be
       -0.13984343 0.12409485 0.3348917 -0.15254548
000240 96 f2 65 be ec 79 e0 bd b1 3b 92 bd 7c c5 e9 bd
       -0.2245582 -0.10960755 -0.071402915 -0.1141462
000250 d2 8c 55 3c 07 47 56 bd 46 86 ae 3d bb ef 8d 3e
       0.013034062 -0.05231383 0.085217044 0.27721962
000260 63 85 44 be 03 bb d9 bd af 36 ce 3d 29 3e 84 3e
       -0.19191508 -0.10631373 0.10069024 0.25828674
000270 f2 a3 4d be 13 d0 d7 bd 8b fe 08 3e ae bb c8 bc
       -0.20082071 -0.10537734 0.1337835 -0.024503555
000280 be 91 ca 3d 80 60 34 3e b1 c0 4c 3e fa 11 6c 3e
       0.09891079 0.17614937 0.19995381 0.23053733
000290 7b f2 9f be 03 2f de 3d b4 70 9e bc 92 0f 03 3e
       -0.31239685 0.108488105 -0.01934085 0.12798908
0002a0 02 65 dd 3d 48 7f 02 be 59 1e c2 3d a8 da ce bd
       0.10810281 -0.12743866 0.094784446 -0.10100299
0002b0 0a a1 18 bd da e9 93 bd de f7 f5 3b 35 a3 17 3e
       -0.037262954 -0.07222338 0.0075063547 0.14808352
0002c0 ef 93 74 3d 9c b1 46 bd 2b f0 db bd 2e f3 86 3c
       0.059711393 -0.048509225 -0.10739168 0.016473379
0002d0 6c 4d 98 3c 20 a3 b7 bd 80 22 10 3e bf 01 cb 3d
       0.018591605 -0.089666605 0.1407566 0.099124424
0002e0 f7 dd 03 3e ff 13 f2 3d ec ed 08 be ed b3 ca bc
       0.12877642 0.1182022 -0.1337201 -0.024743998
0002f0 d9 db df 3d 94 70 b4 3d 82 60 51 bd 70 0b e7 3c
       0.109306045 0.08810535 -0.051117428 0.028203696
000300 82 3b e7 3d 60 e8 29 bd f9 a3 d4 bd b0 4a 0a 3e
       0.11290647 -0.041481376 -0.10382838 0.13505054
000310 59 53 d0 bd 98 1c d3 bd a1 d7 7d bd 6e e8 4e 3d
       -0.10172147 -0.10308188 -0.061973218 0.05051463
000320 af 0d 64 bd 2f 44 53 3d a4 49 25 3d af a4 e8 bd
       -0.055677112 0.051578697 0.040353432 -0.11359536
000330 9a a0 4c bd b9 1d 83 bd 97 03 25 3d 3f ff 98 3d
       -0.04995785 -0.064021535 0.040286627 0.07470559
000340 34 73 b2 3c d3 25 e0 3d 1e 46 b3 3d 92 40 e6 3d
       0.021783449 0.109447144 0.08753608 0.112427846
000350 a9 a1 ab 3d e2 6c e5 3d 21 be 07 3e 89 16 69 3d
       0.083804436 0.112024084 0.13256122 0.056906257
000360 02 2d e4 bc 32 71 90 3d 08 7b ac bd 0d bf bb 3d
       -0.027853493 0.0705284 -0.08421904 0.091672994
000370 7d f4 96 bd a5 24 23 3d 15 48 92 bc 50 73 d2 3c
       -0.07370851 0.03982987 -0.017856637 0.02568975
000380 c3 21 0a 3d 00 42 50 3c 76 59 93 bd 14 86 be 3d
       0.033723604 0.012711048 -0.07194798 0.09302917
000390 b3 12 02 3e 0b d1 7c 3d 56 19 62 3d 61 17 0a be
       0.12702446 0.061722796 0.055199943 -0.13485481
0003a0 9a 61 41 3d fe 51 0c 3e 78 9b 16 bd 77 7f cf 3d
       0.04721222 0.13703153 -0.03676936 0.10131734
0003b0 2f 4d 7c bc 89 1d 07 be 2d bb 88 3d b0 1d 0c be
       -0.015399261 -0.1319486 0.06676326 -0.136832
0003c0 64 43 f9 3d 5c 45 35 3d 56 7c 11 be 85 29 0a bd
       0.12171057 0.0442556 -0.14207587 -0.033731002
0003d0 9e cd 31 bc 02 9d 32 be d8 d1 af bd 40 74 00 be
       -0.010852246 -0.17442706 -0.085849464 -0.12544346
0003e0 86 78 0d be 51 22 53 bd ce 93 0b 3e 90 46 33 3a
       -0.13815507 -0.0515464 0.13630602 0.0006838823
0003f0 2d 50 00 bd 87 80 3c 3d 2c c5 18 3d 16 97 d4 3c
       -0.03132646 0.04602101 0.037297413 0.02595095

u_model.model.4.linear.bias f4 [42]
000000 bd 77 af 3b 0a 34 c6 bd 2c a6 d7 bc 7f 1d 41 3d
       0.00535485 -0.096778944 -0.026324354 0.04714727
000010 f8 3d d6 bd 48 46 0e be 43 68 de bd 54 20 cd bc
       -0.10461038 -0.13893998 -0.1085973 -0.02503983
000020 6d f1 79 bc 2a 13 a7 bc ca 08 ac 3d a5 4d 08 3d
       -0.015255314 -0.02039488 0.08400114 0.033277173
000030 29 8b be 3d a1 6e 6b bc 02 c6 a1 bc 9c f1 5e ba
       0.093038864 -0.014369638 -0.019747738 -0.00085046305
000040 db a0 d3 3d fe 34 ff 3d 64 71 cf 3d b6 54 94 3d
       0.10333415 0.12461279 0.101290494 0.0724272
000050 8d c0 ce bd 81 3a 9a bd db 82 06 be d5 fc f0 bd
       -0.1009532 -0.0753069 -0.13135855 -0.11766974
000060 3b e8 a5 bd e5 53 f9 3d 62 c6 82 3c 66 9c 88 3d
       -0.08100935 0.12174205 0.015963737 0.06670456
000070 b3 a0 31 bd 91 a5 7a 3d 36 ba 08 be f4 c7 e6 bd
       -0.043366145 0.061193053 -0.13352284 -0.11268607
000080 4e e1 8c bd 75 8b d9 bd c2 16 25 3e 9a c0 06 3e
       -0.06878911 -0.106223024 0.16121963 0.13159409
000090 fa 93 2a 3e 9e 04 11 bd 16 41 6f 3d cb bb c5 3d
       0.16658011 -0.035404794 0.05841168 0.09654959
0000a0 00 20 93 3c 04 4b 30 3c
       0.017959595 0.010760073

u_model.model.5.linear.weight f4 [42, 42]
000000 f4 ba fc 3d 5f ac 4a 3d fc 02 bd bd 18 0c 8b bd
       0.12340346 0.049480792 -0.09229085 -0.06789416
000010 c9 40 14 be 25 e9 c7 3c 59 4b 9f 3d 54 af 8a bd
       -0.14477839 0.024403164 0.07778043 -0.067717224
000020 f3 8d 16 3c 5d c1 d5 bd 4e 49 02 3e ec 9c 2f bd
       0.009189117 -0.10437272 0.12723276 -0.04287426
000030 bc 81 71 bb 65 41 47 3c 29 e1 2e 3d f0 56 47 bd
       -0.003685101 0.012161587 0.0426952 -0.048666894
000040 ac f3 ce bd 20 51 19 3e d7 03 0d 3e 65 38 e6 bd
       -0.101050705 0.14972353 0.13770996 -0.11241225
000050 e3 c2 2c be bb e6 6d bc 11 70 ef bc 4e 69 ef 3d
       -0.16871218 -0.014520342 -0.029228242 0.11690007
000060 36 99 bb 3b be 0c 05 bd 70 50 af bd 70 ea 20 be
       0.0057250513 -0.032482855 -0.08560264 -0.15714431
000070 7b 7d 9d bc 19 16 15 be 7c 0f bc bd 5d 7f e5 3d
       -0.019224873 -0.14559211 -0.09182641 0.11205933
000080 28 1c b0 3d 71 bc 3e bd 7d 88 25 3d 59 1f 37 3e
       0.085991204 -0.04656643 0.04041337 0.17883052
000090 ca 7b 16 3e 7b 3a 15 3e 42 82 2d 3d f5 d7 82 bb
       0.1469566 0.1457309 0.04236055 -0.0039930292
0000a0 5a 7d 8e 3d 86 d9 d0 3d eb 51 04 3e f0 02 02 3e
       0.06957503 0.10197739 0.12921874 0.12696433
0000b0 eb 43 78 3d b1 89 98 bd 1d 88 16 bd e9 05 4b bd
       0.060611647 -0.074481376 -0.0367509 -0.049566183
0000c0 c1 16 1d 3d 86 f7 e6 3a d0 9e b7 3c 6e 60 03 be
       0.038351778 0.0017621375 0.022414595 -0.12829754
0000d0 1f 6f 20 3d fe b7 3c bd b5 7a c1 bd ae a8 db 3d
       0.039168473 -0.046073906 -0.09447233 0.107255325
0000e0 fe e6 04 bd 4e 10 b3 3d 9f 1d a9 3d 3f 01 44 3d
       -0.032446854 0.08743344 0.08257603 0.04785275
0000f0 d1 c4 5e 3d f0 f3 ec 3d e9 28 87 3d 99 5e 04 3e
       0.054386918 0.11569965 0.065996 0.12926711
000100 57 f7 b0 bd fb 7b 0f bd 20 9d 2b be 36 91 13 3e
       -0.08640926 -0.035030346 -0.16759157 0.14410862
000110 01 35 e2 3d 4e bd a3 3d 0b 8e 66 3d 44 95 5a 3d
       0.11045266 0.079950914 0.056287806 0.053365007
000120 3d 38 3d 3d 54 db 6f bd e5 01 92 3d 4a b0 b2 3c
       0.04619621 -0.058558777 0.071292676 0.021812577
000130 13 c4 b4 bd b0 6d 1b be 96 f4 8f bd e7 8f 91 bd
       -0.08826461 -0.15178561 -0.07029073 -0.07107525
000140 b6 c1 df 3d 91 ce 8a 3d 71 52 19 3e 8b 2a 08 bb
       0.10925619 0.06777681 0.14972855 -0.002077731
000150 82 a8 e5 3d d0 27 1d 3e 7c 0d 0e be 42 08 c0 3d
       0.11213781 0.15347219 -0.13872331 0.09376575
000160 6d 05 3a bd eb c2 5a 3d 08 84 2d be 32 e6 4e bd
       -0.04541533 0.053408545 -0.16944897 -0.0505125
000170 2c 7c 1d bd 3d f1 81 ba 66 fe ab bd 12 62 e2 bd
       -0.038448498 -0.0009913814 -0.08398132 -0.11053862
000180 fc 3a aa 3c a2 65 eb bd 8e db 03 be 18 18 9b bd
       0.020780079 -0.11493994 -0.12876722 -0.07572955
000190 96 e8 a9 bd 93 ef 17 3e 9b fc 47 3d d5 98 82 bd
       -0.08296315 0.14837484 0.048824888 -0.06376807
0001a0 af 80 b8 bd 1c 95 cd 3d 9f bd 4a bd 32 19 b2 bd
       -0.090089194 0.10038206 -0.049497243 -0.08696212
0001b0 15 8b 8b 3d 10 60 db bc 9e 4d d6 bc b6 e8 5a bd
       0.06813637 -0.026779205 -0.026160058 -0.053444587
0001c0 37 67 9f bc 25 b9 bf bd 13 10 8b bd 2f 10 90 3d
       -0.019458396 -0.093614854 -0.06790175 0.07034337
0001d0 4d c1 f4 bd 02 9d 76 bd dc a7 38 3e 3a 84 d5 bb
       -0.11950932 -0.060208328 0.18032783 -0.006516007
0001e0 a6 34 82 3d 2b 5a b4 bd 13 76 d6 bd dd 18 e6 3d
       0.06357698 -0.08806261 -0.104717396 0.11235211
0001f0 6d ba ec 3d fa 82 e4 3b 6f c6 5b bd 5b 07 b9 3d
       0.115589954 0.0069736214 -0.053656038 0.09034606
000200 6e e6 8b 3b 47 be 1c 3d ea 1a a9 3d 13 30 0a be
       0.0042694127 0.0382674 0.082570866 -0.13494901
000210 0c 40 b2 bd 3d 55 eb 3d dc 27 d6 3d 88 44 ad 3b
       -0.08703622 0.11490867 0.10456821 0.0052877106
000220 3d 8b 81 bd ad 60 6d bd 0d 3e 11 bc 6d d3 9d bd
       -0.06325386 -0.057953525 -0.008864892 -0.07706342
000230 d6 1e 14 3d 5d af aa bc fe 26 b9 bd b3 7d db bd
       0.03616222 -0.020835573 -0.0904064 -0.107173346
000240 83 9b 2b be a3 af 01 3e d8 8c 15 be 8f 2d 0a 3d
       -0.16758542 0.12664656 -0.14604509 0.033734854
000250 99 c2 01 be 58 ef c6 bc 38 cc 2b be 70 33 0e bd
       -0.1267189 -0.02428405 -0.16777122 -0.034717023
000260 62 3a c5 bd c0 d8 df bc cc 22 b5 3d e3 88 1a 3e
       -0.09630276 -0.027325034 0.088445276 0.1509128
000270 17 c2 05 be 95 fb 2f 3d 0d dc af bd 4e e1 8b bd
       -0.1306232 0.042964537 -0.08586893 -0.06830083
000280 91 98 9f 3d 23 bc 16 bc 26 2b c9 3d 39 13 01 3e
       0.077927716 -0.009200129 0.09822683 0.12604989
000290 a2 f4 1a be a2 db fe ba ac 24 04 3e a4 f6 d6 bd
       -0.15132383 -0.0019444118 0.12904614 -0.10496262
0002a0 ed fa 0b 3e 5d b4 19 be 1f ae b0 3d f0 ac 4d be
       0.1366994 -0.1501021 0.08626961 -0.20085502
0002b0 c6 d3 39 3d ce 7d bb 3d cf 3d 80 bd c3 93 59 bd
       0.04536798 0.09154855 -0.06261789 -0.053119432
0002c0 8c 56 bf bd 1a 2d fc bd a8 21 36 bd 0c 54 29 3d
       -0.093426794 -0.1231329 -0.04446569 0.04133992
0002d0 45 0e a6 bd dc d4 1c 3e 68 d4 b1 3c 2a e3 57 3d
       -0.081081904 0.15315574 0.021707729 0.052706875
0002e0 be e1 11 3e b4 fb 89 3d 81 6f 0a 3e b8 0e 16 3e
       0.1424627 0.06737462 0.13519098 0.14654052
0002f0 39 f8 3a 3c 3e 0d 3e 3d 9d 6e c1 3d 8e c8 f5 3d
       0.01141172 0.046399347 0.09444926 0.120011434
000300 e7 b9 80 3c 1d 1e b8 bd cd 85 fe bd d1 ba 7f bc
       0.015713645 -0.08990119 -0.12427864 -0.015608505
000310 c1 94 dc 3d 16 12 8d 3d 99 86 e7 bc 27 43 26 be
       0.1077056 0.06888215 -0.028262423 -0.16236554
000320 a0 8c 9a bc 81 8b ce bc 83 9e c7 3d 14 20 82 bd
       -0.018865883 -0.025213005 0.097470306 -0.06353775
000330 dd e2 de bd e6 82 c4 bc 13 56 b2 3d d6 47 31 3e
       -0.108831145 -0.023988198 0.087078236 0.1731256
000340 5d 79 be bc 4e 8f b2 3d 40 1f 84 bc 0d 38 db bc
       -0.02325123 0.087187394 -0.016128182 -0.026760126
000350 39 fa 4e 3d ff 7a 83 3d b8 5b d2 3d 8a 61 15 bd
       0.0505316 0.06419944 0.102714 -0.036469974
000360 db b4 60 3d 61 f7 28 be 4f 02 aa bd f1 10 18 be
       0.054859977 -0.16500618 -0.083012216 -0.14850213
000370 ce 8f 0d 3e 0d 33 f5 bd 51 e3 97 3d 83 1f ff 3d
       0.13824388 -0.11972628 0.07416404 0.12457182
000380 20 92 f6 3d 06 fb f8 bc a7 aa bc bd 49 d0 39 3d
       0.1203959 -0.030393135 -0.09212237 0.04536465
000390 d2 ee aa 3c a8 ea 89 bc 1f 2b 0a 3d a8 3e 01 3e
       0.020865832 -0.016835526 0.03373253 0.12621558
0003a0 f1 3b bc bd 8f 30 0d bd 12 00 11 be 72 e8 91 bd
       -0.091911204 -0.034470137 -0.14160183 -0.071244135
0003b0 90 46 13 be 27 43 12 3e ba 61 ce bd 45 ad fc bc
       -0.14382386 0.14283429 -0.100772336 -0.03084434
0003c0 0d 1d bf 3d d9 b9 0b be 40 27 07 3d 21 d2 7b bd
       0.09331713 -0.13645114 0.032996416 -0.06147969
0003d0 1e b0 00 3d 97 70 43 3d 9e 34 a5 bd 30 a2 f7 3d
       0.03141796 0.047714796 -0.080666766 0.12091482
0003e0 5e 5f 23 be eb 5e fa bc d7 60 78 bd f7 49 06 bd
       -0.15954348 -0.030562839 -0.06063923 -0.032785382
0003f0 97 2f b2 bd 31 e7 80 3d 47 2b 5e bc 1c 0c 23 be
       -0.08700483 0.06294096 -0.013560123 -0.15922588
