saved_models/1d_burgers/resnet_pinn.pt (torch, 77521 bytes, 42 tensors)

u_model.W f4 [20, 2]
0	0xbe31df0d	-0.17370243
1	0xbfe946db	-1.8224748
2	0x3f477a73	0.7792122
3	0xbf81c7b9	-1.0139076
4	0x3f622ef9	0.88352925
5	0x3f20ee36	0.6286348
6	0xbe81b3de	-0.2533254
7	0xc029fc5e	-2.6560283
8	0xbf44f21e	-0.7693194
9	0x3f64bb23	0.8934805
10	0x3eea6c55	0.45785776
11	0x3d79da38	0.060999125
12	0x3fc2affa	1.5209954
13	0x3f68fe58	0.910131
14	0x3e956481	0.2917824
15	0xbe783922	-0.24240544
16	0x3d62cd28	0.055371433
17	0xbffcbd3b	-1.9745249
18	0x3fc4957f	1.5358123
19	0x3f00d580	0.50325775
20	0x3f9e4388	1.2364359
21	0xbf36f3eb	-0.7146594
22	0x3b850133	0.004058981
23	0x3f012a23	0.5045492
24	0x3f42f7ff	0.7615966
25	0xbfdb1150	-1.7114658
26	0x3fa49aaa	1.28597
27	0xbf9b4952	-1.213175
28	0x3ea4a653	0.32158145
29	0xbf3d1b18	-0.73869467
30	0xbd71fc5c	-0.05907856
31	0xbf189fc4	-0.59618783
32	0x3cb584f0	0.022158116
33	0x3f7aad9f	0.97921175
34	0x3eb79c1c	0.3586129
35	0x3eec97db	0.46209607
36	0x3fa07423	1.2535442
37	0x3f3ba531	0.7329894
38	0x3ef86a39	0.4851854
39	0xbfccee7b	-1.6010278

u_model.b f4 [20]
0	0x40b4132f	5.6273417
1	0x3fad3690	1.3532276
2	0x40678d78	3.6180096
3	0x3fcaba83	1.5838169
4	0x3fbc738d	1.4722763
5	0x3f5dfb3e	0.8671149
6	0x407ec722	3.980904
7	0x3f17f66b	0.5936038
8	0x403e74f3	2.975888
9	0x40c7c807	6.2431674
10	0x40bb9a67	5.862598
11	0x3d926766	0.07148628
12	0x40ab7fd2	5.359353
13	0x40755348	3.833208
14	0x40b8a5e0	5.7702484
15	0x3ec11885	0.3771402
16	0x4011afed	2.2763627
17	0x3ffbb2ce	1.9663942
18	0x40bdfd54	5.937174
19	0x40b0b9f5	5.5227

u_model.model.0.linear.weight f4 [42, 42]
0	0xbd935445	-0.071938075
1	0x3e37b6f4	0.17940885
2	0xbe470922	-0.19437078
3	0xbdbf5b54	-0.09343591
4	0x3dc91bfd	0.098197915
5	0xbd2c4140	-0.042054415
6	0x3dbcf91f	0.092272036
7	0x3e039695	0.12850411
8	0x3cc1aa51	0.023640784
9	0x3d3186b2	0.043341346
10	0x3dfff106	0.124971434
11	0x3e1997ec	0.1499936
12	0x3df46e4e	0.119351014
13	0x3ad139d4	0.0015962669
14	0xbe11617f	-0.14197348
15	0x3d9f62e9	0.077825375
16	0x3dad10fe	0.08450507
17	0x3af55e9c	0.0018720212
18	0x3dd55592	0.10416712
19	0x3cdba45b	0.02681177
20	0xbd45378f	-0.048148688
21	0xbe05b912	-0.1305888
22	0x3d014b33	0.031565856
23	0xbe0de393	-0.13856344
24	0xbcfbd50c	-0.030741237
25	0xbdfe3dbd	-0.124141194
26	0xbe088b27	-0.13334332
27	0x3d0435da	0.03227792
28	0xbd0325ff	-0.032018658
29	0x3d85799a	0.06517334
30	0xbcb83732	-0.022487257
31	0x3cf92119	0.03041129
32	0x3cfb82dc	0.030702047
33	0xbdd287f9	-0.10279841
34	0x3da93490	0.082619786
35	0x3d419224	0.04725851
36	0x3ce0fb82	0.027463678
37	0xbbb20fbe	-0.0054340055
38	0x3dc5e5ea	0.09662993
39	0x3defd310	0.11710179
40	0x3e44e093	0.19226293
41	0x3e45dbc0	0.19322109
42	0x3dbd293f	0.09236383
43	0x3cbf4303	0.023347383
44	0xbe25e059	-0.16198863
45	0x3c991c76	0.018690329
46	0x3dedceb2	0.116116896
47	0x3c6e5190	0.014545813
48	0x3dc1492a	0.09437783
49	0xbe0bdd6c	-0.13658684
50	0x3bf871fe	0.0075819483
51	0x3e19fcb9	0.15037812
52	0xbe1a1f70	-0.15051055
53	0xbca2fd0b	-0.01989605
54	0x3e24ddc3	0.1610022
55	0xbe1c530d	-0.15266056
56	0xbcc740b7	-0.02432285
57	0xbdc52191	-0.09625543
58	0x3def02e4	0.11670473
59	0xbce654e6	-0.028116655
60	0xba5cc64b	-0.0008421882
61	0x3df524a7	0.119698815
62	0xbc087fb0	-0.008331224
63	0xbd004c35	-0.031322677
64	0x3d9ab5b3	0.075541876
65	0x3d149515	0.03627499
66	0x3e096f7d	0.13421436
67	0xbdac850f	-0.084238164
68	0x3e474850	0.19461179
69	0xbd3ec0e4	-0.046570674
70	0x3e0b874f	0.13625835
71	0x3e186f9a	0.14886323
72	0xbd1ea5c1	-0.038732294
73	0xbb11c2e1	-0.00222414
74	0xbd867ac8	-0.065663874
75	0x3dcf3dd2	0.10119213
76	0xbdd7dd1a	-0.10540219
77	0x3d0a5dce	0.033780865
78	0xbdec44f2	-0.11536588
79	0xbd978911	-0.0739919
80	0xbd458f24	-0.048232213
81	0x3ddb0542	0.10694362
82	0x3dbe2ea1	0.092862375
83	0xbd211904	-0.039330497
84	0x3cf21e15	0.02955536
85	0xbe1cdaba	-0.15317813
86	0x3dd136b0	0.10215509
87	0x3e24b541	0.16084768
88	0xbda3a006	-0.079895064
89	0xbe8837ff	-0.26605222
90	0xbe101eb6	-0.14074215
91	0x3e058d7b	0.13042252
92	0xbd00f19c	-0.031480417
93	0x3ce2b96d	0.027676309
94	0xbe1d31f5	-0.15351088
95	0x3dc23dc6	0.094844386
96	0xbe0586e5	-0.1303974
97	0x3e1a7199	0.15082397
98	0xbb41e524	-0.0029586041
99	0xbdd4ca5b	-0.10390159
100	0x3dc96e0b	0.09835442
101	0xbdd06547	-0.10175567
102	0xbd3019f1	-0.04299349
103	0x3d34dcc5	0.044155855
104	0xbd9898bc	-0.07451007
105	0xbd328b8f	-0.043590125
106	0xbd806a4c	-0.062702745
107	0xbe0ef98a	-0.13962379
108	0x3c85d3c6	0.016336333
109	0x3e0e0c05	0.13871773
110	0xbc89d51c	-0.016825251
111	0xbd8a143d	-0.067421414
112	0xbd44ba93	-0.048029494
113	0xbd077dd2	-0.033078976
114	0xbe17898b	-0.14798562
115	0xbe5fbe23	-0.21849875
116	0x3ccd987e	0.025097128
117	0xbe1af728	-0.15133345
118	0x3dbbfc2d	0.09178958
119	0x3e9fe8b0	0.31232214
120	0x3e20f7aa	0.15719476
121	0xbd6d8882	-0.057991512
122	0x3e290b56	0.1650823
123	0xbd7e0350	-0.062014878
124	0xbe0d7bea	-0.138168
125	0x3d9a0b41	0.07521678
126	0xbd7e163f	-0.062032934
127	0xbda7b728	-0.08189231
128	0x3c2b8e1c	0.010470893
129	0x3e183282	0.14863017
130	0x3ddf4e72	0.10903634
131	0x3da076d4	0.07835165
132	0x3d88822f	0.066654555
133	0x3dfc2fe5	0.12313823
134	0xbd908e2f	-0.07058369
135	0x3df23403	0.11826327
136	0x3d9d9ae2	0.07695557
137	0x3da3a979	0.07991309
138	0xbe19dfea	-0.15026823
139	0x3cbd5baa	0.023114998
140	0xbc1966bc	-0.009362873
141	0xbd23b72a	-0.0399696
142	0xbdfcab6d	-0.123373844
143	0xbcc5f638	-0.024165258
144	0xbd31a60e	-0.043371253
145	0xbd63f7f3	-0.055656385
146	0x3d9f2302	0.07770349
147	0xbe14a402	-0.14515689
148	0x3c8661fc	0.016404144
149	0x3d9ca290	0.07648194
150	0x3d308206	0.04309275
151	0x3c8ecee8	0.017432645
152	0x3d052802	0.032508858
153	0x3dacfc19	0.08446521
154	0x3e1b4c49	0.15165819
155	0xbdf10c88	-0.11769968
156	0xbdebee77	-0.11520093
157	0xbdc654f3	-0.096841715
158	0xbde6a4ae	-0.11261879
159	0xbdcb40cd	-0.09924469
160	0xbb65d624	-0.0035070265
161	0xbdf8764e	-0.1213194
162	0xbe09eaeb	-0.1346852
163	0xbd8a10af	-0.067414634
164	0xbe26f597	-0.16304623
165	0xbde7b89c	-0.11314508
166	0xbd2439cc	-0.040094182
167	0xbc817713	-0.01580385
168	0x3d900b4e	0.07033406
169	0x3e13715b	0.1439871
170	0xbda76196	-0.0817291
171	0xbdb8bf0d	-0.09020815
172	0xbdae4ac9	-0.08510358
173	0xbd892e7d	-0.0669832
174	0x3dd40a27	0.10353499
175	0x3e01bf91	0.12670733
176	0x3d4eca9c	0.050486192
177	0x3cb49c25	0.022047112
178	0x3e0905b8	0.13381088
179	0x3df126a7	0.117749505
180	0x3e11ef96	0.14251551
181	0x3d9f0276	0.07764141
182	0x3d6012ad	0.05470531
183	0x3c166ef3	0.009181726
184	0xbd61c4c9	-0.05511931
185	0x3d83e96a	0.064410046
186	0x3d7ad150	0.061234772
187	0x3dd76061	0.1051643
188	0x3e1603b9	0.14649858
189	0x3dc9962c	0.09843096
190	0x3e1c7b1d	0.15281339
191	0x3e099064	0.13433987
192	0xbd191005	-0.037368793
193	0xbe27aa8d	-0.16373654
194	0x3d4e94a1	0.050434712
195	0x3daee42b	0.08539613
196	0xbe16b73e	-0.14718339
197	0x3d0c5c49	0.034267697
198	0x3dbcaf78	0.092131555
199	0xbd2a1e2b	-0.041532677
200	0xbd7f1f26	-0.062285565
201	0xbd86f0a4	-0.06588867
202	0x3e09b002	0.13446048
203	0xbd983b3a	-0.074331716
204	0xbdae9798	-0.08525008
205	0x3d73f4f1	0.059559766
206	0xbe076879	-0.13223447
207	0xbe2d9844	-0.16952616
208	0x3de8303a	0.113373235
209	0xbc077088	-0.008266576
210	0x3c29193c	0.010320958
211	0x3d4eb9e4	0.050470248
212	0xbd778785	-0.060431976
213	0xbcf47788	-0.029842153
214	0xbc87732e	-0.016534414
215	0x3e66d2eb	0.22541396
216	0xbc816509	-0.015795248
217	0x3b8cb574	0.004294092
218	0xbda19f2b	-0.07891687
219	0xbd97c5af	-0.07410752
220	0xbdb0c73b	-0.0863175
221	0x3dc99377	0.0984258
222	0x3e24c6ba	0.16091433
223	0x3d662738	0.056189746
224	0x3d5dda30	0.054163158
225	0xbd8e5050	-0.06948912
226	0x3d5263ee	0.05136483
227	0x3d4e1535	0.050313193
228	0x3e1f6fda	0.15570012
229	0xbdeba4bc	-0.1150603
230	0xbde784c3	-0.11304619
231	0xbdb7fa06	-0.08983235
232	0x3dece422	0.115669504
233	0x3c3451d4	0.0110058375
234	0x3e06d9ff	0.13169096
235	0xbddba845	-0.10725454
236	0xbc869e91	-0.016433032
237	0x3cb77c46	0.022398125
238	0x3b3bea6d	0.0028673664
239	0x3dfbc256	0.12292926
240	0x3e199c35	0.15000995
241	0xbdef2416	-0.11676805
242	0xbd34d7a0	-0.04415095
243	0x3d974846	0.07386832
244	0x3dbcc23b	0.09216734
245	0xbd0b0c42	-0.033947237
246	0x3e0d92b7	0.13825499
247	0x3c89fa08	0.016842857
248	0xbe2378c7	-0.15964042
249	0xbd6e692f	-0.05820578
250	0x3de88a2b	0.113544784
251	0xbd10e2b5	-0.035372455
252	0xbdb3527f	-0.08755969
253	0xbd869b91	-0.06572641
254	0xbd8c5376	-0.068518564
255	0x3d228f1f	0.039687272

u_model.model.0.linear.bias f4 [42]
0	0xbdb04caa	-0.086083725
1	0xbdee22c3	-0.11627724
2	0xbc617ae4	-0.01376221
3	0x3e0fde06	0.14049539
4	0x3da7bf2d	0.08190761
5	0x3d9ca5be	0.076488
6	0x3cc01153	0.02344576
7	0xbd94023c	-0.07226989
8	0xbde14a59	-0.11000509
9	0x3d7d4aec	0.06183903
10	0x3d7860f3	0.060639333
11	0x3d13e30a	0.036105193
12	0xbd981f70	-0.07427871
13	0xbe25f1b2	-0.1620548
14	0xbc4eb6ce	-0.012616826
15	0xbc0745c2	-0.008256378
16	0xbcb0ba8b	-0.021573326
17	0x3be96fa8	0.007123906
18	0xbdbf1cfc	-0.093317
19	0xbd77bfa3	-0.060485493
20	0xbd1a1019	-0.03761301
21	0x3d3ce47a	0.04611633
22	0xbdac5c23	-0.08416011
23	0x3e1e98d4	0.15487987
24	0xbe05e4be	-0.1307554
25	0xbdee5875	-0.116379656
26	0x3d21bcfd	0.039486874
27	0xbe13c97b	-0.14432327
28	0xbdaf13ba	-0.085486844
29	0x3d8649d0	0.06557047
30	0xbdf84bad	-0.12123809
31	0x3d67970d	0.056540538
32	0xbdbe312c	-0.092867225
33	0xbda62e60	-0.08114314
34	0x3d5780e1	0.052613143
35	0x3d21f0ac	0.039536163
36	0x3e0df716	0.13863787
37	0x3cb7d895	0.022442142
38	0x3affa98a	0.0019505483
39	0xbdbc6aaa	-0.09200032
40	0x3e0ba530	0.13637233
41	0x3b730844	0.0037083784

u_model.model.1.linear.weight f4 [42, 42]
0	0x3df2b9f4	0.11851874
1	0xbdd483fe	-0.10376738
2	0x3c801219	0.01563363
3	0x3df62675	0.12019054
4	0x3e2d8843	0.16946511
5	0x3e13a9bf	0.14420222
6	0xbc7d9f16	-0.015479824
7	0xbd18da2e	-0.037317447
8	0x3d985856	0.07438724
9	0x3dd1713a	0.102266744
10	0x3be6bed4	0.0070417915
11	0xbcff6aa9	-0.03117879
12	0x3d641037	0.055679526
13	0xbc89ff48	-0.01684536
14	0x3d9c6fb2	0.07638492
15	0x3dcdb40e	0.10044108
16	0x3d388baa	0.04505507
17	0xbd94b9d9	-0.0726201
18	0xbd9a8bc2	-0.07546188
19	0x3dad5427	0.084633164
20	0x3cd7f912	0.026363883
21	0xbdc57cbd	-0.096429326
22	0xbd93bd40	-0.07213831
23	0xbdb5a65d	-0.08869622
24	0x3e05db60	0.13071966
25	0xbe3a49cc	-0.18192214
26	0xbe17c5b5	-0.14821513
27	0xbdd90631	-0.10596884
28	0xbda07758	-0.07835263
29	0xb8d451b1	-0.00010124164
30	0xbdef40fa	-0.11682315
31	0x3da43c2a	0.08019288
32	0xbd131beb	-0.035915297
33	0xbd44cc7c	-0.048046574
34	0xbda938cb	-0.082627855
35	0xbd943354	-0.072363526
36	0x3e357a3e	0.17722413
37	0x3aceb06a	0.0015769128
38	0x3cd6cad8	0.02621977
39	0xbe33e23b	-0.17566769
40	0x3dcf3d3b	0.10119101
41	0x3d2304a4	0.039799348
42	0xbba145c1	-0.0049216454
43	0x3cf99458	0.030466244
44	0xbdbf1d6a	-0.09331782
45	0xbe066694	-0.13125068
46	0xbd43424b	-0.047670644
47	0x3d014205	0.0315571
48	0x3e0e9ad1	0.13926245
49	0xbdd01423	-0.10160091
50	0x3db1013f	0.08642816
51	0xbd886dfd	-0.066616036
52	0x3d45dec2	0.04830814
53	0x3ca6dd13	0.020369088
54	0xbe057cd1	-0.13035895
55	0xbdfe38c9	-0.12413175
56	0x3d08f72a	0.03343884
57	0x3d96fc3d	0.073723294
58	0x3d510391	0.05102879
59	0x3cb08ab0	0.021550506
60	0xbd0bc2f4	-0.03412147
61	0xbdb98631	-0.09058798
62	0xbbd45023	-0.0064792796
63	0xbde4cc2e	-0.11171757
64	0x3da87af6	0.08226578
65	0xbc892e0d	-0.016745592
66	0xbe123d9d	-0.14281316
67	0x3ba0b563	0.0049044355
68	0x3da54afb	0.08070942
69	0xbdda2a24	-0.10652569
70	0xbd93ee13	-0.072231434
71	0xbb6366c4	-0.0034698704
72	0xbd8952a0	-0.067052126
73	0x3e0c27de	0.13687083
74	0x3cc8b67f	0.024501083
75	0xbd28ce25	-0.04121222
76	0xbe114195	-0.14185174
77	0xbe0f6dd1	-0.14006735
78	0x3da11034	0.078644186
79	0xbca063eb	-0.019578895
80	0x3bf9b8f2	0.007620924
81	0x3cc5f1e7	0.0241632
82	0x3dce281b	0.10066243
83	0xbb855556	-0.0040690107
84	0x3d33988a	0.043846644
85	0xbe3892d5	-0.18024762
86	0x3e5e7baf	0.21726869
87	0xbe046b50	-0.12931561
88	0xbde8d959	-0.11369581
89	0xbe89ae5c	-0.26890838
90	0x3d7fd3c8	0.06245783
91	0xbe51a510	-0.20473123
92	0xbe44bb52	-0.19212082
93	0xbe2a62cf	-0.16639255
94	0x3d2341db	0.039857727
95	0x3de84215	0.11340729
96	0xbbba4ca8	-0.0056854077
97	0xbe345b9d	-0.17613073
98	0xbdc2750e	-0.09494983
99	0x3dfbf525	0.12302617
100	0xbd9f3d6e	-0.07775389
101	0xbda712d0	-0.08157885
102	0x3e3b5d41	0.18297292
103	0x3bdfef08	0.0068339147
104	0x3dfd13e0	0.123573065
105	0x3dabe8f7	0.08394044
106	0xbe03989a	-0.12851182
107	0xbe21b1e6	-0.15790519
108	0xbde33d08	-0.11095625
109	0x3e3df078	0.18548763
110	0xbe3daffb	-0.18524162
111	0xbd618ac8	-0.055063993
112	0xbda603c9	-0.08106191
113	0xbd8c9686	-0.068646476
114	0xbddf3fd2	-0.10900845
115	0xbe2c9023	-0.16851859
116	0xbe0fbb05	-0.14036186
117	0xbcfe73bc	-0.031061046
118	0x3da973e9	0.08274061
119	0x3df43b8e	0.11925422
120	0xbd179672	-0.03700871
121	0xbd691465	-0.056904215
122	0x3dbddf2d	0.09271083
123	0x3de6f75a	0.11277647
124	0xbe17387c	-0.14767641
125	0x3e1a7e27	0.15087186
126	0xbcaaae63	-0.020835107
127	0xbbfb1572	-0.0076624686
128	0xbe25f71a	-0.16207543
129	0x3db62e37	0.088955335
130	0x3d71bd6e	0.059018545
131	0x3dc0b044	0.0940862
132	0x3d3baff8	0.045822114
133	0xbdaa83eb	-0.083259426
134	0x3e1cbf63	0.15307383
135	0x3e0615b0	0.1309421
136	0xbd038baf	-0.032115635
137	0x3d845934	0.06462327
138	0xbd365773	-0.04451699
139	0xbd27b9b9	-0.040948603
140	0xbb0fe462	-0.0021956195
141	0x3d326548	0.04355362
142	0x3de696bb	0.11259218
143	0xbd520324	-0.051272526
144	0xbe1226a9	-0.1427256
145	0xbcc7067f	-0.02429509
146	0xbdeb3477	-0.11484616
147	0xbc5ce2b5	-0.013481786
148	0x3d8fb540	0.070169926
149	0x3de98610	0.114025235
150	0x3cf48bdc	0.029851846
151	0x3d3e8267	0.04651108
152	0x3d09df70	0.033660352
153	0xbd5c2cdb	-0.053753715
154	0x3e24a638	0.16079032
155	0xbdf06bbf	-0.11739301
156	0xbaf5483c	-0.0018713544
157	0xbd9de105	-0.07708935
158	0x3bd16cd4	0.006391147
159	0x3e14d1a4	0.14533097
160	0x3c91c5b7	0.017794473
161	0xbbadf03c	-0.005308179
162	0xbdba1ef1	-0.09087933
163	0xbe15c9bf	-0.14627741
164	0xbcd608bd	-0.026127214
165	0xbdd2437a	-0.102667764
166	0x3cf5be45	0.029997954
167	0xbe20e45a	-0.15712109
168	0x3e193520	0.14961672
169	0xbcf5a01e	-0.029983576
170	0x3d5f6e8b	0.05454878
171	0x3de193eb	0.11014541
172	0x3e1620db	0.14660971
173	0x3c2547eb	0.010087947
174	0x3c8a4393	0.016877925
175	0x3df78aa9	0.12086994
176	0xbde09c08	-0.109672606
177	0x3ca240da	0.019806314
178	0x3dc1e117	0.094667606
179	0x3c1d0542	0.009583773
180	0xbda8df82	-0.08245756
181	0x3ce6365a	0.028102089
182	0xbcf66460	-0.03007716
183	0x3d9589b3	0.07301655
184	0xbdc9c11f	-0.09851288
185	0xbb3d3817	-0.0028872543
186	0xbcb0fdf9	-0.021605479
187	0xbd618967	-0.055062678
188	0x3e1980bc	0.14990515
189	0xbc1f7a7a	-0.0097337905
190	0x3b3181b2	0.002708536
191	0xbe159e30	-0.14611125
192	0xbd909fcb	-0.07061728
193	0xbe105657	-0.14095436
194	0x3c3ff039	0.011714988
195	0xbcd16018	-0.025558516
196	0x3d3afe32	0.045652576
197	0x3df69dab	0.120417915
198	0x3d22c301	0.03973675
199	0xbdb88457	-0.09009617
200	0xbdd069a8	-0.10176402
201	0xbd5d39c6	-0.054010175
202	0xbdc6457d	-0.096812226
203	0x3b9ad390	0.0047249272
204	0xbdd012c1	-0.10159827
205	0xbe028f7a	-0.12750044
206	0xbd5ce1c2	-0.053926237
207	0xbe069714	-0.13143569
208	0x3dceeec8	0.10104138
209	0x3d52b152	0.051438637
210	0x3df75648	0.12077004
211	0x3d369242	0.044573076
212	0xbd94b806	-0.07261662
213	0xbcf12681	-0.029437305
214	0x3d81dbcf	0.06340753
215	0xbd55f886	-0.052238964
216	0x3d751522	0.059834607
217	0xbdad98e3	-0.084764265
218	0x3d96a50f	0.07355701
219	0xbcf27866	-0.029598426
220	0x3dec4e39	0.11538357
221	0x3d5e7542	0.054311045
222	0x3d7ab682	0.06120921
223	0x3c2a6946	0.010401076
224	0xbd531812	-0.051536627
225	0xbc2cca7f	-0.010546326
226	0x3dca49f2	0.09877385
227	0x3e01f70f	0.12691902
228	0xbcd602a0	-0.026124299
229	0x3c321ee9	0.010871627
230	0x3d1f649a	0.0389143
231	0x3d591e43	0.053007375
232	0x3d4413b0	0.047870338
233	0x3c5418a2	0.012945326
234	0xbdc8ef62	-0.09811284
235	0xbd385f99	-0.045013044
236	0xbdc8babc	-0.09801242
237	0x3e0c6721	0.13711216
238	0xbcaedbbc	-0.021345012
239	0x3d80ef58	0.06295651
240	0x3d719bda	0.058986522
241	0x3d50ce29	0.05097786
242	0x3d61419c	0.05499421
243	0x3b387d50	0.0028150864
244	0xbd2fe6a5	-0.04294457
245	0x3e13d093	0.14435034
246	0x3dc036db	0.09385463
247	0x3dc56611	0.09638608
248	0x3d00741b	0.031360727
249	0x3df24ba2	0.11830832
250	0x3d8a8854	0.06764284
251	0xbd3ca329	-0.04605404
252	0x3d27b7c5	0.04094674
253	0xbe0c2688	-0.13686574
254	0x3dc7ec19	0.09761829
255	0xbe13fc7b	-0.14451782

u_model.model.1.linear.bias f4 [42]
0	0x3b92d670	0.0044811293
1	0x3ba72d32	0.0051018232
2	0xbd1e8c85	-0.03870823
3	0xbc4f2d8c	-0.012645137
4	0x3caec3bd	0.02133357
5	0xbcae73cd	-0.021295452
6	0xbd63c9d7	-0.05561241
7	0x3d634e59	0.05549464
8	0x3defa929	0.117021866
9	0x3c91bd4a	0.017790455
10	0xbdc8f56e	-0.09812437
11	0xbd23c6c2	-0.039984472
12	0xbe0c7ae4	-0.13718754
13	0x3df29be9	0.11846144
14	0xbe0242fd	-0.12720867
15	0xbd8c647c	-0.068551034
16	0x3d8faade	0.07015012
17	0x3ddb102f	0.10696446
18	0x3d721d47	0.059109952
19	0xbca3cc55	-0.019994894
20	0x3dca1421	0.098671205
21	0x3be8c8a7	0.0071039977
22	0xbe1392b8	-0.14411438
23	0xbc1bf54a	-0.009518931
24	0xbdf8e93b	-0.1215386
25	0xbdbc986f	-0.09208762
26	0x3d3054b7	0.04304954
27	0xbe105608	-0.14095318
28	0xbcd8fcf7	-0.02648781
29	0x3d9bfa55	0.076161064
30	0x3c17a06a	0.009254554
31	0x3e069092	0.13141087
32	0xbcc46299	-0.023972796
33	0x3b9e559b	0.0048319823
34	0xbddddbd8	-0.108329475
35	0xbc5a70f0	-0.01333259
36	0x3ce3c284	0.027802713
37	0x3de64fa8	0.11245662
38	0x3dd1da67	0.10246735
39	0xbd3b730f	-0.045764025
40	0x3e113d74	0.14183599
41	0x3c867045	0.016410956

u_model.model.2.linear.weight f4 [42, 42]
0	0x3dd4ae12	0.10384764
1	0x3dbb139d	0.091346
2	0xbe3080f2	-0.17236689
3	0x3e3e9c8e	0.18614408
4	0x3d65552c	0.05598943
5	0xbd1f83b7	-0.038943972
6	0xbdf1e8c9	-0.11811978
7	0x3da42d01	0.08016396
8	0xbd9b7a03	-0.07591631
9	0x3e26ca64	0.16288143
10	0x3e12270b	0.14272706
11	0xbd82c371	-0.06384934
12	0x3e5e4d8a	0.21709266
13	0xbda8cc69	-0.08242113
14	0x3e63c8ec	0.22244614
15	0xbd0f522c	-0.034990475
16	0x3da1c4f8	0.07898897
17	0x3dad45a8	0.084605515
18	0x3c90177c	0.017589323
19	0xbddcee26	-0.10787611
20	0xb990cfee	-0.0002762074
21	0xbe42d4d9	-0.19026507
22	0xbcbeb588	-0.02327992
23	0x3b808b76	0.003922875
24	0x3df94d17	0.12172907
25	0xbd27269e	-0.040808313
26	0xbd6f0ed6	-0.058363758
27	0x3de74578	0.11292547
28	0x3db8651f	0.09003662
29	0xbe0ce9ac	-0.13761014
30	0x3cecfff1	0.028930636
31	0x3d1bc366	0.038028143
32	0xbd98e546	-0.074656054
33	0x3d873779	0.066023774
34	0xbdca765c	-0.098858565
35	0x3df74045	0.12072805
36	0xbde969b6	-0.11397116
37	0xbd6753c7	-0.05647638
38	0xbd681a6b	-0.05666582
39	0x3c2c1eac	0.01050536
40	0x3de3985a	0.11113043
41	0xbd63dd46	-0.055630945
42	0x3d5a01cf	0.05322438
43	0x3bda86e4	0.0066689122
44	0xbddb64a6	-0.107125565
45	0x3c879f78	0.016555533
46	0x3dffa68e	0.1248294
47	0xbe092891	-0.13394381
48	0xbd90ca84	-0.07069877
49	0x3e1daa8e	0.15397093
50	0xbda9de3c	-0.08294341
51	0x3d46d5a6	0.048543595
52	0x3cd27eae	0.025695171
53	0x3be2dd5c	0.0069233608
54	0x3e21013d	0.15723129
55	0xbdc2b942	-0.095079914
56	0x3b523eff	0.0032081006
57	0xbd9abf07	-0.07555967
58	0xbbcef6c1	-0.0063160365
59	0xbce1a6c0	-0.027545333
60	0xbd206fc9	-0.039169107
61	0xbddce21d	-0.10785315
62	0x3dadd266	0.08487396
63	0x3d32415b	0.04351936
64	0x3d72b78c	0.059257075
65	0x3d93b5e6	0.07212429
66	0x3c8906bd	0.016726846
67	0x3db2775a	0.08714171
68	0x3d8817a3	0.06645133
69	0xbcddd462	-0.027078811
70	0x3c4cec2f	0.012507482
71	0xbe22b422	-0.15889028
72	0xbd9e3341	-0.0772462
73	0x3e18078c	0.14846629
74	0x3e2b7d6e	0.16747066
75	0xbda2d4ce	-0.079507455
76	0xbdb4c61e	-0.0882685
77	0x3d85de66	0.0653656
78	0xbe0dabcf	-0.13835071
79	0xbd301d92	-0.04299695
80	0xbe02d18b	-0.12775247
81	0xbd945a73	-0.07243814
82	0xbdae3f8e	-0.08508216
83	0xbc0eb16e	-0.008709295
84	0xbd8e732f	-0.06955563
85	0xbdebfcee	-0.11522852
86	0x3e117de5	0.14208181
87	0xbd8dbf56	-0.0692126
88	0xbe47acdd	-0.19499536
89	0x3d5a5ef9	0.05331323
90	0x3da164aa	0.07880528
91	0xbdd2f1ab	-0.10300001
92	0xbba74aff	-0.005105376
93	0xbc4bce01	-0.012439252
94	0xbb701400	-0.0036633015
95	0xbd7eaa1c	-0.062173948
96	0xbe9d989c	-0.30780494
97	0x3d2296a4	0.039694443
98	0xbd0cd201	-0.034379963
99	0x3e3464ad	0.1761653
100	0xbc14b77b	-0.009076948
101	0xbdbd4bfa	-0.09243007
102	0xbdb5788e	-0.088608846
103	0x3d590e34	0.05299206
104	0x3db11110	0.086458325
105	0x3e192e46	0.14959058
106	0x3e02a258	0.12757242
107	0x3e108b22	0.14115575
108	0xbdb7395a	-0.08946486
109	0x3d702593	0.058629584
110	0x3dcf7aad	0.101308204
111	0x3d7655f1	0.060140554
112	0x3dcc738e	0.09982978
113	0x3e11882e	0.14212105
114	0xbca87606	-0.02056409
115	0x3d6d225f	0.057894107
116	0x3d83f054	0.06442323
117	0xbd5e4d9a	-0.054273225
118	0xbd93df19	-0.07220287
119	0x3dbb6f99	0.09152145
120	0x3dddeefc	0.10836598
121	0x3c9783e8	0.018495515
122	0x3d3f55f3	0.046712827
123	0x3d421718	0.047385305
124	0x3ddd2eeb	0.107999645
125	0x3d8283d6	0.06372802
126	0xbd428ef7	-0.047499623
127	0x3c60c2f4	0.013718355
128	0xbd879335	-0.066198744
129	0x3d422052	0.047394104
130	0xbe18c175	-0.14917548
131	0x3d635218	0.055498213
132	0x3daf3692	0.0855533
133	0xbdc4af97	-0.096038036
134	0x3d2e7223	0.042589318
135	0xbc810e23	-0.015753811
136	0xbd825b35	-0.063650526
137	0x3d37c5de	0.044866435
138	0xbc5d52aa	-0.013508478
139	0xbda7e44c	-0.08197841
140	0x3dc4d0d0	0.0961014
141	0x3b5efb1b	0.0034024182
142	0xbdc4d636	-0.0961117
143	0xbd48cf24	-0.04902567
144	0xbde97580	-0.113993645
145	0xbdc5e2db	-0.0966241
146	0x3e036b68	0.12833941
147	0xbc9f0211	-0.019410165
148	0xbcd923b6	-0.026506286
149	0x3c94e8d5	0.01817743
150	0xbc3445c2	-0.01100296
151	0xbddaa5d1	-0.10676158
152	0xbccd5205	-0.025063524
153	0xbd9fa321	-0.07794786
154	0x3dc56c9b	0.096398555
155	0xbc13b9f7	-0.009016505
156	0xbe1ad2fe	-0.1511955
157	0xbdc1bf38	-0.094603
158	0xbe089732	-0.13338926
159	0xba3a3dbe	-0.0007104537
160	0x3d78d16c	0.060746595
161	0x3dc5240e	0.096260175
162	0xbc7fce60	-0.0156131685
163	0x3d42bb7a	0.047542073
164	0x3c17acb4	0.009257484
165	0x3e18e4cc	0.14931029
166	0xbdfef89d	-0.12449763
167	0xbd863826	-0.06553678
168	0xbcb0c9ef	-0.021580664
169	0xbddc9dc7	-0.10772281
170	0x3d06c1d0	0.032899678
171	0x3e04f560	0.12984228
172	0x3d19013f	0.037354704
173	0x3cc4d341	0.024026515
174	0x3df95bb6	0.121756956
175	0xbd26327d	-0.040575493
176	0xbd0a4e1d	-0.0337659
177	0x3d976e69	0.07394106
178	0xbcfef1a6	-0.031121086
179	0xbdcd68ab	-0.100297295
180	0xba7a07be	-0.0009537897
181	0x3de435bc	0.111430615
182	0xbdbd063d	-0.092297055
183	0x3ce164d3	0.027513897
184	0x3c4558db	0.012045111
185	0x3e143404	0.14472967
186	0x3d96babe	0.07359837
187	0xbdb4aecc	-0.08822402
188	0xbe1c0146	-0.15234861
189	0x3d8e22d9	0.069402404
190	0xbe116c56	-0.14201483
191	0xbda2b2e5	-0.07944278
192	0x3e1e94bc	0.15486425
193	0x3d19daab	0.037562054
194	0xbbc04c13	-0.0058684438
195	0xbe048ea3	-0.12945037
196	0xbcae237b	-0.021257153
197	0x3c08ebb3	0.008356976
198	0x3dbf532e	0.09342037
199	0xbd7bb782	-0.061454304
200	0xbd42378b	-0.04741625
201	0x3d26d055	0.040726025
202	0xbe1c537b	-0.1526622
203	0xbd20c2e9	-0.03924838
204	0xbe24aad1	-0.16080786
205	0xbdafb6b0	-0.08579767
206	0xbda34f4d	-0.0797411
207	0x3dbf09e3	0.093280576
208	0xbddcb35a	-0.10776396
209	0xbe176962	-0.14786294
210	0xbc2e4151	-0.01063569
211	0xbdbb887c	-0.09156892
212	0xbddfbf72	-0.10925187
213	0xbcf5d625	-0.030009339
214	0x3cec23bd	0.028825635
215	0xbddb8025	-0.10717801
216	0xbdd705c8	-0.104991496
217	0x3d8110cd	0.063020326
218	0x3d8e9b75	0.06963245
219	0x3c318780	0.010835528
220	0x3e500e6b	0.20318
221	0x3d83773e	0.06419228
222	0xbd834825	-0.06410245
223	0x3da4d8dd	0.08049176
224	0xbd9f700a	-0.07785042
225	0x3d9be4ba	0.076119855
226	0xbd3c3892	-0.045952387
227	0x3e0842dc	0.13306755
228	0xbcbceb0a	-0.023061294
229	0xbd845843	-0.06462147
230	0xbdea221d	-0.11432288
231	0x3e04881b	0.12942545
232	0xbdb9bdf4	-0.09069434
233	0xbde2eea2	-0.11080672
234	0xbd9b0288	-0.07568842
235	0xbe119f6e	-0.14220974
236	0xbdc325ff	-0.095287316
237	0x3e189c4d	0.14903374
238	0x3dfd559f	0.123698466
239	0x3d0b075e	0.033942573
240	0xbd17757f	-0.036977287
241	0x3ce60760	0.028079689
242	0xbc16b3be	-0.009198127
243	0xbdf18420	-0.11792779
244	0x3dd558a1	0.10417295
245	0x3d9e0756	0.07716243
246	0x3e042897	0.12906109
247	0xbe1706c0	-0.14748669
248	0x3c3dffa1	0.011596591
249	0x3db2fd62	0.08739735
250	0xbcb0140f	-0.02149394
251	0x3d925bf8	0.07146448
252	0x3dcac9bd	0.0990176
253	0xbdb1a045	-0.08673147
254	0x3de6a0b8	0.112611234
255	0x3ca73296	0.020409863

u_model.model.2.linear.bias f4 [42]
0	0x3dfd9391	0.12381662
1	0x3dc9dfc7	0.09857135
2	0xbbd50e2a	-0.0065019326
3	0x3db7e0b3	0.08978405
4	0x3db1b2e7	0.08676701
5	0x3d775826	0.0603868
6	0xbd0fbc88	-0.035091907
7	0xbe15250a	-0.1456491
8	0x3d8a9b81	0.06767941
9	0xbc0bc906	-0.008531814
10	0xbd8bda34	-0.06828728
11	0xbdddfdd6	-0.10839431
12	0xbdd80ee4	-0.10549715
13	0xbdc0434a	-0.09387834
14	0xbd28b94a	-0.04119233
15	0xbda2f24b	-0.0795637
16	0xbdb38267	-0.08765107
17	0xbd5782b7	-0.052614894
18	0xbcab35cc	-0.020899676
19	0x3d795e63	0.06088103
20	0x3de233ec	0.110450596
21	0x3d2e01ca	0.042482175
22	0xbdabd56d	-0.08390317
23	0x3dcaf1d3	0.099094056
24	0x3dd1cbcb	0.102439485
25	0x3dd2a96d	0.10286222
26	0x3d10e692	0.03537614
27	0x3e102a7b	0.14078705
28	0x3d40f5be	0.047109358
29	0xbcf1e3cb	-0.029527565
30	0xbe11221c	-0.14173168
31	0xbcdeaabd	-0.027181024
32	0x3d829584	0.06376174
33	0x3d93996e	0.07206999
34	0xbda4efa5	-0.08053521
35	0x3ca098ca	0.019604106
36	0x3e0d62e1	0.1380725
37	0xbde279aa	-0.11058362
38	0x3d71e3b9	0.059055064
39	0x3c97a9c7	0.018513573
40	0x3d057152	0.032578774
41	0x3da58603	0.08082201

u_model.model.3.linear.weight f4 [42, 42]
0	0x3dc3d75e	0.095625624
1	0xbd9b2d47	-0.07576995
2	0x3ce4d3db	0.027933052
3	0xbdccd078	-0.100007
4	0x3d841115	0.06448571
5	0x3d836f73	0.064177416
6	0xbca83ecd	-0.020537758
7	0x3e40f6cb	0.18844144
8	0x3dae1862	0.085007444
9	0x3c4d7509	0.01254011
10	0xbcad81f4	-0.02118013
11	0x3deaee02	0.11471178
12	0x3e21a61b	0.1578602
13	0xbd2b8b12	-0.041880675
14	0x3e069951	0.13144423
15	0xbe7c6e4a	-0.24651447
16	0x3e04f4c9	0.12984003
17	0xbc8cce0b	-0.017188093
18	0xbde60d4d	-0.11233006
19	0x3deac996	0.11464231
20	0xbd952d24	-0.072840005
21	0x3dd5bc15	0.104362644
22	0x3df07d84	0.1174269
23	0xbe05134b	-0.12995641
24	0xbb0b69fd	-0.002127289
25	0x3d5048c4	0.050850645
26	0xbde94d4d	-0.11391697
27	0x3c8ed694	0.017436303
28	0x3d3219f3	0.04348178
29	0xbe2ccd50	-0.16875196
30	0x3d20020b	0.03906445
31	0x3db51ef0	0.088437915
32	0x3dfcdda1	0.1234696
33	0x3d9fef60	0.07809329
34	0xbc08b3ee	-0.00834368
35	0xbd5bd7f7	-0.053672757
36	0xbbf65988	-0.007517997
37	0xbcc3ccaf	-0.023901312
38	0x3db7ca67	0.08974152
39	0xbd78e58d	-0.06076579
40	0xbcfe495b	-0.031040838
41	0xbdb39d96	-0.087702915
42	0x3dd33a32	0.10313834
43	0x3de779cd	0.113025285
44	0xbe19a54c	-0.15004462
45	0x3cbe59e1	0.023236217
46	0x3dd799fa	0.105274156
47	0xbc95c6b1	-0.01828322
48	0x3e185d8c	0.14879435
49	0xbcad1b2a	-0.021131117
50	0x3dfaf31b	0.122534
51	0xbc7a9f58	-0.01529678
52	0x3d8d8893	0.06910815
53	0xbe069cb8	-0.13145721
54	0x3e3e40a5	0.18579347
55	0x3b20a731	0.0024513716
56	0x3df6bf9f	0.120482676
57	0x3d8cb0b1	0.06869639
58	0x3d589479	0.05287597
59	0xbd53ec94	-0.05173929
60	0xbe250cc3	-0.1611815
61	0x3d2bd2c2	0.04194904
62	0xbe054ae5	-0.13016851
63	0x3d5ff0f1	0.05467314
64	0x3df0d6e9	0.11759741
65	0xbdae3cfc	-0.085077256
66	0x3e1fcdbf	0.1560583
67	0xbd5ea796	-0.05435904
68	0xbe1d4b21	-0.1536069
69	0xbde00838	-0.109390676
70	0xbd2aaaaf	-0.041666683
71	0x3d06267f	0.032751556
72	0xbda2103f	-0.07913255
73	0xbbfdc0cd	-0.007743931
74	0xbae48bb8	-0.0017436659
75	0x3e03a946	0.12857541
76	0xbde4e8f8	-0.11177248
77	0x3d24a907	0.04020026
78	0x3de7ad3e	0.1131234
79	0xbd339997	-0.043847647
80	0x3bfdcf4b	0.0077456585
81	0x3e0fa76b	0.14028709
82	0x3dce9c84	0.10088447
83	0x3dadd8db	0.084886275
84	0xbe1be4dd	-0.15224023
85	0xbd17af94	-0.03703268
86	0xbe0715ac	-0.13191861
87	0xbd984cb1	-0.07436503
88	0xbd9d026b	-0.07666477
89	0x3d093918	0.033501714
90	0x3e109789	0.14120306
91	0x3deca4e5	0.11554889
92	0xbe0ce652	-0.13759735
93	0x3d775b95	0.060390074
94	0xbd6fd03f	-0.05854821
95	0xbe02a83e	-0.12759492
96	0x3dc0449f	0.093880884
97	0x3df9bbd1	0.12194026
98	0xbe0d9e13	-0.13829832
99	0xbe06abd4	-0.13151485
100	0x3d6e580f	0.058189448
101	0x3db10f24	0.08645466
102	0x3d719439	0.058979247
103	0x3da3f05a	0.08004828
104	0xbdf74551	-0.12073768
105	0x3d99ac2a	0.07503541
106	0xbd0fdfc3	-0.035125505
107	0xbd12783e	-0.035759203
108	0xbe0b0afd	-0.1357841
109	0x3e2ef3c0	0.17085171
110	0x3db6bc70	0.0892266
111	0xbd4e7f51	-0.050414387
112	0x3d825f62	0.06365849
113	0x3de2b10e	0.11068927
114	0x3c8f9863	0.017528718
115	0xbdcec2b5	-0.10095731
116	0xbc3d8b24	-0.011568818
117	0xbd4dd45e	-0.050251357
118	0x3e00ae18	0.12566411
119	0xbd63d872	-0.05562634
120	0xbe08ac90	-0.13347077
121	0xbe2f6ba1	-0.17130901
122	0xbd8df402	-0.069313064
123	0xbda1b2b2	-0.078954116
124	0xbd74971d	-0.059714425
125	0xbdaf166c	-0.085491985
126	0xbe1ff388	-0.15620244
127	0xbdc9151e	-0.09818481
128	0x3bc78191	0.0060884436
129	0x3dec54ff	0.11539649
130	0x3dec28aa	0.115311936
131	0x3c0d374c	0.008619141
132	0xbc84e09c	-0.016220383
133	0xbcd86e18	-0.026419684
134	0x3d8d1c01	0.06890107
135	0x3deb1bf0	0.11479938
136	0xbd34671e	-0.044043653
137	0xbd95b6b6	-0.0731024
138	0xbdf34cb5	-0.11879865
139	0xbdbf7bda	-0.09349795
140	0xbd87fe01	-0.06640244
141	0x3d1027ff	0.035194393
142	0xbd93fb94	-0.07225719
143	0xbe295821	-0.16537525
144	0xbcb9ae93	-0.022666251
145	0x3c9303b3	0.0179461
146	0x3d41cae9	0.04731265
147	0xbde055a5	-0.109538354
148	0x3baa5fba	0.0051994
149	0x3e138726	0.14407024
150	0x3e19a508	0.1500436
151	0x3e55063a	0.20803156
152	0xbd378710	-0.04480654
153	0xbc801f2f	-0.01563987
154	0x3e35f8ba	0.17770663
155	0x3e056742	0.13027671
156	0x3dbf33f7	0.093360834
157	0x3c2f5565	0.010701512
158	0xbbdbb7f7	-0.00670528
159	0xbdcfa381	-0.10138608
160	0x3dd35f9d	0.10320971
161	0x3ba8c669	0.0051506055
162	0xbe2d6ecf	-0.16936801
163	0xbd0b5330	-0.03401488
164	0x3dea05d1	0.11426891
165	0x3df54ba3	0.11977317
166	0xbbd92855	-0.0066271224
167	0xbc9fd5a4	-0.019511051
168	0x3d262679	0.040564034
169	0xbcf10f47	-0.02942623
170	0xbe1b58d3	-0.15170603
171	0x3e41130e	0.18854925
172	0x3d8d2ba7	0.06893092
173	0x3d881f9f	0.06646656
174	0xbddb65d1	-0.10712779
175	0x3d919898	0.07109183
176	0x3c2f8b44	0.010714356
177	0x3db891f8	0.09012216
178	0x3e572a9b	0.21012346
179	0xbc27e68d	-0.010247839
180	0xbdc4fe3a	-0.09618802
181	0xbde03ca1	-0.10949064
182	0x3e3c7a6e	0.18406078
183	0xbd68e37d	-0.056857575
184	0x3dacdf25	0.08440999
185	0xbcd7dc8e	-0.026350286
186	0x3d92983e	0.07157944
187	0x3be803e2	0.007080541
188	0xbc6ed338	-0.014576726
189	0x3c19f7ae	0.00939743
190	0x3d8914c0	0.06693411
191	0xbd06c497	-0.032902326
192	0xbdb069ba	-0.08613916
193	0xbe2cb541	-0.16866018
194	0xbd12287d	-0.035683144
195	0xbe0e3ef8	-0.13891208
196	0xbcf8142a	-0.030283052
197	0xbd4a185f	-0.04933965
198	0xbdb92cd8	-0.090417564
199	0x3c31d138	0.010853104
200	0x3dc5397b	0.09630104
201	0x3d2813c1	0.041034464
202	0xbc3dfc32	-0.011595773
203	0x3b7a6c2c	0.0038211448
204	0xbdb9a125	-0.09063939
205	0x3e10619f	0.1409974
206	0x3dcc7758	0.099837005
207	0x3e16e5a9	0.14736046
208	0xbd5bf344	-0.053698793
209	0x3e1ce0f4	0.15320188
210	0x3d10adae	0.035321884
211	0xbd30ac7e	-0.04313325
212	0x3db1cb4f	0.08681356
213	0xbdc6c56d	-0.09705625
214	0xbe20212f	-0.15637659
215	0x3e22c711	0.1589625
216	0x3d7f3258	0.06230387
217	0x3dde07a2	0.108412996
218	0xbe0dbc6e	-0.13841411
219	0x3d0337f5	0.032035787
220	0x3da58bde	0.08083318
221	0xbd4ce8f1	-0.050026838
222	0xbdb7c2b4	-0.089726835
223	0x3ded77d4	0.11595121
224	0x3d00e9b5	0.03147288
225	0x3daa2648	0.08308083
226	0x3e10f2bd	0.14155097
227	0xbe044b89	-0.1291944
228	0x3de6817c	0.11255166
229	0xbd7edf40	-0.062224627
230	0x3d8ab822	0.06773402
231	0x3d9db013	0.07699599
232	0x3df6e253	0.12054887
233	0x3c95e987	0.018299831
234	0x3c2437cb	0.010023068
235	0xbbe03c19	-0.0068431017
236	0xbd6943e4	-0.05694951
237	0x3da04030	0.07824743
238	0x3e27b647	0.16378127
239	0x3c874f1f	0.01651722
240	0xbe004982	-0.12528041
241	0xbd229bf4	-0.03969951
242	0xbd161a6b	-0.036646288
243	0x3da9579b	0.082686625
244	0xbdeaf217	-0.11471956
245	0xbd470957	-0.04859289
246	0xbd94ceb0	-0.07265985
247	0xbdddba67	-0.10826569
248	0xbdd826ee	-0.105543
249	0x3dbd45c0	0.092418194
250	0x3d326b90	0.04355961
251	0x3dfd25e8	0.12360746
252	0xbb584cdf	-0.0033004803
253	0x3d896147	0.06708007
254	0x3d73e15f	0.059541102
255	0x3dace776	0.08442585

u_model.model.3.linear.bias f4 [42]
0	0x3d91b5ff	0.07114791
1	0xbcf5640e	-0.029954936
2	0x3d0a0d65	0.03370418
3	0x3cee3881	0.029079678
4	0x3deab9e8	0.1146124
5	0x3d34e523	0.044163834
6	0x3cfef33b	0.03112184
7	0xbd3ab6e2	-0.045584567
8	0x3cede5cd	0.029040242
9	0xbd74bae7	-0.059748556
10	0xbbd32950	-0.006444134
11	0x3bca11e1	0.006166682
12	0xbc83f423	-0.016107624
13	0xbe140586	-0.14455232
14	0x3d52d7d7	0.051475372
15	0xbc7b5547	-0.015340156
16	0xbdce9a85	-0.10088066
17	0xbdc068eb	-0.093950115
18	0xbe1abac1	-0.15110303
19	0x39c387e4	0.00037294545
20	0x3df940b2	0.12170543
21	0x3ddd6953	0.108111046
22	0x3c8e643c	0.01738178
23	0x3d0410b0	0.032242477
24	0xbe011530	-0.12605739
25	0xbd866645	-0.06562475
26	0xbdde05a7	-0.10840922
27	0xbe047567	-0.1293541
28	0x3cbd7120	0.023125231
29	0xbd3a2afe	-0.045451157
30	0x3d293422	0.041309483
31	0x3e2b70bd	0.16742225
32	0xbdcdc0a1	-0.10046507
33	0x3bbd3cfb	0.0057750917
34	0xbcf15991	-0.029461654
35	0x3d616ba6	0.055034302
36	0x3df6560b	0.1202813
37	0xbd89c529	-0.067270584
38	0x3d748060	0.05969274
39	0x3d66ecc0	0.056378126
40	0xbd713ab8	-0.05889389
41	0x3ca7c506	0.02047969

u_model.model.4.linear.weight f4 [42, 42]
0	0x3ddd66cb	0.10810622
1	0xbda37f9f	-0.07983326
2	0xbdf3f252	-0.11911453
3	0x3e256d48	0.16154969
4	0xbb925c38	-0.0044665597
5	0x3c9b8d2a	0.01898821
6	0xbddf3436	-0.1089863
7	0xbd2f5435	-0.042804915
8	0xbe26c94e	-0.16287729
9	0x3e308b5f	0.17240666
10	0xbe85c46d	-0.26126423
11	0x3d82fc2e	0.06395756
12	0x3e25a1de	0.16175029
13	0x3e935cf1	0.28781846
14	0x3db431ad	0.087985374
15	0xbe4ed28e	-0.20197508
16	0x3e579650	0.21053433
17	0x3c53482d	0.012895626
18	0x3b9c1d32	0.0047642225
19	0x3d28aabc	0.04117845
20	0x3d56fd1d	0.05248748
21	0xbe3b83e9	-0.18312038
22	0x3de1b305	0.110204734
23	0x3da7fe56	0.082028076
24	0xbe3c3d5a	-0.18382779
25	0x3e986074	0.29761088
26	0xbd99de92	-0.07513155
27	0xbcc252cc	-0.023721121
28	0xbdb93d80	-0.09044933
29	0x3e245f49	0.16051973
30	0xbdb2e743	-0.08735516
31	0xbdc64df4	-0.09682837
32	0x3e2cce52	0.1687558
33	0xbe01241d	-0.12611432
34	0xbe8d232e	-0.27565902
35	0xbcb24ee6	-0.021766137
36	0xbda5c4aa	-0.08094151
37	0xbe56fde0	-0.20995283
38	0xbdd4f885	-0.10398964
39	0xbc01f0d2	-0.007930951
40	0xbde8ac1e	-0.11360954
41	0x3e08bbe5	0.13352926
42	0xbe13fb12	-0.14451244
43	0xbe119a6f	-0.14219068
44	0xbb8ce54e	-0.004299796
45	0x3dd475c2	0.10374023
46	0xbe5eb6fa	-0.21749488
47	0x3c3db87c	0.011579629
48	0xb9b1b9bf	-0.00033898462
49	0x3d35749c	0.04430066
50	0xbe2d37e8	-0.16915858
51	0x3cf6aa70	0.030110568
52	0x3da7aefb	0.08187672
53	0xbe2453e3	-0.16047625
54	0x3dda5de1	0.10662437
55	0xbd6cf5b0	-0.057851493
56	0xbd4d5a55	-0.050134975
57	0xbe005d8c	-0.12535685
58	0xbdad4b9b	-0.08461686
59	0xbe447bf9	-0.19187917
60	0xbd059b4a	-0.0326188
61	0x3d524fe0	0.051345706
62	0xbd7d9b0f	-0.061915454
63	0x3e33f17e	0.1757259
64	0xbdeeb5f7	-0.11655801
65	0xbdf419a7	-0.11918955
66	0x3e04f2c7	0.12983237
67	0x3e575019	0.21026649
68	0xbdba34e0	-0.09092116
69	0xbe076866	-0.13223419
70	0xbdb0a9ec	-0.0862616
71	0x3dde847f	0.108651154
72	0x3e1a0494	0.15040809
73	0xbe10ed92	-0.14153126
74	0xbbc79bad	-0.006091556
75	0xbdbbdbbe	-0.09172772
76	0x3dbbeef4	0.09176436
77	0x3d129dd5	0.03579505
78	0xbe2ef661	-0.17086174
79	0xbdec1d89	-0.11529071
80	0xbd9e5bf9	-0.07732386
81	0x3e0b4dbd	0.13603874
82	0xbe271f9d	-0.16320653
83	0xbe3aa3ed	-0.18226595
84	0x3d08d523	0.033406388
85	0xbdfd1d89	-0.12359149
86	0xbcfbf9b0	-0.030758709
87	0x3d60b6ce	0.054861836
88	0xbd121785	-0.03566696
89	0xbd6195b9	-0.055074427
90	0x3dd1a52b	0.102365814
91	0xbdd815b6	-0.10551016
92	0xbcd4b263	-0.025963968
93	0xbe03772c	-0.12838429
94	0xbe0828d8	-0.1329683
95	0xbddee9a9	-0.10884411
96	0x3e0d1980	0.13779259
97	0x3e0eb48a	0.13936058
98	0x3d82e5dd	0.06391499
99	0xbdc62eae	-0.09676872
100	0xbd8888a5	-0.06666688
101	0xbdea240b	-0.11432656
102	0x3cbcd2ad	0.023049677
103	0xbc742ed2	-0.014903741
104	0x3e0c2915	0.13687547
105	0x3dd0dab1	0.10197962
106	0x3dd54438	0.10413402
107	0x3b23ca07	0.0024992244
108	0x3e103c5c	0.14085525
109	0xbdea16b1	-0.11430109
110	0x3df714cc	0.120645136
111	0x3dfb0962	0.12257649
112	0xbdeeb5ca	-0.11655767
113	0x3dcecc10	0.100975156
114	0x3c303017	0.010753653
115	0x3cfafcde	0.030638155
116	0xbb8984b6	-0.0041967286
117	0xbdb54c7c	-0.08852479
118	0x3de59ce8	0.11211568
119	0x3c3e99b0	0.011633322
120	0xbe0f666a	-0.14003912
121	0xbdc911c4	-0.09817842
122	0xbcd95c67	-0.026533319
123	0xbe02e958	-0.12784326
124	0xbc71f31a	-0.014767433
125	0x3dee42ba	0.11633821
126	0x3df9abee	0.12190996
127	0xbdccb1a0	-0.09994817
128	0x3e26ef38	0.16302192
129	0xbdc2af84	-0.09506133
130	0xbdb2e631	-0.08735312
131	0x3e0ef0e9	0.13959087
132	0x3e174988	0.14774144
133	0xbdbcb570	-0.09214294
134	0x3cf6d990	0.030133039
135	0x3e0fb32a	0.1403319
136	0x3e18b0ae	0.14911148
137	0x3c7b1cce	0.015326692
138	0x3d30317a	0.043015935
139	0xbc14f8f9	-0.009092563
140	0xbd5e8e51	-0.054334942
141	0x3e189c2e	0.14903328
142	0x3dbcb450	0.092140794
143	0x3db7256c	0.089426845
144	0xbc956552	-0.01823679
145	0x3e0db852	0.13839844
146	0xbc80bc65	-0.015714834
147	0x3db649ad	0.08900771
148	0xbdb866d9	-0.09003992
149	0x3dd1aff3	0.10238638
150	0xbdc5ffe9	-0.096679516
151	0xbd4c151c	-0.04982482
152	0x3d8caabf	0.06868505
153	0xbd0c4c08	-0.034252197
154	0xbe04ab8d	-0.12956066
155	0x3e18b2e3	0.1491199
156	0x3ae53851	0.0017488097
157	0x3e192eef	0.1495931
158	0x3cd19c74	0.025587298
159	0x3d10cd0c	0.035351798
160	0xbd83d29f	-0.06436657
161	0xbdab7e19	-0.083736606
162	0x3ddd9455	0.10819308
163	0xbb19e113	-0.0023480102
164	0xbd8999bd	-0.067187764
165	0xbde052f5	-0.10953323
166	0x3a1c11e5	0.0005953594
167	0xbdc831d7	-0.09775131
168	0x3de56685	0.11201195
169	0xbdd667bc	-0.104690045
170	0xbe159a5b	-0.14609663
171	0x3cfae9bf	0.030629037
172	0x39fb4d64	0.0004793211
173	0xbddcc44f	-0.107796304
174	0x3d8dbf79	0.06921286
175	0x3df5e8f1	0.12007321
176	0xbe21c5bc	-0.15798086
177	0x3df6b4b0	0.12046182
178	0xbcdd9732	-0.027049635
179	0x3d3205de	0.043462627
180	0xbd579095	-0.05262812
181	0x3e2bd5bf	0.16780756
182	0x3d464871	0.04840893
183	0xbd9bc6da	-0.07606287
184	0xbd71c661	-0.05902708
185	0xbda44b58	-0.08022183
186	0xbde6de10	-0.11272824
187	0xbd503966	-0.05083599
188	0x3e07c727	0.13259564
189	0xbe0c62df	-0.13709591
190	0xbd5e1bc9	-0.054225717
191	0xba40e887	-0.0007358868
192	0xbc8fa8f1	-0.017536612
193	0x3dd95739	0.106123395
194	0xbe01554b	-0.12630193
195	0x3e227d39	0.15868081
196	0xbdf73b9c	-0.120719165
197	0xbe19e4f9	-0.15028752
198	0x3e01ace2	0.12663606
199	0x3d61f7cc	0.05516796
200	0xbdaf18da	-0.08549662
201	0xbda52355	-0.0806338
202	0xbd73102e	-0.059341602
203	0xbe03314c	-0.12811774
204	0xbdbb4fa9	-0.09146053
205	0x3e162780	0.14663506
206	0xbded7fef	-0.11596667
207	0xbe15ac73	-0.14616565
208	0x3dfe46ad	0.12415824
209	0xbdaa695d	-0.08320878
210	0x3e1397b0	0.14413333
211	0xbdf3ca45	-0.11903814
212	0x3d8fa3ee	0.07013689
213	0xbde28557	-0.11060589
214	0xbe0a207a	-0.13488951
215	0xbc0e42ce	-0.00868292
216	0x3cdca977	0.026936276
217	0x3dc218e9	0.094774075
218	0xbd6f70d9	-0.05845723
219	0x3db14381	0.086554535
220	0xbdcbb572	-0.09946717
221	0xbd4e1c02	-0.05031968
222	0x3e32066f	0.17385267
223	0x3e3454b2	0.17610434
224	0x3e1f3bfb	0.15550224
225	0xbe33f05c	-0.17572159
226	0xbdc97d9d	-0.09838412
227	0x3e094093	0.1340354
228	0xbdca4288	-0.09875971
229	0xbd88fd42	-0.0668893
230	0xbdb7591d	-0.08952544
231	0x3d182d83	0.03715278
232	0xbde26ef4	-0.11056319
233	0xbdfc2bc6	-0.123130366
234	0xbd4ac705	-0.049506206
235	0x3d01236d	0.031527925
236	0x3ce5f55f	0.028071104
237	0x3abd733e	0.00144539
238	0x3e16ac79	0.1471423
239	0xbdbf1cd4	-0.093316704
240	0xbd1db0a0	-0.03849852
241	0xbd8fc452	-0.07019867
242	0xbb892b30	-0.0041860566
243	0xbdf4f82c	-0.119613975
244	0x3da48d97	0.080348186
245	0xbd83edc0	-0.064418316
246	0x3d82bf1e	0.06384109
247	0xbcd10a8e	-0.025517728
248	0xbdee9705	-0.116498984
249	0x3d5a96b4	0.053366378
250	0x3db873f2	0.0900649
251	0x3e1c30c8	0.15252984
252	0x3d7f461f	0.062322732
253	0xbd85ca40	-0.06532717
254	0xbe1721a7	-0.14758931
255	0x3dd28e1e	0.10281013

u_model.model.4.linear.bias f4 [42]
0	0x3dc8d8a3	0.09806945
1	0xbe1288bb	-0.14309971
2	0xbcae8eef	-0.02130839
3	0x3dbf8126	0.09350805
4	0x3db6762e	0.0890926
5	0xbd9f3250	-0.07773268
6	0x3d991a77	0.07475751
7	0x3de89b47	0.11357742
8	0x3d5aa4b2	0.053379722
9	0x3dc6a9d8	0.09700364
10	0xbba0133e	-0.0048851063
11	0x3e0d3a60	0.137918
12	0xbb733d41	-0.0037115368
13	0x3d0f08ee	0.034920625
14	0xbd6f7960	-0.05846536
15	0xbde874b7	-0.113503866
16	0xbd3b7210	-0.045763075
17	0xbe1a3e41	-0.1506281
18	0xbe3201a1	-0.17383434
19	0xbd491b10	-0.049098074
20	0xbdcfe7d1	-0.10151637
21	0xbb167ebd	-0.0022963725
22	0xbd08e0d8	-0.033417553
23	0x3da6fedd	0.0815408
24	0xbca6c9d9	-0.02035992
25	0x3dc5c71e	0.09657119
26	0xbd92c876	-0.07167141
27	0x3c56aeb0	0.013103172
28	0x3dc02f99	0.093840785
29	0x3dac9f56	0.084288284
30	0xbdb92817	-0.0904085
31	0x3e1fb4ea	0.15596357
32	0xbd7b354d	-0.06133013
33	0x3d3224ac	0.043492004
34	0xbe148a9e	-0.14506003
35	0xbd53523f	-0.051592108
36	0x3e0485c4	0.12941653
37	0x3d2aea18	0.041727155
38	0xbda3ec84	-0.08004096
39	0x3d931b83	0.07182982
40	0x3e208b72	0.15678194
41	0xbd51edec	-0.05125229

u_model.model.5.linear.weight f4 [42, 42]
0	0xbd6700d8	-0.05639729
1	0x3df1f449	0.11814172
2	0x3d50b1ad	0.050950695
3	0x3e09def4	0.13463956
4	0x3de6d289	0.11270625
5	0xbd39f09f	-0.04539549
6	0x3d891539	0.06693501
7	0x3d947ad0	0.07249987
8	0xbd278dd5	-0.040906746
9	0x3db5a581	0.08869458
10	0xbe22f4df	-0.15913723
11	0x3cc7280d	0.02431109
12	0x3e133797	0.14376675
13	0xbb62d34e	-0.003461081
14	0x3da9404d	0.082642175
15	0x3d30bcd1	0.04314882
16	0x3bbf9e7e	0.005847751
17	0x3dc28b30	0.09499204
18	0xbe1495c9	-0.14510264
19	0x3e12ab1d	0.14323087
20	0xbcbfa573	-0.023394322
21	0xbd048e0b	-0.032362025
22	0xbdc9a56f	-0.09846007
23	0xbd85a4f9	-0.06525607
24	0x3ab1c6a0	0.0013563223
25	0x3d828cc2	0.06374504
26	0xbde045f7	-0.10950845
27	0xbca0d14a	-0.019631047
28	0x3dfdeec3	0.12399056
29	0xbd14f906	-0.0363703
30	0x3db3dd17	0.08782404
31	0xbcfabbfb	-0.030607214
32	0xbe0b8b9d	-0.13627477
33	0xbde7a795	-0.113112606
34	0x3c433266	0.011913871
35	0x3d7a2c9e	0.061077707
36	0x3dd107b4	0.102065474
37	0xbe0dc995	-0.13846429
38	0xbd01a6f2	-0.031653352
39	0xbca9416d	-0.02066108
40	0x3e033a0f	0.12815116
41	0xbe06214f	-0.13098644
42	0xbdf11875	-0.11772243
43	0x3dfca9b0	0.12337053
44	0xbe0d0289	-0.13770498
45	0x3e000226	0.1250082
46	0xbd80162d	-0.0625423
47	0xbd1bdaa6	-0.038050316
48	0xbd49b126	-0.049241208
49	0xbdebc14f	-0.1151148
50	0xbddf39b2	-0.108996764
51	0x3e091eb9	0.13390626
52	0xbd8ad96c	-0.06779751
53	0xbcce74b6	-0.025202136
54	0x3d3d3040	0.046188593
55	0x3df0c780	0.117568016
56	0x3e392dc4	0.18083864
57	0x3e017d7c	0.12645525
58	0xbd40ca09	-0.047067676
59	0x3d88ca44	0.06679204
60	0xbde72426	-0.11286192
61	0xbe1e6dd3	-0.15471582
62	0xbc87e89b	-0.016590407
63	0x3cc82507	0.024431719
64	0x3e1dbfc4	0.15405184
65	0xbbef022e	-0.007293961
66	0xbdd0272d	-0.10163722
67	0xbd64ec55	-0.055889446
68	0xbd746402	-0.059665687
69	0x3e0de5fb	0.13857262
70	0xbd4d98b7	-0.05019447
71	0x3babe069	0.0052452576
72	0x3caea8a5	0.02132065
73	0x3e064830	0.13113475
74	0xbbadd95b	-0.005305452
75	0x3d9d0079	0.07666106
76	0x3dc55989	0.09636218
77	0xbcab3fad	-0.020904386
78	0xbd875c6f	-0.06609427
79	0xbe0eb88d	-0.13937588
80	0x3b8a3a5f	0.004218384
81	0xbdd05b3a	-0.1017365
82	0xbc5855c7	-0.013204045
83	0xbdc7301f	-0.09725975
84	0xbcbe8040	-0.023254514
85	0xbdce0660	-0.1005981
86	0x3d5bf4aa	0.053700127
87	0x3dc73863	0.09727552
88	0xbd5e0780	-0.05420637
89	0xbe074b88	-0.13212407
90	0xbd77f8b5	-0.06053992
91	0x3deabbdb	0.11461612
92	0x3df7d451	0.12101043
93	0xbdcbd774	-0.09953204
94	0x3c5607a5	0.013063346
95	0xbb863280	-0.0040953755
96	0xbdcfb8ae	-0.10142647
97	0xbc220a00	-0.0098900795
98	0x3dafa9d7	0.08577316
99	0x3e175cf6	0.14781556
100	0x3d0651b4	0.032792762
101	0xbde9fb99	-0.114249416
102	0x3c566c3e	0.01308733
103	0x3d113402	0.03544999
104	0x3d8c145c	0.06839821
105	0x3c7348ef	0.014848932
106	0x3de27a49	0.1105848
107	0xbd015996	-0.031579576
108	0xbe0f1fcd	-0.13976975
109	0xbdcd8c29	-0.10036499
110	0xbd2c7b5f	-0.042109843
111	0xbd9cce2c	-0.07656512
112	0xbe23a336	-0.15980229
113	0x3d2474e4	0.040150538
114	0x3e102bad	0.14079161
115	0x3ce057a0	0.027385533
116	0x3c007650	0.007840708
117	0x3aa98ef4	0.001293628
118	0xbde3dc6e	-0.11126028
119	0xbde9e929	-0.11421425
120	0x3d9b5fc6	0.07586627
121	0xbdf4327f	-0.11923694
122	0x3e005c62	0.12535241
123	0x3de745e1	0.11292625
124	0xbdbbfb1c	-0.09178755
125	0xbba36401	-0.0049862866
126	0x3e06e17a	0.1317195
127	0x3e1685ee	0.14699528
128	0x3e1b70b7	0.15179716
129	0x3e6df90f	0.2323954
130	0x3d85173e	0.06498574
131	0x3da3c8dd	0.07997296
132	0x3d63c76e	0.055610113
133	0x3dfa34a9	0.122170754
134	0xbe68f8eb	-0.22751205
135	0x3d9bc88d	0.076066114
136	0x3df6c9b9	0.12050194
137	0xbcbacc90	-0.022802621
138	0xbb1fe27c	-0.002439647
139	0x3d1559de	0.036462657
140	0x3d434625	0.047674317
141	0x3df0c858	0.117569625
142	0x3d22d1c6	0.039750837
143	0xbdc64da4	-0.096827775
144	0x3d6a7379	0.05723903
145	0x3dcb7e76	0.0993623
146	0xbdaa9dd8	-0.083308876
147	0x3e2483fa	0.1606597
148	0x3bfd4151	0.0077287336
149	0xbb07fcb0	-0.0020749979
150	0x3d19978c	0.037498042
151	0x3c8e5ea1	0.017379107
152	0x3dea61c2	0.11444427
153	0xbe3adcf2	-0.18248346
154	0x3dc52fbf	0.096282475
155	0x3e3b2302	0.18275073
156	0x3e3f0085	0.18652542
157	0xbdd3e33f	-0.10346078
158	0x3c49e565	0.012322758
159	0xbe0a2845	-0.13491924
160	0xbc379f1e	-0.01120737
161	0xbced1da5	-0.0289448
162	0xbe3bfbcb	-0.1835777
163	0x3d87d343	0.06632092
164	0x3dd2d481	0.10294438
165	0xbcf73cb1	-0.030180307
166	0xbdada609	-0.08478934
167	0x3d5d9ab6	0.054102622
168	0xbd314b96	-0.043284975
169	0xbd042668	-0.03226319
170	0xbe1c5134	-0.15265352
171	0xbdf31c11	-0.118705876
172	0xbde5c963	-0.11220052
173	0x3ce54cbd	0.027990693
174	0x3e0cfc9a	0.13768235
175	0xbd4fb723	-0.050711762
176	0xbe009744	-0.12557703
177	0x3ddd6aff	0.108114235
178	0x3cc71051	0.024299772
179	0x3d9963ef	0.07489764
180	0x3e0c1c34	0.13682634
181	0xbdc178a5	-0.09446839
182	0xbe18e829	-0.14932312
183	0x3dec8a03	0.11549761
184	0xbd931d76	-0.071833536
185	0xbde6f9db	-0.11278125
186	0x3e1cdca9	0.1531855
187	0xbd894e52	-0.067043915
188	0x3d8caf84	0.068694144
189	0xbc9d725f	-0.019219575
190	0xbdf0a95a	-0.11751051
191	0xbd50f42a	-0.051014103
192	0x3cce55b4	0.02518735
193	0xbcb4cb15	-0.022069493
194	0x3dd996c4	0.106244594
195	0xbd1a4326	-0.037661694
196	0xbdd5170e	-0.10404788
197	0x3cd570d6	0.02605478
198	0x3de02cc8	0.10946041
199	0xbcef173b	-0.029185882
200	0x3d62a462	0.05533255
201	0x3dc326b6	0.09528868
202	0x3cf5d924	0.030010767
203	0x3d772d4c	0.060345933
204	0x3c7a8bf9	0.015292161
205	0x3db2c5a6	0.08729105
206	0xbe31acba	-0.17351046
207	0xbd64647f	-0.055759903
208	0x3de500e8	0.111818135
209	0x3dbd5506	0.092447326
210	0x3dffc395	0.12488476
211	0xbe0da942	-0.13834098
212	0x3dc2ea1f	0.09517311
213	0x3c9b661c	0.018969588
214	0x3e23106e	0.15924236
215	0x3e49b702	0.19698718
216	0x3da61cab	0.08110937
217	0x3a11422a	0.000554117
218	0xbd6be0ad	-0.057587314
219	0x3e886180	0.26636887
220	0x3de87c71	0.1135186
221	0x3e643ebf	0.2228956
222	0x3dadc380	0.08484554
223	0x3d8d9f5d	0.06915162
224	0xbcbe929c	-0.023263268
225	0xbe932d1e	-0.2874536
226	0x3c2c4cde	0.010516373
227	0x3e013769	0.12618794
228	0xbda2bbda	-0.07945986
229	0x3d801065	0.06253127
230	0x3d2f0eb8	0.042738646
231	0xbdef23ce	-0.11676751
232	0xbce5dbc0	-0.028058887
233	0xbe2842f9	-0.16431798
234	0xbda84964	-0.08217123
235	0x3dceb345	0.10092787
236	0x3e33e6e4	0.17568547
237	0x3cca53a2	0.024698082
238	0xbd95dd1b	-0.07317563
239	0xbe1290ef	-0.143131
240	0x3debdc36	0.11516611
241	0xbdbe7bab	-0.093009315
242	0xbda2add5	-0.07943312
243	0xbd05acc2	-0.032635458
244	0xbd558845	-0.05213191
245	0xbda43332	-0.08017577
246	0xbccb9b9b	-0.024854472
247	0x3d17d501	0.03706837
248	0x3dd8c64d	0.10584698
249	0x3e17b97d	0.14816852
250	0xbd7a7249	-0.061144147
251	0x3da31dd6	0.07964675
252	0xbc215305	-0.009846454
253	0x3d743a77	0.05962607
254	0x3cda0b34	0.02661667
255	0x3e16afd8	0.14715517

u_model.model.5.linear.bias f4 [42]
0	0xbd78a6d9	-0.060705993
1	0xbd83db64	-0.0643833
2	0x3dc14c90	0.09438431
3	0xbe4f837f	-0.20265006
4	0xbdebc367	-0.115118794
5	0xbd3bfe5d	-0.045896877
6	0x3dc24f1b	0.094877444
7	0xbe20c7fa	-0.15701285
8	0x3e7eb191	0.24872424
9	0x3d2bde8a	0.041960277
10	0x3dbbea8b	0.09175595
11	0xbd6afd3b	-0.057370406
12	0xbe0746a0	-0.13210535
13	0x3d4d6587	0.050145652
14	0x3ced2104	0.028946407
15	0x3e1204a9	0.1425959
16	0x3ca90dda	0.020636488
17	0x3d93b1af	0.07211625
18	0xbd96802a	-0.07348664
19	0xbc8c10e8	-0.017097905
20	0xbd9b7739	-0.07591099
21	0x3df0f36e	0.117651805
22	0x3d8e5716	0.06950204
23	0xbd4aaa7f	-0.049479004
24	0x3d6a8dbf	0.057264086
25	0x3dc154de	0.09440015
26	0x3d57564c	0.052572533
27	0x3d95ddc5	0.0731769
28	0xbe0eb4d0	-0.13936162
29	0x3d70a2eb	0.05874912
30	0x3da1bb15	0.07897011
31	0xbca3650c	-0.019945644
32	0xbd3ba25f	-0.045809146
33	0xbd9d5877	-0.07682889
34	0x3ddabdcb	0.106807314
35	0xbda0a0f9	-0.07843203
36	0x3ce81d28	0.028334215
37	0x3df7cb60	0.120993376
38	0x3df4fc87	0.11962228
39	0x3d8b7237	0.06808894
40	0x3ded4742	0.11585857
41	0xbdaee581	-0.08539868
