saved_models/1d_burgers/rff_pinn.pt (torch, 76093 bytes, 42 tensors)

u_model.W f4 [20, 2]
0	0xbe31df0d	-0.17370243
1	0xbfe946db	-1.8224748
2	0x3f477a73	0.7792122
3	0xbf81c7b9	-1.0139076
4	0x3f622ef9	0.88352925
5	0x3f20ee36	0.6286348
6	0xbe81b3de	-0.2533254
7	0xc029fc5e	-2.6560283
8	0xbf44f21e	-0.7693194
9	0x3f64bb23	0.8934805
10	0x3eea6c55	0.45785776
11	0x3d79da38	0.060999125
12	0x3fc2affa	1.5209954
13	0x3f68fe58	0.910131
14	0x3e956481	0.2917824
15	0xbe783922	-0.24240544
16	0x3d62cd28	0.055371433
17	0xbffcbd3b	-1.9745249
18	0x3fc4957f	1.5358123
19	0x3f00d580	0.50325775
20	0x3f9e4388	1.2364359
21	0xbf36f3eb	-0.7146594
22	0x3b850133	0.004058981
23	0x3f012a23	0.5045492
24	0x3f42f7ff	0.7615966
25	0xbfdb1150	-1.7114658
26	0x3fa49aaa	1.28597
27	0xbf9b4952	-1.213175
28	0x3ea4a653	0.32158145
29	0xbf3d1b18	-0.73869467
30	0xbd71fc5c	-0.05907856
31	0xbf189fc4	-0.59618783
32	0x3cb584f0	0.022158116
33	0x3f7aad9f	0.97921175
34	0x3eb79c1c	0.3586129
35	0x3eec97db	0.46209607
36	0x3fa07423	1.2535442
37	0x3f3ba531	0.7329894
38	0x3ef86a39	0.4851854
39	0xbfccee7b	-1.6010278

u_model.b f4 [20]
0	0x40b4132f	5.6273417
1	0x3fad3690	1.3532276
2	0x40678d78	3.6180096
3	0x3fcaba83	1.5838169
4	0x3fbc738d	1.4722763
5	0x3f5dfb3e	0.8671149
6	0x407ec722	3.980904
7	0x3f17f66b	0.5936038
8	0x403e74f3	2.975888
9	0x40c7c807	6.2431674
10	0x40bb9a67	5.862598
11	0x3d926766	0.07148628
12	0x40ab7fd2	5.359353
13	0x40755348	3.833208
14	0x40b8a5e0	5.7702484
15	0x3ec11885	0.3771402
16	0x4011afed	2.2763627
17	0x3ffbb2ce	1.9663942
18	0x40bdfd54	5.937174
19	0x40b0b9f5	5.5227

u_model.model.0.weight f4 [42, 42]
0	0xbd589dab	-0.05288474
1	0xbbca0a28	-0.0061657615
2	0x3e22732f	0.15864252
3	0x3d4ff34e	0.050769143
4	0x3d3ddd5b	0.04635368
5	0xbcb39c32	-0.021925066
6	0xbde0cea2	-0.10976912
7	0x3e0d1572	0.13777712
8	0xbd994cd4	-0.07485357
9	0xbd8d3cfd	-0.06896398
10	0xbe8549ea	-0.26032954
11	0x3c80394e	0.015652325
12	0xbe8d7157	-0.27625534
13	0xbd442616	-0.047887884
14	0xbd9dc61f	-0.07703804
15	0xbd929f9f	-0.071593516
16	0xbdf8123d	-0.12112854
17	0xbdeafe82	-0.11474325
18	0xbe621b7a	-0.22080794
19	0xbde6674f	-0.11250173
20	0x3c8800c0	0.01660192
21	0x3e289c34	0.16465837
22	0xbb9cf3c4	-0.0047898013
23	0xbe43b5b2	-0.1911228
24	0x3de87e18	0.113521755
25	0x3e99d395	0.30044237
26	0xbd50fd16	-0.05102261
27	0x3d025d63	0.03182734
28	0xbdb3b902	-0.08775522
29	0xbd83649c	-0.06415674
30	0xbde6f0d6	-0.112764046
31	0xbd06b042	-0.032882936
32	0xbd3d6f5e	-0.046248786
33	0x3dd409d8	0.1035344
34	0x3ddefd77	0.10888188
35	0x3d45bb16	0.048274122
36	0xbe49b2b3	-0.19697075
37	0x3dcfe02a	0.10150178
38	0x3b6a003b	0.0035705704
39	0x3d39e2de	0.045382373
40	0xbdcad557	-0.099039726
41	0xbe234ddd	-0.15947671
42	0x3dfea1e1	0.1243322
43	0x3de5e465	0.112252034
44	0x3dd8087a	0.10548492
45	0x3e2cf984	0.16892058
46	0x3d02d26b	0.03193895
47	0xbec0b750	-0.37639856
48	0xbe12fc21	-0.14353992
49	0xbdb13239	-0.08652157
50	0x3b6cd460	0.0036137328
51	0xbe039e6e	-0.12853405
52	0x3ca112eb	0.019662341
53	0x3d8b7c27	0.068107896
54	0x3d8cac2b	0.06868776
55	0xbe368f8d	-0.17828198
56	0x3a598fa8	0.00082992995
57	0xbe111fa7	-0.1417223
58	0x3d6c2a6e	0.05765765
59	0xbdd2957a	-0.10282417
60	0xbe253df9	-0.16136922
61	0xbe220763	-0.1582313
62	0x3db45cbc	0.0880675
63	0x3dea19c1	0.114306934
64	0x3dffc44a	0.12488611
65	0x3e21dbac	0.15806454
66	0xbe491940	-0.19638538
67	0x3d1a1af9	0.03762338
68	0x3df178c7	0.117906146
69	0xbc589b53	-0.013220626
70	0xbe00e967	-0.12589036
71	0xbe0f2675	-0.13979514
72	0xbe9f2f9f	-0.3109102
73	0xbdbb8e31	-0.0915798
74	0x38ee4db7	0.000113632
75	0x3e3babdc	0.18327278
76	0x3e64e5f8	0.22353351
77	0xbd27f667	-0.041006472
78	0x3d1ee229	0.038789902
79	0xbd8bd750	-0.06828177
80	0x3d9d99fe	0.07695387
81	0xbe4d447a	-0.20045653
82	0x3d955f15	0.07293526
83	0x3d036b22	0.03208459
84	0x3d1d5b88	0.03841737
85	0xbd048630	-0.032354534
86	0xbdf7ba97	-0.12096136
87	0xbdc2b158	-0.09506482
88	0xbd390226	-0.045168065
89	0x3e8ebb43	0.27877244
90	0x3d153d1f	0.036435243
91	0xbd2de4c0	-0.04245448
92	0x3db04785	0.08607391
93	0x3e1fd4ab	0.1560847
94	0x3e218fd9	0.1577753
95	0xbd1d7105	-0.038437862
96	0x3da1c648	0.07899147
97	0xbc714373	-0.014725554
98	0xbda26f08	-0.07931334
99	0xbd4a24fa	-0.04935167
100	0xbdcd6486	-0.10028939
101	0xbd8f057d	-0.06983469
102	0xbdeb1726	-0.114790246
103	0x3e070c82	0.13188365
104	0x3d4ba607	0.049718883
105	0xbe3d87f2	-0.1850889
106	0xbdcba7ca	-0.099441126
107	0x3d7f5bee	0.06234353
108	0xbd1a0f11	-0.037612025
109	0xbe20888e	-0.15677091
110	0x3e50b793	0.20382528
111	0x3da3e775	0.08003131
112	0x3e10d556	0.14143881
113	0x3e0443b6	0.12916455
114	0x3e13054a	0.14357486
115	0x3d9ab238	0.07553524
116	0xbc9ad59e	-0.018900689
117	0x3d189815	0.03725441
118	0xbe87bceb	-0.2651132
119	0x3dd8bbe9	0.10582716
120	0xbd6523d3	-0.055942368
121	0xbd7fbcbf	-0.06243586
122	0xbdf1936d	-0.11795697
123	0x3d157478	0.036488026
124	0xbe1bf11c	-0.15228695
125	0xbca7f283	-0.02050138
126	0xbe3127f7	-0.17300402
127	0xbd615f00	-0.05502224
128	0x3da57647	0.080792
129	0xbe0dfdb2	-0.13866308
130	0x3db726d3	0.08942952
131	0xbdaaff02	-0.0834942
132	0x3c2f5caf	0.01070325
133	0x3c06f3a2	0.0082367975
134	0x3db12e61	0.08651424
135	0xbc38b683	-0.011273983
136	0xbe896ce3	-0.26840886
137	0xbe224b6a	-0.1584908
138	0x3dd7c5b4	0.10535756
139	0x3d857cd2	0.06517948
140	0x3dba993c	0.091112584
141	0x3e413869	0.18869175
142	0x3cceecf1	0.025259467
143	0xbe02b322	-0.12763646
144	0x3daf8f0f	0.08572208
145	0xbce9e856	-0.02855317
146	0x3dbc2018	0.09185809
147	0x3bb9e33c	0.0056728404
148	0x3c4899d0	0.012243703
149	0xbdec1f9f	-0.11529469
150	0xbde7b2df	-0.11313414
151	0x3e40b02f	0.18817209
152	0x3de94245	0.11389593
153	0x3c49e97f	0.012323736
154	0x3dcec643	0.10096409
155	0xbe47b4be	-0.19502541
156	0xbe667517	-0.22505604
157	0x3d54f6cb	0.051993173
158	0xbe16c45f	-0.14723347
159	0x3d24ae32	0.040205188
160	0x3e3ed622	0.18636373
161	0xbd2f967f	-0.042868134
162	0x3df7a176	0.12091343
163	0xbc4dee39	-0.012569004
164	0x3e0a8ea6	0.13530979
165	0x3d8bd5e1	0.068279035
166	0x3ddd9a1e	0.10820411
167	0xbdbe3739	-0.09287877
168	0x3e2d22a7	0.1690775
169	0xbc0dd92c	-0.008657735
170	0xbdf9b6c7	-0.12193065
171	0xbcdb481d	-0.026767785
172	0x3d01a7de	0.03165423
173	0x3e28e1a7	0.1649233
174	0xbe1b27a4	-0.1515184
175	0x3d00ee01	0.03147698
176	0xbe2142ac	-0.1574809
177	0x3d7d3180	0.061814785
178	0x3e9bd1c7	0.30433485
179	0x3e341a8e	0.17588255
180	0x3dee2b62	0.11629368
181	0x3dd35b2f	0.10320126
182	0xbcc32214	-0.02381996
183	0x3d73039c	0.059329614
184	0xbe0662e2	-0.13123658
185	0xbc92aa4d	-0.017903471
186	0xbdc0ce43	-0.09414341
187	0xbdf6c984	-0.12050155
188	0x3d1ddb9a	0.038539506
189	0xbd6117ac	-0.054954216
190	0xbd0cd705	-0.034384746
191	0xbe3371e2	-0.17523912
192	0xbda73f0a	-0.081663206
193	0xbdb59e0f	-0.08868038
194	0xbbf3321f	-0.0074217464
195	0xbd09f335	-0.033679206
196	0xbe30d858	-0.17270029
197	0x3c21f7f0	0.009885773
198	0x3e8cdcb7	0.27512142
199	0x3c0c88d0	0.0085775405
200	0x3dcea245	0.10089544
201	0xbcb95634	-0.022624113
202	0x3cca2d4d	0.024679804
203	0x3d4a252c	0.049351856
204	0x3ddeb626	0.10874586
205	0x3cf54c79	0.029943692
206	0x3c4442b2	0.011978792
207	0xbd139518	-0.03603086
208	0x3dd1a3c2	0.102363124
209	0xbd99c286	-0.075078055
210	0xbe1a377a	-0.15060225
211	0xbd2d8516	-0.04236325
212	0x3e7f0af5	0.24906524
213	0x3bc6978d	0.0060605467
214	0xbc68bc51	-0.014205054
215	0xbe6999f6	-0.22812638
216	0xbceae2bc	-0.028672569
217	0x3ddb44d8	0.1070649
218	0x3dee9362	0.11649205
219	0x3c84fda1	0.016234221
220	0xbe70460b	-0.2346422
221	0xbce45f6a	-0.027877528
222	0xbb215003	-0.002461434
223	0xbd536c4b	-0.051616948
224	0x3e4940f8	0.1965369
225	0x3d901357	0.07034939
226	0xbd33bc29	-0.043880615
227	0x3ce1e886	0.027576696
228	0xbd95549e	-0.0729153
229	0xbd1c7f07	-0.03820708
230	0xbdf937ce	-0.12168847
231	0xbcc16e28	-0.023612097
232	0x3e326a7a	0.1742343
233	0xbe02c29d	-0.12769552
234	0x3e0af57b	0.13570206
235	0x3e05aee6	0.13055
236	0x3dc87bc2	0.0978923
237	0x3d8c7eb6	0.06860106
238	0x3d8aa6cf	0.067700975
239	0x3d3ecf7b	0.046584588
240	0xbde79b8b	-0.11308964
241	0xbde74df4	-0.11294165
242	0xbcde76de	-0.02715629
243	0x3e200d3e	0.15630051
244	0x3e048ae6	0.1294361
245	0x3dc61f9c	0.09673998
246	0x3c5e731e	0.013577251
247	0x3d975c82	0.07390691
248	0x3df9f1b1	0.12204302
249	0xbcc85bf3	-0.024457907
250	0xbd873269	-0.06601412
251	0x3e44cc97	0.1921867
252	0xbe4e71bb	-0.20160572
253	0xbe09288e	-0.13394377
254	0xbe59312f	-0.21210168
255	0x3e2313db	0.15925543

u_model.model.0.bias f4 [42]
0	0xbd1c60ba	-0.038178183
1	0xbd72bb7c	-0.05926083
2	0xbd4d26ef	-0.050085958
3	0xbd0c178f	-0.034202155
4	0x3cef86e7	0.029239131
5	0x3d6dfdaf	0.05810326
6	0xbde7d0be	-0.11319111
7	0xbc5b1d93	-0.01337375
8	0x3dbebc36	0.09313242
9	0x3d82991d	0.0637686
10	0xbe2c28d8	-0.16812456
11	0xbd36c2a0	-0.044619203
12	0xbc133e23	-0.0089869825
13	0x3d45b5d2	0.0482691
14	0xbcdd87bc	-0.027042262
15	0xbdf145bd	-0.1178088
16	0x3d3d83fa	0.04626844
17	0xbe2d0edb	-0.16900198
18	0x3e430a32	0.19046858
19	0xbdb10edc	-0.08645412
20	0xbcb4dba3	-0.022077387
21	0x3e11166c	0.1416871
22	0x3de1a7ab	0.11018308
23	0x3dd083d0	0.10181391
24	0xbd642ec7	-0.055708673
25	0x3ddcb3d5	0.10776488
26	0xbc757c8d	-0.0149833085
27	0x3b6bb6e1	0.0035967159
28	0xbe2fccc5	-0.17167957
29	0xbe05030f	-0.12989448
30	0xbd775315	-0.060381968
31	0xbd120881	-0.03565264
32	0x3df08e5f	0.11745905
33	0xbdc121dd	-0.09430287
34	0xbdd65f14	-0.104673535
35	0x3e33ce8f	0.17559265
36	0xbe241ffd	-0.16027828
37	0xbd4c1bfa	-0.049831368
38	0x3d893216	0.06699006
39	0xbda35dca	-0.07976873
40	0x3dc0083d	0.09376571
41	0xbd88fcc7	-0.066888385

u_model.model.2.weight f4 [42, 42]
0	0x3d92f1db	0.071750365
1	0x3e5a4e67	0.2131897
2	0xbe6f1eee	-0.23351642
3	0x3e2a03e8	0.16603053
4	0xbe0a99ae	-0.13535187
5	0x3e153534	0.14571077
6	0x3d783ff7	0.060607877
7	0x3e82d20b	0.25550875
8	0xbd292524	-0.041295186
9	0xbd96da40	-0.07365847
10	0xbd398205	-0.045290012
11	0xbce8e612	-0.028430019
12	0x3d8c2c68	0.06844407
13	0x3c389f9b	0.011268522
14	0x3cf6cf48	0.030128136
15	0x3d963d1e	0.07335876
16	0xbe8de917	-0.27716896
17	0x3e3c2303	0.18372731
18	0xbdd7a0cb	-0.10528716
19	0xbe5401c4	-0.20703799
20	0x3cc3d728	0.023906305
21	0xbe371824	-0.17880303
22	0xbb01cffa	-0.0019807802
23	0xbe22fdc1	-0.15917112
24	0x3d14b08b	0.036301177
25	0x3d2cc9b3	0.042184543
26	0xbcc3b144	-0.023888238
27	0xbd6089c7	-0.054818895
28	0x3e140a62	0.14457086
29	0x3e1dc0ad	0.15405531
30	0x3e3ddeb8	0.18541992
31	0x3e23e012	0.16003445
32	0xbd2427f2	-0.040077157
33	0xbd6d5447	-0.0579417
34	0x3e2f78dd	0.1713595
35	0xbdadba5d	-0.084828116
36	0x3d956057	0.07293766
37	0x3df245c9	0.11829717
38	0x3e01bcea	0.12669721
39	0x3e7f95d8	0.24959505
40	0xbe0eb238	-0.13935173
41	0x3da206e6	0.07911472
42	0xbcbd7ddc	-0.023131303
43	0xbd8fa23c	-0.070133656
44	0x3d1bdec3	0.03805424
45	0x3db9c0d9	0.09069986
46	0x3e1f8af7	0.15580355
47	0x3d500b5e	0.05079209
48	0x3e30bc1a	0.17259255
49	0xbc0980a0	-0.008392483
50	0xbd05ede1	-0.032697562
51	0xbe58d410	-0.21174645
52	0xbdedd191	-0.11612237
53	0xbdc7eafd	-0.09761617
54	0xbc5f950c	-0.013646375
55	0xbe5b321e	-0.21405837
56	0x3d87377b	0.06602379
57	0xbe5a22e6	-0.21302375
58	0x3e5e9140	0.21735096
59	0xbd2c4522	-0.042058118
60	0x3de6e763	0.11274602
61	0x3e363add	0.17795892
62	0xbda7ecf3	-0.08199491
63	0x3e623e75	0.22094138
64	0x3d66e8ba	0.05637429
65	0x3def9932	0.116991416
66	0x3e91ce91	0.2847791
67	0xbcc7be6b	-0.02438279
68	0x3c0acd74	0.008471835
69	0xbcfeda85	-0.031110058
70	0x3d0ebd05	0.03484823
71	0x3e0933ae	0.1339862
72	0x3df575f3	0.11985388
73	0x3d6239e0	0.055230975
74	0x3d1b8bcf	0.03797513
75	0x3daa8725	0.08326558
76	0xbdd16a84	-0.10225394
77	0x3cdc014a	0.026856083
78	0xbcd46ab4	-0.025929786
79	0x3d23985d	0.039940227
80	0xbe0507cf	-0.1299126
81	0x3db69b99	0.08916397
82	0x3c4b5769	0.012410977
83	0x3e6b1d02	0.22960284
84	0xbe52b1d6	-0.20575652
85	0x3e962ddd	0.29331866
86	0xbce4544d	-0.027872229
87	0xbcf03d3e	-0.029326078
88	0xbe082388	-0.13294804
89	0x3de7a66e	0.11311041
90	0xbdc020c2	-0.09381248
91	0xbe191df2	-0.1495283
92	0xbd9b0edf	-0.07571196
93	0x3e0f66ee	0.14004108
94	0x3dd05a96	0.10173528
95	0xbdd39120	-0.10330415
96	0x3abbab97	0.0014318106
97	0x3e818acd	0.2530121
98	0xbd13a589	-0.03604654
99	0x3a963e27	0.0011462615
100	0xbdf1f57b	-0.118144
101	0x3cc2e14e	0.023789074
102	0x3e26dfe5	0.16296346
103	0xbe01891a	-0.12649956
104	0x3e523a11	0.20529963
105	0x3e05e2af	0.13074754
106	0x3e6e169e	0.23250815
107	0x3cda52af	0.026650755
108	0xbe6f9fe9	-0.23400845
109	0x3e0815e3	0.13289599
110	0x3af4a43f	0.0018664672
111	0x3e055e2e	0.13024208
112	0xbe2651ed	-0.1624219
113	0xbe07cc44	-0.13261515
114	0xbe209bae	-0.15684387
115	0xbd846073	-0.06463709
116	0x3dda0be3	0.106467985
117	0x3d918a64	0.07106474
118	0x3e1728d9	0.14761676
119	0xbda3408d	-0.079712965
120	0xbdeb9520	-0.11503053
121	0x3d39b261	0.04533613
122	0xbe05b063	-0.13055567
123	0x3e21be5a	0.1579527
124	0x3e1b962e	0.15194008
125	0xbe7741fa	-0.24146262
126	0xbd54113b	-0.051774245
127	0xbebb22d6	-0.36550015
128	0x3b49abbc	0.0030772528
129	0xbddc437c	-0.10755059
130	0x3cf03242	0.02932084
131	0x3d233de8	0.03985396
132	0xbd518de3	-0.051160704
133	0xbd7acd93	-0.061231207
134	0x3dbe585d	0.09294198
135	0x3c94a4b6	0.018144947
136	0xbc842ae8	-0.01613374
137	0xbde99e88	-0.114071906
138	0x3dc2a912	0.09504904
139	0xbe03e0c8	-0.12878716
140	0xbe4be734	-0.19912416
141	0xbe02dc59	-0.12779368
142	0x3e2636ee	0.16231892
143	0x3d12e3f3	0.03586192
144	0x3e245364	0.16047436
145	0xbda9ac59	-0.08284826
146	0x3e5f150b	0.21785371
147	0x3e52032d	0.20509024
148	0xbe01cf99	-0.12676848
149	0xbd180fef	-0.03712457
150	0x3da21388	0.079138815
151	0xbcb6dee1	-0.022323074
152	0xbc52f764	-0.012876365
153	0x3d201cc5	0.039089937
154	0xbe1e9811	-0.15487696
155	0x3d68704f	0.05674773
156	0xbe1c0e37	-0.15239798
157	0xbc536812	-0.01290323
158	0x3c2bba1b	0.010481383
159	0x3cb32fb2	0.021873329
160	0x3e460898	0.19339216
161	0x3dcbb158	0.09945935
162	0xbcaa1bae	-0.020765152
163	0xbc80f258	-0.015740559
164	0x3eabef59	0.33581045
165	0xbe1c5ba8	-0.15269339
166	0x3cddb036	0.027061563
167	0x3e22a5c9	0.15883555
168	0x3d967bc4	0.07347825
169	0x3e0f8085	0.1401387
170	0xbdae7c2c	-0.08519778
171	0x3e247843	0.16061501
172	0xbe7a7446	-0.24458417
173	0x3e19193f	0.14951037
174	0x3d347305	0.044055004
175	0x3dc15316	0.094396755
176	0x3dfe3c77	0.124138765
177	0x3e16b1ee	0.14716312
178	0xbde29a06	-0.11064534
179	0x3ea06840	0.31329536
180	0x3e928cc4	0.2862302
181	0x3e19cf68	0.15020525
182	0xbdc15813	-0.09440627
183	0xbd4b1a62	-0.049585707
184	0xbe9a807b	-0.30176148
185	0x3dd0b564	0.101908475
186	0xbe92ad53	-0.2864786
187	0xbca5a2a7	-0.02021916
188	0x3d90f533	0.07078018
189	0xbddd0e1e	-0.10793708
190	0xbe1ea71d	-0.15493436
191	0xbe4edc09	-0.20201124
192	0xbc2b1ab4	-0.010443378
193	0xbe7b3d68	-0.24535143
194	0x3df46e0f	0.119350545
195	0x3c96742a	0.018365938
196	0x3e030f62	0.12798837
197	0x3db6804c	0.089111894
198	0x3d254213	0.040346216
199	0xbde26317	-0.11054056
200	0xbde7c5e9	-0.11317045
201	0x3cc4fb35	0.024045566
202	0x3cdbd3c5	0.026834378
203	0xbdb22f95	-0.08700482
204	0x3dc11589	0.09427936
205	0x3dc0c9e7	0.0941351
206	0x3ddf529b	0.109044276
207	0x3e4c2a5e	0.19938037
208	0x3caeb95d	0.021328622
209	0x3dc8e828	0.09809905
210	0x3b730f73	0.0037088066
211	0xbd451e76	-0.048124753
212	0x3d1e935c	0.03871475
213	0x3d62b19c	0.055345163
214	0xbd3a6890	-0.045509875
215	0x3d2b8ee1	0.041884307
216	0x3a15c0e9	0.0005712645
217	0x3cbb508c	0.022865556
218	0x3e3c29dc	0.18375343
219	0x3e30522e	0.17218849
220	0x3de01511	0.10941518
221	0x3eab760e	0.33488506
222	0x3e94290c	0.28937566
223	0xbdeb293a	-0.11482473
224	0x3d7a8b1c	0.06116782
225	0x3e4ab160	0.19794226
226	0xbe67d763	-0.22640757
227	0x3e3b7942	0.18307975
228	0xbdfe38fa	-0.12413211
229	0xbe79f9b7	-0.24411665
230	0x3d065a4d	0.03280096
231	0xbe1e343c	-0.15449613
232	0xbcf0b179	-0.0293815
233	0xbe4ea7f1	-0.20181252
234	0xbe9ac4df	-0.30228326
235	0xbd6f52c7	-0.058428552
236	0xbd61df25	-0.055144448
237	0x3e36d269	0.17853703
238	0x3e06b91b	0.1315655
239	0x3df97277	0.121800356
240	0x3db3dded	0.08782563
241	0x3d8a4652	0.06751694
242	0x3d963c2c	0.073356956
243	0xbe0f6ab2	-0.14005545
244	0x3e749ab0	0.23887134
245	0xbd3630ec	-0.04448025
246	0xbdc2a4b6	-0.09504072
247	0x3dc61bd8	0.096732795
248	0x3e9ac4de	0.30228323
249	0xbdc1718b	-0.09445485
250	0xbca69e40	-0.020339131
251	0xbe3f4807	-0.1867982
252	0xbe3c717f	-0.1840267
253	0x3c8e88e1	0.017399253
254	0xbd5a0bdd	-0.05323397
255	0xbdcd4cc1	-0.10024405

u_model.model.2.bias f4 [42]
0	0xbd7b188c	-0.061302707
1	0xbbac8f02	-0.0052660713
2	0xbca567bd	-0.020191068
3	0x3d2b800c	0.041870162
4	0xbdc6c1e7	-0.09704953
5	0xbdd9fbc1	-0.10643721
6	0x3e1bfbd6	0.15232787
7	0xbd65e7e6	-0.05612936
8	0x3e341796	0.17587122
9	0xbd9d8ef8	-0.07693285
10	0x3c92159c	0.01783257
11	0x3c0e3ab5	0.008680989
12	0xbdc276a2	-0.09495284
13	0xbd8036fe	-0.06260489
14	0xbde0f2b6	-0.109837934
15	0xbd05e58b	-0.032689612
16	0x3d21f24a	0.039537705
17	0x3d63add5	0.0555857
18	0x3e49ad4e	0.19695017
19	0xbdaad4ee	-0.08341394
20	0xbd21b87c	-0.03948258
21	0xbd654a43	-0.055979025
22	0x3dc6a28a	0.096989706
23	0xbe195553	-0.14973955
24	0x3d41a000	0.04727173
25	0x3e219939	0.15781106
26	0x3d095401	0.033527378
27	0xbdbf979a	-0.093550876
28	0x3d97958c	0.07401571
29	0xbdb04e61	-0.086086996
30	0xbdece6e4	-0.115674764
31	0xbdd84cb2	-0.105615035
32	0x3e1764dd	0.1478457
33	0xbe078497	-0.13234173
34	0xbd022b1d	-0.031779397
35	0xbd8f5c2d	-0.07000003
36	0xbc2a94aa	-0.010411421
37	0x3de15016	0.11001603
38	0x3dbab7a8	0.09117061
39	0xbdadd6fb	-0.0848827
40	0xbd04c680	-0.032415867
41	0xbdfcc565	-0.123423375

u_model.model.4.weight f4 [42, 42]
0	0xbe31f523	-0.17378668
1	0x3dc2876a	0.094984844
2	0x3d53f5da	0.051748134
3	0x3d6dbd4c	0.058041856
4	0xbd322027	-0.043487694
5	0xbe32ad95	-0.17449029
6	0x3e6adb1c	0.22935146
7	0x3e2ee8eb	0.17081039
8	0x3e01eb95	0.12687524
9	0xbdf0aea6	-0.117520615
10	0xbe55402b	-0.2082526
11	0xbe35a193	-0.17737417
12	0x3d29613f	0.041352507
13	0x3c886c7b	0.01665329
14	0xbdaed3aa	-0.085364655
15	0xbd042d62	-0.032269843
16	0x3db9306e	0.0904244
17	0xbe24169c	-0.1602425
18	0x3e4308ff	0.190464
19	0xbd828f3b	-0.06374975
20	0x3e459937	0.19296728
21	0x3e3b3729	0.1828276
22	0xbdaaec49	-0.08345849
23	0xbd7333cc	-0.05937557
24	0xbe67aea5	-0.22625215
25	0x3dfa6034	0.122253805
26	0xbe29b507	-0.16572963
27	0xbc9a2c31	-0.0188199
28	0xbc31da24	-0.010855231
29	0xbe7e09d9	-0.24808444
30	0xbe34fc11	-0.1767428
31	0x3e06cb2b	0.1316344
32	0x3e264d9e	0.16240546
33	0xbe70addf	-0.23503827
34	0x3db6dafd	0.089284874
35	0xbe51fb8d	-0.20506115
36	0x3e63d7a7	0.22250234
37	0x3da23c91	0.079217084
38	0x3e717bcb	0.2358238
39	0x3b8d8244	0.0043185074
40	0x3da5de94	0.08099094
41	0xbdc30c7a	-0.09523864
42	0xbdaefcf5	-0.085443415
43	0x3e40b7a5	0.18820055
44	0x3dbceca5	0.09224824
45	0x3d843792	0.06455912
46	0xbe63c41e	-0.22242782
47	0xbe0fd99c	-0.14047855
48	0x3e4a579d	0.19759984
49	0x3dee5ced	0.11638818
50	0x3e4fa871	0.20279099
51	0xbd525a84	-0.051355854
52	0xbe0e0305	-0.1386834
53	0x3e3eace9	0.18620647
54	0xbd3f949d	-0.046772588
55	0x3da1a5ab	0.07892927
56	0xbe3218f7	-0.17392336
57	0xbe23d458	-0.15998971
58	0xbe0a0200	-0.13477325
59	0xbeb8e007	-0.3610842
60	0x3d474802	0.048652656
61	0x3d7874d4	0.06065829
62	0xbd3b9bcb	-0.045802873
63	0x3dd8b1b1	0.10580767
64	0x3e00576f	0.12533353
65	0xbded2fb4	-0.11581364
66	0xbe45307a	-0.19256774
67	0xbd818e04	-0.063259155
68	0xbdb207db	-0.086929046
69	0xbe445ed3	-0.19176798
70	0x3ddc99ef	0.10771548
71	0xbe2dbaf3	-0.16965847
72	0xbe851fea	-0.2600091
73	0xbd8d1652	-0.06889023
74	0xbe4c67f3	-0.19961528
75	0xbe158461	-0.1460128
76	0x3d606c7d	0.054790962
77	0x3df3acc4	0.11898187
78	0x3defeafa	0.1171474
79	0x3d825703	0.063642524
80	0x3e5caafc	0.215496
81	0xbdb10d83	-0.08645155
82	0x3dd9ee54	0.106411606
83	0xbd974161	-0.07385517
84	0xbe22ee62	-0.15911248
85	0xbda7dd8a	-0.08196552
86	0xbd5dc344	-0.054141298
87	0xbb809e64	-0.0039251316
88	0x3ab1eb73	0.0013574198
89	0xbd8db660	-0.06919551
90	0xbdaa62d0	-0.08319628
91	0xbbc24cb7	-0.0059295553
92	0xbce000cf	-0.027344136
93	0x3b0ae82e	0.0021195519
94	0xbd034442	-0.032047518
95	0xbd26ace1	-0.040692214
96	0x3d635c5a	0.055507995
97	0xbdb529ff	-0.08845901
98	0xbcab0552	-0.02087656
99	0x3d4e7d1c	0.050412282
100	0x3e1232a7	0.14277135
101	0x3d9d02a1	0.07666517
102	0x3e2e3a8b	0.1701452
103	0x3e39bab9	0.18137635
104	0xbd10745a	-0.03526721
105	0x3e4986c0	0.1968031
106	0xbdcbc52b	-0.09949716
107	0xbcc5593c	-0.024090402
108	0x3d2c9478	0.04213378
109	0x3e2d4645	0.16921337
110	0xbb9be767	-0.00475781
111	0xbd710ea0	-0.058851838
112	0x3d6513a7	0.055926945
113	0xbe49056e	-0.19630978
114	0xbdc1e1a5	-0.094668664
115	0xbd68afe8	-0.056808382
116	0xbccb8a5f	-0.024846254
117	0xbe187515	-0.14888413
118	0xbd76a078	-0.06021163
119	0xbc6dcf42	-0.014514746
120	0x3d7d7c43	0.061886083
121	0xbd7e2e77	-0.06205603
122	0x3ce831c8	0.02834405
123	0xbe196d98	-0.14983213
124	0xbe479642	-0.19490913
125	0x3e224c29	0.15849365
126	0x3dee95f1	0.11649693
127	0x3e1c4e32	0.15264204
128	0xbbc379fb	-0.005965469
129	0xbd669183	-0.056291115
130	0x3d92cfbb	0.07168528
131	0xbe7ffb82	-0.24998286
132	0x3ba5e3f1	0.005062573
133	0x3dc512c6	0.096227214
134	0xbd0cc00a	-0.03436283
135	0xbe1a5a26	-0.15073451
136	0xbe5e6578	-0.21718395
137	0x3dee9c80	0.11650944
138	0xbd61bc22	-0.055111058
139	0x3d9d0655	0.07667223
140	0xbe9cb25b	-0.30604824
141	0xbe142a4d	-0.14469261
142	0xbe3b4ea1	-0.18291713
143	0x3d44902b	0.04798905
144	0xbe1d947d	-0.15388675
145	0xbe478bb1	-0.19486882
146	0x3b4f547f	0.0031636057
147	0xbe2092b1	-0.15680958
148	0x3ddaac5e	0.10677408
149	0xbe5446ad	-0.20730086
150	0x3e87dad7	0.2653415
151	0x3cc3055f	0.023806272
152	0xbdbdca32	-0.09267081
153	0x3d419e3c	0.047270045
154	0xbcfe1df2	-0.031020138
155	0x3df29652	0.118450776
156	0x3def6f7c	0.11691186
157	0x3eb126bb	0.34599862
158	0x3e046022	0.12927297
159	0x3cfa60a8	0.030563667
160	0xbe622705	-0.22085197
161	0xbe16c1a3	-0.14722304
162	0x3d9d40e7	0.07678395
163	0xbe0a24b2	-0.1349056
164	0xbdcf9f96	-0.101378605
165	0xbe67190a	-0.22568145
166	0xbde3dda5	-0.1112626
167	0x3e4bb2dc	0.19892448
168	0xbd83bb01	-0.064321525
169	0xbbfd86a5	-0.007736998
170	0xbd5b7a6e	-0.053583555
171	0x3e8fcf44	0.2808782
172	0x3db72163	0.08941915
173	0xbd706f09	-0.05869964
174	0xbddddabb	-0.10832735
175	0xbd82ff5d	-0.06396363
176	0xbd52c1c8	-0.051454335
177	0x3d8754c4	0.06607965
178	0xbdf05151	-0.1173426
179	0xbe8a1b41	-0.26973918
180	0x3e07e6d3	0.13271646
181	0xbd90846c	-0.070565075
182	0xbdb45be7	-0.088065915
183	0x3ddd8a29	0.108173676
184	0x3e513185	0.20429046
185	0x3e0b0882	0.13577464
186	0xbdb6d563	-0.08927419
187	0x3eb299ea	0.34883052
188	0x3b981b49	0.0046419245
189	0x3d5de948	0.054177552
190	0xbdc695f0	-0.09696567
191	0x3dc7276e	0.097243175
192	0xbd2c4868	-0.04206124
193	0x3dc61d46	0.09673552
194	0xbdbb6f07	-0.09152036
195	0xbe04035a	-0.12891904
196	0xbdcca05a	-0.09991522
197	0xbdaa6351	-0.08319724
198	0xbd86e398	-0.06586379
199	0xbd90e7ac	-0.07075438
200	0x3d4ddc39	0.05025885
201	0xbdfffd38	-0.124994695
202	0xbe401e46	-0.18761548
203	0xbdb657b8	-0.0890345
204	0xbe019dfa	-0.1265792
205	0xbb9b9e0a	-0.0047490643
206	0x3de58049	0.11206109
207	0xbe255da8	-0.16149008
208	0x3df112e7	0.117711835
209	0xbdf77c40	-0.12084246
210	0xbd5c9ddb	-0.05386148
211	0x3d6ed36e	0.058307104
212	0xbe136891	-0.14395358
213	0x3ea3eacb	0.3201507
214	0x3d616bce	0.05503445
215	0x3e1f834e	0.15577433
216	0xbd2f8a29	-0.04285637
217	0xbe15991b	-0.14609186
218	0x3e0fe77d	0.1405315
219	0xbccbab00	-0.024861813
220	0xbdec93e8	-0.115516484
221	0xbeb1ef63	-0.3475295
222	0x3d66a78a	0.05631212
223	0xbe7b9a3a	-0.24570552
224	0xbb28b70e	-0.0025743875
225	0x3cc1775c	0.023616485
226	0x3e881b3f	0.26583287
227	0x3d6c3204	0.057664886
228	0x3e003455	0.12519963
229	0x3e256a27	0.16153775
230	0xbcf3a165	-0.029740045
231	0x3e117a07	0.14206706
232	0xbec7fcdc	-0.39060104
233	0x3d8d79c2	0.06907989
234	0x3d605bbf	0.054774996
235	0xbdf75ba1	-0.12078024
236	0xbd3416aa	-0.043966927
237	0xbcca34a4	-0.024683304
238	0x3c237c17	0.009978316
239	0xbdd7cd34	-0.10537186
240	0xbdbbd2c9	-0.091710635
241	0xbd5671db	-0.052354675
242	0x3d766f20	0.06016457
243	0x3e2d0519	0.16896476
244	0xbdaf6bd4	-0.085654885
245	0xbc9032c2	-0.017602328
246	0x3dec42af	0.115361564
247	0x3daf1725	0.08549336
248	0x3d241b07	0.040064838
249	0x3e1770f6	0.14789185
250	0xbdef2912	-0.116777554
251	0x3d43f3ce	0.047839932
252	0x3c06e7a0	0.008233935
253	0x3d84b489	0.06479747
254	0xbd946f62	-0.07247807
255	0x3e115d1e	0.14195678

u_model.model.4.bias f4 [42]
0	0x3d3a8d6e	0.045545034
1	0x3e178b29	0.14799179
2	0x3d10bf9c	0.035338983
3	0xbe157f6c	-0.14599389
4	0xbdf1dd14	-0.118097454
5	0x3ca9fb65	0.020749757
6	0x3deadc4a	0.11467798
7	0x3c673b65	0.014113282
8	0x3dea0e1a	0.11428471
9	0xbdf45365	-0.11929969
10	0xbe181462	-0.14851525
11	0x3e149048	0.14508164
12	0xbde17f3e	-0.11010598
13	0xbe014732	-0.12624815
14	0x3ddefad2	0.10887684
15	0xbd62dee1	-0.055388335
16	0x3db5ca65	0.08876494
17	0x3dea6106	0.11444287
18	0x3d9ddf32	0.07708587
19	0x3db2fdb0	0.08739793
20	0x3cdd0223	0.026978558
21	0x3d8a10fb	0.0674152
22	0x3e02da09	0.12778486
23	0x3c016abc	0.007898983
24	0xbdfe48b5	-0.124162115
25	0xba87b09a	-0.0010352314
26	0x3d8c754a	0.068583086
27	0x3c919f2d	0.017776096
28	0x3dba7cf6	0.09105866
29	0xbdfce03a	-0.12347455
30	0xbd345151	-0.044022862
31	0xb73a0b4e	-1.1089096e-05
32	0xbe046fa2	-0.1293321
33	0x3c147bba	0.009062702
34	0x3e2e0ad8	0.16996324
35	0x3c49ff6e	0.012328966
36	0x3dbab141	0.0911584
37	0x3df3526f	0.11880957
38	0x3db2ce1f	0.08730721
39	0xbd369b8e	-0.044581942
40	0x3bb23fe2	0.0054397443
41	0xbcde1fa9	-0.027114706

u_model.model.6.weight f4 [42, 42]
0	0x3e41f2fe	0.1894035
1	0xbd8844da	-0.066537574
2	0x3de058f1	0.10954464
3	0xbe016774	-0.1263712
4	0x3e4587a6	0.19290027
5	0x3cb15601	0.021647455
6	0x3dd218c4	0.1025863
7	0xbdd40ff3	-0.103546046
8	0xbd7d4173	-0.061829995
9	0xbd5325e6	-0.051549815
10	0x3e563ba4	0.20921189
11	0xb9e36bce	-0.00043377135
12	0x3d9f0a2d	0.07765613
13	0x3de14f1b	0.11001416
14	0x3e37d001	0.17950441
15	0x3ce63798	0.028102681
16	0xbca0b432	-0.019617174
17	0x3e80b2e0	0.2513647
18	0x3d28fdee	0.04125779
19	0x3e07349f	0.13203667
20	0xbb35575f	-0.0027670485
21	0xbda1195d	-0.07866166
22	0xb92212fc	-0.00015456596
23	0x3e434186	0.19067964
24	0x3e81852b	0.25296912
25	0xbdd6d13c	-0.10489127
26	0x3d653c26	0.055965565
27	0xbda31b2f	-0.07964169
28	0xbdbf8bdd	-0.09352849
29	0x3dd420cf	0.1035782
30	0x3e2e7aa3	0.1703897
31	0xbdffb0b8	-0.12484878
32	0xbd4fb150	-0.050706208
33	0x3e3a95f0	0.18221259
34	0xbe5a6875	-0.2132891
35	0x3dca8ab9	0.098897405
36	0x3d7649c6	0.06012895
37	0x3dcebd9a	0.100947574
38	0xbe0dbdec	-0.1384198
39	0x3d3a35a1	0.0454613
40	0x3d72122f	0.059099372
41	0xbe1033ab	-0.1408221
42	0x3e2534ed	0.16133471
43	0x3e6dc38e	0.2321913
44	0xbc201948	-0.0097716525
45	0xbd77a609	-0.060461078
46	0xbe036369	-0.1283089
47	0xbd8a5aae	-0.06755577
48	0xbddfce4f	-0.10928022
49	0xbd95d038	-0.07315105
50	0xbddc4c3b	-0.10756727
51	0x3de746c2	0.11292793
52	0x3c22a7ae	0.009927673
53	0x3a847415	0.0010105396
54	0x3e1f347b	0.15547363
55	0x3d328e93	0.043593
56	0xbe383cd5	-0.17991956
57	0xbe0fecf9	-0.14055242
58	0x3d2c7063	0.042099368
59	0x3e83d64d	0.25749436
60	0x3dc75b9e	0.097342715
61	0xbe019cbf	-0.1265745
62	0xbdaf4736	-0.08558504
63	0x3e13acee	0.14421436
64	0xbcff1fbd	-0.031143064
65	0xbe35a51f	-0.1773877
66	0x3c82d5ff	0.015971182
67	0xbd925d28	-0.071466744
68	0xbe0d122d	-0.13776465
69	0xbdc8c567	-0.098032765
70	0xbd83e0a2	-0.0643933
71	0xbddd72e8	-0.10812932
72	0xbe18521a	-0.1487507
73	0xbdde423f	-0.10852479
74	0x3c606f70	0.013698444
75	0xbd86b9fa	-0.06578441
76	0x3da460b5	0.08026258
77	0xbe1f4faf	-0.1555774
78	0x3d571427	0.052509453
79	0xbdf5c927	-0.120012574
80	0x3e1790dc	0.14801353
81	0xbe16688f	-0.14688323
82	0xbdc4d8c8	-0.0961166
83	0xbd97475e	-0.07386659
84	0x3cde4a66	0.027135085
85	0xbc9d08e3	-0.019169277
86	0xbd85cff2	-0.06533803
87	0x3e44a1c7	0.19202338
88	0x3e112b5b	0.14176695
89	0xbd92c49f	-0.07166409
90	0x3e3747dc	0.17898506
91	0x3d106d04	0.035260215
92	0x3d04b385	0.032397766
93	0x3d1012ae	0.035174064
94	0xbe14eab9	-0.14542665
95	0x3d515e8f	0.05111557
96	0x3d85aa4f	0.065266244
97	0xbd30106e	-0.04298442
98	0x3dfcfda6	0.12353067
99	0x3cdf201e	0.027236994
100	0xbc4f0904	-0.012636427
101	0xbdc7f6fb	-0.09763905
102	0xbd9bf196	-0.07614438
103	0x3e1d8f5f	0.15386723
104	0xbb911cd2	-0.0044284845
105	0xbc4d31b0	-0.012524053
106	0xbda58464	-0.08081892
107	0x3e52c8dc	0.20584434
108	0xbe3ee007	-0.18640147
109	0x3d4ee028	0.05050674
110	0xbc1cfa23	-0.009581122
111	0xbce17852	-0.027523194
112	0xbdbf1ee8	-0.09332067
113	0x3e0d5eef	0.13805746
114	0x3b8e6106	0.004345062
115	0xbd774d75	-0.060376603
116	0xbd894d0b	-0.06704148
117	0x3ccd1b55	0.025037447
118	0xbdebf508	-0.115213454
119	0x3e39ed4e	0.18156931
120	0x3dd1299c	0.102130145
121	0x3b86987d	0.0041075335
122	0x3dbe2e61	0.0928619
123	0xbd05a222	-0.032625325
124	0x3d85681e	0.065139994
125	0x3ce56620	0.028002799
126	0xbc2508e8	-0.010072924
127	0x3d4bdd61	0.04977167
128	0xbdc65c3e	-0.096855626
129	0xbd6081a4	-0.054811135
130	0xbda1e766	-0.07905464
131	0x3d0fb3e2	0.03508366
132	0x3e3aefc9	0.18255533
133	0xbd02eab6	-0.03196212
134	0x3bb7e8ce	0.0056124693
135	0x3de4d64e	0.11173688
136	0x3e419128	0.18903029
137	0xbb3fa74d	-0.0029244006
138	0x3de73a51	0.1129042
139	0x3d9faf23	0.077970766
140	0x3db8dcd3	0.09026494
141	0x3df62b8f	0.12020027
142	0xbe156dbc	-0.14592642
143	0x3c478c01	0.012179376
144	0xbd990389	-0.074713774
145	0xbd5f76dd	-0.054556716
146	0x3e0d0a09	0.1377336
147	0x3e2e6970	0.17032409
148	0xbe26c957	-0.16287743
149	0x3ddc14d0	0.10746157
150	0x3d0f22d9	0.034945343
151	0x3dbe9126	0.093050286
152	0xbd6be44a	-0.05759076
153	0xbe15a237	-0.14612661
154	0x3e2a56dc	0.16634697
155	0xbd9c95c3	-0.07645752
156	0x3db82956	0.08992259
157	0xbd53dc2c	-0.051723644
158	0x3d9b5e34	0.07586327
159	0x3e57c6b2	0.2107189
160	0xbd3450e2	-0.04402245
161	0xbe243b67	-0.16038285
162	0x3e140fe8	0.14459193
163	0xbdf6496a	-0.12025721
164	0x3de4af7f	0.11166286
165	0x3e793c63	0.24339442
166	0xbdd9dc4b	-0.10637721
167	0x3d41fab2	0.047358222
168	0x3e0b2049	0.13586535
169	0xbc89ec74	-0.016836382
170	0xbe263895	-0.16232522
171	0x3e08d79a	0.13363495
172	0x3d651b0d	0.055934
173	0xbe820ecd	-0.25401917
174	0xbe762b44	-0.24039942
175	0xbaf391b8	-0.0018582856
176	0xbc31f13e	-0.010860739
177	0x3e51546f	0.20442365
178	0xbe361ed2	-0.17785195
179	0xbe2e2232	-0.17005232
180	0x3d912d8e	0.07088767
181	0xbe1a8875	-0.15091117
182	0xbda4536b	-0.08023723
183	0x3dd5587f	0.1041727
184	0x3d3c3c29	0.04595581
185	0x3d9e3807	0.0772553
186	0xbe085a46	-0.13315687
187	0xbe2e9fad	-0.17053099
188	0x3d54570d	0.05184083
189	0xbd0842dd	-0.03326689
190	0x3dc7a4d3	0.097482346
191	0xbe34ace0	-0.17644072
192	0xbda337a3	-0.07969596
193	0xbd085085	-0.033279914
194	0xbe93907b	-0.28821167
195	0x3e1589dc	0.1460337
196	0x3d9f3884	0.077744514
197	0xbddcf252	-0.107884064
198	0xbd727c23	-0.059200417
199	0x3da0f339	0.07858891
200	0xbd213f45	-0.03936698
201	0xbdb666a2	-0.089062944
202	0xbdec306b	-0.115326725
203	0xbe088998	-0.13333738
204	0x3d4e2932	0.050332256
205	0x3aa4167c	0.0012518908
206	0x3d4b8c1b	0.04969416
207	0x3dabf63d	0.083965756
208	0xbd03423b	-0.032045584
209	0x3d66d7ba	0.056358077
210	0x3c67f460	0.014157385
211	0x3d66460b	0.056219142
212	0x3d3343c0	0.043765783
213	0x3dde687b	0.10859772
214	0xbe6581e9	-0.22412838
215	0xbdd60446	-0.10450034
216	0xbc2c8392	-0.010529416
217	0x3c8fc886	0.017551672
218	0xbd8d505b	-0.06900092
219	0x3dfd1417	0.123573475
220	0xbeb9e3a3	-0.36306486
221	0xbe6d6deb	-0.23186462
222	0x3db7c0dc	0.08972332
223	0x3d4902c6	0.04907491
224	0xbe48fe72	-0.19628313
225	0xbd8563fb	-0.065132104
226	0xbd6654fa	-0.056233384
227	0xbe5dec28	-0.21672118
228	0xbe9e9c53	-0.3097864
229	0xbe44a626	-0.19204006
230	0x3da0ca53	0.0785109
231	0x3d1239db	0.035699707
232	0x3df9aeb7	0.12191527
233	0x3d361860	0.04445684
234	0x3db69a5c	0.089161605
235	0x3e156f63	0.14593272
236	0xbe4f9a69	-0.20273747
237	0x3e33ef87	0.17571841
238	0xbca48583	-0.020083195
239	0x3d74babf	0.059748407
240	0xbdcbe685	-0.099560775
241	0xbe0aafa3	-0.13543563
242	0x3b5db5d1	0.0033830295
243	0xbdb0c4b0	-0.08631265
244	0xbe44622d	-0.19178076
245	0xbd8fddb8	-0.07024711
246	0xbe08bad2	-0.13352516
247	0x3de3e98c	0.1112853
248	0x3e28eb8f	0.16496108
249	0xbe2aa1e9	-0.16663326
250	0x3cb307fc	0.021854393
251	0x3dddcb85	0.10829834
252	0x3da319db	0.07963916
253	0x3d83ee52	0.0644194
254	0xbe18ffe9	-0.14941372
255	0x3d62286b	0.055214327

u_model.model.6.bias f4 [42]
0	0x3d71f318	0.059069723
1	0x3e5a5d04	0.21324545
2	0xbe4a271b	-0.1974148
3	0x3cf6f000	0.030143738
4	0x3c8f3b2c	0.01748427
5	0xbd3c1a43	-0.045923483
6	0x3d10d830	0.035362422
7	0x3ae84439	0.0017720527
8	0x3e26f625	0.16304834
9	0xbdc4f94c	-0.09617862
10	0xbe0f1a73	-0.13974933
11	0xbd45fa8d	-0.048334647
12	0x3cbaa826	0.022785258
13	0xbdae0fe9	-0.08499128
14	0xbcf8480e	-0.030307796
15	0x3dc77a9a	0.09740181
16	0x3ca204af	0.019777624
17	0x3d566166	0.05233898
18	0x3d877125	0.066133775
19	0xbc09c6a4	-0.008409176
20	0x3d6b6e21	0.057478074
21	0x3c43b330	0.011944577
22	0xbd391b57	-0.04519209
23	0x3d69686e	0.056984358
24	0x3dfcc5ab	0.1234239
25	0x3ddbfd0a	0.10741623
26	0x3dba8358	0.09107083
27	0x3b8db83f	0.0043249424
28	0x3d8a25d9	0.067455
29	0x3da8020e	0.08203517
30	0xbd2db4de	-0.042408817
31	0xbc3f0d97	-0.011660955
32	0x3d305f87	0.043059852
33	0x3d7a56bd	0.061117876
34	0xbe779a3a	-0.24179927
35	0x3dc72a7b	0.097248994
36	0xbe27d97d	-0.16391559
37	0xbcbb4857	-0.022861643
38	0xbde7a9a3	-0.113116525
39	0xbd9766ec	-0.07392678
40	0x3c62bf8d	0.013839615
41	0xbe47d333	-0.1951416

u_model.model.8.weight f4 [42, 42]
0	0xbdea27af	-0.1143335
1	0x3d49abd1	0.049236123
2	0xbe2c4cba	-0.16826144
3	0xbdc45cc0	-0.09588003
4	0x3e036c56	0.12834296
5	0xbe16583d	-0.14682098
6	0x3ba93654	0.005163947
7	0xbe24713a	-0.16058818
8	0x3e21bbb8	0.15794265
9	0xbe0f58ce	-0.1399872
10	0xbd842b47	-0.06453567
11	0x3c899b70	0.016797751
12	0xbdc1e35d	-0.09467194
13	0x3d280f42	0.041030176
14	0x3dc2d994	0.09514156
15	0xbdb05b2b	-0.08611139
16	0xbd534644	-0.051580682
17	0x3dc5dc3a	0.096611455
18	0x3df0f168	0.117647946
19	0x3e2200c6	0.15820608
20	0xbd31b02e	-0.04338091
21	0x3d9dd17f	0.07705974
22	0xbddd3279	-0.108006425
23	0x3cc03592	0.023463044
24	0xbe18a681	-0.14907266
25	0xbc1ff52a	-0.0097630415
26	0xbd463d95	-0.048398573
27	0xbdaa0048	-0.08300835
28	0xbe0c819c	-0.13721317
29	0x3b8eb717	0.004355322
30	0x3e14bc02	0.14524844
31	0xbd02b07a	-0.031906582
32	0xbe04b27c	-0.12958711
33	0xbd5a3b9c	-0.053279504
34	0xbe11665b	-0.14199202
35	0xbe0703ae	-0.13184997
36	0xbe0e30ad	-0.13885756
37	0x3dc63295	0.096776165
38	0xbcd6eb28	-0.026235178
39	0xbd279e9d	-0.04092275
40	0xbd496fa6	-0.049178742
41	0xbde4706c	-0.11154255
42	0xbe4d1385	-0.20026977
43	0xbd270367	-0.04077473
44	0x3ddc6230	0.10760915
45	0xbd3333b8	-0.043750495
46	0xbdc8220c	-0.09772119
47	0xbca831f5	-0.020531634
48	0x3c4ded89	0.01256884
49	0xbc17ca23	-0.009264502
50	0x3bbab299	0.00569756
51	0xbdb2577e	-0.08708094
52	0x3e08cb70	0.13358855
53	0x3d45d114	0.048295096
54	0x3e0c8e3d	0.13726135
55	0x3e1fe6f2	0.15615442
56	0x3e0d1bc5	0.13780124
57	0x3e14b154	0.1452077
58	0x3d4afbba	0.04955647
59	0x3da0b2ed	0.078466274
60	0xbda86f5a	-0.082243636
61	0xbd1b54e7	-0.037922766
62	0x3d07bbb0	0.033137977
63	0x3db04816	0.08607499
64	0x3d57cadf	0.052683707
65	0xbde11378	-0.109900415
66	0x3df10880	0.11769199
67	0xbde89f41	-0.113585
68	0xbe295912	-0.16537884
69	0xbda5a85d	-0.08088753
70	0xbcb58199	-0.022156524
71	0xbcd98d64	-0.026556678
72	0xbdc447d4	-0.09584013
73	0xbb09c4bd	-0.0021021806
74	0xbe3f9050	-0.18707395
75	0xbd84b3c7	-0.06479602
76	0xbc908b25	-0.017644474
77	0x3e1a7108	0.1508218
78	0xbdf09b0b	-0.11748322
79	0x3c662886	0.0140477475
80	0x3d86fb67	0.0659092
81	0xbc469bd5	-0.012122114
82	0xbd7c5312	-0.06160266
83	0xbd3e8ac4	-0.046519056
84	0xbe56b8ef	-0.20968984
85	0xbd770477	-0.060306992
86	0x3d55a7f2	0.05216212
87	0xbe153856	-0.14572272
88	0x3c80a058	0.015701458
89	0x3d98a757	0.074537925
90	0x3db90001	0.09033204
91	0xbd066fcc	-0.03282146
92	0xbd83bdf7	-0.06432717
93	0xbdd22a98	-0.1026203
94	0x3cb983b4	0.022645809
95	0xbde4e847	-0.11177116
96	0xbd4d0a7f	-0.050058838
97	0x3dfeb8a6	0.12437563
98	0xbddd2b0c	-0.10799226
99	0x3bfb1bb4	0.0076632146
100	0x3e48ee6e	0.19622204
101	0x3d87deb7	0.06634276
102	0x3d0bb600	0.034109116
103	0x3dc9ac4d	0.09847317
104	0x3dfed5ae	0.124431
105	0xbe0992b1	-0.13434865
106	0xbda04123	-0.07824924
107	0xbd9ab62b	-0.07554277
108	0x3d0b41e5	0.03399839
109	0xbe4a9167	-0.19782029
110	0xbe3296f4	-0.17440397
111	0xbdf5799f	-0.11986088
112	0x3da3a7f8	0.07991022
113	0xbe4a30b9	-0.19745149
114	0x3d32bf52	0.04363949
115	0x3d5f8b82	0.054576404
116	0xbd97f730	-0.07420194
117	0x3c5bf86b	0.013425927
118	0xbd05809c	-0.032593355
119	0xbe0fed55	-0.14055379
120	0xbde37ee7	-0.11108189
121	0x3d69c5d8	0.057073444
122	0x3c84097a	0.0161178
123	0x3dc9b28f	0.098485105
124	0xbdd037ef	-0.101669185
125	0x3de746f8	0.11292833
126	0xbeb38135	-0.35059515
127	0xbd2ab3dc	-0.041675434
128	0x3e45aa63	0.19303279
129	0xbd88aeb9	-0.06673951
130	0x3e04a8b8	0.12954986
131	0xbd52b5e4	-0.051442996
132	0xbd2a6da0	-0.041608453
133	0x3e7431b9	0.23847093
134	0x3d09909e	0.033585183
135	0x3ddf0223	0.108890794
136	0x3af26bd5	0.0018495271
137	0xbdc878db	-0.09788676
138	0x3e40d70b	0.18832032
139	0x3dee3fe8	0.11633283
140	0x3e3195b4	0.17342263
141	0x3deb4bb9	0.11489052
142	0x3e71196e	0.23544857
143	0x3e765b63	0.24058299
144	0xbe2a67e9	-0.16641201
145	0x3dbaaef4	0.09115401
146	0xbe345059	-0.17608775
147	0xbe02cebd	-0.12774177
148	0x3e4884b0	0.19581866
149	0x3da15b6b	0.07878765
150	0x3d821b1b	0.06352826
151	0x3c9d1081	0.019172909
152	0x3d8fb4ca	0.07016905
153	0xbe91dfcc	-0.28491056
154	0x3e387cbd	0.18016334
155	0xbde0a185	-0.109683074
156	0xbe45be83	-0.19310956
157	0x3dfd76dc	0.12376186
158	0xbdaf6ffe	-0.08566283
159	0xbdbdd4df	-0.092691176
160	0x3dc58f26	0.09646444
161	0xbdce4110	-0.100710034
162	0xbd5510a9	-0.05201784
163	0x3e91d546	0.28483027
164	0xbe3f9dc2	-0.18712524
165	0xbd784268	-0.060610205
166	0xbe034cb2	-0.12822226
167	0xbc4f4d36	-0.012652686
168	0xbdcca244	-0.09991887
169	0xbe31237c	-0.17298692
170	0x3e1f1339	0.15534677
171	0xbda333fb	-0.07968899
172	0xbe10d34a	-0.141431
173	0xbd82431d	-0.06360457
174	0x3e051ca3	0.12999205
175	0x3d159733	0.036521148
176	0x3d3d0cf0	0.046154916
177	0xbcfdf9f9	-0.031002985
178	0xbbd7710a	-0.0065747546
179	0x3d6e55c0	0.058187246
180	0xbd9cffa1	-0.07665945
181	0xbe0dab95	-0.13834985
182	0xbe2ae694	-0.16689521
183	0x3dd04a8a	0.10170467
184	0xbda3922c	-0.079868644
185	0xbd6925a9	-0.05692068
186	0xbd3755bf	-0.04475951
187	0xbe265a60	-0.16245413
188	0x3dc494c4	0.09598687
189	0x3dfdcb1f	0.12392258
190	0xbc43ef5e	-0.011958925
191	0x3d23658c	0.039891765
192	0xbc2d06c5	-0.010560696
193	0xbcd0900e	-0.025459316
194	0xbe282a71	-0.1642244
195	0xbaf02786	-0.0018322326
196	0x3e1b7f98	0.15185392
197	0x3d45e85b	0.048317295
198	0x3cbb0217	0.022828145
199	0x3e31d3d9	0.1736597
200	0xbc934f90	-0.017982274
201	0xbd36bd9b	-0.044614416
202	0xbded97c2	-0.11601211
203	0xbd746b6f	-0.05967277
204	0x3de6bb08	0.11266142
205	0x3de10fe2	0.109893575
206	0xbdcb58d9	-0.09929056
207	0x3d184061	0.03717077
208	0xbe2049e5	-0.15653189
209	0x3da85826	0.08219938
210	0xbda4e3f4	-0.08051291
211	0x3ca3e511	0.020006688
212	0xbd7043ca	-0.0586584
213	0xbd92add9	-0.07162065
214	0x3d07f38f	0.03319126
215	0xbb8416fe	-0.004031061
216	0xbc797ce8	-0.015227534
217	0x3e30b683	0.17257123
218	0xbe682417	-0.22670017
219	0xbcd87012	-0.026420627
220	0xbd125c1e	-0.03573238
221	0xbdb8f1df	-0.09030508
222	0x3da09c3d	0.078423
223	0x3df97223	0.12179973
224	0x3e0b5ec5	0.1361037
225	0xbd0e4681	-0.034735207
226	0xbd85a7f0	-0.06526172
227	0x3dc34348	0.09534317
228	0xbd4b4c48	-0.049633294
229	0x3d84ec71	0.0649041
230	0x3de6594e	0.11247502
231	0xbe10b62f	-0.14131998
232	0x3e3bf84a	0.18356434
233	0xbe06640d	-0.13124104
234	0x3dd15c28	0.102226555
235	0xbe0e0e53	-0.13872652
236	0xbe0d869b	-0.13820879
237	0xbe433045	-0.19061382
238	0xbd21f4f5	-0.03954025
239	0xbd8ecf76	-0.06973164
240	0xbe016e95	-0.1263984
241	0x3e080f76	0.13287148
242	0xbd3c01f7	-0.04590031
243	0x3e10c429	0.14137329
244	0x3dd130f6	0.10214417
245	0xbdff0cb2	-0.12453593
246	0xbdca7282	-0.09885122
247	0x3d299366	0.041400336
248	0x3d911c6b	0.070854984
249	0x3df64e32	0.12026633
250	0xbe2b9b5b	-0.16758482
251	0xbdce61ce	-0.100772485
252	0x3d406ee5	0.046980757
253	0x3c334202	0.01094103
254	0xbc8b21ee	-0.016983952
255	0x3e064dd7	0.13115631

u_model.model.8.bias f4 [42]
0	0xbd92556d	-0.071452
1	0x3e21a6e3	0.15786318
2	0x3bf7842c	0.007553598
3	0x3d27f503	0.041005146
4	0x3dbfeb80	0.0937109
5	0xbd76e740	-0.06027913
6	0xbd9c1ba2	-0.07622458
7	0xbca6f82b	-0.020382008
8	0x3e3700b1	0.17871358
9	0xbe1619d9	-0.14658298
10	0x3e454074	0.19262868
11	0xbd74cd81	-0.059766296
12	0x3e3df6b4	0.18551141
13	0x3d6953e7	0.05696478
14	0x3c861ee4	0.016372152
15	0x3d4bdb55	0.04976972
16	0x3dc39a0d	0.09550867
17	0xbe052468	-0.13002169
18	0x3cb95f1c	0.02262836
19	0xbe0d17b7	-0.13778578
20	0xbd392844	-0.045204416
21	0x3e1e4d90	0.15459275
22	0xbdd276e7	-0.10276585
23	0xbc9b0fc0	-0.018928409
24	0xbe0daa15	-0.13834412
25	0xbcb29c3b	-0.021803012
26	0x3e369100	0.1782875
27	0xbc4ddd55	-0.012564977
28	0xbc74d4e1	-0.014943332
29	0x3c5a7742	0.013334097
30	0xbe364a31	-0.1780174
31	0x3d3aee23	0.04563726
32	0x3c0abd57	0.008467994
33	0xbe2ccca1	-0.16874935
34	0xbdd57adf	-0.104238264
35	0xbca15236	-0.019692522
36	0x3da4303b	0.08017012
37	0x3d7a0161	0.06103647
38	0x3e081c3e	0.13292024
39	0xbd9a128b	-0.07523068
40	0xbdc11a2e	-0.094288215
41	0xbdadeb7d	-0.084921815

u_model.model.10.weight f4 [42, 42]
0	0xbda091ef	-0.078403346
1	0x3dbae208	0.09125143
2	0xbd8e57d4	-0.06950346
3	0xbdf966af	-0.121777885
4	0x3ddc22bd	0.10748813
5	0x3d81a8bf	0.06331014
6	0xbd291d0c	-0.041287467
7	0x3cf94f37	0.03043328
8	0xbd43160e	-0.047628455
9	0xbdbc2f94	-0.09188762
10	0xbdc8550f	-0.09781849
11	0x3e1e0ce8	0.15434611
12	0xbe000cbc	-0.12504858
13	0xbdded31f	-0.10880112
14	0x3e0570dc	0.13031334
15	0xbdf0df2b	-0.11761316
16	0xbe3957f3	-0.18099956
17	0x3dc61353	0.096716546
18	0x3d1e1289	0.038591895
19	0x3d49ad27	0.049237397
20	0x3d9bf17b	0.07614418
21	0x3d1732da	0.03691373
22	0xbdd0176e	-0.10160719
23	0x3d885416	0.06656663
24	0xbdbc9565	-0.09208182
25	0x3d24a66d	0.04019778
26	0xbde5835e	-0.11206697
27	0x3e092a95	0.1339515
28	0xbd5e454d	-0.05426531
29	0x3cfa4ea8	0.030555084
30	0xbdedfcfd	-0.11620519
31	0xbe365404	-0.17805487
32	0xbdcbdb3d	-0.09953926
33	0xbdaebf40	-0.08532572
34	0xbe183ccb	-0.1486694
35	0xbda74aea	-0.081685856
36	0xbd1fe90e	-0.039040618
37	0x3e1a4eaa	0.1506907
38	0x3e193b3c	0.14964002
39	0xbde4c20d	-0.11169825
40	0x3cc85a02	0.024456982
41	0x3e03490c	0.12820834
42	0xbe3e9517	-0.18611561
43	0xbdcfac10	-0.1014024
44	0xbdb11195	-0.08645932
45	0x3dbd775f	0.09251284
46	0xbceefd01	-0.029173376
47	0x3b676d69	0.0035313016
48	0x3ca8e0c9	0.020614998
49	0xbcde3004	-0.027122505
50	0xbe07c7db	-0.13259833
51	0xbe0e8761	-0.1391883
52	0x3ce09368	0.027414039
53	0x3d8b8eeb	0.06814369
54	0xbe217fb3	-0.1577137
55	0xbd7b36f4	-0.061331704
56	0xbd43dddb	-0.047819
57	0x3ddd5917	0.10808008
58	0x3ce91d73	0.028456425
59	0x3da2f653	0.07957139
60	0xbbed5052	-0.007242241
61	0xbe16e991	-0.14737536
62	0x3dd3d899	0.10344047
63	0x3e07a4dd	0.13246484
64	0x3d4183dd	0.047244895
65	0x3d5d8bfe	0.054088585
66	0x3d8b3a06	0.067981765
67	0xbe2df997	-0.16989742
68	0x3c9ae572	0.018908236
69	0xbc0a3cf6	-0.008437386
70	0xbe218a8a	-0.15775505
71	0xbdb63de4	-0.088985234
72	0xbe27077e	-0.16311452
73	0x3bf0e028	0.0073509403
74	0x3d2caa34	0.042154506
75	0x3ccb4916	0.024815124
76	0xbdd859a8	-0.105639756
77	0xbb9a00e0	-0.0046998113
78	0xbddfd8d4	-0.109300286
79	0x3e148e72	0.14507464
80	0xbe05d77c	-0.13070482
81	0xbaeb4011	-0.001794817
82	0x3d186184	0.037202373
83	0xbd84495e	-0.06459306
84	0xbd5694d8	-0.052388042
85	0xbd930a09	-0.071796484
86	0xbda1791e	-0.078844294
87	0xbe7d2f85	-0.24725159
88	0x3d0f1b48	0.034938127
89	0x3c62e6d1	0.013848976
90	0x3d3c9ae3	0.04604615
91	0xbe0bfae1	-0.13669921
92	0xbdfec7ed	-0.124404766
93	0x3ddc6c39	0.10762829
94	0xbcb1f8b9	-0.021725046
95	0x3e1dbadc	0.15403312
96	0xbddfc4eb	-0.10926231
97	0xbdc421b7	-0.09576743
98	0x3e32b3ad	0.17451353
99	0xbe0c3339	-0.13691415
100	0xbcaefbb8	-0.021360263
101	0x3e07463a	0.13210383
102	0x3dc4d7de	0.09611486
103	0x3e1bbdfc	0.15209192
104	0xbd86cff4	-0.06582633
105	0x3d12048b	0.035648864
106	0x3d4e6c03	0.050395977
107	0xbe47d618	-0.19515264
108	0xbd5a6856	-0.05332216
109	0xbe0f3922	-0.13986638
110	0xbe8111f6	-0.25209016
111	0xbe82906e	-0.25500816
112	0x3d08c95e	0.033395164
113	0x3e2e7e5b	0.17040388
114	0x3e225869	0.15854038
115	0x3d0a76f4	0.03380485
116	0xbd679f42	-0.056548364
117	0xbde6042d	-0.11231265
118	0x3de811ce	0.11331521
119	0x3c4a11be	0.012333332
120	0xbd91b5de	-0.071147665
121	0xbdf842b9	-0.12122101
122	0x3da0d1cf	0.07852518
123	0xbde86ad2	-0.11348499
124	0x3e1ca7cb	0.15298383
125	0x3e1a803f	0.15087985
126	0x3d89b656	0.06724231
127	0xbe042104	-0.1290322
128	0xbe298e1f	-0.16558121
129	0xbe1ea98e	-0.15494367
130	0x3db5b644	0.08872655
131	0xbe228d04	-0.15874106
132	0x3c36fcf7	0.01116871
133	0xbca896e8	-0.02057977
134	0xbdef8eaf	-0.116971366
135	0xbd257c27	-0.040401604
136	0x3de895ff	0.113567345
137	0x3dfb0423	0.122566484
138	0xbd2d55ef	-0.04231828
139	0x3e1507a1	0.14553691
140	0xbd5561a2	-0.052095063
141	0xbd2f26b6	-0.042761527
142	0x3d6b80ab	0.057495754
143	0xbd307531	-0.043080512
144	0x3cb2416d	0.021759713
145	0xbe19eecc	-0.150325
146	0xbe2c0cf7	-0.1680182
147	0xbd4a1adc	-0.04934202
148	0xbddadb80	-0.106863976
149	0x3e02da41	0.1277857
150	0x3d978d30	0.07399976
151	0xbd125cac	-0.03573291
152	0xbd842f27	-0.06454306
153	0xbe2b32d7	-0.16718613
154	0x3db5e734	0.08881989
155	0x3dd78832	0.10524024
156	0xbe231de1	-0.15929367
157	0xbd5ff065	-0.054672617
158	0x3d672611	0.056432787
159	0x3df602a7	0.12012225
160	0x3d92d200	0.071689606
161	0xb9228330	-0.00015498395
162	0xbda01928	-0.07817298
163	0xbd72a896	-0.059242807
164	0xbce262d0	-0.027635008
165	0xbe3053f7	-0.1721953
166	0xbd178f4d	-0.037001897
167	0x3e0b6fe3	0.136169
168	0xbd8cf656	-0.06882922
169	0x3ddef7fe	0.108871445
170	0x3e00f779	0.12594403
171	0xbdf5b4d6	-0.11997382
172	0x3db58c47	0.088646464
173	0xbe0e2028	-0.13879454
174	0x3e0c0640	0.13674259
175	0xbe81d519	-0.25357893
176	0x3c11491e	0.00886753
177	0xbdfc3d39	-0.12316365
178	0x3e050d3b	0.12993328
179	0xbca61670	-0.02027437
180	0xbe18cda2	-0.14922193
181	0xbcfa4dd2	-0.030554686
182	0x3deb102a	0.114776924
183	0x3e0205bf	0.12697504
184	0xbd6900ab	-0.056885403
185	0x3d444545	0.047917623
186	0xbdc2ae06	-0.095058486
187	0x3e63a5ba	0.22231188
188	0xbdca0f44	-0.09866193
189	0xbb813882	-0.003943504
190	0xbe69726d	-0.22797556
191	0xbda54178	-0.08069128
192	0x3dd32cd8	0.10311288
193	0x3e0c6bd8	0.13713014
194	0x3e5b4e9e	0.21416709
195	0x3d0c5f2d	0.034270454
196	0xbe352d67	-0.17693101
197	0xbd1789c6	-0.036996625
198	0x3db19c56	0.08672397
199	0xbe33f107	-0.17572413
200	0xbe5e1de4	-0.2169109
201	0xbda6e7fe	-0.08149718
202	0xbd4fc38e	-0.050723605
203	0xbcad6efd	-0.021171087
204	0xbcdcb0f2	-0.026939843
205	0xbcc03704	-0.023463733
206	0x3d804f24	0.06265095
207	0x3d64f707	0.055899646
208	0x3db5956b	0.0886639
209	0xbd2c7ca0	-0.04211104
210	0x3e212e75	0.15740378
211	0xbdea892d	-0.114519455
212	0xbd882e33	-0.06649437
213	0x3d91b16a	0.07113917
214	0x3c67c3ac	0.014145773
215	0x3ce7d04f	0.028297571
216	0xbca6bfbb	-0.020355096
217	0xbe0bb4cb	-0.13643186
218	0xbe4f8b67	-0.20268022
219	0x3b6eb1e2	0.0036421944
220	0x3d3b1e6c	0.04568331
221	0x3e00c4db	0.12575094
222	0xbe00db43	-0.12583642
223	0xbdcf3646	-0.10117774
224	0x3d9ad682	0.07560445
225	0xbd91c7cd	-0.07118187
226	0x3e0cdeb4	0.1375683
227	0x3e17b445	0.14814861
228	0xbccfb796	-0.025356095
229	0x3e3357d0	0.17513967
230	0x3d57d27a	0.05269096
231	0xbcdd5080	-0.027015924
232	0xbdaa57f8	-0.0831756
233	0x3cebac89	0.028768795
234	0xbe09cd85	-0.13457306
235	0x3de72692	0.112866536
236	0xbe55af73	-0.2086771
237	0xbc0a4ca2	-0.008441122
238	0xbc97bc27	-0.018522335
239	0xbdd29faa	-0.1028436
240	0x3d6c4244	0.057680383
241	0x3d8e9b3b	0.069632016
242	0x3dc8c096	0.09802358
243	0x3d541d68	0.051785856
244	0xbde6b230	-0.11264455
245	0x3a8c9503	0.0010725561
246	0xbe07a553	-0.1324666
247	0xbe14054d	-0.14455147
248	0x3dfdd356	0.12393825
249	0x3db39cfe	0.08770178
250	0x3cb23aa4	0.021756478
251	0x3d16fb66	0.036860846
252	0x3e3241eb	0.17407958
253	0xbd78d20c	-0.06074719
254	0x3d8237e8	0.063583195
255	0xbe0f0254	-0.13965732

u_model.model.10.bias f4 [42]
0	0x3dcc595c	0.099779814
1	0x3d427756	0.04747709
2	0xbbf09aa5	-0.007342654
3	0xbc0d71d1	-0.008633093
4	0xbd3eb39a	-0.046558
5	0x3c6d297d	0.014475224
6	0x3dc30c75	0.0952386
7	0x3cb81c6b	0.022474488
8	0xbdb4bae7	-0.08824711
9	0xbd6a92f9	-0.05726907
10	0x3da79c54	0.08184114
11	0x3d603c69	0.05474511
12	0x3ca0025c	0.019532375
13	0x3dec0a27	0.11525374
14	0x3d938653	0.07203355
15	0xbd0700ae	-0.032959633
16	0xbd9b7046	-0.07589774
17	0xbdb52938	-0.088457525
18	0x3db04fb7	0.086089544
19	0x3c92b276	0.017907362
20	0x3da43ecb	0.08019789
21	0x3e05d167	0.13068162
22	0x3de58a93	0.112080716
23	0xbca2a592	-0.01985434
24	0x3e16aded	0.14714785
25	0x3d506197	0.05087432
26	0xbdea57b6	-0.11442511
27	0x3b9a1a39	0.004702833
28	0xbd7b73de	-0.061389796
29	0x3dc98e6f	0.0984162
30	0xbd532f33	-0.051558685
31	0xbc19d95d	-0.009390202
32	0x3dab6a41	0.08369876
33	0xbdfa3bf8	-0.122184694
34	0xbd0990cf	-0.033585366
35	0xbcbeaf20	-0.023276865
36	0x3db92425	0.09040097
37	0x3e1ddc31	0.15416028
38	0x3de2f396	0.110816166
39	0xbde74b10	-0.11293614
40	0x3d9fb418	0.07798022
41	0x3d2c52fe	0.042071335
