saved_models/1d_burgers/sa_rff_pinn.pt (torch, 76177 bytes, 42 tensors)

u_model.W f4 [20, 2]
0	0xbe31df0d	-0.17370243
1	0xbfe946db	-1.8224748
2	0x3f477a73	0.7792122
3	0xbf81c7b9	-1.0139076
4	0x3f622ef9	0.88352925
5	0x3f20ee36	0.6286348
6	0xbe81b3de	-0.2533254
7	0xc029fc5e	-2.6560283
8	0xbf44f21e	-0.7693194
9	0x3f64bb23	0.8934805
10	0x3eea6c55	0.45785776
11	0x3d79da38	0.060999125
12	0x3fc2affa	1.5209954
13	0x3f68fe58	0.910131
14	0x3e956481	0.2917824
15	0xbe783922	-0.24240544
16	0x3d62cd28	0.055371433
17	0xbffcbd3b	-1.9745249
18	0x3fc4957f	1.5358123
19	0x3f00d580	0.50325775
20	0x3f9e4388	1.2364359
21	0xbf36f3eb	-0.7146594
22	0x3b850133	0.004058981
23	0x3f012a23	0.5045492
24	0x3f42f7ff	0.7615966
25	0xbfdb1150	-1.7114658
26	0x3fa49aaa	1.28597
27	0xbf9b4952	-1.213175
28	0x3ea4a653	0.32158145
29	0xbf3d1b18	-0.73869467
30	0xbd71fc5c	-0.05907856
31	0xbf189fc4	-0.59618783
32	0x3cb584f0	0.022158116
33	0x3f7aad9f	0.97921175
34	0x3eb79c1c	0.3586129
35	0x3eec97db	0.46209607
36	0x3fa07423	1.2535442
37	0x3f3ba531	0.7329894
38	0x3ef86a39	0.4851854
39	0xbfccee7b	-1.6010278

u_model.b f4 [20]
0	0x40b4132f	5.6273417
1	0x3fad3690	1.3532276
2	0x40678d78	3.6180096
3	0x3fcaba83	1.5838169
4	0x3fbc738d	1.4722763
5	0x3f5dfb3e	0.8671149
6	0x407ec722	3.980904
7	0x3f17f66b	0.5936038
8	0x403e74f3	2.975888
9	0x40c7c807	6.2431674
10	0x40bb9a67	5.862598
11	0x3d926766	0.07148628
12	0x40ab7fd2	5.359353
13	0x40755348	3.833208
14	0x40b8a5e0	5.7702484
15	0x3ec11885	0.3771402
16	0x4011afed	2.2763627
17	0x3ffbb2ce	1.9663942
18	0x40bdfd54	5.937174
19	0x40b0b9f5	5.5227

u_model.model.0.weight f4 [42, 42]
0	0x3e4140ba	0.18872347
1	0x3b0f5db8	0.002187593
2	0xbd2b2c08	-0.04179004
3	0xbdd701b7	-0.10498374
4	0xbd9524c2	-0.072824016
5	0x3dd55868	0.10417253
6	0x3db83c17	0.08995836
7	0xbd7f6151	-0.062348668
8	0x3e071a98	0.13193738
9	0xbddd998e	-0.10820304
10	0x3d86f764	0.06590155
11	0x3e2a31bd	0.16620536
12	0xbd2cdfa9	-0.042205486
13	0x3c8b9b10	0.017041713
14	0xbe000bf3	-0.12504558
15	0x3c415cef	0.011801942
16	0xbd908542	-0.07056667
17	0xbdde7e99	-0.1086399
18	0xbd33258b	-0.043736976
19	0x3d8176c0	0.06321478
20	0x3bb1bcc5	0.0054241144
21	0xbe435d18	-0.19078481
22	0xbdc0a7f9	-0.09407038
23	0xbda97f24	-0.08276203
24	0x3dca00d5	0.0986344
25	0xbd74252a	-0.059605755
26	0x3d66cbfd	0.056346882
27	0x3e320ee6	0.17388496
28	0xbe415800	-0.18881226
29	0x3da15346	0.07877211
30	0x3e259e3a	0.1617364
31	0x3e4ce015	0.20007356
32	0x3ced63e5	0.028978297
33	0x3b95e265	0.0045741075
34	0xbe62fabb	-0.22165959
35	0x3dfb36f7	0.12266343
36	0xbdbbc56b	-0.09168514
37	0x3df6d1e1	0.1205175
38	0xbdddae40	-0.10824251
39	0x3d288b34	0.04114838
40	0x3d10a462	0.035313018
41	0x3d814a07	0.06312948
42	0xbe3606d1	-0.17776038
43	0x3d94e08f	0.07269394
44	0x3e0d5b22	0.13804296
45	0x3d023e96	0.031797968
46	0x3e1112fb	0.14167397
47	0x3ec85442	0.39126784
48	0x3cb47e58	0.022032902
49	0x3daaa4ed	0.08332238
50	0x3d37a1c7	0.044832017
51	0x3cde04d0	0.027101904
52	0xbe2d59a3	-0.16928725
53	0xbd9ab8dc	-0.075547904
54	0xbdf2856b	-0.11841854
55	0xbdc2358b	-0.09482869
56	0xbdddfc87	-0.108391814
57	0xbc549e39	-0.012977176
58	0x3ce50cd9	0.027960228
59	0x3b85ed15	0.0040871003
60	0x3c7605ca	0.015016029
61	0x3d860783	0.065444015
62	0xbd433d53	-0.047665905
63	0x3dec27be	0.11531018
64	0xbe96e1b9	-0.29469088
65	0xbdbcf66f	-0.09226691
66	0x3e0d83a5	0.1381975
67	0x3e2fa838	0.17154014
68	0x3d9217ef	0.07133471
69	0xbe2e87cc	-0.1704399
70	0x3e01a43f	0.12660311
71	0xbe0d6019	-0.1380619
72	0x3e2e39fa	0.17014304
73	0xbda35ebe	-0.07977055
74	0x3dbedb41	0.09319163
75	0xbdfd9bbb	-0.12383219
76	0xbe160165	-0.1464897
77	0xbde22bb7	-0.11043494
78	0xbe0c1e47	-0.13683425
79	0xbd08ccf4	-0.033398584
80	0x3cf0135d	0.029306108
81	0xbd3e3bb6	-0.046443664
82	0xbd07c7c8	-0.03314951
83	0xbd3bc1f8	-0.04583928
84	0x3e35529b	0.17707293
85	0xbd937547	-0.07200103
86	0x3cdc3cf2	0.02688453
87	0xbda58714	-0.08082405
88	0x3df34757	0.11878841
89	0xbe373d8c	-0.17894572
90	0xbd7c745c	-0.061634406
91	0xbd478b15	-0.048716623
92	0xbdb68b84	-0.08913329
93	0xbd9c36cb	-0.076276384
94	0x3e88a4d5	0.26688257
95	0xbcabaa32	-0.020955179
96	0x3cc22fe7	0.023704482
97	0xbe12df91	-0.14343096
98	0xbe20a862	-0.15689233
99	0xbceee0cd	-0.029159928
100	0xbd187e79	-0.03722999
101	0xbd1840a8	-0.037171036
102	0x3d8e4ad7	0.06947868
103	0xbd6261a7	-0.05526891
104	0xbdb38d03	-0.0876713
105	0xbdad1fb3	-0.08453312
106	0x3e262942	0.16226676
107	0x3d793d47	0.060849454
108	0xbdd5a6ac	-0.10432181
109	0xbe5ae077	-0.21374689
110	0xbe218904	-0.15774924
111	0x3de69fd2	0.11260952
112	0xbe556961	-0.2084098
113	0x3e12acbe	0.14323708
114	0x3d1ecb33	0.038768005
115	0x3e0c4a75	0.13700278
116	0xbd1ab3da	-0.037769176
117	0x3da3a09a	0.07989617
118	0xbe15f80f	-0.14645408
119	0xbcea4fe8	-0.028602555
120	0x3e34d340	0.1765871
121	0xbdb315a3	-0.08744361
122	0xbd9378db	-0.07200786
123	0x3c77d8c0	0.015127361
124	0x3d37c0aa	0.044861473
125	0xbbeb4de8	-0.007180918
126	0xbe09f075	-0.13470633
127	0x3bd47f57	0.0064849067
128	0x3dde6407	0.108589225
129	0xbde87db2	-0.113520995
130	0xbdfd75c2	-0.12375976
131	0xbe610675	-0.2197512
132	0x3c8e717e	0.017388102
133	0xbd3e04f3	-0.04639144
134	0x3d44720a	0.04796032
135	0x3d83b66b	0.06431278
136	0x3d7da8bc	0.061928496
137	0xbca7454e	-0.02041879
138	0xbd608891	-0.05481774
139	0xbd2cc0e6	-0.04217615
140	0xbd37960e	-0.044820838
141	0xbd51d773	-0.05123086
142	0xbd9b403d	-0.07580612
143	0xbdbcaeb1	-0.09213007
144	0xbe232520	-0.15932131
145	0xbe22767a	-0.15865508
146	0x3d421cb7	0.047390666
147	0xbc4f6f14	-0.01266076
148	0x3e53db25	0.20689066
149	0xbd03c5dd	-0.03217112
150	0x3d8c58af	0.068528526
151	0xbd6f4993	-0.058419775
152	0x3e3919dc	0.18076271
153	0x3d45c01d	0.048278917
154	0x3d6cb9cf	0.05779439
155	0x3d209dbc	0.039212927
156	0xbdbbafb0	-0.09164369
157	0xbda782fe	-0.08179282
158	0x3c8d1b6d	0.017224992
159	0xbd47cdfe	-0.048780434
160	0x3db9d6e7	0.090741925
161	0x3df0aa77	0.117512636
162	0x3e0052fb	0.12531655
163	0xbd40a8cc	-0.047035977
164	0xbd26d94c	-0.040734574
165	0x3e059b99	0.13047637
166	0xbdbf4174	-0.09338656
167	0x3d9ffd52	0.07811989
168	0x3d36b33d	0.04460453
169	0x3d96ebc7	0.0736919
170	0xbe0758fc	-0.13217539
171	0x3deb53f9	0.11490626
172	0xbc041d3b	-0.00806361
173	0x3eaa4b78	0.33260703
174	0xbe08dba1	-0.13365032
175	0xbdc2df9d	-0.09515307
176	0xbc941330	-0.018075556
177	0xbe36179a	-0.17782441
178	0x3d5b26d0	0.05350381
179	0xbe0d8264	-0.13819271
180	0x3dc6c701	0.09705926
181	0x3e01a7fe	0.1266174
182	0xbd952fb9	-0.07284493
183	0x3da92e17	0.08260744
184	0x3dacb400	0.0843277
185	0x3d2c5c19	0.04208002
186	0x3d02ce74	0.03193517
187	0xbd9c1e35	-0.07622949
188	0xbe127eb2	-0.14306143
189	0x3c6ea558	0.014565788
190	0xbe34cd56	-0.17656454
191	0x3ddd9900	0.10820198
192	0x3d2ff2ff	0.04295635
193	0xbe10b2ef	-0.14130758
194	0xbda05c93	-0.07830157
195	0x3cfef981	0.031124832
196	0xbba1b671	-0.004935079
197	0x3e11b953	0.14230852
198	0x3d884717	0.06654184
199	0xbdb1a13c	-0.08673331
200	0xbde218ab	-0.11039861
201	0xbd06e574	-0.032933667
202	0xbe2ae3fd	-0.16688533
203	0xbcbbf637	-0.022944553
204	0x3e32946c	0.17439431
205	0xbd4b4140	-0.049622774
206	0x3e111447	0.14167891
207	0x3dbe936a	0.09305461
208	0xbdc05d96	-0.0939285
209	0x3cd71d5c	0.026259117
210	0x3bcb545b	0.0062051243
211	0x3d862d42	0.06551601
212	0xbe3f691b	-0.18692438
213	0x3d33bb37	0.043879714
214	0x3dd76704	0.105176955
215	0x3d5626f0	0.052283227
216	0xbd72745b	-0.059192996
217	0x3dc015c6	0.09379153
218	0x3dc9c92b	0.09852823
219	0xbc22d485	-0.009938364
220	0x3e6a5d8c	0.22887248
221	0x3c349164	0.011020992
222	0xbd77f34d	-0.060534764
223	0x3d5f639a	0.054538347
224	0x3c85c576	0.016329508
225	0xbe60cc74	-0.21952993
226	0xbdaa9615	-0.08329407
227	0xbd0d3def	-0.034482893
228	0x3ddfd3c3	0.10929062
229	0xbd4ea80b	-0.050453227
230	0xbe058fcd	-0.13043137
231	0xbcd72a09	-0.026265161
232	0x3dfec90e	0.12440692
233	0x3b1b663a	0.0023712055
234	0x3dbdeb6c	0.09273419
235	0xbe865658	-0.2623775
236	0x3c51f8ad	0.012815637
237	0xbd4603ac	-0.048343346
238	0xbdd51888	-0.104050696
239	0xbdad6289	-0.0846606
240	0xbd813e69	-0.06310732
241	0xbdbbcd3c	-0.09170005
242	0xbe241dfd	-0.16027065
243	0x3dd0a2f7	0.10187333
244	0x3ca21622	0.019785944
245	0xbd989900	-0.074510574
246	0xbd6d161b	-0.05788241
247	0xbd867fd0	-0.06567347
248	0xba6448a1	-0.00087083323
249	0xbd8ad12d	-0.06778178
250	0x3d9fb821	0.07798792
251	0xbc78eaf4	-0.015192736
252	0x3d0d8772	0.034553
253	0xbc835688	-0.016032472
254	0xbbb80c9a	-0.0056167366
255	0x3d87f439	0.06638379

u_model.model.0.bias f4 [42]
0	0x3e26bcfd	0.16283031
1	0xbc53c83c	-0.012926158
2	0x3d9141c6	0.070926234
3	0xbd2601e2	-0.04052914
4	0x3d5ad401	0.05342484
5	0x3d8f1f3e	0.06988381
6	0xbde11e07	-0.109920554
7	0x3db7e6a5	0.08979539
8	0x3dae45d9	0.08509416
9	0x3dd64dd8	0.10464066
10	0xbcc55871	-0.024090024
11	0xbc34bce0	-0.011031359
12	0x3daa582c	0.08317599
13	0xbe022c2a	-0.1271216
14	0xbdeb25a6	-0.1148179
15	0x3cbd03a9	0.023073034
16	0x3d7df51b	0.06200133
17	0x3d4add54	0.04952748
18	0x3bcdb365	0.006277489
19	0x3d7ea501	0.06216908
20	0xbd5dfbe3	-0.054195296
21	0xbdce47a9	-0.10072262
22	0xbe115606	-0.14192972
23	0x3bbdf4f9	0.0057970253
24	0x3d46194a	0.04836396
25	0xbd5ddc0d	-0.054164935
26	0xbd59c57f	-0.053166863
27	0xbcb795d0	-0.022410303
28	0x3deb5f01	0.1149273
29	0x3d6c3084	0.057663456
30	0xbdb635f0	-0.088970065
31	0x3ab21148	0.0013585472
32	0xbe20d4df	-0.15706204
33	0x3d60d4d5	0.054890472
34	0xbdb1ea49	-0.086872645
35	0x3d34de1e	0.04415714
36	0x3d915b71	0.07097519
37	0x3d1d47cc	0.03839855
38	0x3ca7182f	0.020397274
39	0x3df82ffe	0.12118529
40	0x3cb1a7cd	0.021686459
41	0x3d794be8	0.060863405

u_model.model.2.weight f4 [42, 42]
0	0x3cee1819	0.029064225
1	0x3df8a01d	0.12139914
2	0xbe6faeac	-0.23406476
3	0xbe243f3d	-0.16039748
4	0x3db4315d	0.08798478
5	0xbe4ab47e	-0.19795415
6	0xbdfe867d	-0.12427995
7	0x3b8fc258	0.0043871813
8	0x3e802e8f	0.2503552
9	0xbe566cfb	-0.2094001
10	0x3aa5eec9	0.0012659664
11	0x3e4df2f9	0.20112218
12	0xbe007070	-0.12542892
13	0x3b81b3f8	0.0039582215
14	0xbe18f3c4	-0.14936739
15	0xbdaf705e	-0.08566354
16	0x3de11065	0.10989455
17	0x3e850a61	0.2598448
18	0xbd5df592	-0.054189272
19	0xbe2741a6	-0.16333637
20	0x3e14375d	0.14474244
21	0xbc344534	-0.011002827
22	0xbd86a08a	-0.06573589
23	0x3dfd117f	0.12356853
24	0xbd5f166a	-0.054464735
25	0x3de1b5b8	0.11020988
26	0xbe4776ba	-0.19478884
27	0x3e269a19	0.16269721
28	0xbdbe493d	-0.09291313
29	0xbd93bf62	-0.07214238
30	0x3e6aabd5	0.22917111
31	0x3e459bdb	0.19297735
32	0x3d0a327c	0.033739552
33	0xbd853c89	-0.06505687
34	0xbd489a7b	-0.04897545
35	0xbe1cf2ad	-0.15326948
36	0xbd527371	-0.051379625
37	0x3e1c7a40	0.1528101
38	0x3e8be92e	0.2732634
39	0x3e733fed	0.23754855
40	0xbd36173a	-0.044455744
41	0x3db24113	0.08703818
42	0xbdf016f4	-0.11723128
43	0x3c03325e	0.008007614
44	0x3d6e9a20	0.058252454
45	0xbc171697	-0.009221694
46	0xbcf7111a	-0.030159522
47	0xbe0c2c74	-0.13688833
48	0x3e14f0f5	0.14545043
49	0x3e4c2ed2	0.19939736
50	0x3e602cbb	0.21892063
51	0x3dcef7cf	0.101058595
52	0x3df3bbe8	0.11901075
53	0x3de39d63	0.111140035
54	0xbd897544	-0.0671182
55	0xbd9d7947	-0.076891474
56	0xbe1eb256	-0.15497717
57	0x3de7124c	0.11282787
58	0x3d518626	0.051153325
59	0xbe1a255c	-0.15053314
60	0x3e7ef9ec	0.24900025
61	0xbdd0951a	-0.10184689
62	0x3d6a22a5	0.057161946
63	0x3cd03e61	0.02542037
64	0x3e651d94	0.22374564
65	0x3e800bb3	0.25008926
66	0x3e388e3b	0.18023007
67	0xbdd51c83	-0.10405829
68	0xbd410259	-0.04712138
69	0x3e641571	0.22273804
70	0xbe023100	-0.12714005
71	0xbe3b4b8d	-0.18290539
72	0x3da042f5	0.07825271
73	0x3c62594e	0.013815237
74	0xbe5489d9	-0.2075571
75	0x3da9343e	0.082619175
76	0xbdbe7b9a	-0.09300919
77	0x3e939d24	0.28830826
78	0xbd626df7	-0.055280652
79	0xbe2bdf03	-0.16784291
80	0x3e497d26	0.19676647
81	0xbe1ce932	-0.15323332
82	0xbd5e9234	-0.05433865
83	0x3c5227ba	0.012826854
84	0xbdb6a127	-0.08917456
85	0xbe27ccd0	-0.16386724
86	0x3df1ac8a	0.11800487
87	0xbdaf43f5	-0.08557884
88	0x3d807dfc	0.062740296
89	0xbe23cc95	-0.1599601
90	0x3e394ebe	0.18096444
91	0xbdcef3f1	-0.10105122
92	0xbdec3158	-0.11532849
93	0x3e534849	0.20633043
94	0xbb6e02b9	-0.003631754
95	0x3da4e50f	0.08051502
96	0xbe4f744c	-0.20259207
97	0x3d617bdc	0.055049762
98	0x3e1a585c	0.15072769
99	0xbd4ae542	-0.049535044
100	0xbc20bd4d	-0.009810758
101	0x3d5687a6	0.05237546
102	0x3daf74ed	0.08567224
103	0x3d0e5142	0.034745462
104	0x3d82babf	0.06383275
105	0x3d4771db	0.048692565
106	0x3e014b90	0.12626481
107	0x3dda562c	0.10660967
108	0x3e1e09c7	0.15433417
109	0xbdf67261	-0.12033535
110	0x3e3c7971	0.18405701
111	0xbd07d5bb	-0.033162814
112	0x3d3a188b	0.045433562
113	0x3b213481	0.0024597945
114	0x3cb2a6fa	0.021808136
115	0x3e3022a2	0.17200711
116	0xbe21ddb0	-0.15807223
117	0x3981b100	0.00024736673
118	0xbd730a7e	-0.059336178
119	0x3dc4688e	0.09590255
120	0x3db681bf	0.08911466
121	0xbe2ee50d	-0.17079563
122	0x3d96db56	0.07366054
123	0x3d0ff2be	0.035143606
124	0xbdd266c6	-0.10273509
125	0xbdcdfb45	-0.100576915
126	0xbd4da433	-0.05020542
127	0xbbddb672	-0.006766134
128	0x3c6c7024	0.014431033
129	0xbd9345fa	-0.07191081
130	0xbcd9a335	-0.026567081
131	0x3d73e55e	0.059544913
132	0x3d7feedb	0.06248365
133	0xbdfccd3f	-0.12343835
134	0x3db755db	0.089519225
135	0x3dce3b7e	0.10069941
136	0xbdbe666c	-0.09296879
137	0xbc2faa7f	-0.010721802
138	0xbd5472dd	-0.051867355
139	0xbdc5a92c	-0.096514076
140	0x3cb81358	0.022470161
141	0x3de4e674	0.11176768
142	0xbc452a56	-0.012034019
143	0xbe2be591	-0.16786791
144	0x3de125a8	0.109935105
145	0x3c8408c7	0.016117467
146	0xbd6708f0	-0.056405008
147	0x3e35647d	0.17714114
148	0x3d041385	0.032245178
149	0xbd23f5b4	-0.040029243
150	0xbdab9af3	-0.083791636
151	0x3dbdf0c4	0.09274438
152	0x3e6510ef	0.22369741
153	0xbd709954	-0.058739975
154	0xbd79a2c7	-0.060946252
155	0xbdd2b348	-0.102881014
156	0x3db63ae3	0.088979505
157	0xbdc0c4a0	-0.09412503
158	0xbca23875	-0.019802311
159	0xbdb928e2	-0.09041001
160	0xbe595e7c	-0.21227449
161	0x3ce2d870	0.027691096
162	0x3db2db8e	0.08733283
163	0xbe6eeffb	-0.23333733
164	0xbdd5c665	-0.104382314
165	0xbdd43c21	-0.10363031
166	0xbdfd95b2	-0.12382068
167	0x3cf9b25f	0.030480562
168	0x3e35a43f	0.17738436
169	0xbd4ef657	-0.050527897
170	0xbd7615a4	-0.06007923
171	0x3e0f0332	0.13966063
172	0xbd94c8ce	-0.07264863
173	0xbd93f429	-0.07224304
174	0xbba1a2c4	-0.0049327333
175	0xbe7a9160	-0.24469519
176	0x3d9d9850	0.07695067
177	0xbe0c9687	-0.13729297
178	0xbdad332d	-0.08457027
179	0xbdf5c9d4	-0.12001386
180	0x3d0677fd	0.032829273
181	0x3e052b7d	0.1300487
182	0x3dc8347b	0.09775635
183	0x3decdc2b	0.11565431
184	0x3de8e8a0	0.11372495
185	0xbd88db1f	-0.06682419
186	0xbe2b1d60	-0.16710424
187	0x3d0f30e5	0.03495874
188	0xbe7f23f5	-0.2491606
189	0xbd81d43c	-0.063393086
190	0xbd6a60e8	-0.057221323
191	0xbd6ea603	-0.05826379
192	0xbd0a9201	-0.033830646
193	0xbdf3efea	-0.11910994
194	0xbe13fbfd	-0.14451595
195	0xbe427c07	-0.18992625
196	0x3e41dfc3	0.18933015
197	0xbddbb28a	-0.10727413
198	0xbde6c7ad	-0.11268554
199	0x3dd304b8	0.103036344
200	0x3d372f18	0.044722646
201	0x3dd92f8a	0.106047705
202	0x3ccbe1ac	0.024887882
203	0xbe055eaf	-0.130244
204	0x3e2fe779	0.17178144
205	0x3e914b31	0.2837768
206	0xbd72f94f	-0.05931979
207	0x3d8df484	0.06931403
208	0x3e65213c	0.22375959
209	0xbe3e8f29	-0.18609299
210	0xbe3d2126	-0.18469676
211	0x3da48e75	0.08034984
212	0xbdd01328	-0.10159904
213	0x3d826396	0.06366651
214	0xbd928840	-0.07154894
215	0xbe01d6cd	-0.12679596
216	0x3e157437	0.14595114
217	0x3dc9476e	0.09828077
218	0xbd98d164	-0.07461813
219	0x3d91c69c	0.0711796
220	0xbd620a4b	-0.055185597
221	0xbd9bd167	-0.076083
222	0x3d728085	0.059204597
223	0xbce1afbc	-0.027549617
224	0xbc8399e6	-0.016064595
225	0xbdfa4f4b	-0.12222155
226	0xbc083a61	-0.0083147
227	0x3dcb96b5	0.099408545
228	0x3e1c531c	0.15266079
229	0x3d31a433	0.043369483
230	0x3dbb3d22	0.091425195
231	0x3e0b8028	0.13623106
232	0x3d16c6cc	0.03681068
233	0xbe307f78	-0.17236125
234	0xbd8c5baa	-0.06853421
235	0x3d553608	0.05205348
236	0x3e1e613c	0.1546678
237	0x3e424f17	0.18975483
238	0xbdaaa23e	-0.083317265
239	0xbddc6c00	-0.10762787
240	0x3e32672f	0.17422174
241	0xbdfd5cb4	-0.12371197
242	0x3dfdfc28	0.124016106
243	0xbe125e8a	-0.14293876
244	0xbc4c9231	-0.012486027
245	0x3e560717	0.20901142
246	0xbc720c24	-0.014773402
247	0x3cb9e7ae	0.022693481
248	0x39e9a0ef	0.00044561128
249	0xbe5e7f75	-0.21728308
250	0x3d09c8f4	0.03363891
251	0xbb564c97	-0.003269946
252	0x3e181362	0.14851144
253	0x3e18063f	0.14846133
254	0x3d5fbc03	0.05462266
255	0x3d6eb7f7	0.05828091

u_model.model.2.bias f4 [42]
0	0xbd425aee	-0.04745
1	0x3c88c565	0.016695688
2	0xbdb47daa	-0.08813031
3	0x3dd9df87	0.106383376
4	0x3d074e14	0.033033445
5	0x3dd6aead	0.104825355
6	0x3d9ff8a9	0.078111
7	0xbdaaba23	-0.08336284
8	0xbd0008ad	-0.031258274
9	0xbd228dc6	-0.039685987
10	0xbd43c3b1	-0.047794048
11	0x3d86302f	0.06552159
12	0x3afb27c4	0.0019161631
13	0x3dfdc4db	0.12391063
14	0x3c73d1b4	0.01488154
15	0x3ddae90b	0.10688981
16	0x3dd8f55e	0.10593675
17	0x3d13de05	0.036100406
18	0xbe0725f0	-0.13198066
19	0x3dae9bca	0.08525808
20	0x3be75522	0.007059709
21	0xbaba4778	-0.0014211973
22	0xbdd51a50	-0.10405409
23	0xbdce0191	-0.100588925
24	0x3daf80f0	0.08569515
25	0x3c24ecde	0.010066239
26	0x3d22cb50	0.039744675
27	0xbdf182d0	-0.11792529
28	0xbd72019f	-0.059083577
29	0xbdb256c7	-0.08707958
30	0xbdb2c58f	-0.087290876
31	0x3da2a5e2	0.07941796
32	0x3b9d4982	0.0048000226
33	0xbd27bdfe	-0.040952675
34	0xbc18bccf	-0.009322359
35	0xbd211c1c	-0.039333448
36	0x3b67fc2e	0.0035398114
37	0xbdf29b90	-0.118460774
38	0x3cb3f5f2	0.021967862
39	0x3dee6791	0.116408475
40	0x3dde3dd7	0.10851639
41	0x3dc0d8f2	0.09416379

u_model.model.4.weight f4 [42, 42]
0	0xbe071228	-0.1319052
1	0xbe99adf6	-0.30015534
2	0x3d39ce85	0.045362968
3	0x3c03badb	0.008040155
4	0x3e56d68b	0.20980279
5	0x3d0b1038	0.033951014
6	0x3e36b891	0.17843844
7	0xbe89eab3	-0.26936874
8	0x3ca37068	0.01995106
9	0xbe19c946	-0.15018186
10	0x3c868167	0.016419126
11	0x3e50eb4e	0.20402262
12	0xbdbe4018	-0.09289569
13	0xbd7fe57e	-0.06247472
14	0xbb53892a	-0.00322778
15	0x3e0f2581	0.1397915
16	0x3d2a9091	0.041641776
17	0xbca8e68a	-0.020617742
18	0xbe241172	-0.1602228
19	0x3cac3b8e	0.021024492
20	0xbd1726ee	-0.03690236
21	0xbe232a1d	-0.15934034
22	0xbe66dab0	-0.2254436
23	0xbe6ee40e	-0.23329183
24	0x3e25f934	0.16208345
25	0x3d4cfec2	0.050047643
26	0xbe2953d6	-0.16535887
27	0x3e98c574	0.29838145
28	0x3ea6e4ae	0.32596344
29	0x3e0865f3	0.1332014
30	0x3c95f326	0.018304419
31	0xbd232d5f	-0.03983819
32	0x3e000865	0.12503202
33	0x3e8b7a8a	0.27241927
34	0xbd94eaf3	-0.072713755
35	0xbe201418	-0.15632665
36	0xbac9f303	-0.0015407506
37	0xbcfee19b	-0.031113436
38	0xbe3734bb	-0.17891209
39	0x3df48c25	0.11940793
40	0x3e352bf7	0.17692553
41	0x3d3b7b38	0.045771807
42	0xbe7110c6	-0.23541555
43	0x3da2d4de	0.079507574
44	0x3e1c7248	0.1527797
45	0x3e1d1980	0.15341759
46	0x3dd021fe	0.101627335
47	0xbc5f15f0	-0.01361607
48	0xbd00b533	-0.031422805
49	0x3e173935	0.14767917
50	0xbe04b5dd	-0.1296
51	0x3de79b02	0.11308862
52	0x3e0c4f01	0.13702013
53	0x3daccf17	0.08437937
54	0x3c8b0b48	0.016973153
55	0x3e815e85	0.25267425
56	0x3e57a18f	0.21057723
57	0xbe327359	-0.17426814
58	0x3d156966	0.03647747
59	0x3dee28ce	0.116288766
60	0x3e0c083a	0.13675013
61	0xbddae9bb	-0.10689112
62	0x3e23e636	0.16005787
63	0x3e256789	0.16152777
64	0x3daf87a2	0.08570792
65	0xbde61a6b	-0.112355076
66	0x3e1189a2	0.14212659
67	0xbe89b662	-0.2689696
68	0x3d984b5d	0.074362494
69	0x3ea0b1b0	0.31385565
70	0x3d7765f4	0.060399964
71	0xbe486054	-0.19567996
72	0x3d9c641c	0.07636282
73	0xbe3e0f20	-0.18560457
74	0xbdfc8281	-0.12329579
75	0xbe3203a7	-0.17384206
76	0xbcb8d0ee	-0.022560563
77	0x3e6a69f7	0.22891985
78	0xbe0c864c	-0.13723105
79	0xbc7c0807	-0.015382773
80	0x3e19c36f	0.15015958
81	0x3cb33fa5	0.021880934
82	0x3dc52310	0.09625828
83	0x3c91eaa9	0.01781209
84	0x3d014533	0.031560134
85	0x3e1fe472	0.15614489
86	0xbcaa983a	-0.02082454
87	0x3de63d44	0.11242154
88	0x3cf76bc9	0.030202763
89	0x3daab430	0.08335149
90	0xbd482285	-0.048861045
91	0x3dbcf7ef	0.09226977
92	0x3d0cdcb3	0.034390163
93	0xbd524634	-0.051336482
94	0xbd37f856	-0.044914566
95	0x3debc588	0.115122855
96	0xbcc8e3f2	-0.024522755
97	0x3e5074a0	0.20356989
98	0x3d837b31	0.06419981
99	0xbd955207	-0.07291036
100	0xbd4a8ff2	-0.049453683
101	0x3e0479a7	0.12937032
102	0x3d255ff9	0.04037473
103	0x38826b54	6.2188745e-05
104	0xbd33809e	-0.04382383
105	0x3e3ebad4	0.18625957
106	0xbde6f558	-0.11277264
107	0x3e46ff29	0.19433273
108	0x3d82a9e3	0.063800596
109	0x3dba06f3	0.09083357
110	0x3df62c83	0.12020209
111	0x3c2664c0	0.010155857
112	0xbdadfbe6	-0.084953114
113	0xbe7086d7	-0.23488937
114	0x3e0a2e20	0.13494158
115	0xbd4e65b4	-0.05038996
116	0xbd2023db	-0.039096694
117	0xbe18f2f8	-0.14936435
118	0x3ce29c61	0.027662458
119	0x3e3fd020	0.18731737
120	0xbe2f6a94	-0.171305
121	0xbe33015e	-0.1748099
122	0x3bf15c3b	0.007365731
123	0x3d4693c3	0.04848076
124	0xbd89f4ac	-0.067361206
125	0x3e48027f	0.19532202
126	0xbd7d3f54	-0.061827973
127	0xbe010f2a	-0.12603441
128	0x3d9940dc	0.07483074
129	0xbbf7ede6	-0.0075662015
130	0x3e96ae51	0.29429868
131	0xbeb980e0	-0.36231136
132	0x3d086257	0.03329691
133	0xbdeb81c3	-0.114993595
134	0xbe0840c9	-0.13305964
135	0xbd3fb748	-0.04680565
136	0x3d2fab3b	0.042887907
137	0x3e192320	0.14954805
138	0x3e22f1fe	0.15912625
139	0xbd2bdd79	-0.04195926
140	0xbd65c68a	-0.056097545
141	0x3e0fb7df	0.14034985
142	0x3cf22e40	0.02956307
143	0x3c25f615	0.010129471
144	0xbea79226	-0.3272869
145	0x3eb5748f	0.3544049
146	0x3df8142e	0.12113224
147	0xbdc6b24f	-0.097019784
148	0xbe2c6a78	-0.1683749
149	0xbdd685ff	-0.104747765
150	0x3e899a02	0.2687531
151	0xbe40b23e	-0.18817994
152	0xbe4c77e5	-0.19967611
153	0x3c1b1f32	0.009467887
154	0x3ea7afac	0.32751215
155	0x3e3e10a1	0.18561031
156	0xbe099a7d	-0.13437839
157	0xbd5d636e	-0.0540499
158	0x3e4c0f0d	0.19927616
159	0xbdd37f7e	-0.103270516
160	0x3db788e9	0.089616604
161	0x3d174fd9	0.036941383
162	0xbcf0a45f	-0.029375253
163	0xbe64bc4f	-0.22337459
164	0xbcce011b	-0.025147012
165	0x3e0245aa	0.12721887
166	0x3e910c54	0.28329718
167	0x3e39cdd1	0.18144919
168	0xbc916333	-0.017747497
169	0x3d03155f	0.032002803
170	0xbe3e036d	-0.18555994
171	0xbda7eb67	-0.08199196
172	0x3d53318e	0.05156093
173	0xbe0d450a	-0.13795868
174	0x3e17503a	0.14776698
175	0x3daac840	0.08338976
176	0xbdb21c82	-0.08696844
177	0xbdfc1249	-0.12308175
178	0x3d033131	0.032029334
179	0x3e3b6ca2	0.18303159
180	0xbdb4774e	-0.08811818
181	0xbdffbb1e	-0.12486862
182	0x3d05310b	0.032517474
183	0x3e30f477	0.17280756
184	0x3e5bddf6	0.2147139
185	0x3dbfa5d0	0.09357798
186	0x3d988465	0.07447127
187	0x3db41310	0.087926984
188	0xbe3644a0	-0.17799616
189	0x3dafc660	0.08582759
190	0xbdbe0f69	-0.09280283
191	0xbe53b8b0	-0.20675921
192	0xbc2dec76	-0.010615459
193	0xbe097be2	-0.13426164
194	0xbe21eccc	-0.15812987
195	0x3ad5539f	0.0016275531
196	0x3de0c338	0.10974735
197	0xbd2ecea1	-0.042677525
198	0xbe4869c7	-0.19571601
199	0x3df0b3aa	0.11753018
200	0x3d9c10af	0.0762037
201	0x3e276175	0.1634577
202	0xbd951435	-0.07279245
203	0xbb8e760c	-0.0043475684
204	0x3bbc7809	0.005751614
205	0x3e64c820	0.22341967
206	0xbc7150ba	-0.014728719
207	0xbe3472b4	-0.17621881
208	0x3df3687c	0.11885163
209	0x3ddb77f0	0.10716236
210	0xbe3cf43d	-0.18452545
211	0x3d8d4586	0.06898026
212	0xbd27e178	-0.040986508
213	0xbcce4d88	-0.025183454
214	0x3d13f3a6	0.036121033
215	0x3df22e60	0.118252516
216	0x3dfcb27a	0.12338729
217	0x3d5b3c66	0.053524397
218	0xbdcce18d	-0.10003958
219	0x3ac16e57	0.0014757615
220	0x3d90a601	0.07062913
221	0xbd47c6e9	-0.04877368
222	0x3c374dcf	0.011187985
223	0x3d040daf	0.032239612
224	0xbd0632e3	-0.032763373
225	0x3dbf8adc	0.09352657
226	0x3ce891a7	0.028389765
227	0x3d6a9704	0.057272926
228	0x3cf79dea	0.030226666
229	0x3d01390a	0.031548537
230	0x3d851d0b	0.0649968
231	0x3dc52728	0.09626609
232	0xbd608127	-0.05481067
233	0xbcb742a4	-0.022370644
234	0xbdb0ccaa	-0.086327866
235	0xbe39bdd0	-0.18138814
236	0xbe376678	-0.17910182
237	0x3e149b03	0.14512257
238	0xbda8e4b4	-0.08246747
239	0xbe366cf3	-0.17814998
240	0x3d6f8a6d	0.058481622
241	0xbe7dcc3d	-0.24784942
242	0xbe1d9d00	-0.15391922
243	0x3cd62c7d	0.02614426
244	0xbc03b3ca	-0.0080384705
245	0x3d807827	0.06272917
246	0xbe34cc54	-0.1765607
247	0x3de7b050	0.11312926
248	0x3e59a5a9	0.212546
249	0x3e35d075	0.17755301
250	0x3ddb88e7	0.107194714
251	0x3e61d067	0.22052155
252	0xbdda3eed	-0.106565334
253	0xbe855734	-0.26043093
254	0xbe1ad87d	-0.15121646
255	0x3d861d7b	0.06548592

u_model.model.4.bias f4 [42]
0	0x3dd9510a	0.1061116
1	0xbc00096c	-0.007814746
2	0xbe2062ab	-0.15662639
3	0x3db8c8ef	0.090227
4	0x3d8e4fa6	0.069487855
5	0x3dab8042	0.083740726
6	0x3df683fc	0.12036893
7	0x3d4822d0	0.048861325
8	0x3d6c2557	0.057652798
9	0x3e1966b5	0.14980586
10	0x3d581d5d	0.052762378
11	0x3d86e5c9	0.06586797
12	0xbcb4530a	-0.022012252
13	0xbdd3584c	-0.10319576
14	0x3a4f145e	0.0007899458
15	0xbe1ea406	-0.15492257
16	0x3bccfc8b	0.0062556914
17	0xbe3ae1d8	-0.18250215
18	0xbe1b7ba4	-0.15183884
19	0xbd809d4a	-0.062800005
20	0xbe0adb30	-0.13560176
21	0x3dcc200c	0.0996705
22	0x3d1ae2a0	0.037813783
23	0xbd769c99	-0.060207937
24	0x3e1f76c4	0.15572649
25	0x3d97d701	0.074140556
26	0x3db7e8c1	0.08979941
27	0xbde6ac3a	-0.11263318
28	0xbe06ec91	-0.1317618
29	0xbd6ebe28	-0.058286816
30	0x3e1cdf9a	0.15319672
31	0xbdd7c22e	-0.10535084
32	0xbda2e905	-0.07954601
33	0x3d7d7b13	0.06188495
34	0x3d55e555	0.05222066
35	0x3de956c7	0.113935046
36	0x3cb5bdce	0.022185232
37	0xbc54329b	-0.012951518
38	0xbd5cc3f8	-0.053897828
39	0xbbff135a	-0.0077842893
40	0x3d8bc012	0.06823744
41	0xbe0b0b18	-0.1357845

u_model.model.6.weight f4 [42, 42]
0	0xbe4195e9	-0.18904842
1	0x3d3e69ac	0.046487495
2	0x3e1d34a0	0.15352106
3	0x3db0fb7c	0.08641717
4	0x3d177539	0.036977027
5	0x3e496cd6	0.19670424
6	0xbdc6b24c	-0.09701976
7	0x3d4e68e8	0.050393015
8	0xbd68b950	-0.056817353
9	0xbd9ecb5e	-0.07753633
10	0xbe663385	-0.2248059
11	0x3d8009e2	0.06251885
12	0xbe1b8f7c	-0.15191454
13	0xbcee0213	-0.029053723
14	0xbe343cf4	-0.17601377
15	0xbd943445	-0.07236532
16	0xbdae19da	-0.085010245
17	0xbd91df6b	-0.07122692
18	0x3d89d378	0.067297876
19	0x3e59767a	0.21236601
20	0x3d9d44f6	0.07679169
21	0x3e0e65a8	0.13905966
22	0x3d2a10ad	0.04151981
23	0x3e350196	0.17676386
24	0x3d6056e6	0.054770373
25	0x3dfa0117	0.12207239
26	0xbdc4cda6	-0.09609537
27	0x3da68c80	0.08132267
28	0xbe064a29	-0.13114227
29	0xbe86a9e8	-0.26301503
30	0xbd4230a6	-0.047409676
31	0xbdf1a6f0	-0.11799419
32	0x3d6f2739	0.058387015
33	0x3d5fee1b	0.054670434
34	0xbe2a208d	-0.1661398
35	0x3d4a25ff	0.049352642
36	0xbb2be8fb	-0.0026231396
37	0xbe0529ff	-0.13004301
38	0x3dea48f2	0.114396945
39	0xbcfa9d0d	-0.030592466
40	0x3e00ac78	0.12565792
41	0x3ddd83e7	0.10816174
42	0xbc3c68a6	-0.0114995595
43	0xbe8968b2	-0.2683769
44	0xbcb34b80	-0.021886587
45	0xbd460214	-0.048341826
46	0x3e162a27	0.14664517
47	0xbe21df28	-0.15807784
48	0x3e2cb928	0.16867507
49	0xbcdf6ebc	-0.027274482
50	0xbdb9e962	-0.09077717
51	0xbdbb1f4d	-0.091368295
52	0x3e47202b	0.19445865
53	0x3e1a42bd	0.15064521
54	0xbdcd31e1	-0.10019279
55	0xbdc1f0b6	-0.0946974
56	0x3d15fddc	0.036619052
57	0x3b312262	0.002702855
58	0x3cf092e1	0.029366912
59	0xbdf7ebd3	-0.12105527
60	0x3ddfa1d1	0.10919536
61	0xbdbac799	-0.091201015
62	0xbe0e4372	-0.13892916
63	0x3c9bba72	0.019009802
64	0x3e394aba	0.18094912
65	0xbe3cad9a	-0.18425599
66	0x3dfd0cfd	0.12355993
67	0xbce722f5	-0.028214911
68	0xbcd7cfe2	-0.026344243
69	0xbddf3bbb	-0.109000646
70	0x3e4537c5	0.19259556
71	0x3df7b211	0.1209451
72	0xbdb5879a	-0.088637546
73	0x3df04011	0.1173097
74	0xbe55dfda	-0.20886174
75	0xbdd58006	-0.10424809
76	0x3cd9c487	0.02658297
77	0x3d9ec654	0.07752672
78	0xbe1c7bc0	-0.15281582
79	0xbcfe3cb4	-0.031034805
80	0x3db83807	0.08995061
81	0x3e01bbdb	0.12669317
82	0xbe8014c0	-0.2501583
83	0xbe08ebd5	-0.13371213
84	0xbe64df4f	-0.2235081
85	0xbdef1423	-0.11673763
86	0x3d8b76d8	0.06809777
87	0xbdd1ab77	-0.102377824
88	0xbdbb34ff	-0.091409676
89	0xbd570a30	-0.05249995
90	0xbcc75469	-0.024332242
91	0xbc5e1645	-0.013555114
92	0x3da8a528	0.08234626
93	0xbe8d4776	-0.27593583
94	0xbd6259d5	-0.05526145
95	0x3d9a1a11	0.07524503
96	0x3d111c64	0.035427466
97	0x3e032203	0.12805943
98	0xbdeda8ec	-0.11604485
99	0x3e7555ff	0.23958586
100	0x3e1c9222	0.1529012
101	0xbe391712	-0.18075207
102	0x3d4f55ff	0.05061912
103	0x3e57b195	0.21063836
104	0x3e476166	0.19470748
105	0xbd3bf472	-0.045887418
106	0x3de0d1a4	0.10977486
107	0x3d00ffbe	0.031493895
108	0xbd4f1a58	-0.050562233
109	0xbd077ea7	-0.03307977
110	0xbe585d55	-0.21129353
111	0x3da4f90b	0.08055314
112	0x3e9206da	0.28520852
113	0xbe731e37	-0.23741995
114	0xbde0b527	-0.10972052
115	0x3ea67a1b	0.32515034
116	0xbc38cc09	-0.0112791145
117	0xbe932a06	-0.28743
118	0x3da05c9a	0.07830162
119	0xbb862eaa	-0.0040949183
120	0x3c127cb7	0.008940867
121	0xbdd220d2	-0.10260166
122	0xbe5f22c7	-0.2179061
123	0x3e6e0f29	0.2324797
124	0xbd6ccb00	-0.057810783
125	0x3e1c2d24	0.15251595
126	0x3e56278c	0.20913523
127	0x3e568f83	0.20953183
128	0x3e0802a0	0.13282251
129	0x3d52e852	0.05149109
130	0x3e47d93b	0.1951646
131	0x3e9331ac	0.28748834
132	0x3e1ff3dc	0.15620369
133	0x3e63478f	0.22195266
134	0xbdac14dc	-0.08402416
135	0xbe0985b8	-0.13429916
136	0xbe81b21e	-0.25331205
137	0xbe1f9f9f	-0.15588234
138	0x3deb88c2	0.11500694
139	0xbd802b3d	-0.06258247
140	0x3dd2dc58	0.102959335
141	0x3d13eaf6	0.036112748
142	0xbd5d6efd	-0.054060925
143	0x3eac1b49	0.33614567
144	0x3e180762	0.14846566
145	0xbda770a0	-0.081757784
146	0x3ca36623	0.019946164
147	0xbe28573a	-0.16439524
148	0x3cc92a44	0.024556287
149	0x3e519891	0.20468356
150	0xbe86db71	-0.26339296
151	0xbe5f5f3e	-0.21813676
152	0x3e4bd4d6	0.19905409
153	0x3e15f704	0.1464501
154	0x3ddc089e	0.10743831
155	0x3e2e116a	0.1699883
156	0xbedcc4fc	-0.43119037
157	0xbe7c9255	-0.24665196
158	0x3d9d19cf	0.07670938
159	0x3e2909cd	0.16507645
160	0xbde76d51	-0.11300147
161	0xbdd61a95	-0.10454289
162	0x3d9132d5	0.070897736
163	0x3e171b67	0.14756547
164	0x3ed63bb5	0.41842428
165	0xbd98bae1	-0.07457519
166	0x3d8b0de2	0.06789757
167	0x3e2655fa	0.16243735
168	0xbe3ba349	-0.18324007
169	0xbe2ce775	-0.16885169
170	0x3c5894f3	0.013219106
171	0x3ddd6f6f	0.1081227
172	0xbe332e7f	-0.17498206
173	0xbdfacb1c	-0.12245771
174	0xbbc50063	-0.006012009
175	0xbdbc0c7c	-0.09182069
176	0xbc42ceef	-0.011890157
177	0xbd9c8295	-0.07642094
178	0xbdb8685e	-0.090042815
179	0xbda10709	-0.0786267
180	0xbd267a58	-0.04064402
181	0x39e9e070	0.00044608442
182	0xbdbb65cd	-0.09150276
183	0xbdcbd0d4	-0.0995194
184	0x3e0bd321	0.13654758
185	0xbdf930ba	-0.12167497
186	0xbd67b3d1	-0.05656797
187	0x3d4d0928	0.05005756
188	0x3e15a2b4	0.14612848
189	0xbd210574	-0.03931184
190	0xbd96eeb9	-0.073697515
191	0xbd56b113	-0.052414965
192	0xbc53b8a5	-0.012922441
193	0x3e424497	0.18971477
194	0xbde01664	-0.10941771
195	0xbe2b7700	-0.16744614
196	0x3e2bc363	0.16773753
197	0xbe8208a1	-0.25397208
198	0x3e2d7d38	0.16942298
199	0x3d95a573	0.073069476
200	0x3d448a66	0.04798355
201	0x3d550ba0	0.05201304
202	0x3e2fae17	0.17156254
203	0x3e13cca1	0.14433528
204	0x3d6e8196	0.05822905
205	0xbe5b8cab	-0.2144038
206	0xbe446100	-0.19177628
207	0xbd4081ac	-0.046998665
208	0xbdc29683	-0.09501364
209	0xbcc91279	-0.024544941
210	0x3bc960e8	0.0061455853
211	0x3b81c9d0	0.0039608255
212	0xbe345d25	-0.17613657
213	0xbdc01ea0	-0.09380841
214	0x3d5922e0	0.053011775
215	0xbd922672	-0.07136239
216	0x3b8fbb76	0.0043863608
217	0x3d1deb1c	0.038554296
218	0x3d958211	0.07300199
219	0xbd5ffe9a	-0.054686166
220	0x3ddf9c51	0.10918487
221	0x3d94a5f4	0.072582155
222	0x3e05351d	0.13008542
223	0x3bbefb5b	0.0058283038
224	0x3f00b2f2	0.5027305
225	0xbd002e74	-0.0312943
226	0x3e1f56db	0.15560476
227	0xbe18a7f5	-0.1490782
228	0x3d2c125e	0.042009704
229	0xbd56a413	-0.052402567
230	0xbd100860	-0.035164237
231	0xbbe65f69	-0.0070304167
232	0x3d2c8a03	0.042123806
233	0xbe6d6fa3	-0.23187117
234	0xbd13aaa3	-0.036051404
235	0xbeb44bf3	-0.35214195
236	0x3e06be42	0.13158515
237	0xbdd96627	-0.10615187
238	0xbdb16a64	-0.086628705
239	0x3e46a02e	0.19397041
240	0x3a511b23	0.0007976761
241	0xbdb56c7d	-0.08858583
242	0xbd1696e2	-0.036764987
243	0x3de74437	0.11292308
244	0x3e613fd0	0.21996999
245	0x3db50bbf	0.08840131
246	0x3d8b1c82	0.06792547
247	0x3c5dc5a7	0.0135358935
248	0xbd89e4c8	-0.0673309
249	0xbe077b00	-0.13230515
250	0x3d267f64	0.040648833
251	0xbd89de01	-0.06731797
252	0xbe6c82d3	-0.2309678
253	0xbe154ef3	-0.14580898
254	0xbc431e7e	-0.011909125
255	0xbe2dbc0c	-0.16966265

u_model.model.6.bias f4 [42]
0	0xbdbeb3bb	-0.093116246
1	0x3d66dda5	0.05636372
2	0xbd310f29	-0.04322735
3	0xbe73d70b	-0.23812501
4	0x3cbe7e89	0.023253696
5	0x3dedaa67	0.11604767
6	0x3c220948	0.009889908
7	0xbbc9ac56	-0.0061545772
8	0xbe08df63	-0.13366465
9	0x3da3f376	0.08005421
10	0x3e07ccba	0.1326169
11	0xbdeb88d4	-0.11500707
12	0xbd10df80	-0.035369396
13	0xbc55f6f7	-0.013059369
14	0xbdfb7d25	-0.12279729
15	0xbd2ceff6	-0.042221032
16	0x3e243429	0.16035523
17	0xbd01580f	-0.03157812
18	0xbd215983	-0.039392006
19	0x3e3687c9	0.17825235
20	0xbdb1a612	-0.086742535
21	0xbd6ae974	-0.057351544
22	0xbd7e1290	-0.06202942
23	0x3d88fb06	0.06688504
24	0xbdf28c99	-0.11843223
25	0xbca5a880	-0.020221949
26	0x3d9bd556	0.0760905
27	0x3dab4744	0.08363202
28	0x3dbabf9a	0.09118576
29	0xbe0d1862	-0.13778833
30	0xbdd51f68	-0.10406381
31	0xbddbc3c5	-0.107306994
32	0x3e19c349	0.15015902
33	0x3ca8b59b	0.020594409
34	0x3b25d6da	0.0025305063
35	0x3dcdaf5d	0.100432135
36	0xbd9165f6	-0.07099526
37	0x3d3934fd	0.04521655
38	0x3ddbb37b	0.107275926
39	0xbd928a8d	-0.07155333
40	0xbd4190d8	-0.047257274
41	0xbd865bcd	-0.06560478

u_model.model.8.weight f4 [42, 42]
0	0x3e16f3db	0.14741461
1	0x3d5ca242	0.05386568
2	0xbe3b985d	-0.1831984
3	0x3bd78560	0.006577179
4	0xbdf96440	-0.12177324
5	0x3cd2a025	0.025711128
6	0xbe680a26	-0.22660121
7	0x3e2ebfab	0.17065303
8	0xbd39f150	-0.04539615
9	0xbd064349	-0.032779012
10	0xbe0fe7b9	-0.14053239
11	0x3dc9e923	0.098589204
12	0xbe1d5851	-0.15365721
13	0xbdf5da53	-0.12004533
14	0xbd789931	-0.06069297
15	0x3da0a956	0.07844798
16	0xbd835c99	-0.06414146
17	0xbe55800a	-0.20849624
18	0x3dbfd86b	0.0936745
19	0xbe509ab6	-0.20371518
20	0xbe0ca462	-0.13734582
21	0x3d80263d	0.062572934
22	0xbdacd6b3	-0.08439388
23	0xbdd30887	-0.10304361
24	0xbbd72027	-0.006565112
25	0x3e391d61	0.18077613
26	0xbdf4e6ce	-0.11958085
27	0x3e2547fd	0.16140743
28	0x3da5b651	0.08091415
29	0x3de4ae8d	0.111661054
30	0x3e1e1bbe	0.1544027
31	0xbdead752	-0.1146685
32	0x3da4e213	0.08050933
33	0xbcc13ddb	-0.023589065
34	0xbe0f02ef	-0.13965963
35	0x3d7af5e8	0.06126967
36	0xbde6bec8	-0.112668574
37	0x3da3c193	0.07995906
38	0x3d577c13	0.05260856
39	0xbd26bd85	-0.040708084
40	0x3e0cd531	0.13753201
41	0x3caef96e	0.021359172
42	0xbe2c6b4a	-0.16837803
43	0xbd6f966f	-0.058493074
44	0xbe20e0a2	-0.1571069
45	0xbd94cc77	-0.07265561
46	0xbda52240	-0.08063173
47	0xbd42a86f	-0.047523912
48	0x3e47889c	0.19485706
49	0x3bcd373b	0.0062626875
50	0xbdb80809	-0.089859076
51	0xbd3ed670	-0.046591222
52	0x3daf989b	0.08574029
53	0x3cd6913c	0.0261923
54	0x3dbd7b76	0.09252064
55	0xbd47fe0d	-0.048826266
56	0x3e127992	0.14304188
57	0x3d8e8e26	0.069607064
58	0x3de95e71	0.113949664
59	0x3e219481	0.15779306
60	0x3cfe2d77	0.031027539
61	0xba393ff7	-0.00070667214
62	0x3d93911e	0.07205413
63	0xbd94df0f	-0.072691076
64	0xbcaa6cbb	-0.0208038
65	0x3d8e451d	0.06946776
66	0x3d7751be	0.06038069
67	0xbe2aca6c	-0.1667878
68	0x3e3c6987	0.1839963
69	0x3b868f83	0.0041064634
70	0x3c89cfdb	0.016822746
71	0xbdb30a44	-0.087421924
72	0xbd9ad950	-0.0756098
73	0x3cab110d	0.020882154
74	0xbcb74c36	-0.022375207
75	0xbe38a7bc	-0.18032736
76	0x3d6d8eb4	0.05799742
77	0xbe04e8ac	-0.12979382
78	0x3db50c36	0.0884022
79	0xbe058b48	-0.13041413
80	0xbe1bc4e5	-0.15211828
81	0x3c746f46	0.014919108
82	0x3dce6dab	0.10079511
83	0x3e19e22b	0.15027682
84	0xbb3c99aa	-0.0028778114
85	0x3d8759c6	0.0660892
86	0x3e4b75b9	0.19869126
87	0xbd1cdb50	-0.03829509
88	0xbd394030	-0.04522723
89	0x3d12cdc5	0.03584077
90	0xbdc90db1	-0.098170646
91	0x3c6214fe	0.01379895
92	0x3d2c2133	0.04202385
93	0xbe60a850	-0.21939206
94	0x3c2b9fee	0.010475142
95	0x3e11c994	0.14237052
96	0x3d4d074a	0.05005578
97	0xbe19c78a	-0.15017524
98	0xbe493a08	-0.19651043
99	0x3bdde167	0.006771255
100	0xbe48063e	-0.19533631
101	0x3d77cf38	0.060500354
102	0x3d972d5a	0.07381697
103	0xbd9903e9	-0.07471449
104	0xbd77c7f7	-0.060493436
105	0x3db90f2d	0.09036098
106	0xbd801e81	-0.06255818
107	0x3cae5c6c	0.021284305
108	0x3dfc75d1	0.12327159
109	0xbe28b575	-0.1647547
110	0xbd80acae	-0.06282936
111	0xbd2c56a1	-0.042074803
112	0xbc4d06f1	-0.012513862
113	0xbbcfc411	-0.0063405116
114	0xbdbc653d	-0.09198997
115	0x3d6d01d6	0.05786308
116	0xbd88e017	-0.06683367
117	0xbe24fe06	-0.16112527
118	0xbdbdfcf7	-0.09276765
119	0x3e12ce25	0.1433645
120	0x3c5becf0	0.0134231895
121	0xbd745204	-0.05964853
122	0xbe30863a	-0.17238703
123	0x3d351816	0.044212423
124	0x3d3f44dd	0.046696533
125	0xbe2987d9	-0.16555728
126	0xbd96c32d	-0.073614456
127	0x3e573090	0.21014619
128	0xbdefa971	-0.1170224
129	0x3e5265ce	0.20546648
130	0xbdde0a15	-0.10841767
131	0xbc860729	-0.016360836
132	0xbe240db1	-0.16020848
133	0x3df20817	0.11817949
134	0xbe037df6	-0.12841019
135	0xbdb67bed	-0.08910356
136	0xbe441d3e	-0.1915178
137	0x3e6478d7	0.22311722
138	0xbe36b1ab	-0.17841212
139	0xbe22a3c8	-0.1588279
140	0xbd26cbd7	-0.04072174
141	0xbd8ec0d6	-0.06970374
142	0xbca49c74	-0.020094134
143	0x3e59779b	0.21237032
144	0x3e758c6f	0.23979352
145	0x3e210c42	0.15727332
146	0x3da45860	0.08024669
147	0xbd4a92da	-0.049456455
148	0xbdb47a83	-0.0881243
149	0x3e8fdeb2	0.2809959
150	0x3c8a3b68	0.01687403
151	0xbda9b875	-0.082871355
152	0xbe4bc261	-0.19898368
153	0x3ddbbbf5	0.10729209
154	0x3e50b3c7	0.2038108
155	0x3e3be23d	0.18348022
156	0x3d753550	0.059865296
157	0x3e33a05b	0.1754164
158	0x3e54b9dc	0.20774025
159	0x3e6a63ff	0.22889708
160	0x3e8db1bb	0.2767466
161	0xbe8310f7	-0.2559888
162	0x3e72bcfe	0.23704907
163	0x3e29b201	0.1657181
164	0xbd1d9883	-0.038475525
165	0x3e3d8cdc	0.18510765
166	0x3deee488	0.116646826
167	0xbe77d9bd	-0.24204154
168	0x3dd5ecea	0.104455784
169	0xbd4a2afe	-0.049357407
170	0x3df2bcd9	0.11852426
171	0xbdba8f9f	-0.09109425
172	0x3d856316	0.0651304
173	0xbe01faff	-0.12693404
174	0xbdcdba26	-0.100452706
175	0x3d593370	0.05302757
176	0x3e3e39a4	0.18576676
177	0x3e3dd40e	0.18537924
178	0x3c77665c	0.015100088
179	0xbd31ea53	-0.04343636
180	0x3cab4413	0.020906484
181	0xbdc01878	-0.09379667
182	0x3dcde75d	0.10053895
183	0xbd8b98c4	-0.06816247
184	0x3cc2988e	0.023754384
185	0xbda0e5dd	-0.07856343
186	0xbe3b924a	-0.18317524
187	0x3df0a7eb	0.11750778
188	0x3c4372fd	0.011929271
189	0x3c25f955	0.010130246
190	0x3d524491	0.05133492
191	0x3db6dfd9	0.08929414
192	0x3de5a0e2	0.112123266
193	0xbcc8e792	-0.024524484
194	0x3e04a9b5	0.12955363
195	0x3e16d69d	0.14730306
196	0xbd3b919e	-0.04579317
197	0x3dc9adc4	0.09847596
198	0xbe193557	-0.14961754
199	0xbdfae4b3	-0.12250652
200	0x3d982065	0.07428054
201	0xbe2bbafe	-0.1677055
202	0xbe07af8d	-0.13250561
203	0x3e3ef622	0.1864858
204	0xbe01a6c5	-0.12661274
205	0x3c87db38	0.016584024
206	0x3e1ed570	0.15511107
207	0xbd87631e	-0.06610702
208	0xbe068b51	-0.13139082
209	0xbcb0a45e	-0.021562751
210	0x3c96b88c	0.018398546
211	0x3e242f37	0.16033636
212	0x3e50a6c2	0.20376113
213	0xbe453143	-0.19257073
214	0xbd7216c3	-0.05910374
215	0xbd555938	-0.05208704
216	0xbc789ef4	-0.015174616
217	0x3b32e3d1	0.0027296434
218	0xbda8044c	-0.082039446
219	0xbd77caef	-0.060496267
220	0xbe2f6c31	-0.17131115
221	0x3de0c9e8	0.109760106
222	0xbd8c79b1	-0.06859148
223	0x3cf83b11	0.030301603
224	0x3c3beaa5	0.011469518
225	0x3e0e914c	0.13922614
226	0xbe71e97f	-0.23624228
227	0xbdda98a9	-0.10673649
228	0x3deedf57	0.116636924
229	0x3dc1564d	0.09440289
230	0x3dd0fb0d	0.10204134
231	0x3e297563	0.16548686
232	0x3e5af9fc	0.21384424
233	0xbe1736a0	-0.14766932
234	0x3b407a84	0.00293699
235	0xbe39acb1	-0.18132283
236	0xbd939387	-0.07205873
237	0x3b7af774	0.0038294466
238	0x3d4eb90a	0.050469436
239	0x3e125936	0.14291844
240	0xbda5533e	-0.08072518
241	0xbc9f77d6	-0.019466322
242	0xbde35019	-0.11099262
243	0xbc900ebd	-0.017585153
244	0x3d5e83fb	0.054325085
245	0x3d983869	0.074326344
246	0x3e3a80de	0.18213221
247	0x3bd55a1a	0.006510985
248	0x3c94f58b	0.01818349
249	0x3ceff2da	0.029290605
250	0x3ca9bc6d	0.020719731
251	0xbce60839	-0.028080093
252	0x3de75bea	0.11296828
253	0xbe48253c	-0.19545454
254	0xbe1e50dc	-0.15460533
255	0xbd33eb12	-0.043925352

u_model.model.8.bias f4 [42]
0	0xbd03397c	-0.032037243
1	0x3dfa1af7	0.122121744
2	0xbe043b2f	-0.12913202
3	0x3da8f50d	0.08249865
4	0xbdc94263	-0.098271154
5	0xbd3fdc09	-0.0468407
6	0xbdca682c	-0.098831505
7	0x3deb2953	0.11482491
8	0xba9001c9	-0.001098686
9	0x3d92d764	0.07169989
10	0xbe153002	-0.14569095
11	0xbc4bf043	-0.01244742
12	0x3db9de24	0.09075573
13	0xbdd40585	-0.10352615
14	0xbd8331a1	-0.0640595
15	0xbcd03a43	-0.025418406
16	0xbd72cf4e	-0.059279732
17	0x3d9a9c13	0.075493
18	0xbe003883	-0.12521558
19	0x3b70c7f8	0.0036740284
20	0x3cb13760	0.02163285
21	0xbd8d0f90	-0.06887734
22	0xbd899953	-0.067186974
23	0x3c2a076e	0.010377748
24	0xbe051262	-0.12995294
25	0xbe462dd2	-0.19353417
26	0x3ddd35fb	0.108013116
27	0x3a93cfdb	0.0011277156
28	0xbe09172c	-0.13387746
29	0xbdc9e318	-0.09857768
30	0x3e0b2eae	0.13592026
31	0xbe1222b5	-0.14271052
32	0x3e2c5035	0.16827472
33	0x3e144705	0.14480217
34	0xbe0dc3c8	-0.13844216
35	0x3dbc6295	0.091984905
36	0x3e0e81bb	0.13916676
37	0x3db1b9aa	0.08677991
38	0x3da09a13	0.07841887
39	0xbdc6466e	-0.09681402
40	0x3d13af94	0.036056116
41	0xbdc6b33e	-0.097021565

u_model.model.10.weight f4 [42, 42]
0	0x3e57ef3e	0.21087357
1	0xbbafdf21	-0.005367175
2	0x3ca578da	0.020199228
3	0x3e625d07	0.221058
4	0xbe11e16c	-0.14246148
5	0xbdcd2ebe	-0.10018681
6	0xbe389961	-0.1802726
7	0x3cec8a3b	0.028874507
8	0x3a4b2329	0.0007749075
9	0x3dcc35e6	0.09971218
10	0xbde8602b	-0.113464676
11	0x3dac48b5	0.08412305
12	0xbe4adb6f	-0.1981027
13	0x3c6d9917	0.0145018315
14	0x3d1d2d59	0.038373325
15	0xbd6c6ec5	-0.057722826
16	0xbe0a06f0	-0.13479209
17	0xbd3dd5fd	-0.046346653
18	0xbc59bf4d	-0.013290239
19	0x3c837108	0.016045108
20	0x3c5f4528	0.013627328
21	0x3dbb68ab	0.09150823
22	0xbd978523	-0.07398441
23	0xbb5ca82f	-0.0033669581
24	0xbe6e015a	-0.23242703
25	0x3c997ddc	0.018736772
26	0xbde56b7c	-0.11202142
27	0x3d5f7545	0.054555196
28	0xbd412544	-0.04715468
29	0xbdc52a59	-0.09627218
30	0x3dff323c	0.12460753
31	0x3d845338	0.06461185
32	0xbe399e02	-0.18126681
33	0x3dacb93e	0.0843377
34	0xbb3242b0	-0.0027200393
35	0x3dc3bcdc	0.095575064
36	0x3d7ba2fa	0.061434723
37	0x3e3ef72a	0.18648973
38	0x3e182c87	0.14860736
39	0xbd18707c	-0.03721665
40	0xbe4736be	-0.19454476
41	0x3d96b758	0.07359189
42	0xbde02d47	-0.10946136
43	0x3d6a42ad	0.057192493
44	0x3dd690ce	0.10476838
45	0x3e0c374c	0.13692969
46	0x3d09e16e	0.033662252
47	0x3be5f7eb	0.0070180795
48	0xbdcf0da0	-0.10110021
49	0xbdf945ee	-0.12171541
50	0xbe5e109b	-0.21686022
51	0x3e29131a	0.16511193
52	0xbce7f7b8	-0.028316364
53	0x3b524d66	0.003208959
54	0xbc98dfec	-0.018661462
55	0x3dffaf72	0.124846354
56	0x3d2a3767	0.041556742
57	0xbcec8449	-0.028871672
58	0x3cb5f656	0.022212189
59	0x3d59179b	0.053001028
60	0x3d8587b1	0.06520022
61	0x3e385c26	0.18003902
62	0xbc58d6f0	-0.013234839
63	0x3e1a5dbc	0.1507482
64	0x3dabf7dc	0.08396885
65	0x3dbbeef8	0.09176439
66	0x3c8d5c61	0.017255964
67	0xbdb0142a	-0.08597596
68	0x3d35cee8	0.044386774
69	0xbe3aebd4	-0.18254024
70	0x3d9fdc40	0.07805681
71	0x3c95cf95	0.01828746
72	0xbe4282c8	-0.18995202
73	0x3e624296	0.22095713
74	0x3df3d704	0.11906245
75	0xbd449538	-0.04799387
76	0xbe22e653	-0.15908174
77	0xbd964bab	-0.07338651
78	0xbde9c8e4	-0.1141527
79	0xbd991f3d	-0.07476661
80	0x3e34fe74	0.17675191
81	0xbdaaf7a7	-0.08348017
82	0x3de1bd4d	0.110224344
83	0x3dea3dc9	0.11437566
84	0x3e2d27e9	0.16909756
85	0x3bf1bb50	0.0073770657
86	0x3be1344e	0.0068726903
87	0x3e403957	0.18771873
88	0xbe2b221b	-0.16712229
89	0x3e3b7818	0.18307531
90	0xbd2229ca	-0.039590634
91	0x3c7b3df2	0.015334593
92	0xbe37f0d6	-0.17962965
93	0x3db9b7b2	0.0906824
94	0x3d37f846	0.044914506
95	0xbcfc04d0	-0.030764014
96	0x3cd1db02	0.025617126
97	0x3ce7c20d	0.028290773
98	0x3e3ad6d0	0.18246007
99	0xbe6f759f	-0.23384713
100	0xbd18981f	-0.03725445
101	0x3e4b78f1	0.19870354
102	0xbdc9224f	-0.09820997
103	0x3e5c516b	0.21515433
104	0xbd95b0d5	-0.07309119
105	0x3e2129f7	0.15738665
106	0x3cbafeb1	0.022826524
107	0x3d765b72	0.060145803
108	0xbe81e0b1	-0.25366738
109	0x3d0fa44b	0.03506879
110	0xbdf049d8	-0.117328346
111	0xbc2cf9e8	-0.010557629
112	0xbe270773	-0.16311435
113	0xbdd4d8ad	-0.1039289
114	0xbd8e1a5c	-0.069386214
115	0xbd82fe0d	-0.063961126
116	0x3de9f266	0.11423187
117	0xbe2738ca	-0.16330257
118	0xbd8ff318	-0.07028788
119	0x3bf7180d	0.007540709
120	0x3dbfbf39	0.09362645
121	0xbd18b599	-0.03728256
122	0x3dd12f14	0.102140576
123	0xbde44897	-0.11146658
124	0xbd371b81	-0.044703964
125	0xbdc013f3	-0.09378805
126	0xbcdd9ceb	-0.027052363
127	0xbe1e80ab	-0.1547877
128	0xbd8bda87	-0.0682879
129	0x3e514032	0.20434645
130	0xbe339df0	-0.17540717
131	0x3e4cddd1	0.20006491
132	0xbe18e919	-0.1493267
133	0x3d3dcafb	0.046336155
134	0xbdef9674	-0.116986185
135	0xbc88e0b3	-0.016708707
136	0x3d7a282f	0.06107348
137	0xbce310f0	-0.027718037
138	0xbd958423	-0.07300594
139	0xbdb119ef	-0.086475246
140	0x3e0e8fbf	0.13922022
141	0x3d0b9102	0.034073837
142	0xbe18a7fa	-0.14907828
143	0x3e34a30d	0.17640324
144	0xbe36283c	-0.17788786
145	0x3e3eab37	0.18620001
146	0xbe4fed96	-0.20305476
147	0x3e1bd26b	0.15216987
148	0xbce3a33a	-0.027787793
149	0xbdec0b2a	-0.11525567
150	0xbd4a53bc	-0.04939626
151	0xbe0fab2b	-0.14030139
152	0x3e0110e2	0.12604097
153	0xbdb43684	-0.087994605
154	0x3d398f4a	0.045302667
155	0x3d3fbd39	0.046811316
156	0xbca262ac	-0.019822441
157	0xbbdb301e	-0.0066890856
158	0x3d4fd5a8	0.050740868
159	0xbe5c0cf7	-0.2148932
160	0xbe1afe1b	-0.15135996
161	0xbe04515b	-0.1292166
162	0x3c3e906f	0.011631115
163	0xbd731a12	-0.059351034
164	0xbd9611e1	-0.07327629
165	0xbdc72e06	-0.09725575
166	0xbdfd61fa	-0.12372203
167	0x3dd75475	0.10514156
168	0xbd1dc04a	-0.03851346
169	0x3e369bfc	0.17832941
170	0xbd063da7	-0.03277364
171	0xbde984bb	-0.114022695
172	0x3c302337	0.010750583
173	0xbe90aeaa	-0.28258258
174	0x3da2431a	0.07922955
175	0x3dd1c84b	0.10243281
176	0x3e2a0d6b	0.16606681
177	0xbe25f9d9	-0.1620859
178	0xbd92830f	-0.07153904
179	0xbe39696c	-0.18106622
180	0xbe299b8a	-0.1656324
181	0xbcdc8cf1	-0.026922675
182	0x3c450c5b	0.012026872
183	0x3e133303	0.14374928
184	0xbcee68ad	-0.029102648
185	0xbe32e40d	-0.17469807
186	0x3deefa57	0.11668842
187	0xbe47a3c0	-0.1949606
188	0x3dd9affc	0.106292695
189	0x3e1508d2	0.14554146
190	0xbe0b376f	-0.13595365
191	0xbd92f6ba	-0.071759656
192	0x3dc9a8b2	0.09846629
193	0xbd9c3c18	-0.076286495
194	0xbce1638c	-0.027513288
195	0x3e3f94bf	0.18709086
196	0xbbd8e739	-0.0066193608
197	0x3e01bed0	0.12670445
198	0xbc97cbe0	-0.018529832
199	0xbe604e8b	-0.21904962
200	0xbe2facd6	-0.17155775
201	0x3df11613	0.117717884
202	0xbd2e332f	-0.04252928
203	0x3e4127c9	0.18862833
204	0x3db0043c	0.08594558
205	0x3d8538e3	0.06504991
206	0xbcba11a6	-0.022713494
207	0xbdb00008	-0.08593756
208	0x3bddb86c	0.0067663696
209	0xbe148e59	-0.14507426
210	0xbe3322b9	-0.17493714
211	0xbd834453	-0.06409516
212	0xbd8fc816	-0.07020585
213	0xbe24bbe1	-0.16087295
214	0x3b901803	0.0043973937
215	0xbe1c8b72	-0.15287569
216	0x3e16d526	0.14729747
217	0xbc683fa2	-0.0141753275
218	0x3c590a43	0.0132470755
219	0x3c1df97a	0.009641999
220	0x3e43f01a	0.1913456
221	0x3d679a18	0.05654344
222	0x3dd1a025	0.10235623
223	0xbcfcaaff	-0.030843256
224	0xbc1a1b49	-0.009405919
225	0x3b1c73e0	0.0023872778
226	0x3dd6d8da	0.1049058
227	0x3ddf5697	0.109051876
228	0x3dd35342	0.103186145
229	0x3dd23a22	0.10264994
230	0xbe0614f5	-0.13093932
231	0xbdb32486	-0.08747201
232	0x3da7a382	0.081854835
233	0x3e060ce6	0.13090858
234	0xbe0e1697	-0.13875805
235	0x3df58fa2	0.119902864
236	0x3d358439	0.04431555
237	0x3d961d5a	0.07329817
238	0x3d60ee04	0.05491449
239	0xbdd532b5	-0.10410062
240	0x3dbd2fa7	0.092376046
241	0xbb857c80	-0.0040736794
242	0x3e190690	0.1494391
243	0x3e1e9236	0.15485463
244	0xbda90edc	-0.08254787
245	0xbe02dcc0	-0.12779522
246	0xbe07564a	-0.1321651
247	0x3d5f67ad	0.054542232
248	0xbe0bd852	-0.13656738
249	0x3dc1aa27	0.09456282
250	0xbdb4cc74	-0.08828059
251	0x3e2b5a2a	0.16733614
252	0x3e2b40a5	0.16723879
253	0xbe00ac2c	-0.12565678
254	0xbda27256	-0.07931964
255	0x3da76e0f	0.08175289

u_model.model.10.bias f4 [42]
0	0x3cef91a5	0.029244253
1	0x3aa9fd3d	0.0012969148
2	0xbdeda0ae	-0.11602913
3	0xbe11e97f	-0.14249228
4	0x3dd0df07	0.10198789
5	0x3cff23d2	0.03114501
6	0x3e73c87f	0.23806952
7	0xbdecb5ca	-0.11558111
8	0xbddfb030	-0.10922277
9	0xbde177ce	-0.11009179
10	0xbccffc7e	-0.025388952
11	0xbe19e1c8	-0.15027535
12	0xbde83e12	-0.11339964
13	0x3e030717	0.12795673
14	0x3d9a8cde	0.075463995
15	0x3e02909e	0.1275048
16	0x3d445e1b	0.04794131
17	0x3db60071	0.08886803
18	0xbcfa78bd	-0.03057515
19	0x3ba2326a	0.0049498575
20	0x3d3ae383	0.04562713
21	0x3c1e87b0	0.009675905
22	0x3cdadb6c	0.026715957
23	0x3e4c974e	0.19979593
24	0xbc53a422	-0.01291755
25	0x3ccfc4c7	0.025362385
26	0x3c8b8019	0.017028855
27	0xbe78aaa7	-0.24283849
28	0x3dcc332b	0.09970697
29	0xbd5b3224	-0.053514615
30	0x3c3df027	0.011592901
31	0xbdafa527	-0.08576422
32	0xbe012750	-0.12612653
33	0xbe249354	-0.16071826
34	0x3da3452d	0.079721786
35	0x3e1e33f0	0.154495
36	0xbe83ecf7	-0.25766727
37	0xbdc72e57	-0.097256355
38	0x39e39844	0.0004341026
39	0xbe244a83	-0.16044049
40	0xbeae7ecd	-0.34081116
41	0x3dc49065	0.095978536
