saved_models/grid_sampling/random.pt (torch, 76037 bytes, 42 tensors)

u_model.W f4 [20, 2]
-0.17370243 -1.8224748 0.7792122 -1.0139076 0.88352925 0.6286348 -0.2533254 -2.6560283
-0.7693194 0.8934805 0.45785776 0.060999125 1.5209954 0.910131 0.2917824 -0.24240544
0.055371433 -1.9745249 1.5358123 0.50325775 1.2364359 -0.7146594 0.004058981 0.5045492
0.7615966 -1.7114658 1.28597 -1.213175 0.32158145 -0.73869467 -0.05907856 -0.59618783
0.022158116 0.97921175 0.3586129 0.46209607 1.2535442 0.7329894 0.4851854 -1.6010278
00000000: 0ddf 31be db46 e9bf 737a 473f b9c7 81bf
00000010: f92e 623f 36ee 203f deb3 81be 5efc 29c0
00000020: 1ef2 44bf 23bb 643f 556c ea3e 38da 793d
00000030: faaf c23f 58fe 683f 8164 953e 2239 78be
00000040: 28cd 623d 3bbd fcbf 7f95 c43f 80d5 003f
00000050: 8843 9e3f ebf3 36bf 3301 853b 232a 013f
00000060: fff7 423f 5011 dbbf aa9a a43f 5249 9bbf
00000070: 53a6 a43e 181b 3dbf 5cfc 71bd c49f 18bf
00000080: f084 b53c 9fad 7a3f 1c9c b73e db97 ec3e
00000090: 2374 a03f 31a5 3b3f 396a f83e 7bee ccbf

u_model.b f4 [20]
5.6273417 1.3532276 3.6180096 1.5838169 1.4722763 0.8671149 3.980904 0.5936038
2.975888 6.2431674 5.862598 0.07148628 5.359353 3.833208 5.7702484 0.3771402
2.2763627 1.9663942 5.937174 5.5227
00000000: 2f13 b440 9036 ad3f 788d 6740 83ba ca3f
00000010: 8d73 bc3f 3efb 5d3f 22c7 7e40 6bf6 173f
00000020: f374 3e40 07c8 c740 679a bb40 6667 923d
00000030: d27f ab40 4853 7540 e0a5 b840 8518 c13e
00000040: edaf 1140 ceb2 fb3f 54fd bd40 f5b9 b040

u_model.model.0.weight f4 [42, 42]
-0.07653397 0.21319185 0.09734397 -0.11477429 -0.07312865 -0.27162406 -0.0070399377 -0.0654555
-0.044779003 0.043568492 0.046299957 -0.009817851 -0.032710962 -0.1354691 0.12389381 -0.12047558
-0.10001717 -0.028517773 -0.11394902 -0.021925988 0.09755583 -0.051900283 -0.05915956 -0.12554419
0.030449102 -0.10284973 0.080758706 0.034163993 -0.14484577 -0.023570642 0.05517181 0.15996073
-0.08017408 -0.07246785 -0.097254485 0.09973017 0.08494813 -0.02499966 0.11524121 -0.12218912
-0.15565498 -0.0025107362 0.09658241 0.13962221 -0.09417592 -0.0038933496 0.13655345 0.25859228
-0.11611285 -0.116078205 0.15422456 -0.07682104 -0.045817792 -0.19099942 -0.031975105 -0.04707299
-0.014933761 -0.17545824 0.1354176 -0.008480149 0.14420237 -0.03462273 0.06026025 0.01969985
-0.19633888 0.13999413 0.13273746 -0.21199249 0.14827587 -0.053709343 0.0038194044 -0.06378906
0.043893993 0.14533557 0.0069766827 -0.0929746 0.0054876343 -0.26989317 -0.12295573 0.03131065
0.10142263 -0.11703776 -0.043378375 -0.18855788 0.10896771 -0.057317432 -0.17735837 -0.07641063
-0.12547237 0.25714216 -0.06481176 -0.016376512 0.091402166 0.072240986 -0.0810533 0.07161977
0.12142303 0.100505866 -0.01724922 -0.032199096 -0.100873336 -0.09594673 -0.0705276 -0.022557138
0.10792821 0.08425688 0.045890436 -0.07326612 0.021999914 -0.1030837 -0.081055775 -0.048086602
-0.024880137 0.0073182955 0.14443715 0.04708058 0.12499752 -0.016921403 -0.15525185 0.00037667505
0.09023777 -0.12403155 2.1258436e-05 0.08711841 -0.12089673 0.050361723 -0.081342995 -0.014040762
0.041939232 0.032947037 -0.15831302 0.22589014 -0.079777606 -0.063294716 0.04881899 -0.12719846
0.094346285 0.11017247 0.15582915 -0.064987905 -0.013826002 0.09221328 0.08335232 -0.043711755
0.15144503 0.12306759 0.08589667 -0.08597729 -0.14581886 0.14024766 0.0037951905 -0.014367003
-0.01791951 -0.06945475 0.02762445 0.06909044 0.09017938 -0.018828316 0.10523546 0.07881843
0.06106688 0.121815875 0.086232126 0.11911216 -0.019916123 -0.07043108 0.06698376 0.008126861
0.014441933 -0.04468441 0.05578558 -0.03337259 0.055058386 0.36958084 0.011926485 -0.03548861
-0.030460386 0.086616665 -0.052981168 0.04776774 -0.11256404 0.07142429 -0.13674986 0.011196784
-0.07399679 -0.12587929 0.008752565 0.06072168 -0.07268042 -0.09020579 0.033119142 -0.035411727
0.09314031 -0.056014255 -0.053684592 0.104423605 -0.16642268 0.060275555 -0.023013897 -0.067611076
0.07287717 0.050582685 -0.121962905 -0.01938486 -0.002476589 -0.07862315 -0.0020092623 0.030715505
-0.064509064 -0.10926479 0.17181614 -0.077837296 0.041229934 0.09071841 -0.059955884 -0.3115884
-0.07990738 -0.11976632 0.09284755 -0.057404093 0.014672533 0.11844157 -0.050274916 0.07914164
0.15991484 -0.023124184 0.057561163 -0.072574206 0.120881625 -0.17556195 -0.04276304 0.05388411
-0.03932377 -0.114887156 0.068220764 -0.120423846 -0.0044468706 0.15239763 -0.12914996 0.17043574
-0.013573781 -0.06433539 0.024371874 -0.04020825 -0.018741166 0.18595105 0.038968634 0.042261485
0.14590281 -0.017354429 -0.005150624 -0.069573335 -0.12525438 -0.13594791 -0.031453613 0.0781906
00000000: d8bd 9cbd f74e 5a3e 465c c73d c80e ebbd
00000010: 79c4 95bd 4f12 8bbe 47af e6bb 880d 86bd
00000020: 306a 37bd e074 323d 06a5 3d3d 0ddb 20bc
00000030: eefb 05bd 69b8 0abe 0abc fd3d e7bb f6bd
00000040: cdd5 ccbd 1b9e e9bc 1b5e e9bd 219e b3bc
00000050: 5acb c73d 6495 54bd 4b51 72bd a88e 00be
00000060: 6570 f93c e1a2 d2bd d264 a53d 8bef 0b3d
00000070: 7352 14be 3817 c1bc d6fb 613d bfcc 233e
00000080: 4f32 a4bd 066a 94bd 5c2d c7bd 553f cc3d
00000090: 49f9 ad3d 16cc ccbc 9503 ec3d 4a3e fabd
000000a0: 0564 1fbe 2a8b 24bb 00cd c53d 20f9 0e3e
000000b0: 4edf c0bd 9127 7fbb abd4 0b3e 3566 843e
000000c0: 93cc edbd 69ba edbd 0bed 1d3e 5954 9dbd
000000d0: 70ab 3bbd 5a95 43be 54f8 02bd 9ccf 40bd
000000e0: bcac 74bc 53ab 33be e9aa 0a3e 53f0 0abc
000000f0: c9a9 133e 90d0 0dbd 74d3 763d 9461 a13c
00000100: 0f0d 49be 9f5a 0f3e 54ec 073e 8f14 59be
00000110: a1d5 173e 54fe 5bbd f94e 7a3b d7a3 82bd
00000120: 30ca 333d d9d2 143e a89c e43b 7869 bebd
00000130: 9dd1 b33b 702f 8abe 37d0 fbbd 993f 003d
00000140: abb6 cf3d 7eb1 efbd 86ad 31bd 5115 41be
00000150: 762a df3d afc5 6abd 6f9d 35be 2d7d 9cbd
00000160: d47b 00be 23a8 833e 07bc 84bd 0928 86bc
00000170: 0f31 bb3d 15f3 933d 46ff a5bd 63ad 923d
00000180: a3ac f83d 05d6 cd3d 3c4e 8dbc 33e3 03bd
00000190: ae96 cebd b87f c4bd c670 90bd bfc9 b8bc
000001a0: 7709 dd3d df8e ac3d 9cf7 3b3d 8c0c 96bd
000001b0: 2a39 b43c 8c1d d3bd 9200 a6bd 75f6 44bd
000001c0: 6ed1 cbbc 50ce ef3b 55e7 133e 91d7 403d
000001d0: b3fe ff3d c19e 8abc 57fa 1ebe 787c c539
000001e0: 94ce b83d 4104 febd 2554 b237 236b b23d
000001f0: b498 f7bd 1848 4e3d 2897 a6bd 390b 66bc
00000200: 79c8 2b3d 79f3 063d cf1c 22be bf4f 673e
00000210: 7162 a3bd a9a0 81bd 6cf6 473d 5040 02be
00000220: a038 c13d 1ba2 e13d ad91 1f3e 6118 85bd
00000230: 7586 62bc 51da bc3d 9fb4 aa3d 190b 33bd
00000240: 6814 1b3e dc0a fc3d 98ea af3d dd14 b0bd
00000250: 8a51 15be 159d 0f3e bbb8 783b 9463 6bbc
00000260: f0cb 92bc 4b3e 8ebd ac4c e23c 4a7f 8d3d
00000270: f7af b83d d73d 9abc b085 d73d 8f6b a13d
00000280: 4421 7a3d 9a7a f93d 789a b03d 13f1 f33d
00000290: 2327 a3bc 2c3e 90bd c82e 893d 8726 053c
000002a0: db9d 6c3c 0007 37bd 6c7f 643d b2b1 08bd
000002b0: e784 613d b339 bd3e 4e67 433c 815c 11bd
000002c0: 0f88 f9bc 1464 b13d c802 59bd 1ba8 433d
000002d0: fa87 e6bd e646 923d 2808 0cbe b772 373c
000002e0: a18b 97bd 80e6 00be eb66 0f3c 4cb7 783d
000002f0: 79d9 94bd d0bd b8bd f0a7 073d e30b 11bd
00000300: 59c0 be3d 346f 65bd 60e4 5bbd 0bdc d53d
00000310: b56a 2abe 80e3 763d a487 bcbc ad77 8abd
00000320: a040 953d ca2f 4f3d b0c7 f9bd ffcc 9ebc
00000330: 454e 22bb 2d05 a1bd d4ad 03bb 159f fb3c
00000340: 541d 84bd 38c6 dfbd 92f0 2f3e 2969 9fbd
00000350: b8e0 283d 93ca b93d 4d94 75bd 8488 9fbe
00000360: 7ba6 a3bd 0b48 f5bd db26 be3d 8e20 6bbd
00000370: 1065 703c 7e91 f23d 12ed 4dbd 0315 a23d
00000380: b7c0 233e ee6e bdbc 41c5 6b3d c9a1 94bd
00000390: c990 f73d 83c6 33be 4c28 2fbd 96b5 5c3d
000003a0: f611 21bd f549 ebbd 54b7 8b3d c7a0 f6bd
000003b0: 0eb7 91bb 200e 1c3e e33f 04be b586 2e3e
000003c0: 9064 5ebc 46c2 83bd 86a7 c73c 68b1 24bd
000003d0: 1387 99bc f469 3e3e 939d 1f3d 611a 2d3d
000003e0: 8c67 153e e02a 8ebc 91c6 a8bb 777c 8ebd
000003f0: af42 00be ee35 0bbe 81d5 00bd 6522 a03d

u_model.model.0.bias f4 [42]
0.09052987 -0.066056505 0.012342064 0.08776635 -0.024672307 -0.0750512 0.07414336 -0.13680457
-0.106810145 0.035066918 -0.047293536 0.03178689 0.022439478 -0.13750687 -0.063990854 0.1400202
0.010539738 -0.02251306 -0.051176824 0.023398517 0.0382318 0.04213582 -0.023640323 0.061292384
0.06289634 0.160299 -0.14059283 0.040475294 -0.028937701 -0.060593005 -0.13772336 0.054044478
-0.09659748 -0.08014481 0.03165656 0.044631556 0.037317183 0.10230203 -0.15142983 -0.055301707
0.024135316 -0.12577727
00000000: b967 b93d a248 87bd 5e36 4a3c d8be b33d
00000010: 941d cabc 72b4 99bd 79d8 973d 7f16 0cbe
00000020: 47bf dabd 54a2 0f3d deb6 41bd f832 023d
00000030: ffd2 b73c 9ace 0cbe a30d 83bd 7561 0f3e
00000040: deae 2c3c 4f6d b8bc ca9e 51bd 3fae bf3c
00000050: f398 1c3d 9c96 2c3d 5aa9 c1bc b90d 7b3d
00000060: cccf 803d 6c25 243e 91f7 0fbe 6cc9 253d
00000070: c20e edbc 5f30 78bd 5a07 0dbe be5d 5d3d
00000080: e6d4 c5bd f622 a4bd 4faa 013d 94cf 363d
00000090: e7d9 183d ba83 d13d 6c10 1bbe 0b84 62bd
000000a0: 6db7 c53c c2cb 00be

u_model.model.2.weight f4 [42, 42]
-0.07586511 -0.10372282 0.13929665 0.07489181 0.0049267295 -0.04129423 0.054461 0.030884609
0.15416743 0.123796284 -0.085414514 -0.06547902 -0.0011363531 0.024847938 -0.015538163 0.1980841
0.09610187 0.018919494 -0.14256452 -0.09325705 0.078141145 0.10669978 0.046926834 -0.1589531
-0.10020776 0.19234073 -0.11754838 -0.032997265 0.03883307 0.17784928 0.21186152 0.04771771
0.10375323 0.15947127 -0.19580133 -0.0056987954 -0.15386827 0.09148755 0.08203411 0.074290335
0.2002876 -0.23479182 0.013768952 0.020661306 -0.040836167 -0.06625077 -0.102348894 0.25315678
-0.05070522 -0.003477065 0.080596805 0.17183235 0.016940001 -0.020347135 0.23752685 0.20900296
-0.026015796 0.071698174 -0.0046181506 -0.21463832 -0.1870345 -0.07884172 -0.037273027 0.088236466
-0.0731681 -0.015837114 0.10653572 -0.03709824 0.1286614 -0.13917099 0.13829516 -0.11458906
0.22580741 -0.030920172 -0.016865926 -0.017256476 -0.0007718627 -0.032993056 -0.19680871 -0.064020716
0.1262764 0.17471336 0.18013231 -0.032210797 0.16539477 0.12316141 0.048864163 -0.21351574
-0.13936849 0.10935761 -0.17060454 0.0766569 0.16888678 0.11775372 -0.10967954 0.05005597
0.03493479 -0.008517796 -0.05326381 0.1575434 0.08529699 0.043424264 0.08177973 -0.11613147
0.11609519 0.18418749 0.049232945 -0.20904839 -0.08629017 -0.20589717 0.0030759189 0.1018572
0.0034276783 -0.21600349 0.22754331 0.0067903153 0.044262335 -0.08417989 -0.11444733 0.0030438658
-0.14241503 0.04304906 -0.021425087 0.17767778 -0.10255954 -0.078852564 -0.18314931 -0.04072759
0.09132509 0.03692914 -0.0012254597 -0.1412679 -0.050502155 -0.12419003 -0.04515384 0.040009446
-0.09720613 -0.019962272 -0.043174468 0.06200151 -0.22755556 -0.1271065 0.07461804 0.05681549
0.16317458 0.16076109 -0.1245313 -0.17905799 0.027129482 0.044481926 0.02419602 0.13634998
0.16474187 -0.006497565 0.06406091 -0.10029172 -0.057624474 -0.14020194 0.14234202 0.07620853
0.10140498 -0.009343665 0.1659795 0.04651267 -0.052588686 0.002199314 0.09484384 -0.07343355
0.015665801 0.017880335 -0.16254564 -0.036691908 -0.028325193 0.04283953 -0.07768399 0.058989067
0.03211443 0.13088731 0.09148455 -0.08762588 0.09092326 0.0076555903 0.009642358 -0.08381281
-0.017277915 -0.040953208 -0.052237984 -0.05923224 -0.060766734 0.090902254 0.055198513 0.063670464
0.07360194 -0.011360152 0.16611437 -0.036616255 -0.04356074 -0.13415593 -0.1573928 -0.051723294
0.02879094 -0.022163238 0.08353699 -0.0041666157 -0.10755469 0.12501527 -0.04751592 -0.16494292
-0.016155908 0.11410433 0.053045943 -0.09591425 0.10128632 0.033520993 -0.019085051 0.01489388
0.09902614 0.10353762 -0.003387843 0.15931432 -0.04122679 0.1289283 0.042594045 0.058534596
0.15727367 0.21330813 0.0450751 -0.19573443 -0.075434595 -0.12417073 -0.044702552 -0.102449395
0.051206283 -0.09080118 -0.08804918 -0.07385904 -0.32575 0.072352566 0.2235544 0.22926433
0.18941386 0.047129236 -0.0617951 -0.115815215 -0.12539712 -0.051760186 -0.097240314 0.12084462
-0.25576064 -0.0067889346 0.10188208 -0.12824047 0.19913226 -0.021726547 -0.017768491 0.12326808
00000000: 2b5f 9bbd a16c d4bd c8a3 0e3e e160 993d
00000010: 6770 a13b 2324 29bd 7f12 5f3d b801 fd3c
00000020: 11de 1d3e e888 fd3d ceed aebd dd19 86bd
00000030: aff1 94ba e78d cb3c c793 7ebc 8fd6 4a3e
00000040: 0fd1 c43d 0efd 9a3c 6ffc 11be 8dfd bebd
00000050: 7708 a03d 6a85 da3d 5a36 403d 9ac4 22be
00000060: ba39 cdbd f8f4 443e 34bd f0bd 2428 07bd
00000070: 6d0f 1f3d 1f1e 363e 3af2 583e a573 433d
00000080: 937c d43d 704c 233e 2580 48be f6bc babb
00000090: a58f 1dbe d35d bb3d 8001 a83d 8825 983d
000000a0: 3118 4d3e 446d 70be 2c97 613c e641 a93c
000000b0: d343 27bd 7cae 87bd 4c9c d1bd c49d 813e
000000c0: 47b0 4fbd 78df 63bb f00f a53d d2f4 2f3e
000000d0: c2c5 8a3c 09af a6bc 3d3a 733e df04 563e
000000e0: 141f d5bc 7ed6 923d db53 97bb 26ca 5bbe
000000f0: f985 3fbe c577 a1bd 9aab 18bd 52b5 b43d
00000100: 28d9 95bd d6bc 81bc 662f da3d 53f4 17bd
00000110: d0bf 033e d782 0ebe 3f9d 0d3e abad eabd
00000120: 0f3a 673e 4d4c fdbc 692a 8abc 745d 8dbc
00000130: d456 4aba ba23 07bd 3988 49be 4b1d 83bd
00000140: 9a4e 013e 0fe8 323e 9b74 383e 78ef 03bd
00000150: 3f5d 293e 0d3c fc3d ca25 483d dfa3 5abe
00000160: 9db6 0ebe e2f6 df3d f5b2 2ebe 4bfe 9c3d
00000170: a8f0 2c3e dd28 f13d ab9f e0bd 7d07 4d3d
00000180: c817 0f3d 3a8e 0bbc 272b 5abd 0f53 213e
00000190: 30b0 ae3d a4dd 313d 227c a73d 56d6 edbd
000001a0: 51c3 ed3d a59b 3c3e 7ca8 493d c810 56be
000001b0: e7b8 b0bd b5d6 52be 5b95 493b 829a d03d
000001c0: e6a2 603b 0530 5dbe 1d01 693e 4b81 de3b
000001d0: 6c4c 353d 8266 acbd 5d63 eabd 987b 473b
000001e0: 3fd5 11be 3654 303d aa83 afbc 2af1 353e
000001f0: bc0a d2bd 747d a1bd 7e8b 3bbe f9d1 26bd
00000200: a608 bb3d 0343 173d 9b9f a0ba 88a8 10be
00000210: 59db 4ebd 5857 febd 3cf3 38bd f2e0 233d
00000220: 0214 c7bd eb87 a3bc b6d7 30bd 4cf5 7d3d
00000230: 5304 69be 3528 02be 58d1 983d 5cb7 683d
00000240: 3d17 273e 8e9e 243e 440a ffbd fa5a 37be
00000250: a63e de3c ae32 363d bb36 c63c 549f 0b3e
00000260: 18b2 283e 87e9 d4bb 5e32 833d bf65 cdbd
00000270: a407 6cbd 1991 0fbe 1bc2 113e 3813 9c3d
00000280: 6aad cf3d 2c16 19bc 88f6 293e 1284 3e3d
00000290: 3c67 57bd 5e22 103b 7d3d c23d 5464 96bd
000002a0: 9155 803c c879 923c 5d72 26be 414a 16bd
000002b0: 3c0a e8bc 8178 2f3d c918 9fbd 859e 713d
000002c0: 6c8a 033d 5307 063e 405c bb3d 3375 b3bd
000002d0: f935 ba3d bfdb fa3b fbfa 1d3c 0da6 abbd
000002e0: 6a8a 8dbc 8dbe 27bd 7ff7 55bd 819d 72bd
000002f0: 8ae6 78bd f62a ba3d d617 623d a965 823d
00000300: 9dbc 963d ee1f 3abc e319 2a3e edfa 15bd
00000310: bf6c 32bd 2c60 09be 942b 21be cedb 53bd
00000320: fada eb3c ae8f b5bc 7115 ab3d 1b88 88bb
00000330: a245 dcbd 0104 003e 0ea0 42bd cce6 28be
00000340: 6559 84bc 88af e93d b446 593d b16e c4bd
00000350: 346f cf3d 4f4d 093d 4158 9cbc 7605 743c
00000360: 38ce ca3d 880b d43d 9306 5ebb 4b23 233e
00000370: 6cdd 28bd c805 043e 1877 2e3d f9c1 6f3d
00000380: 590c 213e 726d 5a3e aba0 383d 9b6e 48be
00000390: 747d 9abd 394d febd 061a 37bd fdd0 d1bd
000003a0: aebd 513d f8f5 b9bd 2153 b4bd 6943 97bd
000003b0: b4c8 a6be 952d 943d 72eb 643e 45c4 6a3e
000003c0: b5f5 413e 960a 413d dc1c 7dbd 8730 edbd
000003d0: 1a68 00be 7d02 54bd ee25 c7bd 627d f73d
000003e0: 0ff3 82be b675 debb 8da7 d03d 7851 03be
000003f0: 54e9 4b3e dffb b1bc 3a8f 91bc fa73 fc3d

u_model.model.2.bias f4 [42]
-0.10975564 0.11552648 0.05565013 -0.10587405 -0.10548625 0.07335351 -0.06756518 0.03755113
-0.103537455 -0.0850049 -0.04991907 -0.090807095 0.101928264 -0.11507195 -0.052429244 -0.119932376
0.1352907 0.03829078 -0.08433708 -0.037858076 0.0389193 -0.045202333 0.12559678 -0.03644462
0.12160825 0.10496167 0.103357464 0.01534319 -0.03621932 0.036751956 0.084109746 -0.004229912
0.04534086 0.12297395 -0.08905321 -0.010447977 0.004070546 -0.019680995 -0.066323176 0.06670114
0.020989604 -0.07387666
00000000: 91c7 e0bd 2699 ec3d 64f1 633d 7ed4 d8bd
00000010: 2d09 d8bd 5d3a 963d 9d5f 8abd 37cf 193d
00000020: 720b d4bd 0d17 aebd f077 4cbd 12f9 b9bd
00000030: c4bf d03d d8aa ebbd 0cc0 56bd 1b9f f5bd
00000040: a589 0a3e cbd6 1c3d ebb8 acbd 1211 1bbd
00000050: d869 1f3d 1526 39bd 719c 003e f446 15bd
00000060: bf0d f93d 25f6 d63d 14ad d33d 0162 7b3c
00000070: b65a 14bd 3889 163d bb41 ac3d 139b 8abb
00000080: 56b7 393d c4d9 fb3d 8861 b6bd fe2d 2bbc
00000090: 3762 853b 0a3a a1bc 72d4 87bd 9b9a 883d
000000a0: 64f2 ab3c a54c 97bd

u_model.model.4.weight f4 [42, 42]
-0.008318372 -0.07208386 -0.09663995 0.11218444 -0.17032328 -0.050469168 0.08440269 -0.093217984
-0.03635798 -0.08625583 0.018436978 -0.045741394 -0.11606732 -0.08150654 -0.005885285 0.18083528
0.15650944 0.0021210017 0.1306402 -0.0041456614 -0.081762694 0.062357657 0.089434706 0.1176948
0.048611533 0.11819716 -0.12167918 0.24088624 0.05851951 0.20321178 -0.0361042 -0.11403197
-0.17082727 0.010423508 -0.016802458 -0.10717888 -0.1899405 0.015692214 0.12669788 0.19398631
0.028180959 0.14260156 -0.073164694 0.018280122 0.10449013 0.11346334 0.09181428 -0.2300203
0.054701976 0.1689146 0.076716684 -0.1408192 -0.072381996 -0.07863051 -0.23722532 -0.043085195
0.07054929 -0.13966215 -0.09793476 -0.18700029 -0.12796856 0.15562066 -0.113713875 0.005407364
-0.05128364 -0.00816571 -0.027673429 -0.09207005 -0.0802522 -0.11759294 0.103597105 -0.10382866
-0.14460461 -0.11346288 0.100466326 -0.08369707 -0.06002813 -0.16359517 0.37364015 0.03618721
-0.16027477 -0.1089708 -0.124124624 -0.10892882 0.14060624 0.054605786 0.20304938 -0.017700277
0.15448005 -0.016804669 -0.13308226 0.20711793 0.0076677823 -0.027208854 -0.056911163 0.199354
-0.050678898 0.012448674 0.038625695 -0.090254426 0.05576678 0.11234173 0.123840265 0.0705286
0.05539861 0.04664873 -0.015273136 -0.29788876 0.0011223706 -0.073283054 0.104152724 -0.21913847
-0.026449936 -0.12540115 0.07765656 0.13275991 0.2906313 -0.04200933 -0.24212423 -0.0473076
-0.09418926 -0.330673 -0.10648058 0.017096765 -0.16512765 -0.06340316 0.1376918 0.1143617
0.046558805 -0.03136628 -0.032465294 -0.026890438 0.05375819 0.03718905 0.01691822 0.103619695
0.097181745 -0.1311298 0.0099799195 -0.20644955 0.10526064 -0.051959842 0.030188905 -0.022914305
0.2083657 -0.1781791 -0.15923834 -0.121380515 0.078847274 -0.021122234 -0.01294326 0.048326615
-0.093459755 0.0142582785 0.065816805 -0.08312091 0.25609815 0.057289958 0.04989109 -0.0570364
0.206052 -0.09059532 -0.25424787 0.05482685 -0.07428186 0.1160386 -0.031630706 -0.09884688
0.09637503 0.112264976 0.049158834 -0.1557579 0.061504748 -0.032295343 0.17777124 0.10444079
-0.0077334805 -0.1392783 -0.057511702 0.10872915 -0.12910837 0.0488701 -0.15245067 -0.10462224
-0.037732624 -0.06427203 -0.13318813 0.0140075125 -0.055347994 0.07551518 -0.0051019546 -0.14787367
0.13934438 0.105351076 0.09991968 0.02667727 -0.0056705046 0.07624179 -0.16323955 0.06017495
0.17415789 0.0072596706 -0.17599827 0.04788033 0.06139545 0.13183318 -0.084506474 0.1527379
0.09669523 0.028017115 0.14157766 0.051513456 0.24507956 -0.15100886 -0.13501446 0.23930922
0.051190946 0.20653524 0.049282223 0.03204336 0.11815991 0.035396326 0.2666077 -0.18153901
0.12305228 0.0029699479 -0.14355649 0.3993016 -0.108825184 0.0081504425 0.01703543 -0.083790585
0.0698194 -0.19558196 -0.0868008 -0.18551807 -0.07162894 -0.23640804 0.0035759402 -0.13887979
0.076911375 -0.22955953 -0.06379461 -0.049406536 -0.44065052 0.19755556 -0.15051258 -0.20588236
-0.008320206 0.07232207 0.17191361 -0.050079938 0.12739643 0.071244806 0.1684577 0.051929563
00000000: c849 08bc b4a0 93bd 2beb c5bd f5c0 e53d
00000010: 3a69 2ebe c2b8 4ebd 51db ac3d 12e9 bebd
00000020: 1bec 14bd e6a6 b0bd 2509 973c 545b 3bbd
00000030: b4b4 edbd e7ec a6bd 59d9 c0bb e22c 393e
00000040: 0344 203e 8100 0b3b 8bc6 053e 54d8 87bb
00000050: 3373 a7bd be6a 7f3d 8b29 b73d f909 f13d
00000060: e31c 473d 5a11 f23d ef32 f9bd e2aa 763e
00000070: 27b2 6f3d c016 503e ffe1 13bd 9889 e9bd
00000080: 58ed 2ebe 5cc7 2a3c 4fa5 89bc 9a80 dbbd
00000090: c37f 42be f58c 803c 17bd 013e 59a4 463e
000000a0: c1db e63c 2506 123e 5fd7 95bd 32c0 953c
000000b0: ecfe d53d 785f e83d 2009 bc3d 718a 6bbe
000000c0: 2e0f 603d f3f7 2c3e a31d 9d3d e932 10be
000000d0: 033d 94bd 0809 a1bd 32eb 72be 1a7a 30bd
000000e0: 257c 903d 9803 0fbe 0592 c8bd 017d 3fbe
000000f0: 310a 03be 065b 1f3e d2e2 e8bd 4230 b13b
00000100: cb0e 52bd 78c9 05bc 63b3 e2bc 398f bcbd
00000110: 445b a4bd 91d4 f0bd b82a d43d 1fa4 d4bd
00000120: 3b13 14be 3a5f e8bd 4ac1 cd3d 5f69 abbd
00000130: 0ee0 75bd 7e85 27be c34d bf3e 0a39 143d
00000140: 121f 24be 152c dfbd 0d35 febd 1316 dfbd
00000150: 15fb 0f3e 51aa 5f3d 2dec 4f3e 2c00 91bc
00000160: 0530 1e3e f2a9 89bc b746 08be b916 543e
00000170: 0542 fb3b 1ae5 debc ae1b 69bd 7423 4c3e
00000180: ad94 4fbd 86f5 4b3c fa35 1e3d 50d7 b8bd
00000190: b56b 643d 6c13 e63d f79f fd3d 4c71 903d
000001a0: a7e9 623d bd12 3f3d 2d3c 7abc e084 98be
000001b0: 821c 933a 6d15 96bd 064e d53d d665 60be
000001c0: 89ad d8bc 2969 00be 670a 9f3d 37f2 073e
000001d0: a0cd 943e fa11 2cbd 6aef 77be 9dc5 41bd
000001e0: 4ce6 c0bd f94d a9be 7e12 dabd 840e 8c3c
000001f0: 3917 29be 84d9 81bd 14ff 0c3e 7836 ea3d
00000200: 72b4 3e3d ee79 00bd 54fa 04bd 5649 dcbc
00000210: 8c31 5c3d 8c53 183d 1498 8a3c 9036 d43d
00000220: 3907 c73d e446 06be d182 233c 8367 53be
00000230: e492 d73d d8d3 54bd b94e f73c c8b6 bbbc
00000240: d15d 553e 9574 36be 600f 23be 5996 f8bd
00000250: ae7a a13d 8908 adbc f80f 54bc 21f2 453d
00000260: d467 bfbd 8e9b 693c f6ca 863d 4c3b aabd
00000270: 4c1f 833e e0a8 6a3d 995a 4c3d 009f 69bd
00000280: 4cff 523e 0a8a b9bd c72c 82be 1e92 603d
00000290: 1621 98bd a5a5 ed3d 338f 01bd 3c70 cabd
000002a0: 4660 c53d 2eeb e53d c65a 493d 007f 1fbe
000002b0: 67ec 7b3d 1f48 04bd aa09 363e 0ee5 d53d
000002c0: 2369 fdbb f89e 0ebe 6491 6bbd 63ad de3d
000002d0: fc34 04be 042c 483d 071c 1cbe 2f44 d6bd
000002e0: 868d 1abd 0ea1 83bd 7862 08be c47f 653c
000002f0: 94b4 62bd b4a7 9a3d 4c2e a7bb 326c 17be
00000300: 4bb0 0e3e 4ec2 d73d b0a2 cc3d 4a8a da3c
00000310: a4cf b9bb a824 9c3d 4528 27be 027a 763d
00000320: 7256 323e 88e2 ed3b e438 34be 2a1e 443d
00000330: cc79 7b3d 47ff 063e bb11 adbd 5367 1c3e
00000340: 2608 c63d 2684 e53c bcf9 103e c6ff 523d
00000350: 23f6 7a3e 11a2 1abe 3b41 0abe 7a0d 753e
00000360: 99ad 513d f97d 533e 28dc 493d e63f 033d
00000370: d3fd f13d bdfb 103d ce80 883e 5de5 39be
00000380: d502 fc3d 75a3 423b 7900 13be 4271 cc3e
00000390: bddf debd 6f89 053c e38d 8b3c 669a abbd
000003a0: 79fd 8e3d a346 48be 9ec4 b1bd 73f8 3dbe
000003b0: 32b2 92bd f314 72be 525a 6a3b 8136 0ebe
000003c0: b683 9d3d a711 6bbe c0a6 82bd 825e 4abd
000003d0: f29c e1be 014c 4a3e f81f 1abe d3d2 52be
000003e0: 7951 08bc 981d 943d 1f0a 303e 9f20 4dbd
000003f0: 3674 023e cce8 913d 2d80 2c3e 18b4 543d

u_model.model.4.bias f4 [42]
-0.1454364 0.11418087 0.12158112 0.09889237 0.06400949 0.028320283 0.046980362 -0.075830884
-0.014727455 -0.08471094 0.028502207 -0.038874492 0.14069083 0.05785126 0.06498405 -0.055532012
-0.0023891039 0.12517454 0.073802374 -0.112896815 -0.05664509 0.07679329 0.08839628 0.027299695
-0.021599062 0.091280274 0.03398132 0.029899346 0.052102618 -0.06281582 -0.108025916 0.12855408
-0.08006323 -0.109415986 -0.0996285 0.09554234 0.088046245 0.062736295 0.14430328 -0.14316149
-0.111184895 0.053659607
00000000: 48ed 14be a9d7 e93d 86ff f83d 1588 ca3d
00000010: 6817 833d f0ff e73c 7b6e 403d 394d 9bbd
00000020: 6c4b 71bc ee7c adbd 767d e93c dc3a 1fbd
00000030: 4211 103e 71f5 6c3d 5c16 853d 8975 63bd
00000040: 8392 1cbb c12d 003e b325 973d 7236 e7bd
00000050: af04 68bd cd45 9d3d 1c09 b53d 9ca3 df3c
00000060: 84f0 b0bc 27f1 ba3d ff2f 0b3d 79ef f43c
00000070: 8e69 553d 95a5 80bd b13c ddbd aea3 033e
00000080: 31f8 a3bd 7d15 e0bd 070a ccbd b4ab c33d
00000090: 9751 b43d e37b 803d 3dc4 133e ed98 12be
000000a0: e8b4 e3bd 2dca 5b3d

u_model.model.6.weight f4 [42, 42]
0.18511143 -0.0502518 -0.053891458 0.19430459 -0.10148482 0.12470842 0.19158468 -0.08779883
0.038367737 0.19569157 0.18358426 -0.07861104 0.14495565 -0.12198503 0.07971825 0.10119772
0.07187123 0.12678185 0.08837158 0.10772818 0.12939143 0.15655288 0.0633708 0.21377033
0.16132636 -0.031253267 -0.063912615 0.098763704 -0.016167428 0.17344965 -0.019413577 -0.013772185
-0.15737943 -0.013413722 0.069171116 -0.15541922 -0.076619714 0.075632 0.0047136336 0.16447945
-0.07974466 0.08145239 -0.11085683 0.12356507 0.07085364 -0.06257578 0.12615134 0.07211387
-0.108752236 -0.14965315 -0.035566766 -0.2045463 0.09458608 0.029648006 0.08084041 0.10708268
-0.15729289 0.020382991 -0.10973774 0.108270824 0.026860537 0.10449781 0.12774888 0.07728867
0.08396333 0.097216 -0.15539338 -0.053280395 -0.13359584 -0.15503922 -0.13186163 -0.119338065
-0.0030392765 -0.10924836 -0.3098453 0.020811263 -0.06816042 0.066971816 -0.05203904 0.09092151
0.13782686 -0.0012858724 -0.17204984 -0.015553608 0.14181237 -0.11735434 -0.21938403 -0.12051735
-0.14516713 0.005041301 -0.030310337 0.09986959 -0.07884889 -0.020645369 0.00095140084 0.07515229
0.051356755 -0.14147143 0.11736699 0.10001488 0.15508355 0.05514412 -0.045213353 0.058214806
-0.089342795 -0.044253968 -0.04601092 0.07645281 -0.041970834 -0.10874197 -0.045411963 0.07909919
-0.15136598 0.032547038 -0.023056567 -0.117628925 -0.001965914 0.120071486 -0.06745354 -0.12524357
-0.16005722 0.24335748 -0.10343316 0.13988738 -0.020257156 -0.0046139318 -0.03145978 -0.09695027
-0.00020195346 0.09055236 -0.09363263 0.15380254 0.08929636 0.002886649 0.008800129 0.12561676
-0.112184845 -0.06085544 -0.15134686 0.009210534 0.11152919 0.08655116 -0.09030429 0.106226005
0.165185 0.06230772 0.120573476 -0.1298116 0.10496519 -0.13024873 0.0996767 0.09460978
0.11535522 0.110022545 0.11012606 0.12432616 -0.07564909 0.15328601 0.17871448 0.11652184
-0.09478191 -0.08371389 0.021013469 -0.020978443 -0.13995253 0.20658366 0.12936477 -0.12085596
0.050838333 -0.2716707 -0.114686705 0.11960602 -0.010737782 0.14528613 0.10061847 -0.08615764
-0.19650513 0.101446554 0.167381 -0.019281564 -0.071915045 0.28661954 -0.1509908 0.07927544
0.10482772 -0.08006884 -0.029232906 0.093360506 0.13099158 -0.0246612 -0.003107677 0.42745888
-0.09857352 -0.025972387 0.010224275 -0.040823523 0.047509596 0.014159837 -0.18177037 0.032745812
-0.32600698 -0.076169 0.075620554 0.13000266 0.14284268 0.0026759387 0.08490228 -0.10207586
-0.15782988 -0.15206213 0.05095924 -0.12269789 0.1271323 0.14242113 -0.019728396 0.005828829
0.15321246 -0.12933892 0.12940632 0.12799306 -0.167195 0.09808708 -0.06862927 0.12082973
0.0476968 -0.10423902 0.12748191 -0.10476781 -0.101319976 -0.004793471 0.11729924 0.05688668
0.13536087 -0.049392305 0.05090542 -0.06956812 0.23868461 0.09050383 -0.07382876 0.0072902828
-0.06722987 0.022021335 0.09756989 -0.06441011 -0.24237198 -0.021096148 -0.08934993 0.14762232
-0.05085736 0.04668045 0.16514419 0.019378975 0.01642417 -0.3539348 0.07348653 0.18951628
00000000: da8d 3d3e d5d4 4dbd 4abd 5cbd c8f7 463e
00000010: 46d7 cfbd 2167 ff3d c62e 443e dfcf b3bd
00000020: 7d27 1d3d 5f63 483e 83fd 3b3e d3fe a0bd
00000030: 416f 143e 4ad3 f9bd 5243 a33d c040 cf3d
00000040: 3931 933d 1ad3 013e 29fc b43d 98a0 dc3d
00000050: 307f 043e 664f 203e 8dc8 813d 9ce6 5a3e
00000060: bd32 253e 6d03 00bd 9ee4 82bd a044 ca3d
00000070: 8e71 84bc c99c 313e 3909 9fbc bba4 61bc
00000080: 1328 21be 3ac5 5bbc 96a9 8d3d 3726 1fbe
00000090: ccea 9cbd f3e4 9a3d d374 9a3b 4d6d 283e
000000a0: 2b51 a3bd 83d0 a63d e808 e3bd af0f fd3d
000000b0: b71b 913d bb27 80bd d12d 013e 70b0 933d
000000c0: 7eb9 debd ad3e 19be 75ae 11bd 9674 51be
000000d0: 59b6 c13d 60e0 f23c a88f a53d 2a4e db3d
000000e0: 6311 21be 3bfa a63c 2ebe e0bd 18bd dd3d
000000f0: a10a dc3c f302 d63d 9ad0 023e 8649 9e3d
00000100: f7f4 ab3d 2f19 c73d 711f 1fbe 8b3c 5abd
00000110: 59cd 08be 9ac2 1ebe bc06 07be 8467 f4bd
00000120: 992e 47bb 9bbd dfbd 0ba4 9ebe 627c aa3c
00000130: b197 8bbd 8528 893d e326 55bd 0e35 ba3d
00000140: 7c22 0d3e b88a a8ba d52d 30be 8fd4 7ebc
00000150: 4337 113e 7957 f0bd 35a6 60be cdd1 f6bd
00000160: b1a6 14be 7f31 a53b 624d f8bc 6d88 cc3d
00000170: 877b a1bd 7a20 a9bc 6e67 793a 72e9 993d
00000180: 765b 523d e3dd 10be 1b5e f03d 9ad4 cc3d
00000190: 39ce 1e3e cdde 613d a331 39bd a672 6e3d
000001a0: 5bf9 b6bd a643 35bd f275 3cbd 4a93 9c3d
000001b0: 9ce9 2bbd 1cb4 debd e501 3abd c2fe a13d
000001c0: afff 1abe 0b50 053d 20e1 bcbc 6fe7 f0bd
000001d0: 90d6 00bb 0ae8 f53d 1525 8abd da3f 00be
000001e0: 0ae6 23be b432 793e c4d4 d3bd a33e 0f3e
000001f0: 56f2 a5bc 7730 97bb f8db 00bd dd8d c6bd
00000200: 78c3 53b9 8473 b93d 77c2 bfbd 6a7e 1d3e
00000210: 03e1 b63d ef2d 3d3b 6b2e 103c aea1 003e
00000220: 2bc1 e5bd 8e43 79bd acfa 1abe c8e7 163c
00000230: 6a69 e43d bc41 b13d 75f1 b8bd 058d d93d
00000240: 4226 293e 6136 7f3d 3aef f63d 55ed 04be
00000250: fdf7 d63d ec5f 05be 4c23 cc3d c6c2 c13d
00000260: 5c3f ec3d 8053 e13d c689 e13d b79e fe3d
00000270: e9ed 9abd 02f7 1c3e ee00 373e 01a3 ee3d
00000280: 051d c2bd 3072 abbd 7024 ac3c fcda abbc
00000290: b74f 0fbe ab8a 533e 3378 043e 5483 f7bd
000002a0: db3b 503d 6c18 8bbe dde0 eabd 00f4 f43d
000002b0: 86ed 2fbc e3c5 143e 0e11 ce3d 6b73 b0bd
000002c0: a438 49be 36c3 cf3d ed65 2b3e 5ff4 9dbc
000002d0: 3248 93bd ccbf 923e 559d 1abe 295b a23d
000002e0: eaaf d63d 22fb a3bd d979 efbc cb33 bf3d
000002f0: a822 063e 4906 cabc 2baa 4bbb e4db da3e
00000300: eae0 c9bd 0bc4 d4bc b883 273c 9136 27bd
00000310: 6c99 423d a9fe 673c 0322 3abe 7920 063d
00000320: 63ea a6be 7efe 9bbd f3de 9a3d 6b1f 053e
00000330: 5a45 123e cd5e 2f3b 3fe1 ad3d 260d d1bd
00000340: 289e 21be 2db6 1bbe a3ba 503d 0849 fbbd
00000350: f82e 023e d8d6 113e 729d a1bc c3ff be3b
00000360: bae3 1c3e 6c71 04be 1783 043e 9d10 033e
00000370: 2b35 2bbe e1e1 c83d 818d 8cbd 9475 f73d
00000380: b85d 433d 447b d5bd 9e8a 023e 8190 d6bd
00000390: d980 cfbd 8d12 9dbb 953a f03d 0202 693d
000003a0: 0a9c 0a3e 964f 4abd 3482 503d bb79 8ebd
000003b0: bd69 743e 125a b93d 8833 97bd 53e3 ee3b
000003c0: d0af 89bd 1666 b43c b9d2 c73d 73e9 83bd
000003d0: 5c30 78be d4d1 acbc 19fd b6bd 4e2a 173e
000003e0: cf4f 50bd 0034 3f3d 8f1b 293e a8c0 9e3c
000003f0: fb8b 863c f136 b5be 1b80 963d 8e10 423e

u_model.model.6.bias f4 [42]
0.042444453 -0.116682954 0.13575108 0.0060845884 -0.037047125 0.03151251 0.024268514 -0.12810583
0.1495592 -0.026879536 0.043413617 -0.029743351 -0.17307653 -0.12913467 -0.02772202 -0.031939182
0.11431876 0.007585542 0.13467602 0.10763884 0.020766629 0.013158619 0.013208393 -0.040863283
-0.087255254 0.04072099 0.060916215 0.03075599 0.14760482 0.018468611 0.021866426 -0.040186275
0.17696925 0.14590442 -0.092808194 -0.10553631 -0.16946295 0.16198401 0.12791383 0.06748791
0.10596176 -0.10481392
00000000: 3cda 2d3d 79f7 eebd 5502 0b3e 3a61 c73b
00000010: babe 17bd 4313 013d c3ce c63c 2d2e 03be
00000020: 0c26 193e 7932 dcbc 7ad2 313d 54a8 f3bc
00000030: f93a 31be e13b 04be 4a19 e3bc a9d2 02bd
00000040: f41f ea3d 2390 f83b 83e8 093e c171 dc3d
00000050: c71e aa3c 4097 573c 0468 583c 4260 27bd
00000060: e2b2 b2bd 0ecb 263d 4883 793d fcf3 fb3c
00000070: b825 173e 7c4b 973c 3821 b33c 5d9a 24bd
00000080: 6d37 353e f867 153e 3912 bebd 6c23 d8bd
00000090: b287 2dbe 23df 253e d8fb 023e 1a37 8a3d
000000a0: 7b02 d93d aea8 d6bd

u_model.model.8.weight f4 [42, 42]
0.11069908 0.04840697 -0.007957243 -0.050879125 -0.024520006 0.07500217 -0.055759214 0.10571039
-0.067059934 -0.19580519 -0.017067563 0.027065326 -0.08350883 -0.10499192 0.12665801 0.16855305
0.16476838 0.14999466 0.018693937 -0.11707147 0.10587612 -0.08613787 0.19549882 0.038551748
-0.14379485 -0.06162681 -0.18755051 0.05109806 -0.06299632 0.061584044 0.118751384 -0.16861421
0.13209517 0.09620323 0.028708542 0.14659102 -0.09735632 -0.078549445 -0.16032335 0.18629941
-0.042097066 0.028259257 -0.06668046 -0.05186694 0.15808564 0.2172942 0.050083134 -0.015079868
0.14604843 0.11698878 -0.20727548 0.1494825 -0.14418638 0.108859144 -0.045260683 0.029994246
-0.18978858 -0.114043765 -0.011928754 -0.009339548 -0.085806645 0.15113565 -0.09220383 -0.1181153
-0.05219896 -0.18243594 0.16545911 0.100000516 0.103563964 0.07005399 0.09045677 -0.17644742
-0.051204696 -0.008737638 -0.04109168 0.07205003 -0.095807984 0.035320897 -0.015111691 -0.19675422
0.19364393 -0.06530937 -0.14647023 0.08093613 -0.13366678 0.004772162 -0.16979179 0.06830021
0.015015401 0.23568213 0.17300977 -0.06782024 -0.15709445 0.078835264 -0.010477723 0.054112103
0.12646587 0.10378285 0.08470052 0.104194604 0.029024659 0.017240744 0.11802726 -0.16273117
-0.12749326 -0.17618553 0.074520625 -0.10600174 0.103101574 0.112094775 -0.11305916 -0.22776683
-0.088737644 -0.15650065 -0.13774534 0.04135939 0.03898313 -0.13407342 -0.08658927 -0.10068829
0.16568469 -0.028976768 0.20494945 -0.09527072 0.03914522 -0.0072787437 -0.24255897 0.14278276
0.018362513 -0.15844944 0.14337884 0.056900606 -0.08041417 0.09258605 -0.03114998 -0.1516243
-0.06119743 0.0028967757 0.3162456 0.03895361 -0.17904206 0.1051476 -0.22020131 0.15418322
0.21693394 0.0045675216 0.005837468 -0.09846722 0.027822195 -0.045686893 -0.018156495 -0.034493815
-0.018231094 -0.23948114 -0.14937568 -0.16702087 -0.09181969 0.027640667 -0.19477385 -0.25793296
0.11574731 0.19978125 0.061962638 -0.041019976 0.12966686 -0.03887511 0.073963694 0.24600615
-0.06947391 0.16774087 0.039017294 -0.028716138 0.026515372 -0.09238427 -0.24148929 -0.024302201
-0.10852552 -0.069117285 0.13996255 -0.031928983 0.06916202 -0.04691121 0.06995489 -0.10720114
0.018379075 -0.11102634 0.16911839 -0.08197127 0.042437464 -0.040103123 0.19983904 -0.13740717
0.10889999 -0.03536451 -0.21896254 -0.02510768 0.16007772 0.1404086 0.01835668 0.075105555
0.071172275 0.1350626 0.1340564 0.08599631 0.02589585 -0.047654044 -0.25063053 0.0031818964
0.0924773 -0.1256779 0.02498646 0.017677547 -0.21835408 -0.17989126 0.033637658 0.16490957
-0.082324125 -0.05982351 -0.11912762 -0.14967886 0.12439412 0.12954566 0.10947719 -0.07298199
0.14678876 -0.0074230786 -0.19148359 0.17094368 0.19696184 -0.15550016 -0.08001985 -0.06294077
-0.022921976 0.19512665 -0.08035025 0.0135216685 0.054441925 0.013312078 -0.12619494 -0.11388054
-0.06907741 0.062094238 0.013529076 -0.16676955 0.079104 0.17740417 0.00958056 0.06260139
-0.059804678 0.12836002 -0.08595279 0.054257456 0.11090961 -0.031372365 0.17773186 0.16015615
00000000: 33b6 e23d 6346 463d 195f 02bc a166 50bd
00000010: 2ede c8bc bd9a 993d c663 64bd b07e d83d
00000020: b856 89bd 2881 48be 46d1 8bbc 1ab8 dd3c
00000030: ad06 abbd 0106 d7bd a3b2 013e 2c99 2c3e
00000040: 0bb9 283e 3398 193e 0724 993c 2bc3 efbd
00000050: 94d5 d83d 0d69 b0bd d830 483e 70e8 1d3d
00000060: f53e 13be 656c 7cbd 3e0d 40be 334c 513d
00000070: 3704 81bd 8d3f 7c3d ed33 f33d 34a9 2cbe
00000080: f543 073e 3306 c53d 2d2e eb3c f51b 163e
00000090: c062 c7bd 88de a0bd ce2b 24be 46c5 3e3e
000000a0: f96d 2cbd f57f e73c c48f 88bd 6e72 54bd
000000b0: 34e1 213e 5f82 5e3e f923 4d3d 8d11 77bc
000000c0: b88d 153e d097 ef3d 0640 54be f111 193e
000000d0: 98a5 13be 8bf1 de3d 4463 39bd 7eb6 f53c
000000e0: f057 42be c78f e9bd d270 43bc e704 19bc
000000f0: 65bb afbd 4ec3 1a3e 5dd5 bcbd 6fe6 f1bd
00000100: 94ce 55bd 7dd0 3abe 1d6e 293e 12cd cc3d
00000110: 5819 d43d 7778 8f3d 6641 b93d a2ae 34be
00000120: 04bc 51bd 4f28 0fbc c04f 28bd f78e 933d
00000130: fa36 c4bd a5ac 103d 0797 77bc f079 49be
00000140: 984a 463e ebc0 85bd 4bfc 15be d7c1 a53d
00000150: f2df 08be cc5f 9c3b e6dd 2dbe fbe0 8b3d
00000160: 2803 763c a856 713e 7929 313e 57e5 8abd
00000170: 5edd 20be 6274 a13d c1aa 2bbc a7a4 5d3d
00000180: 4580 013e 1a8c d43d 7777 ad3d fb63 d53d
00000190: 1fc5 ed3c 763c 8d3c 47b8 f13d 00a3 26be
000001a0: 988d 02be fb69 34be 459e 983d 7117 d9bd
000001b0: eb26 d33d f291 e53d 908b e7bd b53b 69be
000001c0: 15bc b5bd b541 20be 1d0d 0dbe 7768 293d
000001d0: c6ac 1f3d 8b4a 09be b755 b1bd aa35 cebd
000001e0: 3fa9 293e b060 edbc 45de 513e 4c1d c3bd
000001f0: bd56 203d 8782 eebb 6161 78be a535 123e
00000200: fb6c 963c 9240 22be e7d1 123e 9c10 693d
00000210: 2fb0 a4bd c19d bd3d 3e2e ffbc 6743 1bbe
00000220: 28aa 7abd d5d7 3d3b f1ea a13e d28d 1f3d
00000230: cd56 37be a057 d73d 747c 61be 35e2 1d3e
00000240: ee23 5e3e 26ab 953b 3b48 bf3b 2fa9 c9bd
00000250: 5feb e33c 2e22 3bbd eebc 94bc 6349 0dbd
00000260: 6059 95bc 8b3a 75be f0f5 18be 8507 2bbe
00000270: f60b bcbd ae6e e23c cc72 47be ca0f 84be
00000280: ed0c ed3d 7593 4c3e 89cc 7d3d 9004 28bd
00000290: 64c7 043e 823b 1fbd 477a 973d 09e9 7b3e
000002a0: 5648 8ebd 43c4 2b3e 99d0 1f3d 1b3e ebbc
000002b0: c436 d93c f733 bdbd f848 77be 6915 c7bc
000002c0: a142 debd 5d8d 8dbd 5852 0f3e f7c7 02bd
000002d0: d1a4 8d3d f825 40bd 8244 8f3d 458c dbbd
000002e0: b78f 963c c761 e3bd 5f2d 2d3e 8ee0 a7bd
000002f0: e8d2 2d3d 2c43 24bd 9ba2 4c3e 77b4 0cbe
00000300: f506 df3d 60da 10bd b737 60be 9fae cdbc
00000310: 6aeb 233e 46c7 0f3e c060 963c f1d0 993d
00000320: c5c2 913d da4d 0a3e 1546 093e d51e b03d
00000330: 8923 d43c e330 43bd a552 80be 5d87 503b
00000340: bd64 bd3d b5b1 00be 68b0 cc3c 81d0 903c
00000350: 3698 5fbe 6a35 38be a4c7 093d 0ede 283e
00000360: 8d99 a8bd 7f09 75bd 2ef9 f3bd 6a45 19be
00000370: 58c2 fe3d 9ea7 043e 9435 e03d 9577 95bd
00000380: cb4f 163e 4c3d f3bb 4614 44be dc0b 2f3e
00000390: 5db0 493e 6f3b 1fbe 72e1 a3bd 17e7 80bd
000003a0: dec6 bbbc 48cf 473e ac8e a4bd fd89 5d3c
000003b0: 7ffe 5e3d e71a 5a3c 3f39 01be 333a e9bd
000003c0: 7578 8dbd 8756 7e3d 0fa9 5d3c a3c5 2abe
000003d0: 4701 a23d 70a9 353e c8f7 1c3c 2835 803d
000003e0: c0f5 74bd cf70 033e 0408 b0bd 113d 5e3d
000003f0: 9424 e33d 4f80 00bd 57ff 353e f9ff 233e

u_model.model.8.bias f4 [42]
-0.042478945 -0.15686141 -0.16338614 0.080577664 -0.15133457 -0.11440298 -0.057302073 -0.15897956
-0.10488798 -0.024633633 0.023485016 0.13308686 0.12417352 0.017811332 -0.063839786 -0.13117337
0.011066796 -0.14223629 -0.13114831 0.025166197 -0.115572445 0.14037095 -0.038885266 0.08435533
0.1260212 0.042894017 -0.023169585 0.1147865 -0.08032379 0.003967915 0.0084077045 -0.15178157
0.10698596 0.054941464 0.015960647 -0.071752824 -0.0837852 0.066403575 -0.06831272 -0.0003643956
0.13897377 0.124248184
00000000: 67fe 2dbd 47a0 20be b24e 27be e705 a53d
00000010: 73f7 1abe 1c4c eabd 94b5 6abd 8acb 22be
00000020: 82cf d6bd 79cc c9bc a663 c03c ec47 083e
00000030: b04e fe3d 12e9 913c 6fbe 82bd 5052 06be
00000040: 8251 353c 64a6 11be be4b 06be 5729 ce3c
00000050: 3fb1 ecbd 67bd 0f3e 2846 1fbd 7dc2 ac3d
00000060: b40b 013e a3b1 2f3d 24ce bdbc 2f15 eb3d
00000070: cd80 a4bd 4905 823b 78c0 093c a16c 1bbe
00000080: 741b db3d 4d0a 613d e7bf 823c 25f3 92bd
00000090: 9397 abbd 99fe 873d 8ae7 8bbd 590c bfb9
000000a0: 244f 0e3e d575 fe3d

u_model.model.10.weight f4 [42, 42]
0.1940116 0.07496537 0.013335808 -0.021272456 0.29714268 -0.06709858 -0.07608978 -0.0058817994
-0.124914564 -0.3110447 -0.06952573 0.13046855 0.14420919 0.07443773 -0.05233399 -0.033231575
0.0032595817 0.23245841 0.03941387 -0.16931811 0.100756556 -0.10007523 0.17959586 -0.11374988
0.0747881 -0.1556867 0.086169526 0.05750534 0.28656313 0.13379973 -0.09216274 0.085822396
-0.1875199 0.14504455 -0.115495384 0.09391646 -0.028448757 -0.09861814 -0.12682557 0.12428961
-0.05646386 -0.1782693 0.17825624 -0.059486408 -0.073771834 -0.040830124 0.21678407 -0.05523299
-0.083530895 -0.035471935 0.13919656 -0.36521223 -0.08287609 -0.24290338 -0.1412243 -0.14978912
-0.15635242 0.1046911 -0.061331324 0.110426754 0.37866458 0.20312794 0.09454756 0.15289985
0.39478946 -0.0029578302 0.049141787 0.0041504167 -0.021506734 -0.16712566 0.25789446 0.17990221
-0.027721303 0.059667822 -0.032505672 0.23984657 -0.026075019 -0.0903212 0.03232274 -0.036334176
-0.6212836 -0.062568426 0.024988825 0.13337424 0.036634684 -0.0562479 0.10464026 0.10279966
-0.15725471 -0.029517617 -0.07521147 -0.120800205 0.19976962 -0.10169275 0.10711607 -0.061769754
-0.18482661 0.131528 0.059999812 0.04494657 0.035876624 0.019503 0.040223684 0.0625116
-0.14720263 -0.12714489 -0.10752939 0.13565853 -0.0557843 -0.020272098 -0.014545772 -0.042064957
0.05233988 -0.11604611 -0.023676416 0.22056471 0.08180778 0.18069111 0.07550468 0.019319331
0.2125019 -0.002712302 0.12524341 -0.05375682 -0.16624774 0.08692068 -0.085458435 -0.0927337
0.13436978 -0.091318056 -0.21933313 -0.042871583 0.017591005 0.16056488 -0.06476801 -0.0023132663
0.10530287 0.20621428 0.19619662 0.02512333 0.004204775 -0.034220714 0.27896228 0.004145837
-0.16358861 0.06654099 -0.14067362 -0.035735916 -0.16849652 0.21498324 0.091233104 0.14531158
-0.1055538 0.17168872 0.046745043 -0.16605625 -0.13429025 0.13502909 0.20821035 0.17811789
0.105926745 -0.07640778 -0.037530817 0.040285576 0.15503624 -0.030761149 0.046085414 0.13214602
0.06021918 -0.04259061 0.015539605 -0.05232933 -0.061784644 -0.105105236 0.16907415 -0.018037146
0.07064674 0.15255441 0.014542386 -0.033907406 -0.16022372 0.13916664 0.10037922 0.06533586
-0.017643396 0.045593243 -0.066915795 0.015225891 -0.097320884 0.14068069 -0.15889533 -0.04767775
0.015130991 -0.0007894655 0.11674352 0.12590717 -0.10751597 -0.08397501 -0.124780856 -0.10967285
-0.013799683 -0.14574416 0.13022956 -0.07920501 0.10863792 -0.13014974 -0.057385422 -0.032540653
-0.056295767 0.21227318 -0.0788302 0.22757517 0.0688348 0.028719526 -0.2295086 0.059199583
-0.05221549 0.26474613 0.15757811 0.050696246 0.057545193 0.07576853 -0.065003775 -0.02219536
-0.0026192453 0.14301799 0.21808618 -0.12062139 -0.21596475 -0.1965896 -0.030418055 -0.085001424
-0.1701082 -0.07833691 -0.0065105488 -0.1314619 0.061687868 0.09209041 -0.1543496 -0.065785475
0.061364435 0.14185086 0.039139375 -0.120348394 0.14984265 -0.07832115 0.052061252 0.054175448
0.2861854 0.1038091 -0.059409406 -0.15688662 0.062383983 0.22513427 0.14245567 0.116615355
00000000: faaa 463e 7287 993d 6f7e 5a3c 9343 aebc
00000010: 1623 983e fb6a 89bd f5d4 9bbd 1cbc c0bb
00000020: 35d3 ffbd 4041 9fbe 8263 8ebd 8c99 053e
00000030: 93ab 133e cf72 983d 2a5c 56bd d51d 08bd
00000040: b59e 553b 9409 6e3e 7070 213d ba61 2dbe
00000050: 7459 ce3d 3ef4 ccbd fae7 373e b2f5 e8bd
00000060: 812a 993d 566c 1fbe a679 b03d b88a 6b3d
00000070: 67b8 923e cc02 093e d2bf bcbd a7c3 af3d
00000080: 3705 40be 8f86 143e d888 ecbd 4657 c03d
00000090: 5e0d e9bc 4ff8 c9bd 90de 01be 8d8b fe3d
000000a0: a646 67bd 3a8c 36be ce88 363e 05a8 73bd
000000b0: b015 97bd 7d3d 27bd a5fc 5d3e fd3b 62bd
000000c0: 3f12 abbd 054b 11bd 8b89 0e3e 19fd babe
000000d0: f1ba a9bd aabb 78be 1a9d 10be 5262 19be
000000e0: d91a 20be 4a68 d63d 8e36 7bbd 6c27 e23d
000000f0: 53e0 c13e c500 503e 27a2 c13d c791 1c3e
00000100: d821 ca3e 28d8 41bb e648 493d 3800 883b
00000110: e42e b0bc fd22 2bbe be0a 843e 4938 383e
00000120: c917 e3bc 3f66 743d ab24 05bd 579a 753e
00000130: 479b d5bc 52fa b8bd d964 043d 25d3 14bd
00000140: 710c 1fbf e023 80bd 5db5 cc3c 4293 083e
00000150: 400e 163d 3364 66bd a24d d63d a188 d23d
00000160: 6107 21be eece f1bc 7908 9abd 1966 f7bd
00000170: 6890 4c3e 4a44 d0bd ac5f db3d 4802 7dbd
00000180: 3043 3dbe 47af 063e 5dc2 753d e519 383d
00000190: 5ef3 123d c1c4 9f3c 97c1 243d 1506 803d
000001a0: 49bc 16be 4532 02be 5e38 dcbd 12ea 0a3e
000001b0: 147e 64bd ac11 a6bc 6451 6ebc 4e4c 2cbd
000001c0: 5862 563d 95a9 edbd 0bf5 c1bc b7db 613e
000001d0: d68a a73d 1707 393e 33a2 9a3d 9343 9e3c
000001e0: 199a 593e e0c0 31bb cf3f 003e 1c30 5cbd
000001f0: d93c 2abe 7803 b23d d504 afbd 2beb bdbd
00000200: 3b98 093e f604 bbbd dd98 60be 1d9a 2fbd
00000210: 031b 903c 1f6b 243e 17a5 84bd 2b9a 17bb
00000220: 08a9 d73d d629 533e c4e7 483e 71cf cd3c
00000230: 36c8 893b 052b 0cbd 25d4 8e3e cdd9 873b
00000240: c683 27be a446 883d bf0c 10be d35f 12bd
00000250: 5a8a 2cbe 9124 5c3e 6cd8 ba3d 8fcc 143e
00000260: 972c d8bd 2bcf 2f3e bb77 3f3d a60a 2abe
00000270: 6283 09be 1145 0a3e 1835 553e 8964 363e
00000280: 1ff0 d83d af7b 9cbd eab9 19bd 7d02 253d
00000290: d2c1 1e3e cefe fbbc 0fc4 3c3d 4951 073e
000002a0: 63a8 763d 7e73 2ebd d499 7e3c 4857 56bd
000002b0: e511 7dbd 6a41 d7bd c621 2d3e a3c2 93bc
000002c0: 3daf 903d 3937 1c3e 3043 6e3c 7ee2 0abd
000002d0: b011 24be b381 0e3e 9f93 cd3d cfce 853d
000002e0: e288 90bc fbbf 3a3d 260b 89bd 0476 793c
000002f0: 2c50 c7bd 990e 103e 75b5 22be bf49 43bd
00000300: fae7 773c 22f4 4eba 3a17 ef3d cfed 003e
00000310: 5531 dcbd 17fb abbd 1b8d ffbd 299c e0bd
00000320: 1118 62bc f53d 15be e65a 053e 3c36 a2bd
00000330: 8f7d de3d f945 05be fa0c 6bbd 5949 05bd
00000340: 6496 66bd 245e 593e ba71 a1bd 7709 693e
00000350: 42f9 8c3d 3645 eb3c 4d04 6bbe 437b 723d
00000360: e9df 55bd ce8c 873e 285c 213e dea6 4f3d
00000370: 82b4 6b3d 882c 9b3d b320 85bd 0bd3 b5bc
00000380: a5a7 2bbb 4f73 123e fc51 5f3e 5908 f7bd
00000390: dd25 5dbe c94e 49be 492f f9bc 3a15 aebd
000003a0: d830 2ebe 1a6f a0bd 7156 d5bb f39d 06be
000003b0: 6bac 7c3d e699 bc3d d20d 1ebe 89ba 86bd
000003c0: 4659 7b3d 5a41 113e 9c50 203d 3879 f6bd
000003d0: 5a70 193e d766 a0bd 2e3e 553d 13e7 5d3d
000003e0: e586 923e de99 d43d 4757 73bd e3a6 20be
000003f0: 5986 7f3d 9989 663e e6df 113e 08d4 ee3d

u_model.model.10.bias f4 [42]
-0.16419439 -0.20646189 0.07089347 0.07911698 -0.06445643 -0.122925006 -0.13151883 0.18676747
-0.063348725 0.30226544 0.11343011 -0.11463849 -0.19268265 -0.13796414 0.12921302 -0.16094881
-0.1025882 0.13118075 -0.07371315 -0.056075554 -0.09417065 0.0012147693 0.1424941 0.09974364
0.13611004 0.12890227 0.045441326 -0.02074023 0.036198843 0.040663008 0.100345775 0.080372974
0.0937938 -0.058682624 0.0777962 -0.056594484 0.06834453 0.047196537 0.099703774 0.015784884
0.034395043 -0.018789953
00000000: 9322 28be bf6a 53be 9830 913d 1508 a23d
00000010: bc01 84bd 1bc0 fbbd dfac 06be f93f 3f3e
00000020: fabc 81bd 89c2 9a3e 0c4e e83d 96c7 eabd
00000030: 9a4e 45be 7946 0dbe 6b50 043e c4cf 24be
00000040: c319 d2bd 3f54 063e ecf6 96bd 7baf 65bd
00000050: 8bdc c0bd e538 9f3a f9e9 113e 6546 cc3d
00000060: 6e60 0b3e f5fe 033e af20 3a3d 6ae7 a9bc
00000070: 3d45 143d 418e 263d 1682 cd3d 969a a43d
00000080: f716 c03d 315d 70bd 9d53 9f3d 9ecf 67bd
00000090: 38f8 8b3d 2851 413d 7e31 cc3d 4d4f 813c
000000a0: d1e1 0c3d 63ed 99bc
