saved_models/grid_sampling/random_r.pt (torch, 76029 bytes, 42 tensors)

u_model.W f4 [20, 2]
0	0xbe31df0d	-0.17370243
1	0xbfe946db	-1.8224748
2	0x3f477a73	0.7792122
3	0xbf81c7b9	-1.0139076
4	0x3f622ef9	0.88352925
5	0x3f20ee36	0.6286348
6	0xbe81b3de	-0.2533254
7	0xc029fc5e	-2.6560283
8	0xbf44f21e	-0.7693194
9	0x3f64bb23	0.8934805
10	0x3eea6c55	0.45785776
11	0x3d79da38	0.060999125
12	0x3fc2affa	1.5209954
13	0x3f68fe58	0.910131
14	0x3e956481	0.2917824
15	0xbe783922	-0.24240544
16	0x3d62cd28	0.055371433
17	0xbffcbd3b	-1.9745249
18	0x3fc4957f	1.5358123
19	0x3f00d580	0.50325775
20	0x3f9e4388	1.2364359
21	0xbf36f3eb	-0.7146594
22	0x3b850133	0.004058981
23	0x3f012a23	0.5045492
24	0x3f42f7ff	0.7615966
25	0xbfdb1150	-1.7114658
26	0x3fa49aaa	1.28597
27	0xbf9b4952	-1.213175
28	0x3ea4a653	0.32158145
29	0xbf3d1b18	-0.73869467
30	0xbd71fc5c	-0.05907856
31	0xbf189fc4	-0.59618783
32	0x3cb584f0	0.022158116
33	0x3f7aad9f	0.97921175
34	0x3eb79c1c	0.3586129
35	0x3eec97db	0.46209607
36	0x3fa07423	1.2535442
37	0x3f3ba531	0.7329894
38	0x3ef86a39	0.4851854
39	0xbfccee7b	-1.6010278

u_model.b f4 [20]
0	0x40b4132f	5.6273417
1	0x3fad3690	1.3532276
2	0x40678d78	3.6180096
3	0x3fcaba83	1.5838169
4	0x3fbc738d	1.4722763
5	0x3f5dfb3e	0.8671149
6	0x407ec722	3.980904
7	0x3f17f66b	0.5936038
8	0x403e74f3	2.975888
9	0x40c7c807	6.2431674
10	0x40bb9a67	5.862598
11	0x3d926766	0.07148628
12	0x40ab7fd2	5.359353
13	0x40755348	3.833208
14	0x40b8a5e0	5.7702484
15	0x3ec11885	0.3771402
16	0x4011afed	2.2763627
17	0x3ffbb2ce	1.9663942
18	0x40bdfd54	5.937174
19	0x40b0b9f5	5.5227

u_model.model.0.weight f4 [42, 42]
0	0xbda1bfae	-0.07897888
1	0x3e296915	0.16543992
2	0x3deae31e	0.114691004
3	0xbe1de0d6	-0.154178
4	0xbd7d9ca7	-0.061916973
5	0xbe751156	-0.23932394
6	0x3ce2887a	0.027652968
7	0xbdb3ff90	-0.08788979
8	0xbd0a019a	-0.033692934
9	0x3caf7fff	0.021423338
10	0xbcceb3cf	-0.025232224
11	0xbd31d2ba	-0.043413855
12	0xbd43c2e8	-0.0477933
13	0xbe0b0ba3	-0.13578658
14	0x3e33a41d	0.17543073
15	0xbde28d76	-0.11062138
16	0xbdb8dbc9	-0.09026296
17	0xbd308e7b	-0.04310463
18	0xbde7e84b	-0.11323603
19	0xbc41a611	-0.0118193785
20	0x3dade0dc	0.08490154
21	0xbba8f34d	-0.005155957
22	0xbd907519	-0.070535846
23	0xbde997c2	-0.11405899
24	0x3d18829e	0.03723394
25	0xbde83708	-0.113386214
26	0x3dbdc141	0.09265376
27	0x3ca26a74	0.019826151
28	0xbe05778b	-0.13033883
29	0xbcc8d69b	-0.024516394
30	0x3d098e31	0.03358287
31	0x3e2a0c10	0.16606164
32	0xbce749d2	-0.028233442
33	0xbdc9e09b	-0.09857293
34	0xbe0b5193	-0.13605337
35	0x3d8256be	0.06364201
36	0x3dcf64f5	0.10126678
37	0xbc2d9922	-0.010595592
38	0x3e0cf3f3	0.13764934
39	0xbe03b2fd	-0.12861247
40	0xbe20bcc1	-0.15697004
41	0xbcbc4233	-0.022980785
42	0x3dcc34af	0.09970986
43	0x3e30ebf7	0.17277513
44	0xbe0c172f	-0.13680719
45	0xbb01cd99	-0.0019806384
46	0x3e224638	0.15847099
47	0x3e91b0cb	0.28455195
48	0xbdfee42e	-0.124458656
49	0xbe0e4964	-0.13895184
50	0x3df54002	0.11975099
51	0xbdb41965	-0.08793906
52	0xbe30dc69	-0.1727158
53	0xbe1cdd5e	-0.1531882
54	0x3c500fc3	0.01269907
55	0xbd956669	-0.07294924
56	0x3d561c95	0.05227335
57	0xbe2e83c4	-0.17042452
58	0x3dfaa4f3	0.12238493
59	0xbcfec986	-0.031101953
60	0x3e097f8a	0.13427559
61	0xbd0af162	-0.033921607
62	0x3d5cfc56	0.053951584
63	0x3d838e10	0.06423581
64	0xbe79e19a	-0.24402466
65	0x3e2d5822	0.16928151
66	0x3e12c01c	0.14331096
67	0xbdd085ce	-0.10181771
68	0x3e41dadd	0.18931146
69	0xbda450de	-0.08023237
70	0x3c933264	0.017968364
71	0xbdb43ad2	-0.088002816
72	0x3d69f95d	0.057122577
73	0x3d8e5f4b	0.069517694
74	0xbd139a8c	-0.03603606
75	0xbd8d3edb	-0.06896754
76	0x39394bed	0.0001767126
77	0xbea44436	-0.3208329
78	0xbe0a7b41	-0.1352358
79	0xbd126459	-0.03574023
80	0x3d89e9ce	0.06734048
81	0xbe21f774	-0.15817052
82	0xbdb58be2	-0.08864571
83	0xbe5e640f	-0.21717857
84	0x3dc25716	0.094892666
85	0xbd268ab6	-0.04065963
86	0xbe5d68a2	-0.21621946
87	0xbd6ce847	-0.057838704
88	0xbdd26195	-0.102725185
89	0x3e91e064	0.2849151
90	0xbd8dfc35	-0.0693287
91	0xbcaa833c	-0.02081453
92	0x3df9cd57	0.121973686
93	0x3da9a32d	0.082830764
94	0xbe2197b4	-0.15780526
95	0x3d85f0ce	0.065400705
96	0x3e1f47f9	0.15554799
97	0x3da89531	0.08231581
98	0x3c929d13	0.017897164
99	0xbcf40ca2	-0.02979118
100	0xbdddcf55	-0.10830561
101	0xbde1da90	-0.110280156
102	0xbd9caa7c	-0.07649705
103	0xbcc87940	-0.024471879
104	0x3dbadb04	0.09123805
105	0x3dcffffd	0.10156248
106	0x3c54f9c5	0.012999003
107	0xbd6c4f1e	-0.05769264
108	0x3ce0662e	0.027392473
109	0xbca7746d	-0.020441258
110	0xbd454667	-0.048162844
111	0xbd68ae70	-0.05680698
112	0xbbb01d42	-0.0053745816
113	0x3b3a41f4	0.0028420659
114	0x3e588bb9	0.2114705
115	0x3d4b730e	0.04967027
116	0x3de6b5cf	0.11265146
117	0xbb28e2ef	-0.0025770029
118	0xbe2447c3	-0.16043
119	0xbcf0a041	-0.02937329
120	0x3d8d1dfd	0.068904854
121	0xbe1b9f5d	-0.15197511
122	0xbccff9f5	-0.025387743
123	0x3d86a3d7	0.06574219
124	0xbdcb9682	-0.099408165
125	0x3cf47e5d	0.029845411
126	0xbdfe7851	-0.12425292
127	0xbbff4e4f	-0.0077913175
128	0x3d3465fc	0.044042572
129	0x3d6b3fdb	0.057433944
130	0xbe1f0c1b	-0.15531962
131	0x3e6f5448	0.23371994
132	0xbdbeefc4	-0.093230754
133	0xbd22f2d0	-0.039782345
134	0x3d922837	0.071365766
135	0xbdd3e08c	-0.10345563
136	0x3dae13b2	0.0849985
137	0x3dd787bd	0.10523937
138	0x3e4696ea	0.19393507
139	0xbd9ab1e1	-0.07553459
140	0x3c8517a8	0.016246632
141	0x3e0ad6dd	0.13558526
142	0x3db0500b	0.08609017
143	0xbd781d45	-0.06057479
144	0x3e2f04fa	0.17091742
145	0x3e15625b	0.14588301
146	0x3d6081d9	0.054811332
147	0xbd8b62a7	-0.06805926
148	0xbdfeccc6	-0.12441401
149	0x3e1c1056	0.15240607
150	0x3d2814a3	0.041035306
151	0x3c8d8c20	0.01727873
152	0x3c0b5412	0.008503931
153	0xbda5e6e3	-0.08100679
154	0x3da7131d	0.081579424
155	0x3d83f30d	0.06442843
156	0x3dd6135a	0.1045291
157	0xbd5ae350	-0.05343944
158	0x3d8a6569	0.06757624
159	0x3d9d8211	0.07690824
160	0x3de7d305	0.11319546
161	0x3dc88b2b	0.09792169
162	0x3d8ad1fc	0.067783326
163	0x3dec9212	0.11551298
164	0xbcfba48f	-0.030718116
165	0xbd99e214	-0.07513824
166	0x3d67b628	0.056570202
167	0x3d0c2fce	0.034225278
168	0xbc8a68e0	-0.016895711
169	0xbc88c082	-0.016693357
170	0x3d1792f9	0.0370054
171	0xbc51714b	-0.012783359
172	0x3d4f23b9	0.050571177
173	0x3ea018f6	0.31269044
174	0x3a493ae6	0.0007676318
175	0xbd199c28	-0.037502438
176	0xbd4e2b42	-0.050334223
177	0x3dcabcc1	0.09899283
178	0xbdac9aba	-0.08427949
179	0x3d43ccae	0.04780262
180	0xbdb62328	-0.08893424
181	0x3d67ca7f	0.0565896
182	0xbde42ba7	-0.111411385
183	0x3cded4a2	0.027201
184	0xbd96407a	-0.07336517
185	0xbe0e919d	-0.13922735
186	0x3b82797d	0.0039817677
187	0x3d7951d9	0.06086907
188	0xbd964094	-0.07336536
189	0xbda95d69	-0.0826977
190	0x3ce3baf6	0.02779911
191	0xbcba2947	-0.02272476
192	0x3dba6238	0.09100765
193	0xb9aaf203	-0.0003260524
194	0xbcccd306	-0.025002968
195	0x3dac7527	0.084207825
196	0xbe26e054	-0.16296512
197	0x3d78ee87	0.060774352
198	0xb9f31a4d	-0.00046368167
199	0xbd5fe75e	-0.05466401
200	0x3d53429a	0.051577188
201	0x3d826281	0.063664444
202	0xbdcf683f	-0.10127305
203	0xbce77f2c	-0.028258882
204	0xbcc75e3b	-0.024336925
205	0xbdae7bb1	-0.08519686
206	0xbc55720c	-0.013027679
207	0x3d0bc0e6	0.03411951
208	0xbd81c9eb	-0.06337341
209	0xbde30d6a	-0.11086543
210	0x3e32cd82	0.17461208
211	0xbd7b5870	-0.061363637
212	0x3d1f969a	0.038961984
213	0x3dcea1ca	0.100894526
214	0xbd563800	-0.0522995
215	0xbe9fae52	-0.31187683
216	0xbdac5050	-0.08413756
217	0xbe000987	-0.12503634
218	0x3d6f2348	0.058383256
219	0xbd96f6e1	-0.07371307
220	0x3dc1a217	0.09454744
221	0x3dd56198	0.10419005
222	0xbd3bc548	-0.04584244
223	0x3d97aeba	0.07406373
224	0x3e024f31	0.12725522
225	0xbd0234e9	-0.03178874
226	0x3d5197e3	0.05117024
227	0xbda1e3f7	-0.07904809
228	0x3e078575	0.13234504
229	0xbe1ec2d1	-0.15504004
230	0xbd6787c6	-0.056525968
231	0x3cc4fdd4	0.024046816
232	0xbd08826a	-0.033327498
233	0xbddc3692	-0.10752596
234	0x3db090c0	0.08621359
235	0xbe681c0a	-0.22666946
236	0xbc8777c6	-0.016536605
237	0x3e181221	0.14850666
238	0xbdf5239b	-0.11969682
239	0x3e204249	0.15650286
240	0x3cb49117	0.02204184
241	0xbd58f9fb	-0.052972775
242	0x3d3570f6	0.04429718
243	0xbcb87a45	-0.02251924
244	0xbd92bedc	-0.0716531
245	0x3e060687	0.13088427
246	0x3d2a58ae	0.041588478
247	0x3d2895fd	0.041158665
248	0x3e0ee70e	0.13955328
249	0xbcb42df6	-0.021994572
250	0xbcc6d724	-0.024272509
251	0xbdcb3d0c	-0.09923753
252	0xbda581b3	-0.08081379
253	0xbe26e93e	-0.16299912
254	0xbd01acc7	-0.031658914
255	0x3dc5660d	0.09638605

u_model.model.0.bias f4 [42]
0	0x3d94e95e	0.07271074
1	0xbdcf83b8	-0.10132545
2	0xbb4a3a28	-0.0030857418
3	0x3d9d6586	0.0768538
4	0xbd3dd3f4	-0.046344712
5	0xbd9b72cb	-0.075902544
6	0x3db8156c	0.08988461
7	0xbdfa62de	-0.12225889
8	0xbe104687	-0.14089404
9	0x3d45bbc8	0.048274785
10	0xbd15535d	-0.036456455
11	0xbbe36696	-0.0069397194
12	0x3d22f445	0.039783735
13	0xbe032fea	-0.12811247
14	0xbd79ba54	-0.060968712
15	0x3e33fce9	0.17576946
16	0x3dd6f537	0.1049599
17	0x3bd6a198	0.006550025
18	0xbd90f919	-0.070787616
19	0x3d8467cb	0.064651094
20	0x3d1f9120	0.03895676
21	0x3d4f0fae	0.050552063
22	0x3cde94c6	0.02717055
23	0x3ca5f867	0.020260049
24	0x3d8f56e2	0.069989935
25	0x3e1c955f	0.15291356
26	0xbe2cea51	-0.1688626
27	0x3d8515d8	0.06498307
28	0xbca34ca0	-0.019933999
29	0xbd8c64bf	-0.06855153
30	0xbde30fe1	-0.11087013
31	0x3dcd21c1	0.10016204
32	0xbde55f2d	-0.11199794
33	0xbd514831	-0.051094238
34	0x3c160f78	0.0091589615
35	0x3d1f30e7	0.038864996
36	0x3d05bc9c	0.032650575
37	0x3dd39f32	0.103330985
38	0xbe4a6e42	-0.19768623
39	0xbd2cd124	-0.04219164
40	0x3d36ed27	0.04465976
41	0xbe014148	-0.12622559

u_model.model.2.weight f4 [42, 42]
0	0xbe02bb61	-0.12766792
1	0xbd356cb6	-0.044293128
2	0x3e1b002f	0.15136789
3	0x3ddcf0e3	0.10788133
4	0xbc33e549	-0.010979959
5	0xbd8d9ad1	-0.069142945
6	0x3d74ef45	0.059798498
7	0x3c08e240	0.008354723
8	0x3e163fac	0.14672726
9	0x3dbcf3b2	0.09226169
10	0xbd16b3f9	-0.03679273
11	0xbd5586b7	-0.052130427
12	0xbdd3b089	-0.10336406
13	0xbd376d89	-0.044782195
14	0xbd45fe7b	-0.048338395
15	0x3e7e8975	0.24857123
16	0x3da74141	0.08166743
17	0xbce2e30e	-0.027696159
18	0xbe027c7e	-0.12742803
19	0xb7c41162	-2.3373115e-05
20	0x3db3201e	0.0874636
21	0x3e0dae74	0.1383608
22	0x3cd634ce	0.026148226
23	0xbe36b224	-0.17841393
24	0xbccaa620	-0.024737418
25	0x3e93243c	0.28738582
26	0xbda6afb2	-0.0813898
27	0xbdbb5160	-0.091463804
28	0xbcc9a986	-0.024616968
29	0x3e0ebcc0	0.1393919
30	0x3e12a9e2	0.14322618
31	0x3d02c740	0.0319283
32	0x3dba7071	0.09103478
33	0x3e38af09	0.1803552
34	0xbe6dc011	-0.23217799
35	0x3ccded19	0.025137471
36	0xbd29d744	-0.04146506
37	0x3e038e5a	0.12847272
38	0x3da36fd2	0.079803124
39	0x3d9dbe3f	0.07702302
40	0x3e7a4a76	0.24442467
41	0xbe7e31c8	-0.24823678
42	0xbcc6d300	-0.024270535
43	0x3d3bc38a	0.045840777
44	0xbd09b009	-0.033615146
45	0xbd8e4672	-0.0694703
46	0xbd9fef9c	-0.07809374
47	0x3e83c25d	0.25734225
48	0xbe565d3b	-0.20934002
49	0xbc759e8a	-0.014991412
50	0x3df98429	0.12183411
51	0x3e0d9f82	0.13830379
52	0xbc6c15ac	-0.014409464
53	0x3c9fe591	0.019518645
54	0x3e352ee1	0.17693664
55	0x3e4ee2f4	0.20203763
56	0xbd03fe90	-0.03222519
57	0x3dbb1a24	0.09135845
58	0xbd14613a	-0.036225535
59	0xbe71d4ee	-0.23616382
60	0xbe175572	-0.14778689
61	0xbd41f0ce	-0.04734879
62	0xbb91f040	-0.004453689
63	0x3dbae10d	0.09124956
64	0xbde80ba8	-0.11330348
65	0x3b332cbc	0.0027339896
66	0x3e0e86a1	0.13918544
67	0x3cbd70df	0.02312511
68	0x3df5a379	0.119940706
69	0xbd9186f2	-0.07105817
70	0x3e0d1d53	0.13780718
71	0xbd788244	-0.060671106
72	0x3e78050e	0.24220678
73	0xbdad4e77	-0.084622316
74	0xbc93db48	-0.018048897
75	0xbc08931e	-0.008335857
76	0xbcf6eb60	-0.030141532
77	0xbcad20ee	-0.021133866
78	0xbe05e42d	-0.13075323
79	0xbd8d2156	-0.06891124
80	0x3e2baddb	0.1676554
81	0x3e0f350a	0.13985077
82	0x3e10cbe1	0.14140274
83	0xbd2a7c1e	-0.041622274
84	0x3cd6d7bd	0.026225919
85	0x3e466aa7	0.19376622
86	0x3ddbf2cf	0.107396714
87	0xbea626b4	-0.32451403
88	0xbdcc466c	-0.099743694
89	0x3e5ae3be	0.21375939
90	0xbe83391d	-0.2562951
91	0x3d638c75	0.055553872
92	0x3e7c2e05	0.2462693
93	0x3d8a119f	0.06741642
94	0xbd871dd7	-0.065974884
95	0x3d9abf83	0.07556059
96	0xbe55e500	-0.20888138
97	0xbd88067c	-0.06641862
98	0xbde697c8	-0.11259419
99	0x3ea2d7ac	0.3180517
100	0xbd9057f0	-0.07048023
101	0xbcb688b8	-0.02228199
102	0x3da9bac0	0.08287573
103	0xbd5879f8	-0.052850693
104	0x3e172678	0.14760768
105	0x3e812a93	0.25227794
106	0xbd308ce1	-0.043103103
107	0xbeb11212	-0.345841
108	0x3d2e2540	0.042515993
109	0xbdf5a476	-0.11994259
110	0xbc484a95	-0.012224813
111	0x3e0a1b05	0.1348687
112	0xbc618afd	-0.013766048
113	0xbe09d342	-0.13459495
114	0x3eb07852	0.34466797
115	0xbdf4c34f	-0.11951315
116	0x3bdb5c2b	0.006694337
117	0xbd3f886a	-0.046760954
118	0xbee8452c	-0.45365274
119	0x3d6d81fa	0.057985283
120	0xbde5fa3f	-0.11229371
121	0x3d78fc33	0.06078739
122	0x3e10ab10	0.14127755
123	0x3e67b693	0.2262824
124	0xbbbd4cef	-0.0057769935
125	0xbd7a8383	-0.061160576
126	0xbe2c2982	-0.16812709
127	0xbd824c69	-0.0636223
128	0x3d8a1633	0.067425154
129	0x3dc7a243	0.09747746
130	0xba9bdbf7	-0.0011891116
131	0xbe422cac	-0.18962353
132	0x3c581fcd	0.013191176
133	0xbe02f712	-0.12789562
134	0xbd8e5d17	-0.06951349
135	0x3d4b0ddc	0.049573764
136	0xbd9215fb	-0.07133099
137	0xbcd68a25	-0.02618892
138	0x3bcc57e6	0.0062360642
139	0x3d3e727d	0.046495903
140	0xbe617a93	-0.22019415
141	0xbe00cc67	-0.12577973
142	0x3dc560c5	0.09637598
143	0x3d70e1c2	0.05880905
144	0x3e203003	0.15643315
145	0x3e1c8811	0.1528628
146	0xbe033076	-0.12811455
147	0xbe48a06b	-0.19592445
148	0x3d471fff	0.0486145
149	0x3d678e82	0.05653239
150	0xbc2b2316	-0.010445377
151	0x3e12da4a	0.14341083
152	0x3e043dfd	0.12914272
153	0xbce24da4	-0.027624913
154	0x3d9524bb	0.072823964
155	0xbdcedc25	-0.10100583
156	0xbdb9019b	-0.09033509
157	0xbdc6bf42	-0.09704448
158	0x3e28cc48	0.16484177
159	0x3dcef265	0.10104827
160	0x3df68eca	0.120389536
161	0xbc99be67	-0.018767549
162	0x3e139d79	0.1441554
163	0x3dbea469	0.093087025
164	0xbde67935	-0.11253587
165	0x3be8cda2	0.0071045915
166	0x3df82745	0.12116865
167	0xbd2d133b	-0.042254668
168	0x3d227f5e	0.039672248
169	0xbc86e829	-0.016468124
170	0xbe226aca	-0.1586105
171	0xbe0fe855	-0.14053471
172	0xbc7886e2	-0.015168877
173	0x3e14d9e4	0.14536244
174	0xbdf8cb14	-0.12148109
175	0x3d4d6424	0.05014433
176	0x3d81654e	0.063181505
177	0x3e1b8181	0.1518612
178	0x3d832fe8	0.06405622
179	0xbe08fe78	-0.13378322
180	0x3df630e3	0.12021043
181	0x3d65e766	0.056128882
182	0x3cb1aa7f	0.021687744
183	0xbd6e9e34	-0.058256343
184	0x3cb028b3	0.021503782
185	0xbd3cca4b	-0.04609136
186	0xbd781f1e	-0.06057655
187	0xbdcd2375	-0.100165285
188	0xbd2fe46d	-0.042942453
189	0x3dc9354d	0.098246194
190	0x3d5075f7	0.05089375
191	0x3d27bf19	0.04095373
192	0x3d53c303	0.05169965
193	0xbcfdb62b	-0.030970654
194	0x3e1f6dc4	0.15569216
195	0xbb765c4d	-0.0037591637
196	0xb9ebc9a7	-0.00044972936
197	0xbdf3c99c	-0.11903688
198	0xbd8f1cf3	-0.069879435
199	0xbd24d7d1	-0.04024488
200	0x3c80b00c	0.015708946
201	0xbd100bd5	-0.035167534
202	0x3d93b2df	0.07211851
203	0xbc1864cc	-0.009301376
204	0xbe6d0873	-0.23147754
205	0x3dc94bae	0.09828888
206	0xbd4706d9	-0.048590515
207	0xbe227e62	-0.15868524
208	0x3c95dcf8	0.018293843
209	0x3dc7a598	0.097483814
210	0xbdb328f3	-0.08748045
211	0xbd203b39	-0.03911898
212	0x3db0620b	0.0861245
213	0xbc94b07b	-0.018150559
214	0xbd899c3e	-0.06719254
215	0x3cf2cb84	0.02963806
216	0x3dabe703	0.08393671
217	0x3e0292fc	0.12751383
218	0xbdb2b349	-0.08725602
219	0x3e2be4af	0.16786455
220	0xbbc6f790	-0.006071992
221	0x3d67b884	0.056572452
222	0xbd85462d	-0.065075256
223	0xbcff8289	-0.031190174
224	0x3e27fd48	0.16405213
225	0x3e496aa3	0.19669585
226	0x3d9d102e	0.07669102
227	0xbe40b574	-0.18819219
228	0xbdb4bf46	-0.08825545
229	0xbb770566	-0.0037692427
230	0xbd549c19	-0.05190668
231	0xbd71981c	-0.058982953
232	0x3d116019	0.035492036
233	0xbdcefa57	-0.10106342
234	0xbb87ef6c	-0.0041484144
235	0xbd9123d8	-0.07086915
236	0xbda3e9ad	-0.080035545
237	0x3d59d8ea	0.05318538
238	0x3d977b15	0.07396523
239	0x3d67ccb4	0.056591704
240	0xbd54a569	-0.05191556
241	0xbc016828	-0.007898368
242	0xbdaef9a2	-0.085437074
243	0xbde6cf63	-0.112700246
244	0x3e1042ea	0.14088026
245	0xbd0287e8	-0.03186789
246	0x3d3b1bec	0.045680925
247	0x3dfa9ccc	0.12236938
248	0xbe4890c2	-0.1958647
249	0xbc0caed3	-0.008586603
250	0x3d98c9a9	0.074603386
251	0xbe0121a4	-0.12610489
252	0x3e4aa625	0.19789942
253	0xbd8582e0	-0.06519103
254	0xbda2487b	-0.07923981
255	0x3e0ee159	0.13953151

u_model.model.2.bias f4 [42]
0	0xbdb08610	-0.086193204
1	0x3e0a1ef0	0.13488364
2	0x3d086342	0.033297785
3	0xbdf49de3	-0.11944177
4	0xbdcbd03c	-0.09951827
5	0x3db7844d	0.08960781
6	0xbd70701c	-0.058700666
7	0x3d3a8254	0.045534447
8	0xbdf9280d	-0.12165842
9	0xbdb3f0a0	-0.0878613
10	0xbd6dbff2	-0.05804438
11	0xbdc3e12b	-0.09564432
12	0x3dc31379	0.095251985
13	0xbe0455e9	-0.12923397
14	0xbd00da5b	-0.03145824
15	0xbdfb9fd4	-0.12286344
16	0x3dfb586e	0.12272726
17	0x3a10825f	0.0005512591
18	0xbdb04ef8	-0.08608812
19	0xbd565b33	-0.052333068
20	0x3d248df3	0.040174436
21	0xbd68ef3f	-0.056868788
22	0x3df4599f	0.11931156
23	0xbd0b694d	-0.03403597
24	0x3df1b207	0.11801534
25	0x3dd7447e	0.10511111
26	0x3df63b82	0.12023069
27	0x3dafb169	0.0857876
28	0xbcfafe04	-0.030638702
29	0x3c1d95e6	0.009618258
30	0x3dad2c73	0.08455744
31	0xbcd58aa3	-0.026067084
32	0x3ca8b2b4	0.020593025
33	0x3df05102	0.11734201
34	0xbd714889	-0.058907066
35	0xbbcb6ccf	-0.0062080394
36	0xbbc2f14a	-0.005949174
37	0x3b3474c8	0.0027535427
38	0xbdaa962e	-0.08329426
39	0x3d838b03	0.06422999
40	0x3d24b968	0.04021588
41	0xbd9a7287	-0.075413756

u_model.model.4.weight f4 [42, 42]
0	0xbd0fae03	-0.03507806
1	0xbd0c12d6	-0.03419765
2	0xbd0814c1	-0.033222917
3	0x3d8e4b56	0.06947963
4	0xbe524ac7	-0.20536338
5	0xbc4ff1e4	-0.012691949
6	0x3dcfe525	0.10151128
7	0xbd46b228	-0.048509747
8	0xbd432c7f	-0.047649857
9	0xbdc66ca5	-0.09688691
10	0xbc1e87eb	-0.00967596
11	0xbd9c37b9	-0.07627816
12	0xbdcb1218	-0.099155605
13	0xbdd1c0c7	-0.102418475
14	0xbd067697	-0.03282794
15	0x3e3e05f4	0.18556958
16	0x3e2632a7	0.1623026
17	0xbd02146c	-0.031757757
18	0x3e1fe58b	0.15614907
19	0xbac6645a	-0.0015136108
20	0xbd1d0bdf	-0.0383414
21	0xbc8f33b0	-0.017480701
22	0x3de31ba8	0.110892594
23	0x3d864edd	0.06558011
24	0x3dc6d9d3	0.097095154
25	0x3d59de6c	0.053190634
26	0xbdd5a010	-0.1043092
27	0x3dfa0221	0.12207437
28	0x3cd2a089	0.025711315
29	0x3e5cc3f2	0.21559122
30	0xbce475eb	-0.027888259
31	0xbdeabe52	-0.11462082
32	0xbe0923d6	-0.13392577
33	0x3cee42a3	0.02908451
34	0xbdd36b3f	-0.1032319
35	0xbd981640	-0.07426119
36	0xbe2db2d3	-0.16962747
37	0xbd704712	-0.058661528
38	0x3da17252	0.07883133
39	0x3d943821	0.07237268
40	0x3d9ded9c	0.07711336
41	0x3dfd9534	0.12381974
42	0xbd678f51	-0.05653316
43	0x3db063a3	0.08612754
44	0x3e0ce4b2	0.13759115
45	0x3db78939	0.0896172
46	0x3da7c169	0.08191187
47	0xbe2d5e70	-0.16930556
48	0x3d0db893	0.03459985
49	0x3e3fe831	0.18740918
50	0x3deee07f	0.11663913
51	0xbe06a652	-0.13149384
52	0xbd966acb	-0.07344588
53	0xbd8b158b	-0.06791218
54	0xbe160c70	-0.14653182
55	0xbdc318ec	-0.09526238
56	0x3ddbeae6	0.10738163
57	0xbe599a35	-0.21250232
58	0xbde2ffcd	-0.110839464
59	0x3d0f3ae9	0.03496829
60	0xbe388603	-0.18019871
61	0x3e29da85	0.16587265
62	0xbe231c16	-0.15928683
63	0xbd56e3a2	-0.05246318
64	0xbd0dd4a7	-0.03462663
65	0xbda40110	-0.08008015
66	0xbd707a34	-0.058710292
67	0xbd03a191	-0.032136504
68	0xbe001497	-0.12507854
69	0xbdd2cc5a	-0.10292883
70	0x3dd8169b	0.10551187
71	0xbdff970b	-0.12479981
72	0xbe1276d3	-0.1430314
73	0xbddaf92d	-0.10692058
74	0x3e1a34b5	0.15059169
75	0xbdd66302	-0.10468103
76	0xbd2a47f2	-0.04157252
77	0xbe1e06d5	-0.15432294
78	0x3e1bdba5	0.15220506
79	0xbd1cac26	-0.03825011
80	0xbdfcf38f	-0.123511426
81	0x3c019854	0.007909853
82	0xbe41c6ec	-0.18923539
83	0xbe061e15	-0.13097413
84	0x3dc989e8	0.09840757
85	0x3d5b5586	0.05354836
86	0x3e820dd6	0.2540118
87	0xbc38cc5a	-0.01127919
88	0x3e468391	0.19386126
89	0xbdfd6e4b	-0.12374552
90	0xbe496789	-0.19668402
91	0x3e692142	0.22766593
92	0x3dbfacff	0.09359168
93	0xbc390111	-0.011291758
94	0xbd86241a	-0.065498546
95	0x3e441fb5	0.1915272
96	0xbe312b61	-0.17301704
97	0x3d6e186b	0.058128756
98	0x3d8421e3	0.06451776
99	0xbde72e20	-0.112880945
100	0x3d0b2d46	0.033978723
101	0x3eb62c1c	0.35580528
102	0x3c0b6ef7	0.008510343
103	0x3e107d63	0.14110331
104	0x3dc32767	0.09529
105	0x3d786791	0.060645644
106	0xbd4e4662	-0.05036009
107	0xbe959139	-0.2921236
108	0xbd87cd85	-0.066309966
109	0xbb22146d	-0.0024731413
110	0x3bb76d9f	0.0055977846
111	0xbe096269	-0.13416447
112	0x3c6c0181	0.014404655
113	0xbe503957	-0.20334373
114	0x3d0857b8	0.03328678
115	0x3e111e53	0.14171724
116	0x3ea20df1	0.3165126
117	0xbd2d6f30	-0.042342365
118	0xbe5e7917	-0.2172588
119	0xbe1f0734	-0.15530092
120	0xbd8ae6f4	-0.06782332
121	0xbebfccfa	-0.37461072
122	0xbd25d7bb	-0.04048894
123	0x3e6b7080	0.22992134
124	0xbeb8d5a9	-0.3610051
125	0xbdcde0b4	-0.10052624
126	0x3e18af3f	0.14910601
127	0x3e466ea6	0.19378147
128	0x3dfcb96c	0.12340054
129	0xbcdb833a	-0.026795972
130	0xbc982e5d	-0.018576795
131	0xbdcfe767	-0.10151558
132	0xbbe2e839	-0.0069246558
133	0x3d72e12f	0.059296783
134	0x3d4383c6	0.04773309
135	0x3dcb7ba9	0.09935696
136	0x3e03b05b	0.12860243
137	0xbe15a7bd	-0.14614768
138	0xbd8f9698	-0.07011145
139	0xbe15eba0	-0.14640665
140	0x3debe16b	0.115176044
141	0xbd9bdfb0	-0.076110244
142	0x3d60c615	0.054876406
143	0x3cde78d9	0.027157234
144	0x3e74190b	0.23837678
145	0xbe1ea77e	-0.1549358
146	0xbd4924d9	-0.049107406
147	0xbd129e8e	-0.03579574
148	0x3de2c727	0.110731415
149	0xbd6957b9	-0.056968424
150	0xbce664a7	-0.028124167
151	0x3daa43d8	0.083137214
152	0xbe047442	-0.12934974
153	0xbdad3796	-0.08457868
154	0x3d5dbccd	0.054135133
155	0xbdafd0e8	-0.085847676
156	0x3ebc81e4	0.3681785
157	0x3dc30bf1	0.09523762
158	0x3da99cee	0.08281885
159	0xbd854a06	-0.065082595
160	0xbc0f256e	-0.008736951
161	0xbe2835e3	-0.16426806
162	0xbdc10bb8	-0.09426063
163	0x3c5b353f	0.013379394
164	0xbdb8f5c7	-0.09031253
165	0x3e7ed320	0.24885225
166	0xbe42665c	-0.1898436
167	0xbd92885e	-0.07154916
168	0x3ddd1738	0.10795444
169	0x3e2bafa8	0.16766226
170	0x3dcd995a	0.10039015
171	0xbe36b6f5	-0.1784323
172	0x3d5471c4	0.051866308
173	0xbd57c29e	-0.052675836
174	0x3e184923	0.1487165
175	0x3de6d8dd	0.11271832
176	0x3c444fcd	0.011981917
177	0xbe10dc8d	-0.14146633
178	0xbd80148a	-0.062539175
179	0x3df1c328	0.11804801
180	0xbe04bce4	-0.12962681
181	0x3d0ad2fb	0.033892613
182	0xbe0b7050	-0.13617063
183	0xbd9d3715	-0.07676522
184	0xbd42aa34	-0.0475256
185	0x3c9a3800	0.018825531
186	0xbe024743	-0.12722497
187	0x3b63a20a	0.0034734034
188	0xbd86340c	-0.06552896
189	0x3d90d4dd	0.070718504
190	0x3c3810fa	0.011234516
191	0xbe344580	-0.17604637
192	0x3debf454	0.11521211
193	0x3dcd2bfe	0.100181565
194	0x3d6155fa	0.055013634
195	0x3cade01b	0.021225026
196	0xbc86416b	-0.016388616
197	0x3d8e5f89	0.06951816
198	0xbe475600	-0.194664
199	0x3d96522b	0.07339891
200	0x3e76592e	0.24057457
201	0xbb9f322a	-0.004858275
202	0xbdd5ea1f	-0.10445046
203	0x3d4f99fb	0.050683957
204	0x3d85556f	0.06510436
205	0xbb3e5387	-0.0029041485
206	0xbd917e11	-0.071041234
207	0x3db6e09c	0.089295596
208	0x3d60baf3	0.05486579
209	0x3bb1c36a	0.0054249065
210	0x3e18df2a	0.1492888
211	0x3e19be01	0.15013887
212	0x3ec05cb5	0.3757073
213	0xbe15d05d	-0.14630266
214	0xbd50fc53	-0.051021885
215	0x3db4739e	0.08811115
216	0xbe29dbf9	-0.16587819
217	0x3e5d8168	0.21631396
218	0x3e3d4607	0.18483745
219	0x3cdd729a	0.027032185
220	0x3e546ba1	0.20744182
221	0x3d1449c7	0.036203172
222	0x3d5a4143	0.053284895
223	0xbdfd82a6	-0.12378435
224	0x3dc7d72b	0.09757837
225	0x3e48f3cb	0.1962425
226	0xbdf39876	-0.11894314
227	0x3eff95f1	0.49919084
228	0xbd32c479	-0.043644402
229	0x3d48e052	0.049042054
230	0x3e32a209	0.17444624
231	0x3e180c9d	0.14848562
232	0x3df1b65f	0.11802363
233	0xbdf0f570	-0.117655635
234	0xbe1e22f0	-0.15443015
235	0xbe1b2d08	-0.15153897
236	0xbe23f52f	-0.16011499
237	0xbe5e4731	-0.21706845
238	0xbd8bd458	-0.06827611
239	0xbe3120fe	-0.17297742
240	0x3cdf8feb	0.027290305
241	0xbd89ec32	-0.06734504
242	0x3d96e578	0.073679864
243	0xbdb80548	-0.08985382
244	0xbe917e3d	-0.28416625
245	0x3d8d179d	0.068892695
246	0x3d422fa1	0.047408704
247	0xbede4a7b	-0.434162
248	0xbba0f834	-0.0049124006
249	0x3e0bc51d	0.13649411
250	0xbe3dc1e8	-0.18531
251	0xbc860285	-0.016358623
252	0x3e0582be	0.13038155
253	0x3d2f4957	0.04279455
254	0x3e26c740	0.16286945
255	0x3db9bc3f	0.09069108

u_model.model.4.bias f4 [42]
0	0xbe02cfa4	-0.12774521
1	0x3de933f3	0.11386862
2	0x3dc9f0c8	0.098603785
3	0x3de0db87	0.109793715
4	0x3d75ce82	0.060011394
5	0xbc582a96	-0.013193747
6	0x3d176a5b	0.036966663
7	0xbdb4a35e	-0.08820222
8	0xbc7500b8	-0.014953785
9	0xbda5b58a	-0.080912665
10	0x3ca30886	0.019901525
11	0xbd86050c	-0.06543931
12	0x3e04b3e0	0.12959242
13	0x3d3f1427	0.04665008
14	0x3da70c57	0.081566505
15	0xbd7832ae	-0.060595207
16	0xbc7b3316	-0.015332004
17	0x3e1277da	0.14303532
18	0x3d962523	0.07331302
19	0xbde15c6c	-0.11003956
20	0xbd823a66	-0.06358795
21	0x3d94a6bd	0.07258365
22	0x3d89c435	0.06726877
23	0x3d2e8ff0	0.04261774
24	0xbcb1fe78	-0.021727785
25	0x3da5184f	0.08061277
26	0x3d636924	0.05552019
27	0x3d3c4a35	0.045969207
28	0x3d052e6b	0.03251497
29	0xbdaa0de9	-0.083034344
30	0xbded07ae	-0.115737304
31	0x3de3ec01	0.111289985
32	0xbd959c3c	-0.0730519
33	0xbdc6f8ab	-0.097153984
34	0xbdc8b5b9	-0.09800286
35	0x3e2a3ca7	0.166247
36	0x3d74c524	0.05975832
37	0x3d996904	0.07490733
38	0x3e232044	0.15930277
39	0xbe193baa	-0.14964166
40	0xbdafe13a	-0.085878804
41	0x3d177a52	0.036981888

u_model.model.6.weight f4 [42, 42]
0	0x3e77659c	0.24159855
1	0x3ca73109	0.020409124
2	0x3c18689c	0.009302285
3	0x3e393a9f	0.18088768
4	0xbd9cb661	-0.076519735
5	0x3df49318	0.119421184
6	0x3e744c64	0.23857266
7	0xbcbc6d9a	-0.02300148
8	0x3ce5656d	0.028002465
9	0x3e4d6b99	0.20060576
10	0x3d7817d0	0.060569584
11	0xbe072af2	-0.13199976
12	0x3dcf95bc	0.101359814
13	0xbe2bc6ba	-0.16775027
14	0x3defe080	0.11712742
15	0x3ad61317	0.0016332594
16	0x3d6d326b	0.05790941
17	0x3e2f6c0c	0.1713106
18	0x3dd49b41	0.10381175
19	0x3df8847b	0.12134644
20	0x3e13e8fa	0.14444342
21	0x3e33f58a	0.17574134
22	0x3d3f124b	0.046648305
23	0x3e39f0ff	0.18158339
24	0x3e49456c	0.19655389
25	0xbd0b4237	-0.033998694
26	0xbc1d03f8	-0.009583466
27	0x3e1a7b00	0.15085983
28	0xbdd2241b	-0.10260793
29	0x3e52a459	0.20570506
30	0xbcc78505	-0.02435542
31	0xbd8dfdc2	-0.06933166
32	0xbda9713f	-0.08273553
33	0x3c8cfcc3	0.01721037
34	0x3da05b64	0.078299314
35	0xbe64a3ee	-0.22328159
36	0xbe0c566e	-0.13704845
37	0x3d3e99c5	0.046533365
38	0xbdb873a4	-0.09006432
39	0x3e43a2b8	0.19105041
40	0xbd2e3a36	-0.042535983
41	0x3e127d5b	0.14305632
42	0xbdb852b4	-0.09000149
43	0x3d3fb2d1	0.046801392
44	0x3ab11a41	0.0013511853
45	0xbd9fbd1c	-0.077997416
46	0x3dcae33c	0.09906623
47	0x3a7d47cb	0.0009661882
48	0xbe083f84	-0.1330548
49	0xbdd1ac06	-0.10237889
50	0xbd365b3f	-0.044520613
51	0xbe268f34	-0.16265565
52	0x3ce55da0	0.027998745
53	0x3cb7ec3b	0.02245151
54	0x3d60ecda	0.05491338
55	0x3d227fb7	0.03967258
56	0xbe447bc5	-0.1918784
57	0x3dfab87c	0.12242219
58	0xbd95b539	-0.07309956
59	0x3df8a5dc	0.1214101
60	0x3db58506	0.08863263
61	0x3dd42e67	0.10360413
62	0x3e000252	0.12500885
63	0x3db909bb	0.09035059
64	0x3d8727a0	0.06599355
65	0x3d6c0333	0.05762024
66	0xbe2f4723	-0.1711698
67	0xbdba05f9	-0.090831704
68	0xbe404185	-0.18774994
69	0xbe17cf8d	-0.14825268
70	0xbda0caae	-0.07851158
71	0xbe156cab	-0.14592235
72	0x3b1a3096	0.0023527495
73	0xbe150983	-0.1455441
74	0xbe7578a0	-0.23971796
75	0x3deb5f9f	0.11492848
76	0xbd910968	-0.07081872
77	0x3d63e31e	0.055636518
78	0xbd75ae3d	-0.05998062
79	0x3e18c386	0.14918336
80	0x3de3457a	0.11097236
81	0x3db213bf	0.086951725
82	0xbe633925	-0.22189768
83	0x3cbf90a9	0.023384409
84	0x3df28aa3	0.11842849
85	0xbe4f033f	-0.20216082
86	0xbe7af07b	-0.24505799
87	0xbe1318f5	-0.14364989
88	0xbddcbae5	-0.10777835
89	0xbd0d4887	-0.034492996
90	0xbb9a9c30	-0.004718326
91	0x3dc5b4b7	0.09653609
92	0xbe2b9e53	-0.16759615
93	0x39540f09	0.00020223497
94	0xbcd4a638	-0.025958166
95	0x3d9fa6aa	0.077954605
96	0x3cc26277	0.023728592
97	0xbe2a0fcd	-0.1660759
98	0x3e2407ad	0.16018553
99	0x3dc598dc	0.09648296
100	0x3e1d72f0	0.15375876
101	0x3de064c0	0.109567165
102	0xbd22ce6c	-0.03974764
103	0x3c8ce677	0.017199738
104	0xbe0dcd71	-0.13847901
105	0xbd1bddc2	-0.03805328
106	0x3c1bd450	0.009511068
107	0x3e618273	0.22022419
108	0xbd9be615	-0.07612244
109	0xbcdc27d8	-0.026874468
110	0xbcbb9c4b	-0.022901675
111	0x3dfbe192	0.122988835
112	0xbd275a95	-0.04085787
113	0xbd1f303e	-0.038864367
114	0xbd91ab2f	-0.07112729
115	0xbdb0bf74	-0.08630267
116	0xbcf2521d	-0.02958017
117	0x3da3c245	0.07996038
118	0xbd210509	-0.039311443
119	0xbe22f221	-0.15912677
120	0xbe44f885	-0.19235428
121	0x3e7c410e	0.24634191
122	0xbe014124	-0.12622505
123	0x3dd88e59	0.10574026
124	0xbd3f67a5	-0.046729703
125	0xbc909ff4	-0.017654397
126	0xbc8f9b83	-0.017530208
127	0xbd0cf35b	-0.03441177
128	0xbb447b0c	-0.0029980568
129	0x3db077a3	0.08616569
130	0xbdc9af52	-0.09847893
131	0x3e080dad	0.13286467
132	0x3de3d142	0.11123897
133	0xbb935077	-0.004495676
134	0xbd681f92	-0.056670733
135	0x3df3f2b8	0.11911529
136	0xbd7fd45a	-0.062458374
137	0xbd8355e8	-0.0641287
138	0xbe0ffc6f	-0.1406114
139	0x3d98541e	0.07437919
140	0x3de64a93	0.11244693
141	0x3d7c76f1	0.06163687
142	0xbd932f0e	-0.07186709
143	0x3df529bd	0.119708516
144	0x3e03e180	0.1287899
145	0x3d96a138	0.07354969
146	0x3e019d4d	0.12657662
147	0xbe07a0f5	-0.13244994
148	0x3dcbde4c	0.09954509
149	0xbcead503	-0.028666025
150	0x3dee2a1a	0.11629124
151	0x3ddab008	0.106781065
152	0x3e2ea697	0.17055736
153	0x3d71948c	0.058979556
154	0x3cff36ff	0.031154154
155	0x3e2c0a4f	0.16800807
156	0xbd7b6966	-0.061379813
157	0x3e04a905	0.12955101
158	0x3dc7af2a	0.09750207
159	0x3db2fb4a	0.08739336
160	0xbd83615e	-0.06415056
161	0xbdda4834	-0.10658303
162	0xbcb6e955	-0.022328058
163	0xbcafddfa	-0.021468151
164	0xbe238b64	-0.15971142
165	0x3e1c1a7e	0.15244481
166	0x3e16294b	0.1466419
167	0xbdf4a671	-0.11945809
168	0x3b7f2f3f	0.0038938073
169	0xbe422f57	-0.18963371
170	0xbdd0c17a	-0.10193153
171	0x3dfbdc16	0.122978374
172	0xbafa6a83	-0.0019105229
173	0x3da41420	0.08011651
174	0x3b849f0b	0.0040472797
175	0xbd830435	-0.06397287
176	0xbe7dc053	-0.24780397
177	0x3d85712f	0.06515729
178	0xbde12ee4	-0.10995272
179	0xbd3eb551	-0.046559636
180	0xbd329118	-0.043595403
181	0x3e06d1c4	0.13165957
182	0xbdabf638	-0.08396572
183	0x3dd39328	0.10330802
184	0x3c9f9008	0.01947786
185	0xbdc07dda	-0.09399004
186	0xbc1cf682	-0.009580256
187	0x3dae749c	0.08518335
188	0x3e047f26	0.12939128
189	0xbd6851e1	-0.05671871
190	0x3d426283	0.04745723
191	0x3e1fc978	0.15604198
192	0xbdde5371	-0.10855759
193	0xbb95cbda	-0.00457142
194	0x3d398197	0.045289602
195	0x3c49c453	0.012314874
196	0x3d988077	0.07446378
197	0xbd88c8c1	-0.06678916
198	0xbe3f083b	-0.18655483
199	0x3cc4935d	0.02399605
200	0xbdc36c29	-0.09542114
201	0xbdb96fe0	-0.090545416
202	0xbb46449a	-0.0030253292
203	0x3e11f515	0.14253648
204	0x3e2249c8	0.15848458
205	0x3cfab654	0.030604519
206	0x3db0c1ab	0.08630689
207	0xbdad3374	-0.084570795
208	0xbe3f183c	-0.18661588
209	0xbe7c5927	-0.24643384
210	0x3c0c00ec	0.008545142
211	0x3cd9eed3	0.026603138
212	0x3e397f01	0.18114854
213	0x3e1f8a38	0.1558007
214	0xbbfac18f	-0.0076524685
215	0x3d6826b1	0.056677524
216	0x3e11d9c0	0.14243221
217	0xbe2ac677	-0.16677271
218	0x3e06977b	0.13143723
219	0x3de70b33	0.11281433
220	0xbe6152bf	-0.22004221
221	0x3dc5f0c6	0.096650645
222	0xbd1288e5	-0.035775084
223	0x3e34c51e	0.17653319
224	0x3db80cdb	0.08986827
225	0xbe58ee1a	-0.21184579
226	0x3dbd541f	0.092445605
227	0xbdfc26d5	-0.12312094
228	0xbe1b2554	-0.15150958
229	0xbbc10492	-0.0058904374
230	0x3e012671	0.1261232
231	0x3d1935f4	0.03740497
232	0x3e193c0f	0.14964317
233	0xbdd25093	-0.102692746
234	0x3d747058	0.05967745
235	0xbd4b86d1	-0.049689118
236	0x3ea0b993	0.31391582
237	0x3db516ee	0.08842264
238	0xbda97464	-0.08274153
239	0x3d0e270c	0.034705207
240	0xbd82cee5	-0.06387118
241	0x3daa7264	0.083225995
242	0x3e3d75a5	0.18501909
243	0xbe18e741	-0.14931966
244	0xbe8591d7	-0.2608783
245	0xbca8edb4	-0.020621158
246	0xbd0d7594	-0.03453596
247	0x3db40141	0.08789302
248	0xbcad59c0	-0.02116096
249	0xbc355dc8	-0.0110697225
250	0x3e8276ed	0.25481358
251	0xbd5a0f6b	-0.05323736
252	0xbd187b15	-0.037226755
253	0xbe186c41	-0.14885046
254	0x3ddf1df0	0.10894382
255	0x3e48c2c3	0.19605546

u_model.model.6.bias f4 [42]
0	0x3d059fa9	0.032622967
1	0xbded7e81	-0.11596394
2	0x3e364683	0.17800336
3	0x3bc2280d	0.0059251846
4	0xbc1622fb	-0.009163613
5	0x3d27bae8	0.040949732
6	0x3d1976c1	0.03746677
7	0xbd746623	-0.059667718
8	0x3dfd54bf	0.1236968
9	0x3abbff57	0.0014343065
10	0x3c81b96d	0.015835488
11	0xbc05570b	-0.008138428
12	0xbe4b9914	-0.19882613
13	0xbdfd9b94	-0.1238319
14	0xbce90ca0	-0.028448403
15	0xbd1e0fa8	-0.03858915
16	0x3de35b48	0.11101395
17	0x3c7ce5cc	0.015435647
18	0x3e1f946b	0.1558396
19	0x3e19ca6e	0.15018627
20	0x3d849cd2	0.064752236
21	0x3d8d602a	0.069031075
22	0xbbcf5e92	-0.0063284123
23	0xbd4d0c20	-0.05006039
24	0xbe307c98	-0.17235029
25	0x3d0a7370	0.033801496
26	0x3d913566	0.07090263
27	0xbc3f741a	-0.011685396
28	0x3e21fc9c	0.15819019
29	0xbc90f9a7	-0.017697169
30	0xbca04bd1	-0.019567402
31	0xbc8c4305	-0.017121801
32	0x3e5970ff	0.21234511
33	0x3ccc12c1	0.024911286
34	0xbda1206c	-0.07867512
35	0xbd1c0d89	-0.038098846
36	0xbe621a83	-0.22080426
37	0x3e15049a	0.14552537
38	0x3e000b6c	0.12504357
39	0x3d9ad1ac	0.07559523
40	0x3dc5c2e5	0.09656314
41	0xbd8012e8	-0.06253606

u_model.model.8.weight f4 [42, 42]
0	0x3df954b7	0.12174361
1	0x3c9dad0e	0.019247558
2	0xbd1bf641	-0.038076643
3	0xbc0ef75b	-0.008725966
4	0xbd99ac03	-0.07503512
5	0x3db97b23	0.090566896
6	0xbce59dbe	-0.028029319
7	0x3dda2486	0.106514975
8	0xbdafafff	-0.085784905
9	0xbe322628	-0.17397368
10	0xbd6b218d	-0.057405043
11	0xbd19d41f	-0.03755581
12	0xbd70cc07	-0.058788326
13	0xbdb5a085	-0.08868507
14	0x3dcba1ad	0.099429466
15	0x3e080ed4	0.13286906
16	0x3e2df37d	0.16987415
17	0x3e1932cd	0.14960785
18	0xbc021764	-0.007940147
19	0xbe11224a	-0.14173236
20	0x3dc12ea0	0.09432721
21	0xbdf500a9	-0.119630165
22	0x3e478faf	0.19488405
23	0x3d69f739	0.057120536
24	0xbdf273bd	-0.118384816
25	0xbd704ec2	-0.05866886
26	0xbe0c0f81	-0.1367779
27	0x3d33dbf6	0.043910943
28	0xbdbcdd49	-0.09221894
29	0x3d30e94d	0.043191243
30	0x3e095a7c	0.13413423
31	0xbe13cfbd	-0.14434715
32	0x3e06625d	0.1312346
33	0x3dda95b8	0.10673088
34	0x3c4e44b5	0.012589623
35	0x3deaf193	0.11471858
36	0xbd9e62aa	-0.077336624
37	0xbdbe62b1	-0.09296168
38	0xbe14ef62	-0.14544442
39	0x3e409655	0.18807347
40	0xbd48800c	-0.04895024
41	0x3d119b55	0.035548527
42	0xbd75eef3	-0.060042333
43	0x3cbea0cd	0.023270035
44	0x3e73356b	0.23750846
45	0x3e171a28	0.14756072
46	0x3e0cfb3b	0.13767712
47	0xbd47f1ed	-0.048814703
48	0x3d784660	0.06061399
49	0x3dc2aa4f	0.0950514
50	0xbe644bc8	-0.22294533
51	0x3dd6843e	0.10474442
52	0xbdb85f0b	-0.09002503
53	0x3e37caec	0.17948502
54	0xbdf04b26	-0.117330834
55	0xbb73ccc4	-0.0037200907
56	0xbe0e48b3	-0.1389492
57	0xbdf771aa	-0.120822266
58	0xbc399c69	-0.011328795
59	0xbbcd4b68	-0.0062650926
60	0xbd2f01d8	-0.042726368
61	0x3e6cbe91	0.2311957
62	0xbd3edfd6	-0.046600185
63	0xbd6c50af	-0.057694133
64	0xbc2819a1	-0.010260017
65	0xbe49b5f1	-0.19698311
66	0x3e430bd4	0.19047481
67	0x3dad8f18	0.084745586
68	0xbc1b2baa	-0.00947086
69	0x3ded033f	0.11572885
70	0x3e39bd6e	0.18138668
71	0xbda3cbc2	-0.07997848
72	0xbd32c3a9	-0.043643627
73	0xbdae4567	-0.08509331
74	0xbbbc4852	-0.005745926
75	0x3e0c9156	0.13727316
76	0xbe02affd	-0.12762447
77	0x3d6e4e70	0.058180273
78	0xbdb54761	-0.08851505
79	0xbe352a30	-0.17691875
80	0x3e25733b	0.16157238
81	0xbd1316dc	-0.035910472
82	0xbe3ae67a	-0.18251982
83	0x3dab3b79	0.08360953
84	0xbe463cd8	-0.19359148
85	0x3c4e4f7e	0.012592195
86	0xbe7c866a	-0.2466065
87	0x3dad30d3	0.08456578
88	0xbbacdb46	-0.005275163
89	0x3e5c49db	0.21512549
90	0x3e11785a	0.14206067
91	0xbd17cbc1	-0.03705955
92	0xbdb0fd58	-0.086420715
93	0x3cca9b39	0.024732219
94	0x3c0bb736	0.008527568
95	0xbcc53de8	-0.02407737
96	0x3e2def97	0.16985928
97	0x3c5d0d55	0.013491948
98	0x3dee55b3	0.116374396
99	0x3e256ab0	0.1615398
100	0x3df541f0	0.11975467
101	0x3d6f3b59	0.058406208
102	0x3e3688d6	0.17825636
103	0xbe6330c7	-0.22186576
104	0xbdee4655	-0.116345085
105	0xbe01deb7	-0.12682615
106	0x3e0bde4c	0.13659018
107	0xbd8485ef	-0.06470858
108	0x3d7fed30	0.06248206
109	0x3d00e827	0.031471398
110	0xbe2c4358	-0.16822565
111	0xbe5bd976	-0.21469674
112	0xbe07f75a	-0.13277951
113	0xbe0f73e8	-0.14009058
114	0xbe112138	-0.14172828
115	0xbc302b9e	-0.010752587
116	0x3c81b75c	0.015834503
117	0xbe409229	-0.18805756
118	0x3ca69c2a	0.020338137
119	0xbd1c1d7f	-0.038114067
120	0x3e5e7193	0.21723013
121	0xbc39b7e4	-0.011335347
122	0x3e42b7c3	0.19015412
123	0xbce8c57c	-0.02841448
124	0x3ddc6f19	0.10763378
125	0xbd8a1c8e	-0.067437276
126	0xbe35e083	-0.17761426
127	0x3deab34d	0.1145998
128	0x3db20d18	0.08693904
129	0xbe343ce9	-0.1760136
130	0x3da2c694	0.07948032
131	0xbd1ad5a0	-0.037801385
132	0xbe52edc7	-0.20598517
133	0x3d7ccbeb	0.06171791
134	0x3c5848d4	0.013200957
135	0xbe0249d8	-0.12723482
136	0xbcb897c6	-0.022533309
137	0xbdf1d53d	-0.1180825
138	0x3e50fc25	0.20408686
139	0xbd80ae02	-0.06283189
140	0xbdfe882c	-0.124283165
141	0x3d531932	0.0515377
142	0xbdd38a86	-0.103291556
143	0x3dc203f8	0.09473413
144	0x3e7a9463	0.24470668
145	0x3d4357b5	0.047691066
146	0x3d6fa106	0.058503173
147	0xbd9c6c30	-0.07637823
148	0x3d615c79	0.05501983
149	0xbd9423d1	-0.07233394
150	0xbdb1b862	-0.08677746
151	0xbe039d8d	-0.1285307
152	0xbe2a9a0e	-0.1666033
153	0xbe01b44d	-0.12666436
154	0xbc65c593	-0.014024156
155	0xbcd29523	-0.02570588
156	0xbd95e469	-0.073189564
157	0xbdb07280	-0.08615589
158	0xbdca7e9b	-0.09887429
159	0xbe2e7bd1	-0.1703942
160	0x3e01b2ff	0.12665938
161	0x3e1da5a2	0.15395215
162	0xbd663f38	-0.056212634
163	0xbc0e4c2a	-0.008685151
164	0x3cd4f115	0.025993863
165	0x3d07fbf2	0.03319926
166	0x3dd57cba	0.1042418
167	0x3dac0ecf	0.08401262
168	0xbd3965f8	-0.04526326
169	0x3e8335f5	0.25627103
170	0x3d801ee9	0.06255896
171	0xb901a54b	-0.00012363975
172	0x3dba1110	0.09085286
173	0xbe0b7d80	-0.13622093
174	0xbe8e6bef	-0.27816722
175	0xbd8732a3	-0.06601455
176	0xbe614ade	-0.22001216
177	0x3c9b2f00	0.01894331
178	0x3dabc2fe	0.08386801
179	0x3d58a118	0.052888006
180	0x3d5cddc6	0.053922437
181	0x3bea12fe	0.0071433773
182	0x3da232f8	0.07919878
183	0xbddaafb8	-0.10678047
184	0xbcbc8011	-0.023010286
185	0xbe0236e9	-0.12716259
186	0x3e3299ed	0.1744153
187	0xbd98efff	-0.074676506
188	0x3c800a35	0.015629867
189	0x3c879207	0.016549123
190	0x3e03b087	0.12860309
191	0xbe52ff92	-0.20605305
192	0x3e80766a	0.25090343
193	0xbb03feae	-0.0020140815
194	0xbe5e82e2	-0.21729615
195	0x3a24c369	0.0006285222
196	0x3e568a39	0.20951165
197	0x3e745158	0.23859155
198	0xbc91f6f0	-0.017817944
199	0x3d0b0eac	0.03394954
200	0x3d5e515f	0.05427682
201	0x3e76fcef	0.24119924
202	0x3de39ba2	0.11113669
203	0x3dd15cf8	0.102228105
204	0xbccaed7f	-0.02477145
205	0xbdb67042	-0.0890813
206	0xbe702ac9	-0.23453821
207	0xbc80ede1	-0.01573843
208	0x3d248855	0.04016908
209	0xbd85a21c	-0.065250605
210	0x3d7a10f5	0.061051328
211	0xbc1f31c2	-0.009716453
212	0xbe15cb1e	-0.14628264
213	0xbe2132a8	-0.1574198
214	0x3ca85efa	0.0205531
215	0x3e288feb	0.1646115
216	0xbe002197	-0.12512814
217	0xbd97343a	-0.07383008
218	0xbdf0e803	-0.11763003
219	0xbe24483b	-0.16043179
220	0x3e2c85f4	0.16847974
221	0x3deddb46	0.11614089
222	0x3dbb041b	0.091316424
223	0xbdfb6b99	-0.12276382
224	0x3ded1b48	0.11577469
225	0xbc355c7b	-0.011069412
226	0xbe144303	-0.14478688
227	0x3e0a4e28	0.13506377
228	0x3e6bd78b	0.23031442
229	0xbd862b85	-0.065512694
230	0xbd0fc511	-0.035100047
231	0xbccfe7bf	-0.02537906
232	0xbd2a4955	-0.04157384
233	0x3dff0f4b	0.12454089
234	0xbd52ad15	-0.051434595
235	0x3d0917db	0.033470016
236	0xbd3f2831	-0.04666919
237	0x3d325cc9	0.043545518
238	0xbca449fe	-0.020054813
239	0xbcb3add8	-0.021933481
240	0xbd9aa2e4	-0.075506
241	0x3983927d	0.0002509541
242	0x3d3c9544	0.04604079
243	0xbe228ce6	-0.15874061
244	0x3d85c336	0.06531374
245	0x3e38e853	0.18057375
246	0xbd48ca4e	-0.049021058
247	0x3d8f255d	0.06989548
248	0xbda148f8	-0.07875246
249	0x3e069f17	0.13146625
250	0xbdb4d777	-0.08830159
251	0x3bc16269	0.005901624
252	0x3e7401d0	0.23828816
253	0xbd9cb683	-0.07651999
254	0x3e7f9842	0.24960425
255	0x3e588516	0.21144518

u_model.model.8.bias f4 [42]
0	0xbd34ace5	-0.044110198
1	0xbe030ae3	-0.12797122
2	0xbe1606e9	-0.14651074
3	0x3e2e2f12	0.17010143
4	0xbe3383bf	-0.17530726
5	0xbd8ffea3	-0.0703099
6	0xbd3a5b1a	-0.045497037
7	0xbe4415ba	-0.19148913
8	0xbdad7b9f	-0.084708445
9	0x3dc9ade3	0.098476194
10	0x3cce92a6	0.025216412
11	0x3dcfb196	0.10141294
12	0x3de6c555	0.11268107
13	0x3c54b410	0.012982383
14	0xbd19cf15	-0.037551004
15	0xbdd813ba	-0.105506375
16	0x3c5621e9	0.013069608
17	0xbe286dbe	-0.16448113
18	0xbe00a5dd	-0.12563272
19	0xbd115818	-0.035484403
20	0xbdd71116	-0.10501306
21	0x3dc302b0	0.09521997
22	0xbd2f51a6	-0.042802475
23	0x3da70b8f	0.081565015
24	0x3e06c35e	0.13160464
25	0x3d023875	0.031792123
26	0x3bf5f7e3	0.007506357
27	0x3db82fb3	0.08993473
28	0xbd9815d4	-0.074260384
29	0x3ccf3017	0.025291486
30	0xbca340fc	-0.019928448
31	0xbe19512e	-0.14972374
32	0x3dd741cd	0.105105974
33	0x3d75f44c	0.060047433
34	0xbd371d28	-0.04470554
35	0xbd63f91f	-0.055657502
36	0xbdb26f1c	-0.08712599
37	0x3ec75b0e	0.38936657
38	0xbd73b2c8	-0.05949667
39	0x3cd8b635	0.02645407
40	0x3e0b0b9e	0.1357865
41	0x3de44fc9	0.1114803

u_model.model.10.weight f4 [42, 42]
0	0x3e054770	0.13015532
1	0x3df6ae82	0.120450035
2	0x3d44a180	0.04800558
3	0xbcbf44e2	-0.023348276
4	0x3e96aeda	0.29430276
5	0xbde614d3	-0.11234441
6	0xbe024185	-0.12720306
7	0xbdc89558	-0.0979411
8	0xbdcc444b	-0.09973963
9	0xbe808626	-0.25102347
10	0xbdc201f5	-0.094730295
11	0x3d7ecb9f	0.062205907
12	0x3db93cc7	0.090447955
13	0x3e063973	0.13107853
14	0xbc38fbfa	-0.011290545
15	0xbc8341e3	-0.016022628
16	0xbdf43b06	-0.1192532
17	0x3ea2b5b7	0.31779262
18	0x3e2aa976	0.16666207
19	0xbe172b5a	-0.14762631
20	0x3e1ddfee	0.15417454
21	0xbdb9ae9b	-0.090665065
22	0x3e9767d5	0.29571405
23	0xbdf580d9	-0.11987466
24	0x3e0479ca	0.12937084
25	0xbd87f978	-0.06639379
26	0x3dbd5bf3	0.092460535
27	0x3e1a4772	0.15066317
28	0x3e71a05e	0.23596331
29	0x3e04c5fd	0.12966152
30	0xbdd549a4	-0.104144365
31	0xbc106014	-0.008811969
32	0xbd2cf2a7	-0.0422236
33	0xbcb33899	-0.021877574
34	0xbc918320	-0.01776272
35	0x3ddaba6e	0.1068009
36	0x3d0ff773	0.035148095
37	0xbece568d	-0.40300408
38	0xbdbb43f1	-0.09143818
39	0x3e7895bd	0.2427587
40	0xbe845172	-0.25843388
41	0xbe2c5318	-0.16828573
42	0xbd040ddb	-0.032239776
43	0xbd4e8c8e	-0.050427012
44	0xbd9f102e	-0.07766758
45	0x3d219690	0.03945023
46	0x3d16fa79	0.036859963
47	0xbd7d549a	-0.06184826
48	0xbde9fbd3	-0.11424985
49	0x3dec9cb7	0.115533285
50	0x3cc22853	0.023700869
51	0xbd95c266	-0.07312469
52	0x3c38ba1a	0.011274839
53	0xbe09db07	-0.13462459
54	0xbd00d738	-0.03145525
55	0xbe2b04a8	-0.16700995
56	0xbe068654	-0.1313718
57	0x3df7def6	0.12103073
58	0xbde2501b	-0.11050435
59	0xbe04dfea	-0.12976041
60	0x3d38821d	0.04504596
61	0xbd17a60e	-0.037023596
62	0x3d5cd55a	0.053914405
63	0x3e062682	0.13100627
64	0x3c961b3a	0.01832353
65	0xbe1508e2	-0.1455417
66	0x3d6c2336	0.057650767
67	0x3c6c7627	0.014432467
68	0x3e0f9ff4	0.14025861
69	0xbdd175be	-0.10227536
70	0xbdc4ceca	-0.096097544
71	0x3d5c6d77	0.05381533
72	0xbdc9485d	-0.09828255
73	0xbda4c5e9	-0.08045561
74	0x3e204067	0.15649568
75	0x3c387e7f	0.011260628
76	0x3e047a26	0.12937221
77	0xbda44183	-0.08020308
78	0x3d178367	0.03699055
79	0xbd1519af	-0.036401447
80	0xbe24d702	-0.16097644
81	0xbdd219b9	-0.102588125
82	0xbd1912a0	-0.037371278
83	0x3d662fcb	0.056197923
84	0x3d036c6f	0.032085832
85	0xbd9565c9	-0.072948046
86	0x3d9eaeff	0.077482216
87	0x3d0d6de6	0.034528635
88	0xbde80e85	-0.113308944
89	0xbd82e807	-0.06391912
90	0xbc874e2a	-0.016516764
91	0xbde68f2c	-0.112577766
92	0x3e299ead	0.16564436
93	0xbdeb53a2	-0.11490561
94	0x3e0fd46c	0.14045876
95	0xbd20a0da	-0.0392159
96	0xbe1a1947	-0.15048705
97	0x3e3a20b4	0.18176538
98	0x3d150303	0.036379825
99	0x3ce39f98	0.027786061
100	0xbd57d59c	-0.05269395
101	0xbcb707b6	-0.022342544
102	0xbdbfd559	-0.09366865
103	0xbc414c0e	-0.011797918
104	0xbe31a117	-0.17346607
105	0xbdca23ef	-0.09870135
106	0xbe47aaf4	-0.19498807
107	0x3dc157d3	0.09440579
108	0xbcc16d75	-0.023611763
109	0xbd024d9b	-0.03181229
110	0x3d379321	0.044818047
111	0x3d5b3177	0.05351397
112	0xbe3f3157	-0.18671165
113	0xbe7e5973	-0.2483881
114	0xbcc653ef	-0.024209945
115	0x3e242a53	0.1603177
116	0x3d724ba4	0.059154168
117	0x3d8f1274	0.069859415
118	0x3e0a21c9	0.1348945
119	0xbd2dc073	-0.042419862
120	0x3e13f339	0.14448251
121	0xbd485a25	-0.048914094
122	0x3e6a481d	0.22879072
123	0x3c973a9a	0.01846056
124	0xbcf34326	-0.029695105
125	0x3e25ba6e	0.16184399
126	0xbd420975	-0.0473723
127	0xbbc3a27d	-0.005970298
128	0x3d97d032	0.07412757
129	0xbe9d8ea5	-0.30772892
130	0xbe2a248a	-0.16615501
131	0xbe2f34b2	-0.17109945
132	0x3e172fb3	0.1476429
133	0x3e3e5a33	0.18589096
134	0xbd229a4d	-0.039697934
135	0xbd928e78	-0.0715608
136	0x3d2343c4	0.03985955
137	0x3e7dadbf	0.2477331
138	0x3eb477c5	0.35247627
139	0xbcbe26cb	-0.023211857
140	0xbd7e63e4	-0.062106982
141	0x3da92608	0.08259207
142	0x3e7bb313	0.2458003
143	0x3b973a54	0.0046151076
144	0x39e243fa	0.00043156726
145	0x3d668db9	0.0562875
146	0xbe58594a	-0.21127811
147	0xbdd3fa99	-0.10350532
148	0xbe2166cf	-0.15761875
149	0x3e2c5249	0.16828264
150	0xbd2c08c3	-0.042000543
151	0x3dbce246	0.09222846
152	0xbe2ed972	-0.17075136
153	0x3e7f261a	0.24916878
154	0xbd159051	-0.036514584
155	0xbe36d3da	-0.17854252
156	0x3c1bf1ed	0.009518129
157	0x3df8f7be	0.12156628
158	0x3e703b8d	0.23460217
159	0x3e6c7244	0.23090464
160	0xbc2567de	-0.010095565
161	0xbe4b1c34	-0.19834977
162	0xbdb7b625	-0.08970288
163	0x3d38d3b6	0.04512378
164	0x3e33e264	0.1756683
165	0xbdb07889	-0.0861674
166	0x3d3abf63	0.045592677
167	0x3d3232b2	0.043505378
168	0x3de94be4	0.11391428
169	0xbdc87828	-0.09788543
170	0xbdbb137b	-0.09134575
171	0xbd269c51	-0.04067642
172	0x3c6932b0	0.014233276
173	0xbe00c743	-0.12576012
174	0xbc3b04e2	-0.011414738
175	0xbcb0b0eb	-0.021568736
176	0x3cf6b4c2	0.030115489
177	0x3d1fcd02	0.03901387
178	0xbdcc6754	-0.09980646
179	0x3d7753ee	0.060382776
180	0xbd970403	-0.07373812
181	0xbc2b50a5	-0.010456239
182	0x3d4d4b62	0.05012072
183	0x3d91057d	0.07081125
184	0xbbcecf1d	-0.006311311
185	0x3dcfa375	0.10138599
186	0xbdde985d	-0.10868905
187	0xbdead6b2	-0.11466731
188	0xbd8fd182	-0.07022382
189	0x3e01694d	0.12637825
190	0xbd966400	-0.07343292
191	0xbd9c6463	-0.07636335
192	0x3d842c25	0.064537324
193	0xbd061644	-0.032736078
194	0x3e0bc988	0.13651097
195	0x3dc9a2d5	0.09845511
196	0x3c7bf141	0.015377344
197	0x3dd25f0a	0.102720335
198	0xbdf8c8dd	-0.12147687
199	0xbe3a4860	-0.18191671
200	0xbcc5a8be	-0.024128314
201	0xbdbc6c86	-0.09200387
202	0xb93163db	-0.00016917234
203	0xbb6842c6	-0.003544019
204	0x3a47985c	0.0007613951
205	0xbea7b525	-0.3275539
206	0xbe43f11c	-0.19134945
207	0xbd027641	-0.031851057
208	0xbc2f4698	-0.010697983
209	0x3e08f1a2	0.13373426
210	0xbd7f22e9	-0.062289152
211	0x3e08bbfd	0.13352962
212	0x3dd52865	0.10408095
213	0x3cec8dcd	0.02887621
214	0xbe6815b5	-0.2266453
215	0x3d9423d1	0.07233394
216	0xbd62c5aa	-0.05536429
217	0x3e4b591d	0.19858213
218	0x3dfbd81a	0.122970775
219	0xbc1a2909	-0.009409198
220	0x3d270a9a	0.040781595
221	0x3ce3a03e	0.02778637
222	0xbe04a802	-0.12954715
223	0x3da92b69	0.08260233
224	0xbd54fe4f	-0.05200034
225	0x3d5da380	0.054111004
226	0x3e0bb199	0.13641967
227	0xbe0dd559	-0.13850917
228	0xbde29a2d	-0.11064563
229	0x3c902a0c	0.017598175
230	0xbb1ca4c9	-0.002390193
231	0xbc93959b	-0.018015673
232	0xbe34be56	-0.17650732
233	0xbc970146	-0.018433224
234	0x3d0c49f0	0.0342502
235	0xbdc06c07	-0.093956046
236	0x3d524dee	0.05134385
237	0x3cfc0d08	0.030767933
238	0xbd318f53	-0.043349575
239	0xbdb59d44	-0.08867887
240	0x3d16c4e3	0.03680886
241	0x3e3a7a13	0.1821063
242	0x3c1fd174	0.009754527
243	0x3bce3d27	0.006293911
244	0x3e156b06	0.14591607
245	0xbd5d41c0	-0.054017782
246	0x3e09b9ec	0.1344983
247	0x3e55830c	0.20850772
248	0x3d8c83e5	0.068610944
249	0x3e05f9dd	0.13083597
250	0xbd8c8685	-0.06861595
251	0xbd876679	-0.06611342
252	0x3d344850	0.044014275
253	0x3e28404c	0.16430777
254	0x3e087d47	0.1332904
255	0x3d3971aa	0.045274414

u_model.model.10.bias f4 [42]
0	0xbe1a49b5	-0.1506718
1	0xbe05f654	-0.13082248
2	0x3e4c0865	0.19925077
3	0x3d9254cb	0.07145079
4	0xbd849b0a	-0.06474884
5	0xbe11f655	-0.14254124
6	0xbdbed1aa	-0.09317334
7	0x3e077efd	0.13232036
8	0xbd17bf24	-0.03704752
9	0x3dea1b93	0.114310406
10	0x3deadc01	0.11467744
11	0xbdc9a6f2	-0.098462954
12	0xbde1d8e6	-0.11027698
13	0xbdf02b2a	-0.11726983
14	0x3e073d4f	0.13206981
15	0xbddc37ed	-0.107528545
16	0xbdd8f9e5	-0.105945386
17	0x3dd2456e	0.10267149
18	0xbd972dd0	-0.07381785
19	0xbdc5d67d	-0.09660051
20	0xbdeb2a43	-0.1148267
21	0xbdaaeb20	-0.08345628
22	0x3e36ea73	0.17862873
23	0x3df7e034	0.1210331
24	0x3e08c8ee	0.13357899
25	0x3dd4fb56	0.10399501
26	0x3cd71189	0.026253479
27	0xbca3f9c2	-0.020016555
28	0x3ce1a16d	0.027542794
29	0x3d3a6beb	0.045513075
30	0x3d900535	0.07032243
31	0x3d9cb8fa	0.07652469
32	0x3e01cfaf	0.12676881
33	0xbb3fba91	-0.002925549
34	0x3dcaa220	0.09894204
35	0xbd75808a	-0.059937038
36	0x3d8e3c59	0.06945104
37	0x3d2b7419	0.041858766
38	0x3e090647	0.13381301
39	0xbc87b1fe	-0.016564365
40	0xbc408227	-0.011749781
41	0xbdb43810	-0.087997556
