saved_models/grid_sampling/random_r.pt (torch, 76093 bytes, 42 tensors)

u_model.W f4 [20, 2]
00000000: 0ddf 31be db46 e9bf 737a 473f b9c7 81bf
00000010: f92e 623f 36ee 203f deb3 81be 5efc 29c0
00000020: 1ef2 44bf 23bb 643f 556c ea3e 38da 793d
00000030: faaf c23f 58fe 683f 8164 953e 2239 78be
00000040: 28cd 623d 3bbd fcbf 7f95 c43f 80d5 003f
00000050: 8843 9e3f ebf3 36bf 3301 853b 232a 013f
00000060: fff7 423f 5011 dbbf aa9a a43f 5249 9bbf
00000070: 53a6 a43e 181b 3dbf 5cfc 71bd c49f 18bf
00000080: f084 b53c 9fad 7a3f 1c9c b73e db97 ec3e
00000090: 2374 a03f 31a5 3b3f 396a f83e 7bee ccbf
-0.17370243 -1.8224748 0.7792122 -1.0139076 0.88352925 0.6286348 -0.2533254 -2.6560283
-0.7693194 0.8934805 0.45785776 0.060999125 1.5209954 0.910131 0.2917824 -0.24240544
0.055371433 -1.9745249 1.5358123 0.50325775 1.2364359 -0.7146594 0.004058981 0.5045492
0.7615966 -1.7114658 1.28597 -1.213175 0.32158145 -0.73869467 -0.05907856 -0.59618783
0.022158116 0.97921175 0.3586129 0.46209607 1.2535442 0.7329894 0.4851854 -1.6010278

u_model.b f4 [20]
00000000: 2f13 b440 9036 ad3f 788d 6740 83ba ca3f
00000010: 8d73 bc3f 3efb 5d3f 22c7 7e40 6bf6 173f
00000020: f374 3e40 07c8 c740 679a bb40 6667 923d
00000030: d27f ab40 4853 7540 e0a5 b840 8518 c13e
00000040: edaf 1140 ceb2 fb3f 54fd bd40 f5b9 b040
5.6273417 1.3532276 3.6180096 1.5838169 1.4722763 0.8671149 3.980904 0.5936038
2.975888 6.2431674 5.862598 0.07148628 5.359353 3.833208 5.7702484 0.3771402
2.2763627 1.9663942 5.937174 5.5227

u_model.model.0.weight f4 [42, 42]
00000000: 5eab 9bbd 331f 303e 6d65 fa3d 5618 1cbe
00000010: 3741 88bd fd66 7abe fbd5 c53c 9df0 b4bd
00000020: 4394 61bd 56c6 a53c 9a40 dcbc 0152 24bd
00000030: c8bd 4fbd b31f 0bbe f276 2b3e 18c1 cebd
00000040: e10d bdbd f505 30bd 9242 e6bd 2fec 5abc
00000050: c11b ba3d bf71 18bc 7b59 90bd 2503 f5bd
00000060: f364 023d 3632 e4bd 7b6c b43d fae1 a93c
00000070: 2230 09be 86c3 cbbc bbb6 ea3c 0c99 2e3e
00000080: 6319 c8bc 65d3 d3bd f8ab 02be 2027 923d
00000090: 91c4 d43d 881d 53bc 9278 0d3e 620e 02be
000000a0: 23d9 1abe 1caa 89bc b43c c93d ae62 2e3e
000000b0: 1c32 0cbe 2ff2 4fbb 2ef2 273e e7fb a83e
000000c0: 8b7b f4bd a73c 11be 5bb3 083e 9b85 afbd
000000d0: 85cb 33be 73c2 1ebe fb7c a6bb 02f8 8dbd
000000e0: b2ba 653d d54f 30be 3588 ff3d 6d17 e2bc
000000f0: b06e 053e 41a2 0fbd 8df9 583d 9b8f 8b3d
00000100: 0e33 80be 2c87 233e 6ef9 0b3e f0c0 cfbd
00000110: 40bb 393e d59b 9fbd 06d8 493c 1713 b0bd
00000120: 9827 ae3d e9c0 be3d c8ae edbc 09dc 89bd
00000130: a8a0 26bc 61df 9cbe b0f7 0abe 04f1 12bd
00000140: 91bb 903d c3cc 1dbe 4725 9dbd 199d 65be
00000150: 1581 cc3d f282 35bd 07ae 5fbe 4291 82bd
00000160: e3c0 c6bd 09ee 973e 0154 7bbd 8bb5 c3bc
00000170: 2919 0b3e d80f a83d 4de2 23be 1e49 833d
00000180: 90de 1e3e fc13 a93d 1ff9 eb3c 788a 03bd
00000190: 9138 d9bd 0250 e1bd 211b 9fbd 3dda d1bc
000001a0: d82e ba3d 8c27 df3d 1995 313c 9718 63bd
000001b0: 4bcc da3c 2487 96bc fd46 42bd 49e7 66bd
000001c0: 33a3 42bc ff92 8a3b 94aa 603e c78b 713d
000001d0: ac31 eb3d 7d47 d13a a943 27be e8cc 10bd
000001e0: c822 903d 141b 1dbe 8b67 ccbc 2a0b 833d
000001f0: eedc b6bd 12e1 e23c 1324 febd 0d63 55bc
00000200: 5487 1d3d bb69 7c3d 65b4 19be 7581 783e
00000210: f455 c4bd cd35 21bd 7923 bb3d d3cb d2bd
00000220: 1505 b03d 17fc cd3d f93b 453e 146c 9cbd
00000230: 8f10 ad3c c312 013e 9f86 b03d f1b4 79bd
00000240: 3091 2e3e e94a 163e fab3 433d e22f 85bd
00000250: af34 fcbd b5c0 1e3e e1f2 413d 1d8f 843c
00000260: 5c62 383c f711 aabd dc1f b13d 438a 813d
00000270: c1d9 d63d 939b 88bd 6617 5b3d 255b ad3d
00000280: e063 de3d f58d c93d 20df 843d c186 ea3d
00000290: 766a 04bd 0377 9fbd 31d3 553d 319b ff3c
000002a0: 7c56 31bc 3c0e 45bc dec0 213d b10a 4ebc
000002b0: 7a27 513d 0368 a43e 95ba b93b b5a9 14bd
000002c0: 1ee4 4abd bbc8 ce3d ea19 b8bd 71fd 4c3d
000002d0: 82bf b5bd b6c6 713d ac9a d1bd 4989 ba3c
000002e0: 9527 8ebd 77b9 0bbe a99d 27ba b5e9 693d
000002f0: 929d 96bd e4d7 96bd 41b0 c13c 6add 96bc
00000300: 6596 bd3d 6582 f03a 1d89 abbc 9ab0 af3d
00000310: 6ee8 28be f672 823d 86d8 d93b b1de 7dbd
00000320: b62e 453d 9637 933d e635 e3bd 4f8a f1bc
00000330: 278d ecbc 2159 aabd 921b 20bc 2f1d 0d3d
00000340: 3af9 85bd 4f71 f4bd e0ec 2f3e cb33 55bd
00000350: 8f4f 1e3d 865a c93d 4db9 69bd 07bd acbe
00000360: 1ce3 a6bd 0912 fbbd 13ba 2c3d f479 93bd
00000370: 0b16 c73d 00c1 d83d 2488 32bd 1d67 973d
00000380: 6f9b f33d 577a adbc da1b 4d3d 5169 a2bd
00000390: 7e3c 083e b3d9 1bbe 45dd 53bd c8f2 8e3c
000003a0: 71e7 03bd d60e dcbd 0fea aa3d 5a26 70be
000003b0: 0062 87bc 6538 183e b303 fabd 9aab 1e3e
000003c0: bcf8 9d3c a5cc 26bd 820c 693d b263 d3bc
000003d0: b0b0 87bd 0287 023e d9db 263d 0611 263d
000003e0: c87b 0e3e 8834 9ebc 16a9 cbbc 18be c6bd
000003f0: 47b6 a0bd 2f4a 33be 88b7 10bd 7afa b33d
-0.07601045 0.17199402 0.12226377 -0.15243658 -0.06653064 -0.2445335 0.024149885 -0.08834956
-0.055073034 0.020236176 -0.026886273 -0.040117268 -0.0507181 -0.13586311 0.16744593 -0.100954235
-0.09231163 -0.04297443 -0.11243166 -0.013361975 0.09087325 -0.009304463 -0.07048317 -0.119634904
0.031834554 -0.111423895 0.088097535 0.020737637 -0.13397267 -0.024873506 0.028651586 0.1705057
-0.024426168 -0.10343055 -0.12760913 0.07136369 0.103890546 -0.012885459 0.13815525 -0.12700799
-0.15121894 -0.016804747 0.09826031 0.17029831 -0.1369099 -0.0031730046 0.16400978 0.33004686
-0.119376265 -0.14183293 0.13349669 -0.08570405 -0.17558105 -0.15503864 -0.005080817 -0.06932069
0.05608625 -0.17217954 0.12477151 -0.02759906 0.13030505 -0.035066847 0.052972365 0.068145
-0.25038952 0.15969533 0.13669369 -0.10144222 0.18137836 -0.077933945 0.01231957 -0.08597391
0.08503646 0.093141384 -0.029014006 -0.067314215 -0.010170139 -0.30639175 -0.13571048 -0.03587438
0.070670255 -0.15410142 -0.07673126 -0.22423209 0.09985558 -0.044314332 -0.2184373 -0.06375362
-0.09704759 0.29673794 -0.06135941 -0.023890277 0.13583817 0.08206147 -0.16004296 0.0641043
0.15514588 0.08255765 0.028805314 -0.032114476 -0.10606492 -0.110015884 -0.07768846 -0.02561676
0.09090966 0.10896215 0.01083877 -0.055443373 0.026708743 -0.018374987 -0.04743098 -0.056372914
-0.01187973 0.004228949 0.2194007 0.058971193 0.114840835 0.001596674 -0.16334404 -0.035351664
0.07037884 -0.1534236 -0.024951717 0.06398614 -0.08928858 0.027695213 -0.12409224 -0.013024104
0.038459137 0.06162427 -0.15010221 0.24268134 -0.09586707 -0.03935795 0.09137625 -0.10292783
0.08594719 0.10057848 0.19261159 -0.07637802 0.02112606 0.12604813 0.08619427 -0.060963575
0.17047572 0.14677013 0.04777906 -0.065032735 -0.12314736 0.155032 0.047350768 0.016181523
0.011253919 -0.08304208 0.08648655 0.063251995 0.10490752 -0.066702984 0.05348911 0.0846465
0.108588934 0.09841529 0.0648787 0.114514835 -0.03232809 -0.077863716 0.05220336 0.03120193
-0.010823842 -0.0120273195 0.039490573 -0.012575791 0.05106304 0.32110605 0.0056679943 -0.036294658
-0.049533956 0.1009688 -0.08989318 0.050046388 -0.08874418 0.059027396 -0.102345794 0.02277054
-0.069411434 -0.13644968 -0.00063940376 0.057107646 -0.07354273 -0.073653966 0.023643615 -0.018416125
0.09257201 0.0018349407 -0.020939404 0.08578606 -0.16494915 0.06369583 0.006648126 -0.061979953
0.04814025 0.071883366 -0.11094265 -0.029484896 -0.0288759 -0.08317781 -0.009772198 0.03445166
-0.06541677 -0.119356744 0.17180204 -0.052051347 0.03865009 0.09831719 -0.057061482 -0.33737966
-0.081487864 -0.12259299 0.04216964 -0.07200995 0.09721001 0.10583687 -0.043586865 0.07392714
0.11894881 -0.0211765 0.05007539 -0.07930244 0.13304326 -0.15219764 -0.05172469 0.017449751
-0.03220314 -0.10745017 0.083454244 -0.2345213 -0.016526222 0.14865263 -0.12207737 0.15495148
0.019283645 -0.040722508 0.056896694 -0.025804374 -0.06625497 0.12746814 0.040737007 0.04054358
0.13914406 -0.019312158 -0.0248609 -0.09704226 -0.07847267 -0.17508768 -0.03533128 0.08788009

u_model.model.0.bias f4 [42]
00000000: 3b0e 943d 90c1 c8bd 4998 45bb 5bc7 9c3d
00000010: 511a 35bd 9b65 9bbd 8dd1 c03d 412e f5bd
00000020: 32c4 19be cb0d 493d ad9a 11bd cd9c 24bc
00000030: 8806 243d 4b65 02be 3533 78bd 52f7 353e
00000040: 1813 f43d 3c58 e43b c8b8 92bd 448d 803d
00000050: f5d9 233d 2319 4f3d 75fc 003d 2e27 803c
00000060: 08be 8b3d 1070 1a3e b9e1 2dbe 622e 893d
00000070: 5951 80bc 7216 90bd 34ec dcbd e241 cf3d
00000080: 57d8 e2bd 1f49 41bd 0eab 1a3b 30db 1a3d
00000090: 8be2 053d 498f d23d f8ca 50be e5f2 22bd
000000a0: 5279 3e3d 0609 01be
0.07229277 -0.09802544 -0.0030150583 0.076552115 -0.04421455 -0.07587739 0.09414969 -0.11971713
-0.15016249 0.04908542 -0.0355479 -0.01004715 0.04004529 -0.12733953 -0.06059571 0.17770126
0.11917704 0.006968526 -0.071641505 0.06276944 0.040002782 0.05056108 0.03149076 0.015643682
0.06823355 0.15081811 -0.16980638 0.066983 -0.01566379 -0.07035531 -0.1078724 0.10119988
-0.1107642 -0.047188874 0.0023600492 0.03780669 0.03268675 0.10281236 -0.20389926 -0.039782424
0.04650242 -0.12601098

u_model.model.2.weight f4 [42, 42]
00000000: 9355 05be bae0 32bd 8a77 1b3e 337d 023e
00000010: 85ae 03bc cad3 a6bd 3e91 ae3d 74e4 f13b
00000020: 21dd 1e3e 3a8e aa3d 9ca3 22bd d558 16bd
00000030: f72f 99bd 547d 44bd ca5e 3ebd e2ea 733e
00000040: 81c0 9f3d a93d 13bd fd47 e0bd 830a 93bc
00000050: 5011 ac3d 4c5d 0e3e fba3 af3c c412 32be
00000060: 85b0 07bd 6db6 8d3e 4b90 b8bd e873 c3bd
00000070: 4ed8 1bbd 142c 133e cda6 0e3e afa6 883c
00000080: 9042 c23d 2406 3a3e 811f 74be e199 c13c
00000090: bbca e6bc 3bb8 0d3e 2fee b13d 11f1 8c3d
000000a0: c678 743e 4a0b 84be baed 8fbc 8fad 243d
000000b0: a3a9 f0bc df16 a4bd 7058 a8bd c191 903e
000000c0: b496 4fbe 5933 6cbc 8265 003e 0f35 1e3e
000000d0: 91ab 6ebc 405b b63c 9417 413e f32a 513e
000000e0: 2e04 6cbc 58f9 9d3d 37ac 1abd eab0 65be
000000f0: 39e5 20be 3107 8abd 2311 9e3a aada bf3d
00000100: 9868 eebd ece7 2b3c b562 0b3e fbaf a03c
00000110: 37d6 eb3d 16a9 a5bd 07cd 133e 79a9 8dbd
00000120: 0538 7e3e 624c a8bd 69f1 c1bc 98d8 53bc
00000130: e68c 71bc 6128 8cbc 8dad 00be a622 9cbd
00000140: d94d 223e 40a2 0f3e 4eb9 ee3d 4a85 94bd
00000150: cd6c 043d 9b78 473e 21fc 0f3e 4b90 a6be
00000160: 5c2b d6bd 7ac7 5c3e ce14 3ebe f21e 353d
00000170: e4e7 833e 8a48 c73d 7700 a8bd 72ac b03d
00000180: cd5d 85be e7ab c6bd 3340 eabd 303c ae3e
00000190: a842 aabd 76d4 18bc d5dc 903d 1d63 96bd
000001a0: c864 293e 5e60 853e a446 8bbd b380 abbe
000001b0: 50d5 9f3d 728f e0bd 1e9c 1fbd 594c d53d
000001c0: 8914 cdbc b8bc 0bbe be83 b83e ff78 0cbe
000001d0: 1157 81bc ef06 70bd d9b2 02bf 233c ba3d
000001e0: 25e9 adbd 2de3 403d e512 123e 05af 7a3e
000001f0: 447a f5bc c62c d1bd 3936 2dbe be74 35bd
00000200: ddb3 943d 7c04 a93d 121f 00bc 2537 4dbe
00000210: fa30 803b a741 05be acc7 86bd a7df 1f3d
00000220: 2b11 9bbd 9347 bcbc d4de 1cbb 9d17 2d3d
00000230: a02f 65be 8b66 02be 6e56 be3d 54c1 693d
00000240: e2d4 293e 2daa 283e d779 01be dafe 43be
00000250: 797a 253d 0bc6 5b3d 6679 72bb dfed 0f3e
00000260: 2947 003e 42b7 edbc dbe6 7e3d d7a7 c9bd
00000270: 90a0 bdbd 1f23 d8bd f5f6 213e 611c c33d
00000280: 240d d83d d3e8 6ebc 449b 183e 1f64 b53d
00000290: 097f d3bd dbd4 0a3b 49a9 e73d 5b0b 19bd
000002a0: 2e96 413d a838 cfbc 51bb 21be 5895 09be
000002b0: 8087 47bc d787 183e 77f7 f5bd 1788 3f3d
000002c0: fa6a 713d 31ad 1b3e 9592 843d 8046 0abe
000002d0: 157f 0c3e 0f2c 753d df21 cc3c a7b1 4bbd
000002e0: fb8e ec3c 833d 3ebd fb4e 7bbd 87bc ebbd
000002f0: f2d3 13bd 4c51 c63d 5f4f 603d 67ba 3c3d
00000300: c0b7 593d d225 bebc ff6b 273e f595 f2bb
00000310: 7b73 5bba aa21 efbd 7035 8dbd 13ee 02bd
00000320: 6981 7f3c 2493 0fbd 7d2c b03d ce35 00bc
00000330: 137c 74be ae67 cc3d bd12 6abd 9f0b 25be
00000340: b08b b13c c1b8 c23d 99ad c1bd 6b08 02bd
00000350: a4c3 ac3d d84e ac39 7aac 91bd 0e87 36bc
00000360: 5f17 d13d 58ad 053e 8241 e7bd 7e2d 203e
00000370: bf04 c5ba 2b73 8f3d 782b babc c281 2cbd
00000380: 6c9b 263e 1631 353e 31a8 733d 4000 49be
00000390: ad74 1bbd 2402 913c fdf9 6dbd 9122 5bbd
000003a0: f6f8 2e3d a19f a3bd 2fba a8bb 365a 37bd
000003b0: 6208 c0bd a6f4 4a3d f6ea 213d 4746 7f3d
000003c0: a344 6fbd 14e1 c4bc 3124 a5bd 832c e1bd
000003d0: caf5 033e 8d21 16bd 7763 8c3d cadd 073e
000003e0: be2c 3ebe a1a1 95bc ce8b b33d 036d 05be
000003f0: c191 4a3e cb87 31bd c805 92bd 23a5 273e
-0.13020925 -0.043671347 0.1518232 0.12743072 -0.008037214 -0.08145864 0.085237965 0.00738197
0.15514041 0.08327909 -0.03970681 -0.03670581 -0.07479852 -0.047971085 -0.046477117 0.2382007
0.07800389 -0.035947476 -0.10951231 -0.017949348 0.084017396 0.13902777 0.021440497 -0.17389971
-0.033127327 0.27678242 -0.09011897 -0.09543592 -0.03804808 0.14372283 0.13930817 0.016681043
0.09485352 0.18166405 -0.23840143 0.023632945 -0.028172841 0.1383981 0.08688008 0.06881917
0.23874196 -0.25789863 -0.017569412 0.04020458 -0.029377764 -0.08012175 -0.08219993 0.282362
-0.20272332 -0.014416539 0.12538722 0.15449928 -0.014567272 0.022260308 0.1885665 0.2042654
-0.014405293 0.07713574 -0.037761893 -0.22430769 -0.15712442 -0.06739653 0.001205955 0.09367879
-0.116410434 0.010492306 0.13611872 0.019615164 0.115154676 -0.08088891 0.1443368 -0.0691709
0.24826057 -0.08217694 -0.023674684 -0.012930058 -0.014743065 -0.017109098 -0.12566204 -0.07623796
0.15850009 0.14026737 0.11656438 -0.07251985 0.032330323 0.19479601 0.14061023 -0.32531962
-0.10457489 0.2156047 -0.18562624 0.044218965 0.25762856 0.097306326 -0.08203214 0.08626641
-0.26048127 -0.097007565 -0.11438026 0.34030294 -0.08313495 -0.009327998 0.0707337 -0.07343123
0.16542351 0.26050085 -0.06800583 -0.33496627 0.07804358 -0.1096486 -0.038967244 0.10414953
-0.025034206 -0.13646209 0.3603801 -0.13718031 -0.015788587 -0.058600362 -0.5105415 0.090935014
-0.084917344 0.04709165 0.1426502 0.24480827 -0.029965527 -0.10213618 -0.16915216 -0.044300787
0.07260869 0.082528085 -0.007819908 -0.20040567 0.0039120885 -0.13013326 -0.06581053 0.03903165
-0.07571634 -0.022983348 -0.0023936527 0.042258848 -0.22381449 -0.1273443 0.09293829 0.057069138
0.16585115 0.16471167 -0.12644134 -0.19140187 0.040400002 0.053655665 -0.0036998629 0.14055584
0.12527145 -0.029018048 0.06223188 -0.09846466 -0.092591405 -0.10553574 0.15816863 0.09526897
0.105493814 -0.014581877 0.14902979 0.08856987 -0.103269644 0.0021184 0.113115855 -0.037364345
0.047262363 -0.02529557 -0.15794112 -0.13435876 -0.012178302 0.14895569 -0.12010091 0.046760645
0.05893991 0.15202786 0.06473271 -0.13503456 0.13720353 0.05985647 0.024918495 -0.04972997
0.028876772 -0.04644538 -0.06135462 -0.11510568 -0.0360908 0.09683475 0.054763194 0.046076205
0.053153753 -0.023211394 0.16349791 -0.00740313 -0.0008371395 -0.11676343 -0.06894958 -0.031965327
0.015594819 -0.035052434 0.086022355 -0.007825328 -0.23875456 0.09980713 -0.057146776 -0.16117714
0.021673054 0.09507895 -0.09456939 -0.03174631 0.08435753 0.0003286514 -0.071129754 -0.011140598
0.10209536 0.13054407 -0.112917915 0.15642354 -0.0015031322 0.070043884 -0.022725806 -0.042115934
0.16270226 0.17694506 0.05948657 -0.19629002 -0.037953068 0.017701216 -0.058099736 -0.053499762
0.042717896 -0.07989431 -0.005149148 -0.044763766 -0.09376599 0.04954972 0.039530717 0.06232288
-0.058415066 -0.024033107 -0.080635436 -0.10994818 0.1288673 -0.03665309 0.06854909 0.132682
-0.18571755 -0.018265547 0.087669 -0.13029866 0.19782163 -0.043342393 -0.07130009 0.16371588

u_model.model.2.bias f4 [42]
00000000: abb5 adbd ee01 0a3e a8a5 063d 645d efbd
00000010: 6a4b ccbd 0a18 bd3d cabe 81bd 41d5 3a3d
00000020: 1282 f4bd d897 adbd a8a1 73bd 1cb3 c4bd
00000030: 00b4 c13d 8a31 e1bd b78a e2bc 354a f8bd
00000040: 97dd f43d 2c37 75bb 4a60 b1bd 98d6 52bd
00000050: 0cba 253d 57a0 60bd eb40 f23d 6f9e 09bd
00000060: 07e3 ec3d 7d1e bf3d d5bc f03d c377 a33d
00000070: 9bf4 fdbc bc6c a63b a6f5 ab3d 31db 72bc
00000080: aed3 ad3c f6f2 b83d d587 90bd 4a44 2ebc
00000090: 58a8 85bb 8915 823a f1eb 9dbd b2c2 923d
000000a0: d917 f63c 5126 9bbd
-0.08481916 0.13477299 0.032872826 -0.11687735 -0.099753216 0.09233101 -0.06335218 0.04561353
-0.119388714 -0.084762275 -0.05948034 -0.09604475 0.094581604 -0.10995777 -0.027654035 -0.12123529
0.119563274 -0.0037416918 -0.08660944 -0.051474184 0.04046063 -0.054840412 0.11828788 -0.03359836
0.115667395 0.09331987 0.11754767 0.07981827 -0.031000426 0.00507888 0.08396463 -0.014822767
0.0212191 0.09030716 -0.07057158 -0.010636399 -0.004078906 0.0009924631 -0.07711018 0.071660414
0.030040668 -0.07575668

u_model.model.4.weight f4 [42, 42]
00000000: 098b e9bc eb70 1bbd 728d b9bc 951a 9a3d
00000010: fba6 49be a5b7 8cbc d13f e63d 229e 81bd
00000020: 2e4d 24bd cf0b bfbd 68cb bcbc 9f0d 95bd
00000030: 9ecc c0bd ebf1 f5bd ae5c ecbc 85af 4d3e
00000040: 4b29 1d3e 0098 33bd cd04 323e e145 67bb
00000050: 36b3 20bd 37dd 36bc c0a0 db3d 50b7 b53d
00000060: 3630 bd3d 995c c73c 981d dabd 7ae5 e43d
00000070: c39e 2a3d f2f7 6b3e e651 04bd 45de f5bd
00000080: aae9 1cbe 4702 3f3b 291d bdbd 2839 9cbd
00000090: 26a4 37be 754f 3ebd b9f4 873d 68a7 973d
000000a0: c567 9b3d da53 0f3e 8a87 7bbd 8d89 d53d
000000b0: b2ea 083e 0539 b83d 600f a73d 7520 23be
000000c0: b217 0e3d 097c 3e3e b23c ed3d f23d 09be
000000d0: 4f82 9ebd 132f 8ebd e56d 0fbe a13d dabd
000000e0: 0413 e13d 53f0 4fbe 77d7 e0bd 16bf 313d
000000f0: a78b 25be 4692 273e c3cb 22be a64a 75bd
00000100: 1110 13bd 3b68 b6bd 9a41 71bd 54d5 b1bc
00000110: fae7 f6bd a826 f4bd 477e d73d 9188 f1bd
00000120: 133f 06be 9b46 e9bd fcaf 173e 7631 eabd
00000130: 14d2 16bd 1a1b 18be fc1c 183e 6c0b c7bc
00000140: e502 0fbe bc0b e13b fa31 3ebe 364d 02be
00000150: 6fb4 d23d e69e d93d 90f5 8a3e 440a d9bc
00000160: 9d71 363e 884c 00be 73fb 5ebe d0dc 7c3e
00000170: 84f9 c33d a65f 95bc 6240 14bd 30b0 3c3e
00000180: 849f 38be 5a29 9f3d 7816 3b3d b061 cdbd
00000190: ee87 263d a3bf b63e e6c3 b03c 9876 0d3e
000001a0: 25a4 dc3d 1dfc b43d 338e 20bd ca0b a5be
000001b0: a3f8 8cbd 06db 49bb 6e47 923b 3035 01be
000001c0: 48fa 71bb d013 46be fe39 2c3d 5280 1f3e
000001d0: d3ab c03e 30ba 49bd f189 6fbe 5084 1fbe
000001e0: e4fb adbc 0f26 d2be b976 35bd cf27 5e3e
000001f0: 3d4d b9be e08a c9bd b567 173e 16b3 3d3e
00000200: 2a63 e83d 5b1f bebc b085 99bc 775c c8bd
00000210: 6dfe 12bc 960d 843d f8d4 483d ac57 d73d
00000220: 35e9 083e ebc6 11be 0c2c 8bbd fb3c 17be
00000230: d57f de3d 877a cebd 1089 393d b617 9e3c
00000240: f4c2 5b3e 9a31 19be 67cf 71bd d690 4cbc
00000250: 7414 d73d 57fe cebd f309 aabc b09d d13d
00000260: 41b1 fcbd 9ed7 a2bd bf14 643d 0bdd a2bd
00000270: 2ca1 a73e 6218 ba3d 5a3f dc3d f2e8 80bd
00000280: 171a 07bc d0f3 24be 2406 82bd f924 93bc
00000290: 3a24 c4bd d3ef 753e e4d5 40be 3e92 96bd
000002a0: 38ef df3d cd3a 3a3e b04d e33d 5adc 3abe
000002b0: d1bc 4d3d 0ab0 59bd 11cb 173e 29db e13d
000002c0: a843 ef3b 8844 0dbe 6434 5ebd 344a f93d
000002d0: 8ba3 09be eda4 273d 5ee8 0cbe eb26 44bd
000002e0: 0ac8 40bd 0eb2 cf3c ecec c2bd 0174 07bb
000002f0: 6f16 7fbd 67c8 a23d de99 3d3c 1bf0 23be
00000300: 3a0c e53d 30b1 ce3d 7af8 663d 4e41 723c
00000310: d3b1 b1bc 4274 a33d 5955 34be 0d95 993d
00000320: b860 783e e231 8fbc d120 e7bd 0c4c 643d
00000330: 7600 5c3d 5b6e a5bb 3417 8bbd c321 a63d
00000340: aa71 6e3d c299 323c bd83 f13d 7242 103e
00000350: 3fc5 ae3e f00a 03be edbd 95bd 0c79 9a3d
00000360: 9783 40be c503 5e3e 09f6 2e3e dc70 1f3c
00000370: 1c3e 483e 49e3 b53c bb51 683d 5948 d4bd
00000380: b98a 8c3d 2fbb 083e 5a59 f7bd 173b 003f
00000390: 6e33 5ebd 5ae3 703d 3aec 3d3e 66ab ec3d
000003a0: c906 ee3d 4cf7 0cbe 6bf0 09be 021e 2dbd
000003b0: 4cf9 1ebe ee76 28be 9206 a6bd f24c 3fbe
000003c0: 45b7 5d3d d00e 5fbd ae2e 3b3d 25ca cdbd
000003d0: 1ae7 9cbe 249b 6d3d b7c7 c23d de34 c8be
000003e0: c1fa 33bb 99c1 1c3e 9439 10be c5f0 d73b
000003f0: 145b f73d 7c17 443d 4277 323e 1f2b b93d
-0.02850868 -0.037949484 -0.022650454 0.07524601 -0.19692604 -0.017177412 0.11242641 -0.063289896
-0.040112667 -0.09328424 -0.02304621 -0.07277989 -0.09414028 -0.12009033 -0.028852787 0.20086487
0.15347783 -0.04384613 0.17384644 -0.0035289454 -0.03923341 -0.01116114 0.1072402 0.08872855
0.09237711 0.024336146 -0.10650176 0.11176582 0.041655313 0.23043802 -0.032304667 -0.12005285
-0.15323511 0.0029145645 -0.092340775 -0.07628089 -0.17933711 -0.046462495 0.06638474 0.07404977
0.07588152 0.1399683 -0.061408557 0.10426626 0.13370779 0.089952506 0.081572294 -0.1593035
0.034690566 0.18602003 0.11583842 -0.13402537 -0.07739698 -0.069425724 -0.14006765 -0.10656286
0.10989955 -0.2030652 -0.10978597 0.043395124 -0.16166554 0.16364393 -0.15898041 -0.059885643
-0.035903994 -0.08906599 -0.058900453 -0.021708168 -0.12055965 -0.119214356 0.10522132 -0.11793626
-0.13109998 -0.1139042 0.14813226 -0.11435215 -0.03682144 -0.14854088 0.14854807 -0.024297439
-0.13965948 0.006867854 -0.18573752 -0.12724766 0.10288321 0.106260106 0.27140474 -0.026494153
0.17816778 -0.12529194 -0.21775608 0.24693608 0.09569076 -0.018234085 -0.036194213 0.18426585
-0.180296 0.07771559 0.045675725 -0.10028398 0.040656976 0.35693082 0.021577787 0.13814771
0.107734956 0.08837149 -0.03919811 -0.32235557 -0.06883361 -0.0030800714 0.0044640815 -0.12617946
-0.003692286 -0.19343495 0.042047493 0.15576294 0.3763109 -0.049249828 -0.23392464 -0.15577817
-0.021238275 -0.4104466 -0.044302676 0.21694873 -0.3619174 -0.098409414 0.14785655 0.18525347
0.11347039 -0.02320831 -0.018740505 -0.09783261 -0.008971793 0.06447904 0.049031228 0.10514769
0.13370211 -0.14236037 -0.06795511 -0.14769356 0.10864226 -0.10081964 0.04529673 0.019298416
0.21461087 -0.14960328 -0.059035685 -0.012485703 0.10501948 -0.10107105 -0.020756697 0.10235155
-0.12338496 -0.07951282 0.055683848 -0.07952317 0.32740152 0.09086682 0.10754271 -0.06294431
-0.008245966 -0.16108632 -0.063488275 -0.017961966 -0.09577222 0.24017267 -0.18831593 -0.07352112
0.10934299 0.18186493 0.11098802 -0.1824812 0.050228897 -0.0531464 0.14823557 0.110281296
0.0073017664 -0.13795674 -0.054249182 0.12172356 -0.13441293 0.04092877 -0.13760516 -0.047888678
-0.047065772 0.025353458 -0.095178455 -0.002066851 -0.062277254 0.0794838 0.011572329 -0.16009562
0.11183973 0.100923896 0.05638931 0.014786078 -0.021691239 0.07981159 -0.17610683 0.07499132
0.24255645 -0.01747984 -0.11285556 0.055736586 0.053711377 -0.005048556 -0.06791535 0.08111908
0.058213867 0.0109009165 0.11792705 0.14087847 0.34134862 -0.12797141 -0.07311616 0.07542619
-0.18800198 0.21681125 0.17086042 0.009731498 0.19554943 0.022203105 0.05671857 -0.10365362
0.06862397 0.13352655 -0.12077589 0.50090164 -0.054248266 0.05881057 0.18547145 0.11556129
0.11622388 -0.13766211 -0.13470618 -0.042264946 -0.15524787 -0.16451618 -0.08106722 -0.18681696
0.054129858 -0.054457486 0.045698814 -0.10048322 -0.30645066 0.05800928 0.09510749 -0.39102834
-0.0027462693 0.15308227 -0.14084464 0.0065899813 0.12077919 0.04787396 0.17428306 0.09041428

u_model.model.4.bias f4 [42]
00000000: bd66 0abe 8b67 ea3d 4abf d33d 20f7 e03d
00000010: 5242 703d 673d 0f3c d1f4 0d3d da49 b1bd
00000020: 60dd 0dbc 4b4e a1bd d74d ab3c 0ae9 51bd
00000030: 27b1 083e 6fd8 0b3d f10e a63d 4b99 88bd
00000040: 8bb3 81bc 81dd fa3d c5f3 ac3d 34e6 d6bd
00000050: 8775 70bd 0607 b53d d4e1 8f3d 68b5 0c3d
00000060: f356 a1bc d3f6 a73d b7ee 683d 1476 223d
00000070: 888e 0d3d 06bb cbbd 1431 efbd 2e36 e43d
00000080: 516a 93bd f3e4 d3bd 8fde c4bd d9ae 223e
00000090: 6ad7 973d 9e21 943d 0a4d 1d3e dc3a 14be
000000a0: 9400 a9bd 1a91 303d
-0.13515754 0.114455305 0.1033922 0.10984635 0.058656998 0.008742667 0.034657303 -0.08656664
-0.008658737 -0.07876261 0.02091114 -0.051247634 0.13348828 0.034141954 0.081083186 -0.06669863
-0.015832683 0.1224928 0.08444933 -0.104931265 -0.058705833 0.0883923 0.07025495 0.03435269
-0.01969478 0.08201375 0.05686828 0.03966339 0.034559757 -0.09947781 -0.11679283 0.111431465
-0.071980126 -0.10346403 -0.09612762 0.15887012 0.07414134 0.072329745 0.1536142 -0.14475578
-0.082520634 0.04310713

u_model.model.6.weight f4 [42, 42]
00000000: 2522 6d3e cb33 e23b 3cc0 8bbb 3f1d 413e
00000010: 4eb1 a9bd 6d9a 013e 84d2 743e 4158 0ebd
00000020: d044 9b3c 9ac8 5f3e 0805 283d d351 febd
00000030: 8ec1 c43d 1fe6 10be 1e61 fb3d 1f71 833b
00000040: 146c 853d e9ad 2b3e ccf2 be3d 2d9a 003e
00000050: abcf 113e 21f5 2a3e a056 3b3d c9f8 4c3e
00000060: 903e 513e d893 14bd 8796 6c3c 491c 173e
00000070: 35ee b4bd 913e 4b3e 037b 3cbc bf72 46bd
00000080: 148b 91bd 6506 2d3a ad63 813d b755 63be
00000090: 7bcb fcbd 6832 2b3d fdb6 9fbd 3a0b 393e
000000a0: ee13 03bd 5f6d 033e 8151 b0bd 5292 d73b
000000b0: 0f00 e1bb eebf a9bd c49a b13d 55f1 223b
000000c0: 8e2c 07be 4e72 ebbd e5eb 2ebd 6d99 0cbe
000000d0: d653 c0bc c761 b43c c362 c93c 9e8b 303d
000000e0: e152 42be 11e1 063e 142f 4dbd bc3f fa3d
000000f0: 6ed2 c33d 31f2 ed3d 8b59 0c3e ce36 b33d
00000100: f0e1 673d f1a4 883d e110 2abe a70e d3bd
00000110: 7795 1cbe 8652 17be eb16 abbd 8968 19be
00000120: 49e0 733b 0f52 19be 1055 62be 0dc8 d53d
00000130: 6d1b 95bd b8fc 2f3d fe0a 7abd 1495 1d3e
00000140: 0ae3 e63d b845 fc3d a342 5cbe 82c8 0bbc
00000150: d0bc e33d a61a 53be c2f8 82be 64df 0dbe
00000160: 36dd 17be f0ce 23bc 0ee3 59bb 786a b33d
00000170: af1b 30be b5f6 563c 6df7 92bd e75a b13d
00000180: f317 c3bb b2cb 1dbe 3d19 1e3e 8adf bc3d
00000190: 65be 3d3e 86ae d43d 2521 4ebd f187 b93c
000001a0: 6497 e6bd d455 26bd 21e6 eab8 5eb7 623e
000001b0: 69ec b6bd 48c5 50bd 0828 f33b 8f78 ef3d
000001c0: 4e9c d0bc 7f9a 70bd 37e4 6ebd 3b1a 8abd
000001d0: 24e0 cfba d014 ae3d 6687 9cbd c4f3 21be
000001e0: 17ab 23be 11d2 6f3e 0d6a f1bd e4dd 093e
000001f0: 4d6b 05bd f627 acbc 9a53 02bc ded5 aabc
00000200: 3c02 9abc 35b4 8d3d 88d5 c2bd b094 0b3e
00000210: af22 d93d 1e85 2e3c bfd5 81bd 8275 d93d
00000220: 25b7 27bd 90f2 91bd b299 1abe 24c9 813d
00000230: 8596 c13d 4f16 933d 31c1 92bd e6ba 053e
00000240: 78bf 0c3e eced 883d c893 fc3d 199f ecbd
00000250: 3bb5 ad3d 703d 97bc b898 de3d 1c8f c83d
00000260: 9180 053e 36e7 763d 62d5 d13c e997 2e3e
00000270: 1ce1 89bd fb13 043e 339f a53d deeb ce3d
00000280: 19f6 27bd e393 dbbd 145c 12bd bb02 98bc
00000290: 8934 31be 7695 023e efe3 0a3e 4638 dcbd
000002a0: 88c8 42bc 2dd1 72be 06b5 ccbd f313 f13d
000002b0: 6c6e 7d3c 55a8 e23c 4be2 c8bb bc30 abbd
000002c0: 682f 8ebe 0e49 813d 2191 bdbd 0e14 39bd
000002d0: 7ee1 0dbd 0895 043e f8b3 d0bd 286f 0b3e
000002e0: 771c f43c 358e d4bd f1d1 9c3b 73bf ab3d
000002f0: 5758 ea3d 1efd 83bd ec11 733d 17bb 1a3e
00000300: b56d e0bd f117 b33b f29f 063d 2720 3cbc
00000310: b095 773d bdd8 93bd 4274 49be 5e77 4d3c
00000320: ef9c 01be fa80 b9bd 8118 8c3b 2167 0e3e
00000330: 1913 273e 093c 163d 545c b33d d46c 9abd
00000340: acfd 3fbe de82 7fbe 26ca ae3c e8fc 553d
00000350: f4fd 3d3e c2b0 0d3e 07c4 a33b 5df1 083d
00000360: 523f 133e a401 14be e29a 073e dc76 cb3d
00000370: 4145 22be 7ae2 dc3d 5d3d bcbc bc8a 2c3e
00000380: 6d15 803d aafd 3abe c9f1 8f3d 3fe1 03be
00000390: d592 23be 03af 46bc 9c01 de3d 085e c43c
000003a0: 79ce 193e c684 d8bd 2cde 683d c433 29bd
000003b0: 78fb 833e e08a 863d f47a fabd e321 3a3d
000003c0: 1d86 8ebd 936f 3f3d 4a36 073e 4a52 fdbd
000003d0: 6d0b 6cbe 9289 abbc 94d5 8cbd 345b b13d
000003e0: 1053 2cbd 4af3 2fbd 9915 683e 84c6 2fbd
000003f0: d737 efbc 0e15 19be 4176 d93d 5846 4e3e
0.23157556 0.006903147 -0.0042648595 0.18858813 -0.08285771 0.12656565 0.2390843 -0.034752134
0.01895371 0.21853867 0.041020423 -0.124179505 0.0960723 -0.14150284 0.12274383 0.004011288
0.06514755 0.1676556 0.093236536 0.12558813 0.14239375 0.16695072 0.04573691 0.20016779
0.20434022 -0.036273807 0.014440185 0.14756884 -0.08834497 0.19848086 -0.011503938 -0.048449274
-0.07106605 0.0006600379 0.0631784 -0.22200666 -0.12343498 0.041796118 -0.07798574 0.18070689
-0.03200143 0.1283469 -0.08609296 0.006578722 -0.006866462 -0.08288561 0.08672097 0.0024863083
-0.1320059 -0.11496411 -0.042705435 -0.13730402 -0.023477476 0.02201928 0.024583226 0.0431019
-0.18976928 0.13171794 -0.050093725 0.122191876 0.09561621 0.1161846 0.13706033 0.087506875
0.056611955 0.06672085 -0.16608001 -0.10305529 -0.15291391 -0.14777574 -0.08353981 -0.14981283
0.0037212542 -0.14972709 -0.22102761 0.10438547 -0.07280622 0.04296562 -0.06104564 0.153889
0.11273773 0.12317985 -0.21509795 -0.0085316915 0.111199975 -0.20615634 -0.25580412 -0.13854748
-0.14830479 -0.009998068 -0.0033246907 0.08760542 -0.1719806 0.013120343 -0.07176099 0.08659916
-0.0059537827 -0.15409735 0.15439315 0.09222324 0.18529661 0.1038485 -0.050324578 0.02264783
-0.11259344 -0.040609196 -0.00011200854 0.22140262 -0.089318104 -0.050969392 0.0074205436 0.116929166
-0.025465157 -0.05874109 -0.05832311 -0.06743284 -0.0015859646 0.085000634 -0.07643013 -0.15815645
-0.15983234 0.23419978 -0.11787806 0.13463551 -0.032573033 -0.021015149 -0.0079545025 -0.020853933
-0.018799894 0.069191374 -0.09513384 0.13630939 0.106023185 0.010651855 -0.06339597 0.10618116
-0.040946145 -0.07126343 -0.15097693 0.06337193 0.094525374 0.071819894 -0.071657546 0.13059577
0.13744915 0.06686005 0.123328745 -0.11553783 0.084818326 -0.018461913 0.108689725 0.09792921
0.13037325 0.060279094 0.025614444 0.17050137 -0.06732389 0.12898247 0.080870055 0.10103582
-0.04100618 -0.107215665 -0.035732344 -0.01855599 -0.17305197 0.12752327 0.13563512 -0.10752921
-0.011888631 -0.23712607 -0.09995465 0.11771383 0.015468221 0.027668158 -0.006130492 -0.08358905
-0.27770543 0.06312762 -0.09256197 -0.04518514 -0.034638874 0.12947476 -0.10190576 0.13616621
0.02979873 -0.10378686 0.004785769 0.083861254 0.11442631 -0.06444763 0.059343264 0.15110432
-0.10958425 0.0054655005 0.03286738 -0.011482275 0.060445487 -0.07219074 -0.19673255 0.012540666
-0.12657522 -0.090578035 0.004275382 0.13906528 0.16315879 0.036678348 0.087578446 -0.075402886
-0.18749112 -0.24952266 0.021336626 0.052243143 0.18553907 0.13836959 0.0049977335 0.033433307
0.14379624 -0.14453751 0.13242677 0.0993478 -0.15846731 0.107853845 -0.022978479 0.16849798
0.06254087 -0.18260828 0.07028539 -0.12878893 -0.1597398 -0.012126687 0.10840151 0.023970619
0.1502017 -0.105721995 0.056852505 -0.041309133 0.25777793 0.06569457 -0.12230483 0.045442473
-0.06959174 0.046737265 0.13204303 -0.12369211 -0.23051234 -0.020939622 -0.06876674 0.08659974
-0.042071402 -0.042956628 0.22664489 -0.04291393 -0.029201431 -0.14949438 0.10618258 0.20144022

u_model.model.6.bias f4 [42]
00000000: 09da 403d 10c2 f3bd 15b0 403e a832 723b
00000010: c616 36bc 31e9 193d 97e4 463d 8536 50bd
00000020: ce70 033e ad06 0bbc b390 f43a f5b8 4139
00000030: 47a9 36be 5b03 01be f298 24bd 32fe 2dbd
00000040: febf e03d 7701 823c 3600 253e b9e6 2f3e
00000050: 5e97 163d 3936 153d 8238 fe39 646d 40bd
00000060: 60a0 77be 57be 053d e512 853d cb0d 833b
00000070: 4e6d 1b3e 705b 59bc 25e1 a7bc 4628 bcbc
00000080: d69c 223e 8bd6 453d f8f6 a0bd 703a 61bd
00000090: 888d 5fbe 7037 173e 01ca 063e 358c 993d
000000a0: 8641 a83d e41b 79bd
0.047082935 -0.11902249 0.1881717 0.0036956463 -0.011113828 0.037575904 0.048557844 -0.050833244
0.12836 -0.008485478 0.0018658846 0.00018474816 -0.17838012 -0.12598936 -0.040184923 -0.042478748
0.109741196 0.01586984 0.16113362 0.17177857 0.03676545 0.036428664 0.00048488757 -0.046979323
-0.24182272 0.032652225 0.064977445 0.003999447 0.15178415 -0.013266429 -0.0204931 -0.022968423
0.1588014 0.048300307 -0.078596056 -0.05498737 -0.21831334 0.14767241 0.13162996 0.074974455
0.082156226 -0.060817614

u_model.model.8.weight f4 [42, 42]
00000000: 268b 0a3e f30d 403c c2ca 03bd e5ee a73c
00000010: a987 9cbd f1a8 b73d 789c ddbc 3d9b be3d
00000020: 54f0 b6bd b014 2ebe 1e76 98bd c23a a93b
00000030: 5305 72bd 5f2d adbd 6f8b b13d f5c3 063e
00000040: e6e3 2c3e 00c7 153e 9f46 f6bb 1113 02be
00000050: d6a4 b53d 6d7a eabd 32f7 213e 14d6 213d
00000060: 2e16 ebbd f8d2 25bd 62f6 07be 0b48 4d3d
00000070: 23ef b9bd 7cbc 453d fb8b 053e d167 15be
00000080: 9ada 033e 0ff0 ea3d 1d9f 0bbb e3b8 e53d
00000090: 2178 aebd 98b3 d4bd ad5f 14be 42a2 363e
000000a0: 0b5b 95bd b4f5 2d3d 7041 b6bd f9a0 533d
000000b0: 9033 7a3e 9e3b a23d 5a5f 5c3e 61e8 85bd
000000c0: f588 393d b7f4 133e d9d7 62be 3cb2 cd3d
000000d0: 0d9c 9fbd fa25 5e3e d5c0 fdbd 23c1 acbc
000000e0: 5dee f8bd 0088 cdbd 5224 ecbc b2c4 f43c
000000f0: de7a eabc c5fa 7f3e 9276 17bd a464 52bd
00000100: 3e9a b23c 5890 4dbe a8f6 343e 7584 833d
00000110: 21d3 17bd 0b92 d93d 0434 4b3e ec8c 92bd
00000120: 9d34 91bd 63af d4bd a1bb 65bc 3142 fe3d
00000130: 7ca8 c4bd be72 a23d 1f38 cebd 7cf1 54be
00000140: d9b3 1f3e 13be 1abd be48 24be 4d02 cf3d
00000150: 821d 41be e94a 543d b562 87be 0dbf dc3d
00000160: 941f 24bc 100b 493e 9823 1b3e 911c 36bd
00000170: 8019 bcbd 7a54 513c 76a2 083b 1b19 8bba
00000180: 99fc 2e3e 03bc 953c 7e1e cd3d d99c 1c3e
00000190: 2ade e53d 3384 7d3d c068 343e b97f 77be
000001a0: 362c 00be e620 00be 2934 1c3e 989f 48bd
000001b0: d4f9 b03d 36f4 e13c 90f4 15be 7a60 7dbe
000001c0: 03df 23be 905e 1ebe 58a6 09be 559b 373c
000001d0: 9080 f33a 0c67 17be 7491 933c 2b06 01bd
000001e0: 7ce1 663e 07db e5bc 3106 0f3e f2df f9bc
000001f0: 275a e73d c9cc 4abd db99 50be ece6 f23d
00000200: 1429 9e3d 47a9 3abe 68a9 be3d 7072 bdbc
00000210: 8451 41be ef63 7e3d 159f 283c 3121 11be
00000220: ed79 a6bc 58d5 b0bd a095 5d3e 42a5 91bd
00000230: c5a1 27be 1dff 683d 6481 dcbd 115c fb3d
00000240: 3df2 7f3e 500b 1c3d f1fa 5e3d 7914 8bbd
00000250: 0dce 8d3d ecdb 88bd f8dc a4bd 23e1 d4bd
00000260: cec9 2ebe 1088 1cbe dbe7 93bc 5625 ecbc
00000270: 235d afbd d55c 9dbd 8c07 d8bd 5e5f 28be
00000280: 0b2b 0b3e 8794 2c3e 7389 26bd 2a86 2fbc
00000290: 50b8 2c3d 5ac5 cc3c fbb6 e73d de0c bd3d
000002a0: 8a30 a2bd f318 8a3e 7892 613d 6054 35bd
000002b0: 367f e53d 8a9e 00be 86fb 86be 5465 25bd
000002c0: 448c 51be 8450 11bc 6552 ef3d f1e2 133d
000002d0: 05a6 8b3d c1fe c4bb 5beb d63d 217c b9bd
000002e0: aa71 b1bc 01cc aebd 2532 3b3e 87b1 aabd
000002f0: 1e4c e03c 2bc1 9a3c 841b 173e b9ed 42be
00000300: 190f 823e ba1f 0ebc f4c1 70be 72c3 2cbc
00000310: b613 4d3e 3629 6f3e 0172 8dbd fa52 d03c
00000320: d4a0 683d fba2 4b3e dfd8 143e eae1 0c3e
00000330: 2a3f 35bc 7c2a a0bd 2ee3 72be d625 85bc
00000340: 2dd1 823d 5fb2 97bd 5191 603d 031d 3c3b
00000350: 1ad3 27be 72a6 2bbe 5133 3fbc 157a 1e3e
00000360: 4375 12be b13c 93bd ba6e e5bd 61fa 26be
00000370: b38a 2e3e 882a bf3d 3527 d13d da3c 02be
00000380: e25b ff3d f7f1 36bc 112e 15be 9e6b 063e
00000390: d0a5 653e 1120 c8bd 5d74 30bd 4cda 08bd
000003a0: 91f0 70bc 3d27 0c3e c340 73bd 5502 b53b
000003b0: 31f3 42bd a1bc 0a3d 3cdb 12bd 41b8 86bc
000003c0: f1e8 81bd c1df 223c d4c0 143d ce29 19be
000003d0: f6d6 9b3d 57b7 363e aef7 ccbc e5ef 963d
000003e0: 5c77 b9bd 669a 063e 0aca 8ebd 97ba 8c3a
000003f0: 86f1 9c3e dbf9 a4bd b8d9 813e 9ff7 883e
0.13529643 0.011722076 -0.032175787 0.020499656 -0.076430626 0.0896777 -0.02705215 0.09306953
-0.08932558 -0.17000079 -0.07444404 0.005164475 -0.05908711 -0.084559195 0.08669173 0.13160689
0.16883811 0.14626694 -0.007515743 -0.12702586 0.088693306 -0.11449132 0.15816954 0.0395108
-0.1147884 -0.0404844 -0.13277581 0.050117534 -0.09078815 0.048275456 0.1304168 -0.14590384
0.12876359 0.11471569 -0.0021304556 0.11216905 -0.085190065 -0.10385817 -0.14489622 0.17835334
-0.07292756 0.04247065 -0.088992 0.051667187 0.24433732 0.07921527 0.21520749 -0.065384634
0.045296628 0.1444882 -0.22152652 0.10043761 -0.07793436 0.21694174 -0.123902954 -0.021088189
-0.12154839 -0.100357056 -0.028825913 0.029878948 -0.02862304 0.24998005 -0.03697831 -0.05136551
0.021802064 -0.20074594 0.17672217 0.064217485 -0.037066583 0.106235586 0.19844061 -0.07155785
-0.07090113 -0.10385015 -0.014021785 0.12414969 -0.09602448 0.079320416 -0.10069298 -0.20795244
0.1559595 -0.037778925 -0.16043374 0.10107861 -0.18858913 0.051829252 -0.26442495 0.107786275
-0.010017294 0.19633126 0.15150297 -0.044460837 -0.09184551 0.012776488 0.0020848787 -0.001061234
0.17088546 0.018278128 0.100155815 0.15294208 0.11224015 0.061893653 0.17618084 -0.24169816
-0.12516865 -0.1251255 0.15254273 -0.048980325 0.08641401 0.02758227 -0.14644074 -0.24743834
-0.16003041 -0.1546576 -0.13442361 0.011206468 0.0018577743 -0.14785403 0.018013693 -0.031500023
0.22546953 -0.028058542 0.13967206 -0.030502293 0.11296492 -0.049511705 -0.20371191 0.11860451
0.07722679 -0.18228637 0.093096554 -0.023125857 -0.18878752 0.062107023 0.010291834 -0.14172818
-0.02032181 -0.08634442 0.21639109 -0.071115986 -0.16370304 0.05688392 -0.10766867 0.1227342
0.2499475 0.038096726 0.054438535 -0.06791014 0.06924067 -0.06682572 -0.08049959 -0.10394504
-0.1706917 -0.15286279 -0.018054893 -0.028826397 -0.08562686 -0.07683722 -0.105483145 -0.1644263
0.13590638 0.16853534 -0.040658426 -0.01071314 0.04216796 0.024996448 0.11314198 0.0923097
-0.07919414 0.2697216 0.055071324 -0.04426992 0.11205904 -0.12560478 -0.26363772 -0.040379837
-0.20463663 -0.008869294 0.116856374 0.0361051 0.06818775 -0.0060118143 0.10494109 -0.09056879
-0.021660645 -0.085350044 0.18280847 -0.08334642 0.027380046 0.018890938 0.1475659 -0.19035996
0.25402144 -0.008674556 -0.23511487 -0.010544645 0.2002705 0.23355564 -0.0690651 0.025430191
0.056794003 0.19886391 0.14535855 0.13758054 -0.011062423 -0.07820603 -0.23719475 -0.016253393
0.06387553 -0.074070685 0.054826085 0.0028703816 -0.16389123 -0.16762713 -0.01166995 0.15476258
-0.14302544 -0.0718931 -0.1120276 -0.1630645 0.17045097 0.09334284 0.10212556 -0.12718526
0.12468697 -0.011166087 -0.14568354 0.1312699 0.22426534 -0.09771741 -0.043079723 -0.03341131
-0.014705793 0.13686843 -0.059387933 0.0055239596 -0.047595207 0.033871297 -0.03585361 -0.016445281
-0.06343258 0.009941042 0.036316708 -0.14957353 0.0760936 0.17843376 -0.025020447 0.07369975
-0.09055969 0.13144836 -0.0697213 0.001073676 0.30653018 -0.08055469 0.2536142 0.2675142

u_model.model.8.bias f4 [42]
00000000: c335 2cbd 5294 f1bd 0c27 25be 4178 2c3e
00000010: 591c 33be b53c adbd 059a 5fbd 1429 12be
00000020: 81c7 abbd 6c8b 843d 45b4 d33c 6a83 eb3d
00000030: 660f 063e baed ddbc 315f 55bd 16c3 0bbe
00000040: e674 e03b ae1f 45be 0930 08be 08e0 84bb
00000050: 4539 9dbd 4ef7 3e3d 9ebb 22bd 6646 b63d
00000060: 7fb7 fd3d 5211 7b3d be23 81bc b361 9d3d
00000070: 1dfd 87bd efc0 a63c c13f a2bc 4570 0bbe
00000080: 3b76 cc3d 722b ca3c 1c5e 2fbd 55ff aabd
00000090: 88d3 cfbd 666f ad3e ff5d 75bd a7a0 273b
000000a0: 6ed6 023e 3f11 fc3d
-0.04204346 -0.11795868 -0.16128176 0.16842748 -0.17491283 -0.084588446 -0.054590244 -0.14273483
-0.08387662 0.06471905 0.025842795 0.114996746 0.13091812 -0.027090896 -0.052092735 -0.13648638
0.006849873 -0.19250366 -0.13299574 -0.004055027 -0.07676939 0.046622567 -0.039729707 0.08900146
0.12388515 0.061295815 -0.015764114 0.0768465 -0.066400744 0.02035567 -0.01980579 -0.13617046
0.09983488 0.02467892 -0.04281436 -0.08349482 -0.10147768 0.33874053 -0.059904095 0.0025577934
0.12777111 0.12307977

u_model.model.10.weight f4 [42, 42]
00000000: 2fc6 103e e566 c33d ec4f 003b 8941 06bb
00000010: 60f1 5a3e 5df7 08be 2106 e8bd d953 e0bd
00000020: 1f95 dabd 0ca8 1bbe 1400 d3bc 233a b93d
00000030: ff5d 893d 4c11 8d3d 5d8f 323b 06dd b6bc
00000040: dadf 8cbd 21e2 663e af07 ae3d 0610 23be
00000050: b491 003e 40af 84bd b78c 7e3e cd73 08be
00000060: 189c 083e 2bb6 76bd 1e4b c23d b74d f83d
00000070: cc71 583d a1c3 e63d fb10 7dbd deb9 6dbd
00000080: 03ea c7bc c922 cebc 77df 06bd 63cb cb3d
00000090: a411 10bd 481b 64be bfad 75bd 32d5 483e
000000a0: 75ba 2abe bdad 0cbe 4bf7 3cbd 1645 adbd
000000b0: 23a2 cebd bdde 2e3d 4626 4b3d 8f0e 8dbd
000000c0: dbfd 07be c864 063e 6eb3 163d 66fd 3bbd
000000d0: 81d4 0a3d 1432 0ebe 5a31 5dbd 9ee3 4fbe
000000e0: 0fc2 39be 2d28 0f3e 4053 10be 3878 d6bd
000000f0: a9a3 663d 90e4 86bd 3c7e f93c 86a0 373e
00000100: db37 753d 22f3 1cbe 8058 703d bf5e 333c
00000110: 3506 093e 56e5 22bd f412 f3bd da21 3e3d
00000120: 539f c5bd e7d4 68bd cb48 b33d 4251 993c
00000130: 8ce2 013e db8c aebd ef3b a9bc 7f46 70bd
00000140: 7d3b 0dbe a944 97bd 6880 d7bc 4b67 543d
00000150: 57e5 d13b 68a0 9cbd 1938 c73d 3621 d93b
00000160: 4d73 04be dd3e 9cbd 5470 093d 933e aabd
00000170: 6694 253e 54b5 15be 3e51 0a3e c3b4 6ebd
00000180: 95a1 92bc e3d3 243e 076b 7c3c e76e eb3c
00000190: 7a34 443d c2aa 95bd 7064 92bb 83fa d03d
000001a0: a88e 13be 64af 51be 4167 70be 5717 2b3e
000001b0: 944f 52bd c848 d83c 7c62 853b 9807 683c
000001c0: 9977 a6bd e90f 83be ee83 913c e744 413e
000001d0: b888 ae3d 24fd 263e 8e31 e33d d87b 4cbd
000001e0: 6859 553e 9063 90bc d22f 483e 70d7 5dbd
000001f0: 335f 8dbd a98f 093e 8910 41bd 84ca 9abc
00000200: 46b0 b23d 212b 83be d1b9 47be 6e27 d7bd
00000210: 7875 1a3e 7c88 2f3e 247c 1ebd df24 7ebd
00000220: 2d14 863d 505c 5c3e 5158 603e b2b9 f3bb
00000230: 326e f4bb 83ac 573d b91f 863e f2cd d2bc
00000240: 2d45 10bd fc56 403d 7a03 45be af9d bfbd
00000250: d3da 3cbe 2a1e ff3d 3098 41bc 1d2a 873d
00000260: 310b edbd cc43 113e d106 23bd d8f6 47be
00000270: 9191 b4ba 319c f13d dc0d 653e 1aed 303e
00000280: a97b bf3c 9578 38be 182d 96bd 08b1 df3c
00000290: 2eaf 333e e880 94bd 970a 0e3d 98e9 8c3d
000002a0: 4df7 393e 4742 02be eafd aabd 01f3 79bd
000002b0: bd66 8d3d 774b 0dbe c846 94bc 58ba ee3a
000002c0: e85d db3c f8c1 4b3c fae0 6fbe be57 433d
000002d0: 99c0 07be 6304 0b3c 7007 2bbd 6d42 8b3d
000002e0: a626 e3bd 6658 403e 29ad 913d 26a6 d6bd
000002f0: 71a8 a2bd c00c 6b3e 9bd3 94bc a8b6 bdbd
00000300: e7cf 053d e674 e3bd 921e 0e3e 5878 0b3e
00000310: 943c 9d3d 877b fc3d 1ff2 45be 1e7a 34be
00000320: 9bec 08be c020 a7bd 4fb4 983c 8cb6 70b8
00000330: d9df 5abd bfa9 86be 7f52 16be 219c 9d3d
00000340: 3416 f0bc d233 f93d 2b59 2dbd 2055 0e3e
00000350: 66ee d63d c4bd b43c bd28 61be a3bf a53d
00000360: 750a 7ebd 6719 3b3e 9ab7 eb3d 81c9 26bc
00000370: 10b2 f23c 65ce db3c e192 14be 69c2 9c3d
00000380: 8b51 1dbd e474 6c3d b742 f23d 16dd 07be
00000390: 0c2d eebd 6276 a1bc 0c24 beba 4e65 44bc
000003a0: 3aa1 36be 232d 8fbc 5222 1d3d b76c e5bd
000003b0: 15a9 733d 6cb6 4c3d 403f 51bd 5a1e b1bd
000003c0: 81fc 223d cfa9 2e3e b390 1bbc 9008 90bc
000003d0: 08dd 213e ad03 1dbd 6bb3 e13d 819c 3b3e
000003e0: 3c3f 723d 8ecd 123e aa1a 7fbd 4bc2 6bbd
000003f0: 516e 943c c4d8 433e 1b43 123e 1fa8 9b3d
0.14138101 0.0954111 0.0019578887 -0.002048584 0.2138114 -0.13375612 -0.11329294 -0.10953493
-0.10672974 -0.15200824 -0.025756873 0.09044292 0.067073815 0.06888065 0.0027246096 -0.022322189
-0.06878634 0.22547199 0.08497559 -0.15924081 0.12555581 -0.06478739 0.24858366 -0.13325424
0.13340795 -0.060232323 0.09486984 0.12124198 0.0528429 0.11267782 -0.061783772 -0.058038585
-0.024403578 -0.025163071 -0.032927956 0.09950902 -0.035173073 -0.22276032 -0.05998015 0.19612578
-0.1667269 -0.13738151 -0.046134274 -0.08460443 -0.10089519 0.04269289 0.049597047 -0.068875425
-0.13280432 0.13124382 0.03679221 -0.045895956 0.033894066 -0.13886291 -0.054002143 -0.20301673
-0.18140434 0.1398017 -0.14094257 -0.10472149 0.056308422 -0.065865636 0.030455701 0.17932329
0.05986772 -0.15327123 0.05867815 0.010947882 0.13381274 -0.039769493 -0.118688494 0.046419002
-0.09649529 -0.056843664 0.087541185 0.018715505 0.12684077 -0.0852296 -0.020658461 -0.05866098
-0.13792224 -0.07386143 -0.026306346 0.05185632 0.0064055133 -0.076477826 0.09727497 0.0066262735
-0.12934609 -0.07629178 0.03355439 -0.08312716 0.16169891 -0.14619952 0.13507554 -0.058277857
-0.017899314 0.16096453 0.015406377 0.028739406 0.047901608 -0.0730796 -0.0044675395 0.10204031
-0.14409888 -0.20477062 -0.23476888 0.16708122 -0.051345423 0.026401892 0.004070578 0.014161967
-0.0812828 -0.25598076 0.017763104 0.1887394 0.08522171 0.16307503 0.11093436 -0.049922794
0.20834887 -0.0176256 0.19549492 -0.054160535 -0.069029234 0.13433708 -0.04713491 -0.018895395
0.08725028 -0.25618842 -0.19504477 -0.105055675 0.15083873 0.17141908 -0.03869261 -0.06204688
0.06546817 0.2151959 0.2190869 -0.007437908 -0.0074594254 0.052654754 0.26196077 -0.025732968
-0.03522222 0.046957955 -0.19239607 -0.09356248 -0.1844285 0.12456925 -0.0118160695 0.06599829
-0.115744 0.14186019 -0.039801423 -0.19527757 -0.0013776292 0.11797369 0.22368568 0.17277947
0.023374395 -0.18014748 -0.0733282 0.027306095 0.17547294 -0.072511494 0.034678068 0.06880492
0.18160744 -0.12720595 -0.083492115 -0.061022762 0.069043614 -0.13798319 -0.018100157 0.0018213494
0.026778176 0.0124363825 -0.23425665 0.0476911 -0.13257064 0.008484933 -0.04175514 0.06799779
-0.11091356 0.18783721 0.07113106 -0.10480909 -0.07942284 0.22954082 -0.018167308 -0.092633545
0.032668974 -0.11106281 0.13878849 0.13620126 0.0767757 0.123282485 -0.19330643 -0.17624709
-0.13371508 -0.081605434 0.018640665 -5.739047e-05 -0.053436134 -0.2630138 -0.14679907 0.07695795
-0.029307462 0.12168087 -0.042321365 0.1389966 0.1049469 0.022063144 -0.21988197 0.080931924
-0.06202169 0.18271409 0.115096286 -0.010179878 0.029625922 0.026831815 -0.14509155 0.07654268
-0.038407844 0.057728663 0.11829131 -0.13267931 -0.11629686 -0.01970977 -0.0014506592 -0.011987044
-0.1783494 -0.017477578 0.03836281 -0.11202376 0.05948742 0.04997866 -0.05108571 -0.08648367
0.039791588 0.17056964 -0.009494948 -0.017582208 0.15806973 -0.038333584 0.110205494 0.1832142
0.059142336 0.14336225 -0.06228129 -0.05755834 0.01811901 0.19125658 0.14283411 0.07600426

u_model.model.10.bias f4 [42]
00000000: 5e4d e6bd b61d 1bbe e816 0c3e d22b ab3d
00000010: 56c7 babd a8cf 06be 85a0 a4bd fbd3 143e
00000020: 359f 51bd f3b6 eb3d fc14 e33d 2ed4 09be
00000030: 93e5 f6bd c49b edbd 1068 f83d 2492 b8bd
00000040: 48a9 edbd 5a41 de3d 3ee3 eabd 2833 c7bd
00000050: b807 d5bd 5121 b7bd 14f5 293e 9d03 093e
00000060: 0b5e f63d 0287 f03d a296 313d a515 10bc
00000070: bd27 b63c 3ba5 393d c32b 803d bc30 9d3d
00000080: 6c36 033e ccbf 82bc 1626 e53d 12f4 6abd
00000090: 3a47 083b e28a 3c3d b729 f63d 59e9 57bc
000000a0: e956 5c3b dfd7 d8bd
-0.11245225 -0.15148053 0.13680613 0.083579674 -0.091200516 -0.13165152 -0.08038429 0.14533989
-0.051177222 0.11509504 0.11087987 -0.13459846 -0.120555066 -0.116019756 0.12129223 -0.09012249
-0.116045535 0.108523086 -0.11469124 -0.09726554 -0.10401863 -0.089419015 0.16597396 0.13380285
0.12029656 0.11744501 0.043356545 -0.008794223 0.022235746 0.04532359 0.06258347 0.07675311
0.12813729 -0.015960597 0.11188905 -0.05736167 0.0020794407 0.046030886 0.12019675 -0.013178193
0.0033621138 -0.10588049
