saved_models/grid_sampling/sobol-r.pt (torch, 76065 bytes, 42 tensors)

u_model.W f4 [20, 2]
00000000: 0ddf 31be db46 e9bf 737a 473f b9c7 81bf
00000010: f92e 623f 36ee 203f deb3 81be 5efc 29c0
00000020: 1ef2 44bf 23bb 643f 556c ea3e 38da 793d
00000030: faaf c23f 58fe 683f 8164 953e 2239 78be
00000040: 28cd 623d 3bbd fcbf 7f95 c43f 80d5 003f
00000050: 8843 9e3f ebf3 36bf 3301 853b 232a 013f
00000060: fff7 423f 5011 dbbf aa9a a43f 5249 9bbf
00000070: 53a6 a43e 181b 3dbf 5cfc 71bd c49f 18bf
00000080: f084 b53c 9fad 7a3f 1c9c b73e db97 ec3e
00000090: 2374 a03f 31a5 3b3f 396a f83e 7bee ccbf
-0.17370243 -1.8224748 0.7792122 -1.0139076 0.88352925 0.6286348 -0.2533254 -2.6560283
-0.7693194 0.8934805 0.45785776 0.060999125 1.5209954 0.910131 0.2917824 -0.24240544
0.055371433 -1.9745249 1.5358123 0.50325775 1.2364359 -0.7146594 0.004058981 0.5045492
0.7615966 -1.7114658 1.28597 -1.213175 0.32158145 -0.73869467 -0.05907856 -0.59618783
0.022158116 0.97921175 0.3586129 0.46209607 1.2535442 0.7329894 0.4851854 -1.6010278

u_model.b f4 [20]
00000000: 2f13 b440 9036 ad3f 788d 6740 83ba ca3f
00000010: 8d73 bc3f 3efb 5d3f 22c7 7e40 6bf6 173f
00000020: f374 3e40 07c8 c740 679a bb40 6667 923d
00000030: d27f ab40 4853 7540 e0a5 b840 8518 c13e
00000040: edaf 1140 ceb2 fb3f 54fd bd40 f5b9 b040
5.6273417 1.3532276 3.6180096 1.5838169 1.4722763 0.8671149 3.980904 0.5936038
2.975888 6.2431674 5.862598 0.07148628 5.359353 3.833208 5.7702484 0.3771402
2.2763627 1.9663942 5.937174 5.5227

u_model.model.0.weight f4 [42, 42]
00000000: 7aa0 f0bc f633 333e f633 573e 3a9b 00be
00000010: fc04 173e ffa7 6bbe aa8f 2abe ceb3 6fbd
00000020: 5b14 293e f55d b6bd 725f 5fbe d0db 9c3d
00000030: fb3c 923d 9841 7d3d 7dac 363e 6d03 4d3d
00000040: 69ef c93d 5d42 44bd 0ec0 12be 54de ef3c
00000050: 5e59 0fbc 2b1c e13c 7584 573d bec2 ecbd
00000060: 5205 3ebe b106 a43d 2255 b3bd 0741 11be
00000070: 7051 223e dcb6 8cbd 6f88 4bbe 985e d0bd
00000080: 3750 08be a9ba 5dbd 21a6 27bc 712b 01be
00000090: 0ead a23d 039b 3abe 72d9 9abc deb0 a8bd
000000a0: ac8b fa3d 68c8 4dbd 1424 9a3d 1390 bbbd
000000b0: 1b8c dd3c d3cd 0a3e a57d 92bc ae07 223e
000000c0: 6b9c 303e 5407 12bc b69b 773c f2ca 253d
000000d0: dfaf 5d3e 8b26 e83d d7c5 b13d d93c 1dbd
000000e0: b22d 16be b73d 32be 3a38 bdbd d488 01bd
000000f0: 9661 bb3d e99a 603d 4f64 af3d 53ad 90bd
00000100: f6b0 8dbd 912a 4bbd 7b37 903d 5b96 34be
00000110: 0b94 0abd 23d7 443e 8be4 b33c a555 4b3d
00000120: 5d7b e9bc f2fe 393e 0b60 97bd a9c5 bfbd
00000130: 5fa6 5bbb 2816 bcbd daaf 3c3e 4167 20bb
00000140: 14bb d83d f93e b63d bcf1 313e 00aa 2fbe
00000150: 4d3e b2bd 54dd 7cbd 27a2 233e 7078 f3bd
00000160: 6832 15be 4939 50be 9035 24bc 0afd 943d
00000170: 1f5b 29bc 86c1 4cbc 33ad 8ebd 8760 1abe
00000180: 2b4c b73d 8a29 fb3d 3d02 3a3e 6220 053e
00000190: ffa5 07be 8107 253e 8205 6e3d 7677 f3bd
000001a0: ba6f bebd 8e91 043e a43a 14bd 7a91 fcbd
000001b0: c6e9 c2bd 6e31 06be 3749 83bd 01ec a03c
000001c0: 7a00 2a3e a10b 82bc d676 9cbd 3bce f3bd
000001d0: 5e43 ac3d edd3 353d e10d ff3d 5cb6 1e3d
000001e0: e8c6 0f3d c297 173c e899 05be a95e bdbd
000001f0: fd6c 9a3d 0f35 2e3e 37e9 30be 2472 4f3e
00000200: 52c9 dc3d 53bf 16be dabe 403d a4b8 2ebe
00000210: e265 9e3d 1e55 4fbc c539 8fbd 452d 84bd
00000220: def0 0fbe 5e4c 19be 3b7e 23be a56c 25bd
00000230: bd2c c53b d8ee b83d dad2 d73d fa3b 993d
00000240: d483 343d 7096 b13d 8dd7 0cbe eb67 ae3d
00000250: d9d2 b43d 9c22 343c 2cee c2bd 8a46 523e
00000260: 00de 053e e719 4dbd 857d 04bd 5851 66bc
00000270: 29fe 393d f3f4 89bd d7a0 0dbe 88da 15bc
00000280: 6bbe 093e 5407 83bc b0d9 76bd 22fd aabb
00000290: eda0 133e d089 6a3d f5de b1bd 8b25 d93d
000002a0: 5ea8 7d3d 61ad 7fbd 0e40 103d 41d3 66bd
000002b0: 074b 69bd a708 3abe 857c 03be 93f2 94bd
000002c0: 6852 8ebd 47d2 0fbd 3504 943d 0412 673d
000002d0: f433 48be e2e8 9f3d 91ef b33d b3a9 98bd
000002e0: b454 ddbd 871b 193e 0b48 d7bc 462e 15be
000002f0: 3191 42bd 13c7 69bd 39c5 9c3d 07d5 31be
00000300: 7b5c f0bd ce66 a0bd 412f 94bd 86b2 bbbd
00000310: 8554 cfbd aa31 32bb 79f4 89be 3110 93bd
00000320: c507 5bbc 4178 dcbc a7f9 88bb d426 4a3e
00000330: 8d18 123e ecc5 32bd 67e6 2b3d d75e 083d
00000340: 8145 3bbd a884 473e e80e 493d 0d20 9d3d
00000350: bfe1 8abd 9e60 f23c 67ed 08be d730 4a3d
00000360: e764 ec3d 5600 a43c 253b 8b3d 73f9 0cbe
00000370: 7cfc 583e eb75 eb3a e40e a5bd 966c 0d3e
00000380: fa7d 41be 69a7 29be f3d3 bbbc 0722 e03d
00000390: 7bc9 eabd 245c 343d d150 f2bc eda8 78be
000003a0: ef23 e63d 4c12 423d 2341 193c 89e2 90be
000003b0: cb9d 6c3c 7bd0 d33d d4ef 5fbe bae3 c6bd
000003c0: c98a 2dbc e1ae e83d 9db2 d3bc c120 913d
000003d0: b023 e8bd f001 0b3e b008 f73c 3f63 2dbd
000003e0: 975a 1d3d d452 993c 824c 0e3e a2d8 3abd
000003f0: 250b 3e3d 00e1 e2bd 96c8 5b3c ae8a 003e
-0.029373396 0.1750029 0.21015915 -0.12559214 0.14747995 -0.23013304 -0.16656366 -0.058521084
0.16511671 -0.0890464 -0.21813753 0.076591134 0.07140537 0.061830133 0.17839237 0.050052095
0.09860117 -0.04791485 -0.14331076 0.029280819 -0.008749334 0.027479252 0.052616555 -0.115605816
-0.18556717 0.08009089 -0.08756472 -0.14184962 0.15851378 -0.06870815 -0.19876264 -0.10174292
-0.1331185 -0.05413309 -0.010232479 -0.12614228 0.07943164 -0.18223195 -0.018902514 -0.0823686
0.122336715 -0.05023995 0.075264126 -0.09158339 0.027044347 0.13555078 -0.017882178 0.15823242
0.17247169 -0.00891288 0.015112808 0.040476747 0.21649121 0.113354765 0.08680313 -0.038388107
-0.14665869 -0.17406355 -0.0923924 -0.03162463 0.091494724 0.054835234 0.08564054 -0.07064309
-0.06918518 -0.04960114 0.07041832 -0.17635481 -0.03383259 0.19222693 0.021959564 0.049642224
-0.028501207 0.1816366 -0.073913656 -0.093638726 -0.0033515913 -0.091839135 0.18426457 -0.0024475607
0.10582557 0.0889873 0.1737737 -0.17154694 -0.08703289 -0.061734512 0.15979825 -0.11888206
-0.1457001 -0.20334353 -0.010022536 0.07274826 -0.010336666 -0.012497311 -0.06966629 -0.15075885
0.08950075 0.12263782 0.18164916 0.13000634 -0.13246916 0.16116144 0.05811072 -0.1188802
-0.09298654 0.1294615 -0.036188737 -0.12332435 -0.09517245 -0.13104793 -0.06410449 0.019643785
0.16601744 -0.015874686 -0.07639854 -0.1190457 0.08411287 0.04439156 0.12453819 0.03874813
0.0351018 0.0092524905 -0.13046992 -0.092465706 0.07540319 0.17012428 -0.17276464 0.20258385
0.10780586 -0.14721422 0.04705701 -0.17062622 0.07734276 -0.012654571 -0.069934405 -0.06453947
-0.14056727 -0.14970538 -0.15966122 -0.040386815 0.006017296 0.09029931 0.105382636 0.07482143
0.044071034 0.08671272 -0.13754101 0.085159145 0.088292785 0.01099458 -0.09518084 0.20534721
0.13072968 -0.05007353 -0.032346267 -0.01405748 0.0454084 -0.067361735 -0.13830887 -0.00914634
0.13451545 -0.015994705 -0.060266197 -0.005218164 0.14416857 0.057260334 -0.08685104 0.10602864
0.061928146 -0.062421206 0.035217337 -0.05635381 -0.056956317 -0.18167363 -0.12840469 -0.0727283
-0.069493115 -0.035112645 0.07227365 0.056413665 -0.19551069 0.07808091 0.08785928 -0.074542426
-0.108071715 0.14951907 -0.02627947 -0.14568433 -0.047501747 -0.057074618 0.07654805 -0.1736642
-0.11736389 -0.078321084 -0.072355755 -0.0916491 -0.10123543 -0.0027190247 -0.2694433 -0.07180823
-0.013368552 -0.02691281 -0.0041801515 0.19741374 0.14267178 -0.043645784 0.041967776 0.03329357
-0.04572058 0.19484198 0.04908648 0.07672129 -0.06781339 0.029587086 -0.13371812 0.049362984
0.11542683 0.020019691 0.0679839 -0.13767032 0.21190065 0.001796422 -0.08059481 0.13810953
-0.18895712 -0.16567768 -0.022928214 0.1094399 -0.114642106 0.044033185 -0.029579552 -0.2428319
0.112373225 0.04738073 0.009353909 -0.28297833 0.014441918 0.10342499 -0.21868831 -0.09711404
-0.010592171 0.113614805 -0.025842005 0.070863254 -0.11334932 0.13574958 0.03015551 -0.042330977
0.03841647 0.018716253 0.13896373 -0.045616753 0.046397347 -0.110780716 0.013414523 0.12552902

u_model.model.0.bias f4 [42]
00000000: 6eaa e43d 17e5 dabd 3a91 e73c b77a 90bd
00000010: e963 9b3d a9cc 103e 765c 4c3a 3d95 b13d
00000020: 9ade 85bd dfe9 d7bd f040 b73d 7d3b 87bc
00000030: 9c52 e9bd 5e78 92bd b432 2cbe 383a e1bd
00000040: 260d 4d3d 1b10 d1b9 04cd 1ebe 6aaf b9bd
00000050: 0914 0c3e 9b22 3cbd ae38 c63d e91c 0dbe
00000060: e987 c6bd 3b86 f13b 59fe 283d c856 78bd
00000070: 295f d83d 01ff 0dbc 92b9 04be 535b c4bc
00000080: 145e 453d cd47 efbc 8f3c 1bbe b69c a3bd
00000090: 7250 f8bc 26f6 6a3c b394 b33c e4e2 673d
000000a0: 9963 883c 7b79 f63d
0.111653194 -0.10688227 0.028267492 -0.07054656 0.07587416 0.14140572 0.000779576 0.08671043
-0.065365985 -0.10542654 0.08947933 -0.016507858 -0.113927096 -0.071518645 -0.16816217 -0.109974325
0.050061367 -0.00039875586 -0.15507895 -0.09066661 0.13679518 -0.04593144 0.096787795 -0.1378056
-0.096938916 0.007370738 0.04125819 -0.060629636 0.10565025 -0.008666755 -0.12961414 -0.023969328
0.048185423 -0.029209042 -0.1515982 -0.079888746 -0.030311797 0.014340913 0.021921491 0.056612864
0.016649054 0.12034889

u_model.model.2.weight f4 [42, 42]
00000000: ae03 f8bc 038f efbd a3f0 1f3e 9e85 a13d
00000010: 4e73 173d b574 073c 9902 1ebe 23e2 333e
00000020: ffd8 73be 5980 303d 3d25 34bd 7d47 213d
00000030: 596b 503d a771 1fbe 53ae fcbc a121 8cbd
00000040: 36d3 6f3b 182b 303e 687a d2bc c5cf 263d
00000050: 0f02 61be 102c 0d3e 5f95 2dbe 105f 713e
00000060: 8be8 2c3e a6c5 edbd 7835 723e 68e0 8b3b
00000070: bc50 34be 05ba 4f3e 1bf7 d4bc e351 b93d
00000080: 79e9 d3bc 4c17 8abd df1b a63d ae44 cfbd
00000090: 2b43 a0bd fb29 01be cc45 ccbd 2cd1 14be
000000a0: 8f74 5dbd 10a1 38be fd24 1a3e c78e cdbd
000000b0: 6a7d 5dbd c3ca a23d 4ec3 f5bc bfef 33bd
000000c0: e277 8dbd 0d85 c4bd b6d9 debb ceb9 abbd
000000d0: 7c22 17be 18d8 28be 4027 0f3e 2ad3 28be
000000e0: 2029 5d3c 284d bc3d c81b 5a3e dc2c afbd
000000f0: 5aee 853d e04b 39be 7bb6 39be 6c98 cb3d
00000100: 76eb e5bd 7c16 4ebd 9538 393e 889c b53d
00000110: ebf9 b1bd 8eab 7fbd 7199 79be 9f6b 71bd
00000120: 2e08 523d b0c0 3f3e be26 62be 3d82 d2bd
00000130: c3e5 2f3d a658 6b3e 1462 fabd 3aa0 02be
00000140: c058 3e3d b174 c1bc 605d 343e 1b50 b6bd
00000150: 9d96 623e bf59 b4bd df4c a33d e7cf 313e
00000160: 202e c33d 3900 353c e4d2 df3d b4de 5a3e
00000170: 109e 073d e850 633d 5e98 ebbd 1b9b 5fbe
00000180: 8935 303d 1518 05bd 7930 4a3d e6e4 33bd
00000190: b100 503d 6897 72bd f72c 75bc 18f2 093c
000001a0: 1f71 68be bed4 643d 1300 ab3d 91e5 743e
000001b0: 9a0c 943b b84f f9bc 2267 523e ab5f b4bd
000001c0: 09af 48be 50a8 bfba e3bb e13d 6bfd af3d
000001d0: 23c1 19bd dcf5 c43d 31d5 a73b 9b4c d13c
000001e0: 3957 7f3d ca34 ddbd 605d 973c 58fd 16bc
000001f0: 8e22 0e3e b212 c9bd 0eb6 4abe 5b93 733d
00000200: 2417 8c3d 2671 e43c 91f8 42be d0a2 1abc
00000210: 3975 b93c 4766 4c3e ada8 99bc 123a 8dbb
00000220: b698 04bd 3aab 03bd ff0d c0bd 9e2a d9bc
00000230: 6278 103d 7199 933d 8a37 913c efa8 d9bd
00000240: b92c 2abd 6f4c 833e 7383 c63c 1c7b dabd
00000250: bf80 a6bd 27ea bd3d 073f 72be 07a8 363c
00000260: 9875 1dbe 1870 4fbe faf9 0e3b 0fb4 1dbe
00000270: 9464 41be 4758 6cbe 4216 fd3d d68a e93d
00000280: f57a 3d3e 3f0a 91be 3b1e 513e b459 f23d
00000290: 037f 933d d67a 733e 7987 19be f821 a43d
000002a0: 9a90 5cbe 24be f93c 1196 1abd 99fe 683c
000002b0: 4a1b b33c 8d14 85bd ac37 01be a621 0f3e
000002c0: 7b65 03be 94db 7cbc efe5 c5bd 7a0e 9cbd
000002d0: baa3 8f3d 781f 743d 7a14 1b3d 2bea 4f3e
000002e0: 611d ddbd d577 fdbd 5a34 9cbd 7867 003d
000002f0: c0ea d8bc 2496 01be 1c77 e43d 3150 2f3d
00000300: 7b5f 6ebd 3ef6 6abd 9c0c 09be 4aad d1bd
00000310: d591 4b3e 8f20 d2bd 9df0 31be c05e 07be
00000320: 7d92 183e 6e8f 5d3c c9fb 4e3d d504 733d
00000330: d935 b4bd a9e9 573d d604 173e 0e70 ee3d
00000340: c773 52be 083d f7bc 3612 3abd cfc8 26be
00000350: f03f 033e 315f 023e 3e20 4e3e 3b1d acbb
00000360: bbd7 d13d 2f57 f8bd 1dd7 2a3e ce74 99bd
00000370: c64a be3c 59cb 04be ee15 9f3d 8df3 04bd
00000380: 0dac 323c c6e3 40be 3f37 353d 076b b23d
00000390: 6ef5 0e3d 6d72 4bbe 42c9 243d d537 f03d
000003a0: 5312 313b 615c 29bd 7fab 133e f821 d5bd
000003b0: 93c3 7d3d 7828 4a3d 5c80 67be c257 80bd
000003c0: 1bee 31bd cee7 413e 124d a2bc 9bad f7bd
000003d0: 607b f8bd 941e 033e 0971 edbd 02e7 b7bd
000003e0: 8735 dd3d c1a5 d1bd e9f5 603e ad90 0c3c
000003f0: 2fea e0bd ab93 7e3e 5d14 a0bd ef28 62bd
-0.030275192 -0.11697199 0.1561914 0.078868136 0.036975197 0.008267571 -0.15430678 0.17566733
-0.23813246 0.043091152 -0.043980826 0.039374817 0.050883625 -0.15570699 -0.030844843 -0.06842352
0.0036594397 0.17203939 -0.025693133 0.04072549 -0.21973442 0.1378634 -0.16951512 0.2357142
0.16885583 -0.11609964 0.23653209 0.0042686947 -0.17608923 0.20285805 -0.025996735 0.09048822
-0.025868164 -0.06742725 0.08110785 -0.101205215 -0.07825311 -0.1261367 -0.0997425 -0.14532918
-0.054066237 -0.1803019 0.15053172 -0.10036998 -0.054074682 0.0794883 -0.030000355 -0.04392981
-0.069076315 -0.0959569 -0.0068008555 -0.08385049 -0.14759248 -0.16488683 0.13979816 -0.16486803
0.0134985745 0.09194404 0.2129966 -0.08553478 0.065396026 -0.1809535 -0.18136017 0.099411815
-0.11226551 -0.05031441 0.1808799 0.088677466 -0.08690246 -0.062419467 -0.2437494 -0.058940526
0.051277332 0.18725848 -0.22085091 -0.10278747 0.042943727 0.22983035 -0.12225738 -0.12756434
0.046471357 -0.023615213 0.17613745 -0.08901998 0.22127767 -0.0880618 0.079736464 0.17364465
0.09530282 0.011047416 0.10928896 0.21374017 0.033109725 0.05549708 -0.11503671 -0.21836512
0.043019805 -0.03249367 0.049362633 -0.043919466 0.05078191 -0.059226424 -0.014964334 0.008419536
-0.22699402 0.05586695 0.083496235 0.23915698 0.004518104 -0.03043352 0.20547155 -0.0880731
-0.1959802 -0.0014622305 0.11022165 0.085932575 -0.037537705 0.096172065 0.00512185 0.025549224
0.06233904 -0.10801084 0.018477142 -0.009215675 0.13880369 -0.09818019 -0.19796011 0.0594667
0.06840351 0.027885985 -0.19040133 -0.009438232 0.022638904 0.1996089 -0.018757189 -0.004309901
-0.0323722 -0.032145716 -0.093776695 -0.02650958 0.035271056 0.07207001 0.017726678 -0.10627925
-0.041546557 0.25644252 0.024232602 -0.106680125 -0.08130025 0.09273177 -0.23656856 0.011148459
-0.1537689 -0.20257604 0.0021816478 -0.15400718 -0.18886024 -0.2308055 0.12357761 0.11403434
0.18503936 -0.2832813 0.20421688 0.11833516 0.0720196 0.23777327 -0.14993085 0.080142915
-0.21539536 0.030486174 -0.03774077 0.014220857 0.021863598 -0.064980604 -0.12618893 0.1397768
-0.1283168 -0.015433211 -0.09662997 -0.07619949 0.0701365 0.059600323 0.037861325 0.20304172
-0.10796619 -0.12376372 -0.07627173 0.031348675 -0.026479125 -0.1265493 0.11155531 0.042801086
-0.058196526 -0.05736374 -0.13383716 -0.102381304 0.1987985 -0.10260116 -0.17376943 -0.13219738
0.14899631 0.013522966 0.05053309 0.05933078 -0.08799333 0.05271307 0.14747939 0.116424665
-0.20551978 -0.03018047 -0.045427524 -0.1628754 0.12817359 0.12731625 0.20129487 -0.005252508
0.102462254 -0.12126004 0.16683622 -0.07492982 0.023229014 -0.12968196 0.07767855 -0.03245883
0.010905278 -0.18836889 0.04424214 0.0871182 0.03490203 -0.19867869 0.040230997 0.11729399
0.0027018979 -0.041347865 0.1442089 -0.1040687 0.061954092 0.049355 -0.22607559 -0.062667385
-0.043439966 0.18936083 -0.01981214 -0.120936595 -0.12132907 0.12804633 -0.11593825 -0.08979608
0.10801225 -0.10236693 0.21968807 0.008579415 -0.10982167 0.24861018 -0.07816384 -0.05521482

u_model.model.2.bias f4 [42]
00000000: dcd8 d5bc 3b40 f43b 8a7b 893c 1369 14bd
00000010: 683b cabd 5c9d 213d a4bf b7bd 8d30 bc3d
00000020: 20e0 6d3d 4be1 733d 49b8 113e aed9 64ba
00000030: 3811 103e 7f51 2bbd da45 ca3d 43d9 93bd
00000040: dbe2 84bc 71da 0bbd 9502 c23d 4839 d83d
00000050: d2d0 fa3d 00d8 473a a553 c3bd 069c b93d
00000060: 2614 0ebc d9c1 13be 0627 64bd 0432 1ebd
00000070: c8a3 b33d a7c0 cc3d 3809 1dbd 31fb db3d
00000080: 2c36 8ebd 340b 8ebd 017b 5d3c c15a 153e
00000090: 6526 803d 4c56 433d fb8f 9b3d 5ddd 5a3c
000000a0: 1fcc 5abd 5470 d23d
-0.026104383 0.007453946 0.01678254 -0.03623302 -0.09874612 0.03945671 -0.089720994 0.09188948
0.05807507 0.059541028 0.14230455 -0.00087299466 0.14069068 -0.041825768 0.098766044 -0.07219174
-0.016221454 -0.03414387 0.09473149 0.105578005 0.122468606 0.0007623434 -0.09537438 0.09062962
-0.008671796 -0.14429416 -0.05570128 -0.038621917 0.08771473 0.09997683 -0.03833887 0.1074127
-0.06943926 -0.069357306 0.013518096 0.14585401 0.06257323 0.04768972 0.075958215 0.013358441
-0.05341732 0.10275331

u_model.model.4.weight f4 [42, 42]
00000000: 8fea 5cbb 075e cbbc 36e3 303d 6ea2 fabd
00000010: a488 0b3e 33da 0fbe 4964 73be b21a 453d
00000020: 5d8a 71be 97bd 32be 0ac9 66be e9f5 bebd
00000030: d353 04bd 81db a83d ff52 a03d dac5 4cbd
00000040: 511f 7abd a339 ffbd 0936 72bd 9616 48be
00000050: 11a0 d1bd 1001 aabc 0e07 203e 2af8 d8bd
00000060: 340c 093e 48b5 953d 4901 ad3d 6754 f3bd
00000070: de51 35bd 2ef5 e2bd 60f5 653d 5b89 d93d
00000080: ab89 1f3e 6c9e abbb fcfe 333e 0072 743d
00000090: bb74 8d3d f67d 513c 38e5 023e 15e4 7cba
000000a0: d794 4fbe 1776 8dbe 6e06 8c3c 5c9e 5abe
000000b0: 43ed 17ba 6f99 c6bc 3b66 4e3e c858 7bbc
000000c0: e8ae 4bbc 128c f73d 6c15 e9bd a73b adbd
000000d0: 888a 3dbe 00a6 04bd d525 e1bd a171 043c
000000e0: 6fd0 f1bd 8268 343e 20ad 573e 7422 49bd
000000f0: 93da 7fbe f643 2bbd 9a99 403e d4fa 893d
00000100: cfc6 833e ae70 1abe 1179 763d 6678 543e
00000110: b83f 3fbc d3f7 353e 24d7 623d 0fd3 44be
00000120: 1d7e f7bd af29 313d 1687 c23c f507 15be
00000130: 7969 3abe c26f 07bd 1518 7e3e ce4b 49bd
00000140: 26b4 183e e8f5 35be fa3f 83be c229 c1bd
00000150: 19db 4c3e 0be3 31be 1939 fe3d ad19 133e
00000160: f17b 423e bda0 bcbd c96b 07be 186c f4bd
00000170: fbbb 72bd 1af8 92bd 728e 94be b6ff c3bd
00000180: 14ac f43c edd5 873d ef50 20be 5de0 b63d
00000190: 37ca 9f3d 5f40 353d 8c69 86be fe85 003d
000001a0: cd8c 783e 5a9d fd3d 483a 37bd 257b 3abe
000001b0: d9d2 5e3c c48b 7a3e ffe3 9fbc 6bc0 68bd
000001c0: 8712 a73d e0b3 3fbe 3151 c13d ad5b 08be
000001d0: c4c8 973c 2203 523d 6174 c33d 28ca 7fbd
000001e0: 8627 40bc 45ff 6a3c 4b0e 483e f8ba 12be
000001f0: 457f 83be 2946 45be f637 523d ffc9 f23c
00000200: 0f69 2d3e 1c8a 5bbe f6d6 12be 8c80 103e
00000210: 9cc7 47be 48c1 5c3c 3494 b23d 3bf9 93bd
00000220: 4502 a73d 9db1 d1bd 1d47 88bd 0498 003d
00000230: 91b3 aabd c916 d73d 7bf7 90bd 9303 b8bc
00000240: abe6 103e d24a b03d 1a6d f3bb 84d4 0ebb
00000250: f389 f1bd 79bb cfbd dd87 583d 2422 3ebe
00000260: 9ffa 403c 5a00 aabd 6a1d 05be c380 123e
00000270: d3d4 173d a7c4 c7bc 6a96 b43d 7c47 dfbd
00000280: d2c2 053e 5dad babd c710 c73d 6859 373e
00000290: 6067 26be e57c 023e 16ff 103e 0eea 9f3d
000002a0: 4e18 d6bd 4bf4 173e 09a8 76bd c0f1 58be
000002b0: b3f8 30bd 3101 103e 7a1f 3b3e 1d2e 85bd
000002c0: 2119 793e 79fb 443e 0eb4 233e 6c28 da3e
000002d0: 072b ba3c c47b ac3d 8a7c 38bd a2df 85bd
000002e0: 1c1a 67bd d83a 6a3e 0ba6 b83e c76c d03d
000002f0: 1215 b1bd 464b 26be be54 41be 309f 8e3e
00000300: 2a5c 363d a062 81be 2c86 143e 6fc6 53be
00000310: 7607 533e 158c 783c d938 1b3e 63d2 6fbd
00000320: d758 debd 9cf7 2e3e 0f6e abbd 6092 673e
00000330: 16e3 b63c 6faa 683d 672d 26be e409 963d
00000340: eb49 7b3e 2f35 e93e 735a 003e 136d c93d
00000350: ed86 243e 9669 9b3c 48fd bdbd fb7c f73d
00000360: 59f2 2fbd 242b 003e 2c83 f1bd b552 e13d
00000370: 1cc0 de3d 027d 323e ccc7 37be c14c 99bd
00000380: 5539 7f3d bd71 d53c c637 32be b340 ea3d
00000390: 28e5 393e 1b86 26be 281c e6bd 83f9 073e
000003a0: fde8 7abd 885b 1d3c 67cc 8a3d 355c 37bd
000003b0: d767 793d 43f9 f9bd 51d5 31be ed95 953d
000003c0: cca2 353e 9f93 173b 59e6 ff3d 40c6 953c
000003d0: f8ca 383e db2c f7bc 58a2 4cbe 6540 4c3e
000003e0: b1d0 bdbd 5105 3c3e ebb1 4bbd e454 81bd
000003f0: da10 23be a37f 6dbe 97ea f73c ae82 533e
-0.0033709144 -0.02482511 0.043185435 -0.12238012 0.13626343 -0.1404808 -0.23768725 0.04812116
-0.23587938 -0.17455135 -0.22537628 -0.093242474 -0.032306504 0.08244992 0.0782833 -0.049993373
-0.061065022 -0.12462165 -0.059133563 -0.19539866 -0.10235608 -0.02075246 0.15627691 -0.105942085
0.13383561 0.07309967 0.08447511 -0.11881333 -0.044267528 -0.110819206 0.05614221 0.106219016
0.1557986 -0.005237391 0.17577738 0.05967903 0.0690703 0.012786379 0.12782753 -0.0009647024
-0.20271622 -0.27629158 0.01709291 -0.21349472 -0.00057955476 -0.024243085 0.20156185 -0.015340991
-0.012431838 0.12087263 -0.11381039 -0.084586434 -0.18509877 -0.032384872 -0.10993544 0.008083732
-0.11807334 0.17617992 0.21062136 -0.049105123 -0.24985723 -0.04181286 0.18808594 0.06737295
0.25737616 -0.15082046 0.06017405 0.20749053 -0.011672907 0.17770319 0.055380955 -0.19221137
-0.12084601 0.043252643 0.023746055 -0.14553817 -0.18204297 -0.033065565 0.24813874 -0.04914456
0.14912471 -0.17769587 -0.25634748 -0.09431793 0.20005454 -0.17371766 0.12413234 0.14365263
0.18992592 -0.09210346 -0.1322471 -0.1193468 -0.059261303 -0.07176228 -0.29014927 -0.09570257
0.02986721 0.066326 -0.15655874 0.08929513 0.07802241 0.044250842 -0.262524 0.031377785
0.24272461 0.12383528 -0.044733316 -0.18211038 0.013600075 0.24467379 -0.019517897 -0.05682413
0.08157831 -0.1872096 0.09439314 -0.13316222 0.01852835 0.05127252 0.09543682 -0.06244865
-0.011728173 0.014343088 0.19536702 -0.14329135 -0.25683036 -0.19265045 0.0513229 0.029637335
0.16934608 -0.21439403 -0.14339814 0.14111537 -0.19509739 0.013473816 0.08719674 -0.07225271
0.0815473 -0.10238955 -0.06654189 0.031394973 -0.08335031 0.10502393 -0.07078453 -0.022462642
0.14150493 0.08608021 -0.0074287774 -0.002179415 -0.1179389 -0.101431794 0.052863944 -0.18567711
0.011778503 -0.08300848 -0.12999502 0.14306931 0.0370682 -0.024385763 0.08817752 -0.109023064
0.130626 -0.09115098 0.09719997 0.179052 -0.16250372 0.12742956 0.14159808 0.07808314
-0.104538545 0.14839284 -0.060218845 -0.2118597 -0.043205928 0.14062954 0.18273726 -0.06502936
0.24325992 0.19236554 0.15986654 0.42608964 0.022725595 0.08422044 -0.045040645 -0.06536795
-0.056421384 0.2287401 0.3606418 0.10176998 -0.08646597 -0.16239652 -0.18879983 0.27855825
0.04452149 -0.25270557 0.14504308 -0.20681165 0.20608315 0.015170117 0.15158404 -0.05855025
-0.108567886 0.17086643 -0.083706014 0.22614431 0.02232508 0.056803163 -0.16228257 0.07326105
0.24539916 0.45548388 0.12534504 0.098352574 0.16067095 0.018971246 -0.09276825 0.12084385
-0.04295573 0.12516457 -0.11792597 0.11002103 0.10876486 0.17430499 -0.1794731 -0.07485343
0.062310535 0.026055211 -0.17404088 0.11438122 0.18153822 -0.16262095 -0.11235839 0.13278775
-0.06125735 0.009604342 0.06777268 -0.04476567 0.060890045 -0.12205746 -0.1736653 0.07303987
0.17737883 0.002312876 0.12495107 0.01828301 0.18046176 -0.030172756 -0.19983804 0.1994644
-0.0926832 0.18361403 -0.049730223 -0.0631502 -0.15924397 -0.23193221 0.030263228 0.20655319

u_model.model.4.bias f4 [42]
00000000: 4ac5 12bb 1a60 f2bc 2f2c 5abc 3989 e53d
00000010: 65f3 c8bd bfb1 8b3d 1a2c 613d ae6b 53bd
00000020: 332a 823a 7ace 8d3c 2c62 83bc 5b1e adbd
00000030: 7c8d 22be 25d6 833d 7304 0b3c bc02 fe3d
00000040: 2802 713d 5ba4 05be fc8b 00be acd8 903d
00000050: a66c 9fbc 95dd 33bd 9897 033e e047 893d
00000060: d1a0 173e 938e 28bd 0237 0b3e 1616 023d
00000070: 772a 01be ce11 06be 6e94 1ab8 1f14 1f3e
00000080: f154 163e 5943 07bd 4be8 5ebd fa20 1b3e
00000090: 6b32 aabd d32e be3d 05cd a53d 6b78 d33d
000000a0: 254e ca3d 80d4 433c
-0.0022395425 -0.02958684 -0.013316198 0.11207814 -0.09812049 0.06821012 0.0549737 -0.051616363
0.0009930789 0.01731037 -0.016038023 -0.084530555 -0.15874285 0.06437329 0.0084849475 0.12402865
0.058839947 -0.13050978 -0.125534 0.07072577 -0.019460987 -0.04391249 0.12850797 0.06703162
0.1480744 -0.041151594 0.13595203 0.031759344 -0.12613855 -0.1309273 -3.6854697e-05 0.1553502
0.1468084 -0.033023212 -0.05442075 0.15149298 -0.08310398 0.09286275 0.08095745 0.10325702
0.09878186 0.011952519

u_model.model.6.weight f4 [42, 42]
00000000: c2f9 2ebd 733d a73d eff8 c0bd 4fc6 f9bd
00000010: 01c3 4a3d 9fd9 1cbe af51 bfbd 5847 1f3e
00000020: f7fe e73c fe72 123c 951b 95bd 047f c4bb
00000030: 7050 fd3c c3f3 063e b69b 92bd ba6f 9dbe
00000040: 2bd7 eebd 3256 083e 39bb 3a3d a674 24be
00000050: 3c07 1e3e 4d7e 48be 4933 57bc b8a2 1e3e
00000060: a9e4 85bc 1727 1b3e 10c9 2b3e 233c 65bb
00000070: 325c 2ebd 12ec 063e a9a4 5d3d 6b91 5b3c
00000080: aa35 bbbc 2091 01be 36c2 05be 356f 70be
00000090: b8ed 1f3d 1735 a4bd acb7 5e3e 7805 673c
000000a0: 9c8b ab3d 4f59 16be ce61 ef3c 711e 543e
000000b0: 5e29 e23d 25d1 74be 052e fe3c d38a 71be
000000c0: d727 073e 2ae9 1cbd 5e6d 24bd 58a7 3c3d
000000d0: 745c 903e 59b9 bbbc 4358 803d b9af 0e3d
000000e0: 5859 a73d 4914 373c b8ac 7bbe c7c0 0e3e
000000f0: 8c60 fd3d 89a9 84be 86d0 8f3d 4777 7bbd
00000100: cdde 0b3e 1d06 843b 58e9 40be 8c1e 473e
00000110: e3a8 a93c 12d5 08bb 30d1 d8bd 821c 653e
00000120: c1a2 9b3d 4a78 7ebd 2201 a1bd f9a9 83be
00000130: 2f69 e43d 6f3e e23c 746e 11be ddb6 23be
00000140: aa48 0c3e fd93 203e 81be 4abd 9482 6c3e
00000150: 4030 adbd 832f c83d b3e3 f93d c258 febd
00000160: 1fba 9a3d d412 46be a2b6 08be dc53 d03d
00000170: da57 b93d bdf6 94bd 0fc7 803e e618 c6ba
00000180: aef4 e13d 244e bcbc 7f91 c3bd f716 1abd
00000190: b24b 4cbd 10bd df3c e90e 393e 90bf 3bbe
000001a0: 17c5 913e 4747 63bd 5acb e73d a9c3 0c3c
000001b0: 25a8 65be 461e 743c ef61 e2bd 42b8 a53b
000001c0: 8b3d 6fbd 4691 973e 3073 723e 70d3 7abe
000001d0: cf8d 95bd c34d 42be c396 e83d 2e4e 51be
000001e0: c2a6 d93d 5721 b13d fa3f 063e 79d4 97bd
000001f0: 4017 113e 4a97 493d a9bf 57be e33b 4cbe
00000200: ad55 813d bc76 92bd 687e d93d 953b 72bd
00000210: a736 cbbd 1290 843e 5925 043e 356d e2bc
00000220: 8688 1a3d 7499 3bbe 0736 c1bd adf3 b43d
00000230: 3094 09bd e29e c6bd 721c 26bc 18a7 c0bd
00000240: b5fd 2e3e c412 f93d 3bcd c1bc bd7f d7bd
00000250: 2c08 5dbd 549d fbbc 6734 fa3d 7288 053e
00000260: 6ebd ddbc 5128 b43d db0b 2c3e ef86 cbbd
00000270: 91b8 173e 82ed 0dbe d7db 773e 42ce ee3d
00000280: 6812 6ebd 6c7a 03bd 4c28 e8bd 4e22 1b3c
00000290: 7a26 abbd 2995 253e 4b67 dc3d fa28 77be
000002a0: 1e9b 1dbe 77b5 403e c984 163e db78 44be
000002b0: dfc1 1f3e c6b4 44be 0128 303e 1048 5f3e
000002c0: 8bb7 1b3e 964b 64bd 47b7 5c3e 2eb0 19be
000002d0: f8f0 40bd d9a2 0a3e a6e5 c03c c373 8e3c
000002e0: 01d3 64be abd3 df3d cf20 4c3e 5eb5 d8bd
000002f0: 5d60 303e a844 8abd 2553 c1bd 10b3 1f3e
00000300: 2017 5f3d 61a0 053e fed6 d8bd 7111 4dbe
00000310: 8ac8 0f3c 4a64 91bd 00f7 a03d ec06 1a3d
00000320: 8c75 363d 988c 6ebd e0a4 f73d 1a2b e1bc
00000330: 679c 30bb b627 30be dd2f 533d 410c 88bd
00000340: 0376 b13d 9c7f fbbc 250d debd 2e09 42be
00000350: 8fbf 46be 429f b13d 7bef 943d 52df 3e3e
00000360: 50f1 323d cef2 133e 672f c23d a218 35bd
00000370: 5b82 1cbc f331 83bd 8dd0 1abe 0ccf fbbd
00000380: a6ae 673c d810 9bbd 370f b63d 7f86 13be
00000390: 2baa 20be b392 863d 019a 5bbe d194 5b3d
000003a0: 4511 98bb 0bfd 1b3d 0be4 cc3d 950e 7cbd
000003b0: 5e4a a2bd 79ad 1e3e f0f4 763e 3ccd 81bc
000003c0: 3418 9c3d 3433 163e c6b0 00be a3a9 733e
000003d0: c65f 973d 12f6 a03c 757e cc3d ae6d 353e
000003e0: d54f 86bd 8cb7 aabc 3c29 983d b2ad 9abe
000003f0: b600 0a3c 83cd da3d 7422 d23d 836e 0bbe
-0.042718656 0.081660174 -0.0942248 -0.121960275 0.049502376 -0.15317391 -0.09341752 0.15554559
0.028319819 0.008938549 -0.072806515 -0.0059965868 0.030922145 0.13178925 -0.07158606 -0.30749303
-0.11662134 0.13314131 0.045588706 -0.16060123 0.15432447 -0.1957943 -0.013134786 0.1549176
-0.016344385 0.1515163 0.16775918 -0.0034978471 -0.042568393 0.13175991 0.05411211 0.01340137
-0.022852737 -0.12653017 -0.13062367 -0.23479922 0.039045066 -0.080179386 0.21749753 0.014100425
0.08376238 -0.14682506 0.029221442 0.20714737 0.110430464 -0.23907907 0.031027803 -0.23588113
0.13198791 -0.0383083 -0.040143363 0.04605803 0.28195536 -0.02291553 0.062668346 0.03483555
0.08171338 0.01117427 -0.24577606 0.13940726 0.123719305 -0.25910595 0.070221946 -0.06139305
0.1365921 0.004029049 -0.18839014 0.19445246 0.020710414 -0.0020878953 -0.10586774 0.22374156
0.07599402 -0.062126435 -0.07861544 -0.25715616 0.11152875 0.027617661 -0.14202291 -0.15987726
0.13699594 0.15681453 -0.049498085 0.23096687 -0.084564686 0.09774687 0.12201633 -0.12419273
0.07555031 -0.1934312 -0.13350919 0.10172245 0.090499595 -0.07273624 0.2515187 -0.0015113621
0.11032997 -0.02298648 -0.095492356 -0.037619557 -0.049876876 0.027311832 0.18072094 -0.18334794
0.2847068 -0.055487897 0.11318083 0.008591571 -0.22427423 0.014899796 -0.110538356 0.0050573656
-0.0584083 0.29603022 0.23676753 -0.2449472 -0.073024385 -0.18974976 0.113568805 -0.2043998
0.1062751 0.08648937 0.13110343 -0.07413573 0.14169025 0.049216546 -0.21069206 -0.1994472
0.063151695 -0.07151553 0.10619813 -0.059138853 -0.099225335 0.25891167 0.12904872 -0.027639965
0.037727855 -0.18320256 -0.09434133 0.0883554 -0.03358859 -0.09698273 -0.010138618 -0.094068706
0.17088969 0.121617824 -0.023657432 -0.10522411 -0.05396287 -0.030714668 0.12217026 0.13040331
-0.027067866 0.08796752 0.16801398 -0.09937846 0.148165 -0.13860133 0.24204956 0.11660434
-0.058123022 -0.032099172 -0.11335811 0.009468628 -0.08356948 0.16170181 0.10761889 -0.24136725
-0.15391204 0.18819223 0.14699091 -0.19186728 0.156013 -0.19209585 0.1720276 0.21804833
0.15206735 -0.055736147 0.2155429 -0.15008613 -0.047104806 0.13538684 0.023547005 0.017389184
-0.22346117 0.10929044 0.1993439 -0.10581468 0.1722426 -0.067513764 -0.09439687 0.1559565
0.054465413 0.13049461 -0.105878815 -0.20026185 0.00877584 -0.07099207 0.078596115 0.037604257
0.044545695 -0.05823955 0.12091994 -0.027486373 -0.0026948692 -0.17202649 0.051559318 -0.06642962
0.08665087 -0.030700497 -0.10842351 -0.18948814 -0.19409011 0.08672954 0.0727224 0.18639877
0.043687165 0.14448091 0.094816975 -0.044212945 -0.009552564 -0.064060114 -0.15118618 -0.122953504
0.0141407605 -0.07571572 0.08889621 -0.14406775 -0.15689914 0.065709494 -0.21445467 0.05360872
-0.0046407306 0.038083117 0.10004433 -0.061537344 -0.07924341 0.15495862 0.24116874 -0.015844934
0.07621804 0.1466797 -0.12567434 0.2379518 0.07391314 0.019648585 0.09985057 0.1771762
-0.065581955 -0.020839475 0.0742974 -0.30210644 0.008423021 0.106837295 0.10260478 -0.13616376

u_model.model.6.bias f4 [42]
00000000: c52f 19be cd02 3bbe fd45 b93d 3383 e3bd
00000010: bda9 0fbe a48c 9a3c aa0b b4bc bed3 edbd
00000020: 07bd 8dbd 6472 7cbd 3af7 743d 14fe 563d
00000030: 257f d23d f851 b7bd ca99 693e 433a 263d
00000040: 1e42 9bbd 0f7a f83d fb34 5c3d f3cd 6e3b
00000050: 49ab 063e 8f16 fbbb 8a0f cabd f445 f1bd
00000060: 424d eebd 9deb 5a3c 143c 9fbd 8c90 293e
00000070: c3e7 e23c bb1c 033d e32a e73d 1646 bcbd
00000080: 1196 f33d d187 b93d 4d9b 1dbd 2dcb 133d
00000090: ee39 d9bd 0596 a5ba 6889 28bd ff35 34be
000000a0: 834b c9bd a61f 05be
-0.14959629 -0.18262787 0.09046552 -0.11109009 -0.14029594 0.01886589 -0.021978218 -0.11612652
-0.0692082 -0.06163253 0.059806086 0.0524884 0.10278157 -0.08951181 0.22812572 0.040582906
-0.0758097 0.12132656 0.053761464 0.0036438673 0.13151278 -0.0076626013 -0.09866245 -0.117809206
-0.116358295 0.013361839 -0.07775131 0.16559047 0.027698403 0.03200982 0.11287477 -0.09193055
0.11893857 0.09059108 -0.038478184 0.036082435 -0.10606752 -0.001263321 -0.041146666 -0.17598723
-0.09828856 -0.13000354

u_model.model.8.weight f4 [42, 42]
00000000: 9132 ab3d 243e a3bd 9f2e 4a3e 02bc 9bbd
00000010: 331f 9d3c f420 35be 41c5 2b3e 1a37 2abe
00000020: 49cd 133e ced4 d5bd 37a5 29be e6f3 33be
00000030: fe46 8fbc ba5d 7dbd 1d2e 913d ac1d 2cbd
00000040: 8c88 90bc a7ac a1bc 7e47 0e3e a0c9 2f3c
00000050: 0485 8d3c 3e47 cdbd 12bc 29bc 492a 3b3e
00000060: d04b 34be b729 90bd 8985 2b3e ab50 1a3d
00000070: b279 093e 23d4 a23d 6527 6b3c a1b1 0c3e
00000080: e92f 173b 03db 213e b670 cabd e41f 533d
00000090: 61ec 433d 5990 32bd 3b88 0dbe bcc6 913d
000000a0: a2d3 ff3d 52bd 55bd 66a4 9c3d 763a 5ebe
000000b0: 3c38 6fbe 6f1c 093d b108 c0bc b44a fb3d
000000c0: b1dc 2ebe 5c41 443e b01b 31be 00b2 e93d
000000d0: 9c50 1c3a cebe 973d 5a1a 873d efa9 a2bc
000000e0: 1519 01be 1499 d33c 3955 913d 7d85 b63d
000000f0: f305 35be 5ded 5abe 3408 84bd 4207 69bd
00000100: 5b46 ec3c 301c d63d daea 953d 1a8d 20be
00000110: 68fc 62be 6e4c 2dbe 262e 9b3c b9bf 1a3e
00000120: 075e f6bd 58e7 18bd 4a65 93bd e367 51be
00000130: ddf5 753e affa 46bd b0d5 053e 1335 a73d
00000140: e467 e63d 0a19 d23c 8940 0abe 6eb1 55be
00000150: 1e02 783c 9e96 2a3d 3261 603e 6827 febd
00000160: 5d19 b53d f046 a6bc 095b 763d 4065 0cbd
00000170: f8df b73d e5ae 4c3c a125 c0bd 954d 8abd
00000180: 1d49 d3bc ff11 ee3d 45d3 143e cdf1 92bd
00000190: ea36 2abe bab3 2dbd 598b 6e3e a63e 653e
000001a0: f447 b83d fc8d 1fbe 0b44 92be b244 453e
000001b0: f91b 43be 65ff 913c 9b78 103e 0c34 20bd
000001c0: d830 ca3d 3c37 5a3d b14a fa3b 55eb 5d3c
000001d0: 2a1d 513e 7cc2 043e 5315 653d c185 da3c
000001e0: 3a67 95bd c351 b63c 12e9 9e3d 74f3 eebd
000001f0: 4c17 4b3e 09ef 9bbd cc64 70bd b2d4 17be
00000200: bb17 47be c715 6bbd e139 aa3d 893e 383e
00000210: 94ee 543d ce93 313e b6cf 3c3d 0d71 35be
00000220: 3192 9ebd 2bca 343d ffeb 513e 120e 38bd
00000230: d65a ae3d fb17 11be 8c24 e13d 2ef4 363d
00000240: 10d8 8ebd 8f84 48be 8a2b 8bbd 8142 0a3d
00000250: 6edd 823e 46d4 e2bd 5cab 013e 88b6 fd3c
00000260: 8d80 a93d 2d5c 81bd b62e f2bc a8d8 1f3e
00000270: bb3e be3c 4304 323e b3ab 4bbd 79ee 1dbe
00000280: 9d57 bf3d b72a 573e 6c08 b63d c486 53bd
00000290: ea30 023e 4af2 0a3d 6c5c 35be 6d5c 473d
000002a0: 1ab2 163d 2db1 59be faaa f5bd c8b4 923d
000002b0: 91a7 4abe 73ff 2c3e 6949 5c3d 1c8b 3c3e
000002c0: df15 4bbe 160b a6bd 7a70 9f3c 1e54 d2bd
000002d0: dfbf 383e aa5e 2c3e 32cd 82bc b67f dbbc
000002e0: 6242 16be 3692 4e3d bb82 aebc 2d16 f0bd
000002f0: b79d 27be 5af6 423e 0202 0d3d f490 a1bc
00000300: 24b8 623e e1c2 f03d d3e1 3fbe a371 1bbe
00000310: bc18 9cbd bca3 513e c2ab b53d feef 793b
00000320: ab40 b6bd 1ef2 ba3d 1b3a cebc 5fea 7e3b
00000330: a624 27bc d44d 203c cc4e 1c3d 9456 f3bd
00000340: c36d afbd 2906 10be ddd3 cabc d139 f7bd
00000350: 3efd dd3d b5e5 123d 9608 f03d f6c2 b4bd
00000360: 7f9d b43c d11b 73be 9be0 173e 94cc e8bd
00000370: 9ee7 123d 80b8 9fb8 1d81 203d a491 94bd
00000380: 6c18 89bd 2eb4 713e aeec 623e 5b89 07be
00000390: b2cb 903d a96f 613c fd1d 323e ccae 0ebd
000003a0: 61fc 07be 399b dc3c 79cd 8f3c a9d5 3cbe
000003b0: 5107 e73d eb28 113e 2073 fb3d b1a0 163b
000003c0: 19c3 0b3d bbd4 85bb 389c 243d 1a29 c0bc
000003d0: 6b65 77bd d640 a23d fdcf f0bd b56b c2bd
000003e0: 9840 47be 4b7d 0abd a181 fdbd 24f8 043e
000003f0: d2fd 63bd 07be 24bd 7ddc b2bd 701c 3f3b
0.08359254 -0.07970837 0.19744347 -0.07604219 0.019179916 -0.17688352 0.16774465 -0.16622582
0.14433779 -0.1044098 -0.1656693 -0.17573509 -0.017489906 -0.061856963 0.070888735 -0.042020485
-0.017643236 -0.019735647 0.1389446 0.0107292235 0.01727534 -0.10023354 -0.010359781 0.1827785
-0.17607045 -0.070392065 0.16750158 0.037674587 0.1342533 0.07950618 0.014352654 0.13739635
0.0023069328 0.15806203 -0.09884779 0.051544085 0.04783285 -0.043594692 -0.13821499 0.07117984
0.12491538 -0.052182503 0.07648544 -0.21701989 -0.23361295 0.033474382 -0.023441644 0.12270108
-0.17076375 0.19165558 -0.17295718 0.11410904 0.00059629395 0.0740944 0.06596823 -0.019856421
-0.12607224 0.02582983 0.07096333 0.089121796 -0.1767805 -0.2137961 -0.06446877 -0.056891687
0.028842142 0.10454595 0.07320185 -0.15678826 -0.22166598 -0.16923687 0.018942904 0.15112199
-0.12029653 -0.03733 -0.07197054 -0.20449786 0.2401957 -0.048578914 0.13069797 0.0816442
0.11250284 0.025646705 -0.1350118 -0.20868465 0.0151372235 0.041647546 0.21912077 -0.1240986
0.08842728 -0.020297498 0.06014541 -0.034276247 0.089782655 0.01249287 -0.09382177 -0.06753079
-0.025791699 0.11624526 0.14533718 -0.07175026 -0.1662251 -0.04240773 0.23295344 0.2238718
0.08998099 -0.15581506 -0.28567538 0.19264486 -0.1905364 0.017821977 0.14108507 -0.039112136
0.098725975 0.05327533 0.0076382984 0.013544877 0.20421281 0.12964815 0.05592854 0.026675107
-0.072950795 0.022255784 0.077592984 -0.11667529 0.19833106 -0.07613952 -0.058689877 -0.1482723
-0.19442646 -0.057393815 0.08311821 0.17992605 0.05198534 0.1734154 0.046096526 -0.17718907
-0.077427275 0.044138115 0.20500182 -0.044935293 0.08513419 -0.14169304 0.10993299 0.04466646
-0.069748044 -0.19581817 -0.06795414 0.03375483 0.25559562 -0.11075644 0.12663025 0.030970827
0.08276472 -0.06316409 -0.02956329 0.15609992 0.023223272 0.17384438 -0.049724292 -0.15423001
0.09342883 0.21012388 0.08888325 -0.051642194 0.12713972 0.03392247 -0.17711037 0.04867213
0.036790945 -0.21258993 -0.11995502 0.071633875 -0.19790484 0.16894321 0.053780947 0.18412441
-0.19832562 -0.08107583 0.019462813 -0.1026995 0.18041943 0.16832986 -0.015966985 -0.026794296
-0.1467376 0.050432406 -0.021302572 -0.1172298 -0.16368757 0.19039288 0.034425743 -0.01972244
0.22140557 0.1175592 -0.18738489 -0.15180068 -0.07621905 0.20472616 0.08870651 0.0038137431
-0.08899053 0.091282114 -0.025174191 0.003889702 -0.010201609 0.009784181 0.038161084 -0.11881748
-0.08565857 -0.1406485 -0.024759227 -0.120715745 0.10839318 0.035863597 0.11720388 -0.08826248
0.022047756 -0.2374108 0.14831774 -0.11367145 0.03586542 -7.6160766e-05 0.039185632 -0.07254341
-0.06694111 0.2360389 0.22160599 -0.1323599 0.07070102 0.013759532 0.17394252 -0.034834668
-0.13279869 0.026929485 0.017554032 -0.1844088 0.11280692 0.14175765 0.12277818 0.0022983963
0.034121606 -0.0040841973 0.040188044 -0.023457099 -0.060399454 0.07922523 -0.117584206 -0.094932
-0.19458234 -0.033810895 -0.123782404 0.12985283 -0.055661984 -0.040220287 -0.08733461 0.0029161237

u_model.model.8.bias f4 [42]
00000000: cfee 70bd cdce 73bd ac9b 6d3d 7c45 bf3d
00000010: 52ce d6bc 5c0a 5c3c 04a7 8bbd 920c 07be
00000020: 59dc a43d 6321 05bc a9d4 dbbc eae6 0ebe
00000030: 9c6f 4dbd 2b4f 2cbe 74cc 11bd 2208 62bc
00000040: c871 003d ac9c 793d 4805 233e 91d2 21bd
00000050: 3448 c13d 4bd4 bb3d c628 d83d ad3e 61bd
00000060: f391 d83d d53b 383e 1461 d9bd 65dd 34be
00000070: 1630 82bd 9058 0e3e 18de 063e 8454 50be
00000080: 9565 a63d 15c7 04be 88a8 2b3e f936 91bc
00000090: 5bdc 103e 2c42 a5bd f7fc e5bd a455 00be
000000a0: d396 a83d 9680 fb3d
-0.058821496 -0.059523392 0.05800979 0.09339425 -0.026221428 0.013430204 -0.06818965 -0.13188389
0.080498405 -0.008125636 -0.026834803 -0.13955274 -0.050155267 -0.16827075 -0.035595372 -0.013795884
0.03135851 0.06094043 0.15919983 -0.039507452 0.094376 0.09171351 0.10554652 -0.054991413
0.105747126 0.17991574 -0.10614219 -0.1766258 -0.06356828 0.13900971 0.1317066 -0.2034474
0.08124844 -0.12966569 0.16763508 -0.017726408 0.14146559 -0.08069262 -0.1122989 -0.1253267
0.082318924 0.12280385

u_model.model.10.weight f4 [42, 42]
00000000: 5514 683d 3382 98be 521c 953e e838 78be
00000010: 6618 0abe ba23 843e cb8b 05be 5fa7 723d
00000020: d567 2abe 8aec 08be c0b1 933e 3912 c9bd
00000030: a576 2ebe 068f 043e 3e4f fb3d 8726 4e3c
00000040: 9fb0 c4bd 08ff b0bc efbf 983c 4fc1 12be
00000050: 3057 3bbe 9ffb 88be 5994 8a3e b8fd 79bd
00000060: cb21 c73c 142c 883d b7ed 653e 9948 803e
00000070: 7749 853e c489 fa3d c8e6 06b9 e713 f4bd
00000080: daaf f63b 0406 a3be abc8 113e d5b3 89be
00000090: 459d 33be eddd 49be 03e1 4ebe 3e11 84be
000000a0: 4436 093d eaff 94bd 572c e7bd 913a ae3d
000000b0: 33eb edbc 77c7 8dbd c717 053e 98cc f23c
000000c0: 9218 543e c15e 8fbd 417d 84bc 6f55 333e
000000d0: 2261 ea3d 8fce 59bd b725 12be 12c0 b8bd
000000e0: e498 c93d 4063 ff3d 1f95 2d3d f71c 183e
000000f0: 2524 15be fe58 113e bc2d 8bbd c1d0 9bbc
00000100: b2ab 1bbc a29d b13c 2c52 003e 3b47 17be
00000110: 4911 12be 6932 2b3e c29b f7bd 69d0 86bd
00000120: 2c24 143d 972b 573d 0030 0bbd 8053 58bd
00000130: 5996 c5bd 920d bcbd 6bf2 06bd f877 813c
00000140: 94c4 4b3e 29f0 803d 7929 5dbd 19fe fbbd
00000150: d606 913d 98bf 9f3d 6df6 883d 59cc 563d
00000160: 9d36 82bd b5b9 27bc 14d2 d43d 223a 253e
00000170: 53a5 3e3b 75f4 0fbd 7cbc 07bd ca5e eebd
00000180: d94c fc3d 34cb 9b3d 7ed1 0dbe 083d bd3b
00000190: 93be 443c 814d 29bd b269 f33d 8fc7 c6bd
000001a0: 9429 1f3e 1fbb efbd 95bc 85bd 8532 94bd
000001b0: 0842 8f3d 9838 99bd 1f68 1abd e086 3e3d
000001c0: 3288 043d b233 723d 356a d63d a143 9dbc
000001d0: 7ea8 c53c f401 8c3b e179 89bd 994c 923d
000001e0: caac 223e ce90 933d 1712 f93c 8ca2 763d
000001f0: f7ec c73d c36a 013e c368 f6bd cefa 593d
00000200: 3000 46bb 13c9 9b3d 8356 0dbe ff3e 933d
00000210: b269 32be aca7 813d 7364 2abe a3ab 33bd
00000220: c202 83bd eaff 66be 55a1 4dbd 9a91 5bbd
00000230: 6d7e 4cbe 04bb 2bbe 75ec e83c fbd3 44be
00000240: 6403 583d 8728 6dbe 5478 533e c1a9 e6bd
00000250: 06cd 6bbd 257a 033c 6b92 10bd 054f ab3b
00000260: 9fee bd3d 1ec7 c9bd 02e3 b7bd cfcd a23d
00000270: 1952 553e a1d9 113e 4db5 94bd d8a4 2b3c
00000280: d61e 30be b9ae 253d 0d0c d9bd c9e8 11bc
00000290: ca1a b6bd 4cb4 25bc 8322 c8bd c560 c73d
000002a0: ae42 4f3e d048 ddbc 7722 febd a0c0 e9bd
000002b0: 2eb4 3ebe b3ae 87bd c943 1dbe a930 4a3e
000002c0: 1e86 fbbd ddb7 bebd b405 92bd 04e4 ddbd
000002d0: f16d 9ebd 5f17 2f3c 1cb8 2b3e 68aa e7bd
000002e0: 336c 4bbe 71bf a13a 3763 33bd 36eb b1bd
000002f0: a63a a33d 8a94 20be 4459 2f3e 51cc 92bc
00000300: 5eeb 3e3d ba7d 2e3e 8e6a fb3d 0d72 fe3d
00000310: 980d 283c 78b3 953d 6466 8c3d de84 5f3d
00000320: c6bb 993d 252a e63d 5662 75bc c6b3 30be
00000330: 1d06 823c 7280 0fbe 0f5e 08be 2115 11be
00000340: 0c79 a8bc 5ded e43c 8967 93bd c67c 8f3c
00000350: f8fc 72be 45f5 9ebc f631 9d3c 7f68 c93d
00000360: eea1 7fbd 9a8c c23d 30b6 a83d d318 aa3d
00000370: 6942 e8bd b8f3 84bc 3300 02bd 8788 acbc
00000380: d1b5 18bd 7721 7abd cac4 42bd 4780 b4bc
00000390: 901a 113d 918d 14be e997 673d 34d1 803c
000003a0: 1d14 02bd ebbb 48bd 76f0 1dbe 1f77 a43d
000003b0: a0b0 14be 599c 083d 39b2 c43d 9026 5f3d
000003c0: a4f6 e33d b8d5 663e 6109 a73d beb0 6a3c
000003d0: 4a79 8fbe 7b18 54bd 651c 2dbd b8c8 08bd
000003e0: 31f5 5bbc 945a 03bd 7620 4cbd 4141 1bbe
000003f0: 9671 683d b23b 8c3d cfc3 d0bd 2c65 9a3d
0.056660015 -0.29786834 0.2912317 -0.24240458 -0.1348587 0.25808507 -0.13041608 0.05924165
-0.16641171 -0.13371482 0.2884655 -0.09817929 -0.17037447 0.12945184 0.122709736 0.012582428
-0.09604 -0.021605983 0.018646209 -0.14331554 -0.18294978 -0.26754472 0.27066305 -0.06103298
0.024308106 0.06649032 0.22453962 0.25055388 0.26032612 0.12233308 -0.00012865209 -0.119178586
0.0075282874 -0.31840527 0.14236705 -0.26895013 -0.17540462 -0.19713564 -0.20203023 -0.25794405
0.033499017 -0.07275374 -0.11287754 0.085072644 -0.029042816 -0.069228105 0.12997352 0.029638574
0.20712498 -0.07000495 -0.016173007 0.17513059 0.11444308 -0.053175505 -0.142722 -0.090210095
0.09843615 0.12470102 0.04237854 0.14854799 -0.1456457 0.14194104 -0.067958325 -0.01902044
-0.009501385 0.02168161 0.12531346 -0.14773266 -0.14264406 0.16718449 -0.12090255 -0.0658272
0.03616731 0.052531805 -0.033981323 -0.052814007 -0.09647817 -0.09182276 -0.03294603 0.015804276
0.19899207 0.06295807 -0.05399463 -0.12304325 0.07081382 0.078002155 0.06687627 0.052440975
-0.06358073 -0.010237147 0.10391632 0.16135457 0.002909024 -0.03514524 -0.033138737 -0.11639173
0.12319345 0.07607117 -0.13849446 0.0057750978 0.012008327 -0.04133368 0.11885394 -0.097060315
0.15543205 -0.117056124 -0.0653011 -0.07236198 0.06995016 -0.074814975 -0.037696954 0.046515346
0.03235645 0.05913133 0.10469476 -0.019197287 0.024128195 0.004272694 -0.067127 0.07143516
0.15886226 0.07205354 0.030404134 0.06021361 0.09761994 0.12638383 -0.120317005 0.0532177
-0.0030212514 0.07606711 -0.13802533 0.0718975 -0.17423132 0.06330809 -0.16639881 -0.043864857
-0.063970104 -0.22558561 -0.050202686 -0.053605653 -0.19970103 -0.1677056 0.028433064 -0.19221489
0.05273761 -0.23159991 0.2065137 -0.11262847 -0.057568572 0.008024727 -0.035295885 0.0052279257
0.09274029 -0.09852432 -0.08978845 0.07949411 0.20832099 0.14243175 -0.07261143 0.0104763135
-0.17199263 0.04044983 -0.10598002 -0.008905598 -0.08891828 -0.010113787 -0.097722076 0.09735254
0.2024028 -0.027012259 -0.124089174 -0.114136934 -0.1862342 -0.06625118 -0.15357889 0.19745125
-0.1228144 -0.09312413 -0.07129994 -0.10834506 -0.077358134 0.010686724 0.16769451 -0.11311799
-0.19865493 0.0012340379 -0.04379579 -0.08687441 0.07970171 -0.15681663 0.17123896 -0.017919691
0.046611182 0.17040148 0.12276183 0.12424097 0.010257147 0.073096216 0.06855467 0.05457007
0.07506518 0.11238507 -0.014977058 -0.17256078 0.015872056 -0.14013842 -0.1331713 -0.14168216
-0.020565532 0.027945215 -0.07197482 0.017515551 -0.23729312 -0.019404063 0.019188862 0.09834384
-0.062410288 0.09499474 0.082378745 0.08305516 -0.11340792 -0.016229495 -0.03173847 -0.021061195
-0.03728277 -0.06106707 -0.047550954 -0.022033824 0.035425723 -0.14507128 0.056541357 0.015724756
-0.031757463 -0.049007338 -0.1542376 0.08030533 -0.14520502 0.03335223 0.09604306 0.054480135
0.11131027 0.22542465 0.08156086 0.014324365 -0.28022224 -0.05178116 -0.042263407 -0.033394545
-0.013425157 -0.032068804 -0.049835645 -0.15161611 0.05674895 0.068473235 -0.101935975 0.07538828

u_model.model.10.bias f4 [42]
00000000: b446 ae3c 87f5 e73d 1724 e13d ba3a 313e
00000010: c6f9 093d b9c3 1d3e 5f1a 4cbd 6fb9 78bd
00000020: 96b9 aa3d 8024 9abd 6fdc b43a a17a 083e
00000030: 62e4 5ebc d3b2 973a 6f93 f8bd d343 0f3e
00000040: 382c d43b 3e8b 72bd bf65 263c 1411 2a3d
00000050: 2a5f a2bd 64b0 58ba b1b6 3f3d 92ba 0cbe
00000060: 16b8 023e 7ba8 86bd 1ffd 2cbd d63b a43d
00000070: 9b68 f4bd aa77 103e c704 9abd 675b 0e3d
00000080: 2bf6 8cbd 25e2 133c c7ee 33be 3bf8 9abd
00000090: 25d5 27be 8521 a5bd 7c8d cc3d fa92 c5bd
000000a0: be36 783d 2aa8 84bd
0.021273948 0.113261275 0.10993212 0.17307559 0.033685468 0.15406694 -0.049829837 -0.06072372
0.08336179 -0.07526493 0.0013798604 0.13328029 -0.013604255 0.001157368 -0.12137496 0.13990717
0.006474998 -0.059214823 0.010156094 0.041520193 -0.07928307 -0.00082660303 0.046805087 -0.13743046
0.12765536 -0.06575104 -0.042233583 0.08019225 -0.119340144 0.14108148 -0.075204425 0.034755137
-0.0688289 0.009026085 -0.17571555 -0.075668775 -0.16389902 -0.08063034 0.099879235 -0.09647174
0.06059908 -0.06477387
