saved_models/grid_sampling/sobol.pt (torch, 75945 bytes, 42 tensors)

u_model.W f4 [20, 2]
000000 0d df 31 be db 46 e9 bf 73 7a 47 3f b9 c7 81 bf
       -0.17370243 -1.8224748 0.7792122 -1.0139076
000010 f9 2e 62 3f 36 ee 20 3f de b3 81 be 5e fc 29 c0
       0.88352925 0.6286348 -0.2533254 -2.6560283
000020 1e f2 44 bf 23 bb 64 3f 55 6c ea 3e 38 da 79 3d
       -0.7693194 0.8934805 0.45785776 0.060999125
000030 fa af c2 3f 58 fe 68 3f 81 64 95 3e 22 39 78 be
       1.5209954 0.910131 0.2917824 -0.24240544
000040 28 cd 62 3d 3b bd fc bf 7f 95 c4 3f 80 d5 00 3f
       0.055371433 -1.9745249 1.5358123 0.50325775
000050 88 43 9e 3f eb f3 36 bf 33 01 85 3b 23 2a 01 3f
       1.2364359 -0.7146594 0.004058981 0.5045492
000060 ff f7 42 3f 50 11 db bf aa 9a a4 3f 52 49 9b bf
       0.7615966 -1.7114658 1.28597 -1.213175
000070 53 a6 a4 3e 18 1b 3d bf 5c fc 71 bd c4 9f 18 bf
       0.32158145 -0.73869467 -0.05907856 -0.59618783
000080 f0 84 b5 3c 9f ad 7a 3f 1c 9c b7 3e db 97 ec 3e
       0.022158116 0.97921175 0.3586129 0.46209607
000090 23 74 a0 3f 31 a5 3b 3f 39 6a f8 3e 7b ee cc bf
       1.2535442 0.7329894 0.4851854 -1.6010278

u_model.b f4 [20]
000000 2f 13 b4 40 90 36 ad 3f 78 8d 67 40 83 ba ca 3f
       5.6273417 1.3532276 3.6180096 1.5838169
000010 8d 73 bc 3f 3e fb 5d 3f 22 c7 7e 40 6b f6 17 3f
       1.4722763 0.8671149 3.980904 0.5936038
000020 f3 74 3e 40 07 c8 c7 40 67 9a bb 40 66 67 92 3d
       2.975888 6.2431674 5.862598 0.07148628
000030 d2 7f ab 40 48 53 75 40 e0 a5 b8 40 85 18 c1 3e
       5.359353 3.833208 5.7702484 0.3771402
000040 ed af 11 40 ce b2 fb 3f 54 fd bd 40 f5 b9 b0 40
       2.2763627 1.9663942 5.937174 5.5227

u_model.model.0.weight f4 [42, 42]
000000 df ac fd bc c4 3a 6b be 01 e8 08 3d b9 85 44 bd
       -0.03096622 -0.22971636 0.03342438 -0.04797909
000010 9c 6b 06 be ab 59 4e 3e 84 25 06 bd 52 3e 0a be
       -0.13126987 0.20151393 -0.03275062 -0.13500336
000020 60 d3 07 3c 15 d7 9c 3d 81 3b 71 3c de 0f 4c bd
       0.008290142 0.07658211 0.0147236595 -0.04981982
000030 11 11 20 3c 5a 68 bb bd 4a 90 4a 3d db d4 05 be
       0.009769694 -0.09150763 0.04945401 -0.13069479
000040 cc a5 ae 3d 6c 4a c1 3c 88 fc 6c 3d cd 04 cb 3d
       0.08527717 0.023595057 0.05785802 0.09913025
000050 db 70 9a 3c 13 19 ad 3d 83 91 71 3d c9 f7 3d bb
       0.018852642 0.08452048 0.05897666 -0.0028986803
000060 d4 78 f6 bd 36 19 41 3d a1 54 b3 3c 12 5e fe 39
       -0.12034765 0.047143184 0.02189094 0.00048516743
000070 95 b0 2e 3d fc 86 e9 3d 69 cd f3 bc 6a 3d 91 3c
       0.04264887 0.11402699 -0.029761033 0.01772948
000080 6c f7 95 3d 46 ff 35 3c 70 f3 6e bc 9e ea 0c 3d
       0.073225826 0.011108225 -0.014584407 0.034403436
000090 e3 3c c3 bd 03 c2 02 bd 08 c8 1f 3e b8 d0 c0 3d
       -0.095330976 -0.031923305 0.1560365 0.0941481
0000a0 97 c1 02 be 22 2b b3 3c 69 7c d1 3d 3a 8a 14 3e
       -0.12769161 0.021871153 0.102288075 0.14505854
0000b0 bd d5 b6 3d 1a 91 b1 bd cf 4d 1d 3d 34 60 39 3b
       0.08927486 -0.08670254 0.038404282 0.0028286101
0000c0 5a 5c 83 bc c0 64 bf 3c 15 1a 05 3d d0 00 9e bd
       -0.016035248 0.023363471 0.032495577 -0.07714999
0000d0 62 a7 48 bd 59 07 e5 b9 df 29 91 3d f7 95 86 bd
       -0.048987754 -0.00043683758 0.070880644 -0.06571572
0000e0 e4 f9 2a be 1e c3 e1 3d 8e c0 24 be 10 df b0 3d
       -0.16696888 0.11023544 -0.16089079 0.08636296
0000f0 88 8c e3 3d 0b cd d3 3c 5b 25 3b bb 26 97 8c bd
       0.111107886 0.025854608 -0.00285562 -0.06864767
000100 32 26 30 3d 68 68 3a be 2b dd a8 bc 05 d1 a6 bc
       0.043005176 -0.1820389 -0.020613274 -0.02036334
000110 6b 5e 1a be 44 17 bf bd 38 88 7c be e4 c7 9d bd
       -0.1507508 -0.093306094 -0.24661338 -0.07704142
000120 bb c0 71 bd ce e8 de 3d 23 94 cd bd 5e 38 81 bd
       -0.059021693 0.10884248 -0.100380205 -0.06309579
000130 75 8c 20 3e 27 e2 86 3d 0c 03 ee bd 3b 3f 86 bc
       0.1567858 0.06586104 -0.11621675 -0.016387573
000140 98 50 cc 3d 1a 07 2c bc e9 02 67 bc fc 93 a8 3d
       0.099763095 -0.01049974 -0.014099815 0.08231351
000150 bb 8a 50 3d 00 e1 ea bd 37 02 c4 bd 14 b6 75 bc
       0.050913554 -0.114686966 -0.09570735 -0.014997024
000160 c1 4e 18 be 87 58 9c 3e 32 2d 83 bd 01 f7 3d 3d
       -0.14873792 0.3053629 -0.06405105 0.04637814
000170 ba 2f 5b 3d ef bc 97 3d 47 79 04 be e5 52 c8 bd
       0.053512312 0.07409083 -0.12936889 -0.09781436
000180 6f a6 b6 bd 10 0f d2 bd d5 81 d6 3d 11 34 a4 bd
       -0.089184634 -0.10256779 0.10473982 -0.080177434
000190 2c 2c b4 bd 42 2b 22 bd 67 f0 85 3d 01 b3 27 3e
       -0.087974876 -0.039592035 0.06539994 0.16376878
0001a0 9e d8 a4 3d 7b ca d0 bd ec c0 36 be 10 16 1b 3d
       0.08049129 -0.1019487 -0.17847031 0.037862837
0001b0 20 36 10 3d a7 fa 28 3e 8a c4 6f bd 14 80 98 bd
       0.035207868 0.16501866 -0.058537044 -0.07446304
0001c0 d7 37 86 bd 1d 1b 1e 3e 5b bf af bd e1 39 c7 3b
       -0.06553619 0.1544003 -0.0858142 0.0060798978
0001d0 8d 01 1f 3e 70 b1 ae bd 84 5b a5 3c 23 18 fb 3c
       0.15527935 -0.08529937 0.02018524 0.030651158
0001e0 d7 38 35 3e 21 3d 38 3b c9 96 49 3e e3 c5 4c bc
       0.17697464 0.0028112608 0.19686426 -0.012498352
0001f0 08 6b 80 bd 6e 40 20 3e f0 4c 16 be c4 cd 7f 3d
       -0.062704146 0.15649578 -0.14677787 0.062452093
000200 4b 3f 8c 3d 26 bc 31 bd 20 a5 41 3e a4 f4 f7 bc
       0.0684801 -0.043392323 0.18910646 -0.03026802
000210 4b 85 00 be 07 15 33 3e ea 93 e8 3d 69 74 a1 3c
       -0.12550847 0.1748849 0.11356337 0.019708829
000220 63 95 19 3e 5d 82 eb bd d9 5f 8f 3d 73 a1 02 be
       0.14998393 -0.11499474 0.07000703 -0.127569
000230 b1 4a 67 3d 8f 3b c1 3c 15 00 7e bd 20 e8 1f 3e
       0.056467716 0.02358797 -0.062011797 0.15615892
000240 66 35 9b 3d 1e a8 1d be 58 c0 de bd 0d 6a cd bd
       0.07578544 -0.15396163 -0.108765304 -0.10029993
000250 1b 0c b6 3c 99 59 fc 3d 1a 1f e0 bd df 98 f4 3d
       0.02222257 0.12321777 -0.10943432 0.1194322
000260 54 19 01 bd 27 36 09 3e e7 9f db 3d 2d 48 3b be
       -0.031518295 0.13399564 0.10723858 -0.18289252
000270 38 c6 ed bd ff 2b a5 3d d0 95 15 be 11 72 29 3e
       -0.11610073 0.08065032 -0.1460793 0.16547419
000280 cf 15 35 be 11 b2 ba 3b 94 49 c1 3c 41 3c fc bc
       -0.176841 0.0056974967 0.023594655 -0.03079045
000290 f3 98 9e 3d 7a e7 1f be 36 fd 39 3c 2f 0f 1f be
       0.077440165 -0.15615645 0.011351874 -0.15533136
0002a0 7c 39 eb 3d e4 82 fe 3d 3c f0 6f bd 11 1c 3a 3d
       0.11485574 0.12427309 -0.058578715 0.045436922
0002b0 24 d3 81 bc 32 58 a4 be 86 e2 49 3d d3 36 0e 3e
       -0.01584775 -0.32098538 0.049288295 0.13888101
0002c0 87 62 b8 bd 9c 0a f7 3d ea f1 02 3e b3 5e 9c 3c
       -0.090031676 0.120625705 0.12787595 0.019088125
0002d0 fc 9a c8 3d 29 7f 77 bd 34 b6 b7 3d a0 9a 1f 3e
       0.09795186 -0.060424004 0.08970299 0.15586329
0002e0 fd 2e eb bd 13 d0 65 bd 7f d3 20 bd 55 5a 2e 3d
       -0.11483572 -0.05610664 -0.0392642 0.042566616
0002f0 41 56 f8 bd f5 08 1d 3e 0a e8 ae 3d 5f cc e1 bd
       -0.121258266 0.15335448 0.08540352 -0.11025309
000300 d9 cb f3 bd f0 58 8e 3d 3d c0 d7 3d 39 29 50 bd
       -0.11904115 0.06950557 0.105347134 -0.050820563
000310 e3 99 3c 3d be b6 1f 3d 63 e4 9f 3d 35 12 9c bd
       0.046045195 0.038992636 0.07807233 -0.0762066
000320 91 9c 00 be 87 27 04 3e b3 17 90 3d e7 44 65 3d
       -0.12559725 0.12905703 0.0703577 0.055973914
000330 94 60 ff bd 2c 93 18 be ae bd 16 be d2 d9 18 3e
       -0.12469593 -0.14899892 -0.14720795 0.14926842
000340 23 b0 00 3e 2c 88 7c 3d 2c 1f 3c bd f3 c6 58 3e
       0.12567191 0.0616533 -0.045928165 0.21169643
000350 44 2e e1 bc b6 bc 1a 3a 98 e7 59 bd 25 2b 63 be
       -0.027487881 0.0005902754 -0.05319938 -0.22184427
000360 2b 56 79 3b e0 2f e6 bd dd 0f 35 3d da 29 77 3d
       0.0038045745 -0.112396 0.04420458 0.060342647
000370 76 a7 db 3c 8a ba 13 3d 33 52 ae 3d 7d 40 a2 3d
       0.02681325 0.03606657 0.08511772 0.079224564
000380 a7 51 b4 bd df 7a 7a 3d 1f c4 39 bd a1 32 07 bd
       -0.088046364 0.061152335 -0.04535305 -0.033007268
000390 d6 b1 cb 3d 8d 28 c7 bd da 14 05 3d cb 0e b2 bd
       0.09946029 -0.09724531 0.03249059 -0.08694228
0003a0 8d 45 e4 bd bb fd b9 3d f1 a1 c8 3c 25 86 e1 3d
       -0.11146078 0.09081598 0.024491282 0.11011914
0003b0 fa dc 25 3d e5 17 96 bc 6e 46 86 3d b1 9f 75 bc
       0.040493943 -0.01832194 0.06556402 -0.014991687
0003c0 81 85 83 bd 96 46 cc 3c 0b 7e 68 3d f9 2d 13 3e
       -0.06421948 0.024936002 0.05676083 0.14373006
0003d0 ac 3b 9c 3d 8a 8d 63 ba 1b 86 c5 3d b5 7e a8 bd
       0.07628569 -0.0008680454 0.09644719 -0.082272924
0003e0 cb 80 07 be 60 5c ce 3d 17 8f 34 3c 9f 27 d7 bd
       -0.13232724 0.10076213 0.011020443 -0.10505604
0003f0 aa 57 24 3e 24 a4 86 ba cd f6 c3 3d 1f 4b 61 bd
       0.16049066 -0.0010272306 0.09568558 -0.05500328

u_model.model.0.bias f4 [42]
000000 7c c6 29 3d fe f9 97 3d b3 de ff bd ed ec 81 bb
       0.041449055 0.07420729 -0.124936484 -0.0039650113
000010 b8 8a a5 bd 6b e5 82 bd 09 89 12 3c 28 c0 f3 3d
       -0.08083099 -0.06391414 0.008943805 0.11901885
000020 2c a3 8a 3d d0 29 c3 bd dd 73 55 3d 61 a0 89 bd
       0.06769404 -0.095294595 0.05211245 -0.06720043
000030 7b d0 cd 3c 74 e7 ef bd 8f 68 04 bc f4 df cc bb
       0.025123825 -0.11714068 -0.008081569 -0.006252283
000040 8d f5 18 3e af 00 d2 bd b5 2f 84 bd 7f bd 8e 3d
       0.1493742 -0.10254037 -0.06454412 0.06969737
000050 d7 ae 73 bd 5c a1 db 3c 89 61 e3 3d ca ba 02 be
       -0.059492912 0.02681034 0.11102588 -0.12766567
000060 95 7a 17 be 19 2e 3f 3c f8 a6 40 bc a0 9d 61 3d
       -0.14792855 0.011668705 -0.011758558 0.055081964
000070 8f 0c 9c 3d c1 22 dd bd 4d 4c 0e 3e 06 8c 10 bd
       0.07619583 -0.107976444 0.13896294 -0.035289787
000080 23 8c b9 3d 95 72 03 be d6 d5 c5 3c 43 bf 98 3d
       0.09059932 -0.12836678 0.024149816 0.07458355
000090 08 05 78 3d 7c be 06 be bd 82 90 bd c6 c6 20 3c
       0.060551673 -0.13158602 -0.07056186 0.009813016
0000a0 05 fc 6a 3c ce d6 ba 3d
       0.014342313 0.09123002

u_model.model.2.weight f4 [42, 42]
000000 5c 81 8e ba 4c 51 3f 3e 40 b8 cc bc 75 8a e2 3c
       -0.0010872292 0.18683356 -0.024990201 0.027653912
000010 0f 70 12 3d e1 b6 83 3d 88 ce cb bd 24 35 f2 bd
       0.0357514 0.06431366 -0.09951502 -0.11826542
000020 8a 06 8c 3d 48 e7 2a bc 1d 1d ee bb 88 bb e2 3d
       0.06837185 -0.010431118 -0.007266654 0.11070925
000030 23 0a 0b 3e 11 c5 1f bd 65 a3 81 be e7 9a 57 be
       0.13578086 -0.039006297 -0.25319973 -0.21055184
000040 ce 74 5d bd 6e 7e c8 bd 9a c9 c9 3d 79 b2 4c bd
       -0.05406647 -0.097897395 0.098529056 -0.049974892
000050 59 66 c8 bd 5c 05 51 be d7 ee 7e 3d d0 09 a4 3d
       -0.09785146 -0.204122 0.062239494 0.08009684
000060 e0 33 c2 bd 7e 4c 4d be 00 b7 2b 3e e5 43 92 3d
       -0.094825506 -0.2004871 0.16769028 0.07141856
000070 ca d3 32 be da 53 8c bb 1a 43 01 bd ba fa 60 bc
       -0.17463604 -0.004282457 -0.031558134 -0.013731653
000080 f2 d8 4f bd f7 e6 3e be 59 b3 f4 3d bf 08 11 be
       -0.050744005 -0.18642794 0.1194827 -0.14163493
000090 24 35 44 bd 85 e8 85 bd 61 20 e0 bd 25 67 3c be
       -0.04790224 -0.0653849 -0.10943676 -0.18398722
0000a0 8e 52 01 be fa a7 ed 3c e7 39 99 3d 9d 94 65 bd
       -0.12629148 0.029010762 0.07481747 -0.05604993
0000b0 6e fb 68 3e 16 eb f7 bd ca 2b 2b be f0 6c 52 3d
       0.22752163 -0.12105386 -0.16715923 0.051373422
0000c0 21 02 8e bd d5 97 1e be fc 35 2a 3e 94 3f e7 bd
       -0.06934 -0.15487607 0.16622156 -0.112914234
0000d0 c1 6e d3 3d 64 18 23 3e 5f 62 27 be e4 e4 48 bd
       0.10323859 0.15927273 -0.1634612 -0.049046412
0000e0 22 2c d6 3d 29 dd 1f be c3 13 14 be a1 c5 47 3e
       0.104576364 -0.1561171 -0.14460663 0.19508983
0000f0 d2 fb 03 be cf 24 09 3d 12 e2 42 be d8 1d 20 be
       -0.1288903 0.03348237 -0.19031551 -0.15636384
000100 b2 ff a0 bd 4e 25 26 3e bc 49 c8 3d 08 4c b8 bd
       -0.0786127 0.16225168 0.09779689 -0.08998877
000110 f1 86 83 bd a1 9f 8e 3d 41 92 97 bd d6 ea 00 3e
       -0.064222224 0.069640405 -0.074009426 0.12589583
000120 d5 2e dc bd cc d9 d2 bd b0 36 1d 3e a9 2e 84 bc
       -0.1075112 -0.10295448 0.15352893 -0.01613553
000130 cf 46 e1 bc 56 05 d6 3c 10 55 01 3e 82 7b 7f 3c
       -0.027499584 0.026125591 0.12630105 0.015593411
000140 50 42 11 be 77 83 14 be e7 75 0e bc 39 26 eb bb
       -0.14185452 -0.14503275 -0.008695102 -0.0071761874
000150 e3 66 b3 bd 17 69 08 3d 8a 9b fa ba 37 ef 02 3e
       -0.087598585 0.033303346 -0.001911984 0.12786566
000160 51 f5 91 3d e3 eb de 3d 71 98 b0 3d 3b 59 16 bd
       0.071268685 0.108848356 0.08622826 -0.03670619
000170 04 11 d9 3d cd f4 f6 3d 57 1e ba 3d c5 f1 16 be
       0.105989486 0.12058411 0.09087818 -0.14740665
000180 f4 f9 52 bc 53 b8 cc bd 0b ec 40 bd f7 ec 17 3e
       -0.012876976 -0.099960946 -0.047100108 0.14836489
000190 00 6b 36 bd fd 76 ed bd b7 0a ae 3d 6f 6b 73 be
       -0.044535637 -0.11594961 0.084981374 -0.23771451
0001a0 0a 73 16 3e 88 4b 20 be 1b b2 e6 bc 8f 43 20 be
       0.14692321 -0.15653813 -0.0281611 -0.15650772
0001b0 a1 48 e9 bd eb 16 f6 3d 78 9c 57 bc 80 a1 8d 3d
       -0.11390806 0.1201609 -0.013159864 0.06915569
0001c0 90 a6 4d bd ab 80 8b 3d bb 76 7d 3d 7a 31 48 3d
       -0.050207675 0.06811651 0.06188081 0.04887531
0001d0 4e e3 eb 3c bf 35 23 be 92 d1 10 be 63 62 f6 3d
       0.02879491 -0.15938471 -0.14142445 0.120304845
0001e0 8e c4 34 be 1d 42 83 3d eb 50 7b 3e 53 ec c9 3c
       -0.17653105 0.064090945 0.24542587 0.024648821
0001f0 ae 82 89 bd 0d ec 90 bd 40 31 05 be 00 c3 9b 3d
       -0.06714378 -0.07076273 -0.13007069 0.07605553
000200 8c a7 69 bd bf a9 30 be ef ff ba bb f7 78 f1 3c
       -0.05704455 -0.17252253 -0.005706779 0.029476626
000210 1a e3 0b 3e 19 c9 e7 3c 0c 5e 4d bc f9 fe 86 be
       0.13660851 0.028294133 -0.01253463 -0.26366404
000220 e6 99 f5 bd 8c 19 0b 3e f0 bd ab 3d 83 d2 9c bd
       -0.119922444 0.13583964 0.08385837 -0.076573394
000230 7f dd 2a 3d 57 ba 2d be a0 52 62 bd bc 5c 9c 3e
       0.04171514 -0.16965614 -0.05525458 0.305395
000240 3e 49 89 bc ff 68 12 3e eb ac ba 3d b1 78 97 3d
       -0.016758557 0.14297865 0.09115013 0.07396067
000250 bc f3 3b bd 05 30 3f be 39 6a 3d bc d6 c3 1d be
       -0.04588674 -0.18670662 -0.01156097 -0.15406737
000260 26 81 3b 3e 3f c8 83 be 49 ca 3a be 9b d4 51 3d
       0.18310985 -0.25738713 -0.18241228 0.051228147
000270 c0 70 b4 bc 45 d4 71 be 0b ef 62 3e 6d bb c3 bd
       -0.02202642 -0.2361613 0.221615 -0.09557233
000280 91 15 ec 3d 8a b0 3e 3d ae 03 34 3e b2 1a a0 bd
       0.11527551 0.04655508 0.17579529 -0.07817592
000290 33 d4 96 be f5 e5 6a 3c 32 3e 00 3e 02 c3 09 bd
       -0.2945877 0.014337053 0.12523726 -0.03363324
0002a0 d5 31 19 be b1 87 76 3e 04 b5 b8 3d 00 8e 37 be
       -0.14960416 0.240752 0.09018901 -0.17925262
0002b0 9b cb f1 bc bb 5a a2 3d 3a dd c3 3d 49 04 18 3e
       -0.029516032 0.07927462 0.0956368 0.14845385
0002c0 f3 07 14 bc 67 b9 15 be 42 05 75 be 69 c8 15 be
       -0.009035098 -0.14621507 -0.23927787 -0.14627232
0002d0 b2 89 68 3e 80 f1 32 3b 8f 5f 2e 3e b7 7a 85 be
       0.22708777 0.002730459 0.1702864 -0.26070186
0002e0 46 7b 19 3e b0 f8 0f 3e 64 fb 33 3e 40 6e 19 3e
       0.14988431 0.1405971 0.17576367 0.14983463
0002f0 ec 19 9c bd a1 7f 14 3e 0b 2e 31 bd b8 c3 d8 3c
       -0.07622132 0.14501812 -0.0432568 0.026460513
000300 d3 0b 9b bd 9d fb 3e be 0c 8e d4 3d 30 26 46 bc
       -0.07570615 -0.1865067 0.10378656 -0.012094066
000310 fa ff b3 ba 42 a0 4f be 3a 7c dc 3d 7a a4 84 bc
       -0.0013732903 -0.20275977 0.10765882 -0.01619171
000320 d6 55 98 3d 44 ca 1a 3d e3 64 42 bd 15 eb 02 3e
       0.07438247 0.03779055 -0.047459494 0.12784989
000330 23 52 b0 bd 51 27 ab 3d b8 09 24 be 90 e6 65 3d
       -0.08609416 0.083571084 -0.16019332 0.056128085
000340 80 2b 34 3e 01 2a 20 3e bb 63 85 3d e1 45 30 3e
       0.17594719 0.15641023 0.06513163 0.17214157
000350 cd a9 9c bd 84 d2 e2 bd fe f6 fc bd b3 77 c0 3d
       -0.076495744 -0.11075309 -0.123517975 0.09397831
000360 67 ad 86 3d 43 1f e8 bd bf e4 f3 3d f5 aa bf 3c
       0.065760426 -0.11334088 0.11908864 0.023396948
000370 4f 64 2e be e0 0d 0a 3d 2f 3a 1f bd 48 24 f5 bd
       -0.17030452 0.03370464 -0.038873848 -0.11969811
000380 86 c6 c1 bc 4b 46 94 3a 1c a3 1b be f4 d2 26 3e
       -0.023654234 0.0011312453 -0.1519894 0.1629141
000390 a6 d6 e4 3c 14 6f a4 bc 2e 16 87 be 70 8a 08 bd
       0.027934384 -0.020072497 -0.2638411 -0.03333515
0003a0 8f 23 6b 3d 33 d4 33 bd be b6 bb bd 4d a5 0b bd
       0.05740696 -0.04390354 -0.09165715 -0.03409319
0003b0 0b 2b 9e 3d fc f8 3d 3e 88 f0 6b bd f5 e2 0b 3d
       0.077230535 0.18552011 -0.057602435 0.03415199
0003c0 70 23 01 be d0 7b f6 bd d9 1a cf 3d ae 2d 15 be
       -0.12611175 -0.12035334 0.10112543 -0.14568207
0003d0 74 43 c5 3d 0c e4 16 3d 43 65 de 3c 39 b6 15 be
       0.09632006 0.036838576 0.027147895 -0.14620294
0003e0 52 4d 3e be 1f c3 f6 bd 33 22 bd bb fe bb 6e 3d
       -0.18584183 -0.12048935 -0.005771899 0.058284752
0003f0 ec 74 bf 3d dd 75 4c 3d bc b7 cd bd d0 37 2b 3d
       0.09348473 0.04991709 -0.1004481 0.041801274

u_model.model.2.bias f4 [42]
000000 43 b4 d1 3d 8a c0 08 3e 39 34 ba bd 6b 36 f1 bd
       0.1023946 0.13354698 -0.09091992 -0.117779575
000010 d2 30 3d bd 96 f8 87 bc b2 86 2a bd 1b cc 30 3d
       -0.046189137 -0.016598027 -0.04163236 0.0431634
000020 a7 08 cf 3d 65 e5 d2 3d 63 79 9d 3d 27 e3 b4 3c
       0.10109072 0.1029766 0.07689168 0.02208097
000030 06 a9 80 bd ab c4 59 bd 59 01 45 bd bd 0e f6 3d
       -0.06282239 -0.053166073 -0.04809699 0.1201453
000040 bd 78 c2 bc b0 1e f3 3d 8b 34 a1 3d 3e eb ff bc
       -0.023739213 0.118710876 0.0787135 -0.031240102
000050 53 2b c5 3d 14 18 ff 3d e2 57 00 3d 32 a1 d5 3d
       0.09627404 0.124557644 0.03133381 0.10431136
000060 ae 1e e6 bd 73 69 f1 3d 99 af fd 3d b6 ca 03 3d
       -0.112363204 0.11787691 0.12387008 0.032175742
000070 2f ad 0f be 1a 14 8a bd 5e 80 d5 bd c5 6f d6 3d
       -0.14030908 -0.06742115 -0.10424875 0.10470537
000080 5d 66 d4 3d ca 12 09 3d 12 a9 f0 3c d4 2d b9 bd
       0.10371087 0.033465184 0.029377494 -0.09041944
000090 40 34 e3 3d 43 b7 26 3d 57 82 ee bc b5 f0 20 be
       0.1109395 0.040702116 -0.029114885 -0.15716822
0000a0 a8 42 a8 3d 9b 71 12 bd
       0.08215839 -0.035752874

u_model.model.4.weight f4 [42, 42]
000000 bb 5b 38 bd 6e 66 65 be d8 b2 8d 3c a6 12 be 3d
       -0.045009356 -0.22402355 0.017297193 0.09280901
000010 2e 64 30 3c 1e e6 7c bd db bd 1e 3d f7 d9 9d 3d
       0.010766072 -0.061742894 0.03875528 0.07707589
000020 73 3b c3 bd 78 48 38 3d 2a 9d e1 3c 0a a2 5a be
       -0.095328234 0.044990987 0.027540762 -0.21350875
000030 40 2e 35 bd a9 f9 48 bc 47 4d b5 bd 71 0a 1a bd
       -0.04423356 -0.012266555 -0.0885263 -0.037607614
000040 5f 12 05 be f9 a5 8d bd 1b 2b 04 3e 6c c5 7c 3d
       -0.1299529 -0.069164224 0.12907068 0.061711714
000050 6b f8 4e 3d 09 e4 a8 3c b2 b4 95 3c 07 b1 5a 3c
       0.05052988 0.020616548 0.018274639 0.013347871
000060 f4 14 71 3d eb ba 86 3a e2 07 38 3d 7a a1 b2 bd
       0.058857873 0.0010279095 0.044929393 -0.087222055
000070 30 5e 29 3d 3c 25 13 3e d7 75 86 3c e6 68 5a 3d
       0.04134959 0.14369673 0.016413612 0.053322695
000080 2c f1 33 3e de 77 bc bd cb c0 b4 3d b4 6f 31 be
       0.17572469 -0.0920255 0.08825835 -0.17327768
000090 c8 2d 21 be 08 f6 1d be 68 40 1c be a0 d4 13 be
       -0.1574012 -0.15425885 -0.15258944 -0.14436579
0000a0 b5 71 0d 3e ca a9 f1 bd 56 f8 b8 3d bf 58 a7 bd
       0.13812907 -0.11799963 0.09031741 -0.08171224
0000b0 5e 7b 1b 3e f9 f2 d7 bb 36 87 3f 3b e3 a1 15 3e
       0.1518378 -0.006590244 0.002922488 0.14612536
0000c0 0e 53 5f bd b1 09 81 bd 0e 64 ee bd ed da df bc
       -0.054522566 -0.063006766 -0.11640178 -0.027326072
0000d0 d0 3c bc bd 4a aa 68 3e 4a d5 04 3e 48 7f 2f 3d
       -0.091912866 0.2272121 0.12971988 0.042845994
0000e0 00 19 dc bd 8c 09 ba 3d a7 00 10 3e 9d 38 0d be
       -0.10746956 0.09083852 0.14062749 -0.13791128
0000f0 a2 4a 01 3e 67 d4 47 be 59 3b c6 bc 19 10 3c 3e
       0.12626126 -0.19514619 -0.024198221 0.18365516
000100 32 46 e9 bd b9 d3 2a 3d 27 89 02 3d 83 16 4f 3e
       -0.11390342 0.04170582 0.03186908 0.20223431
000110 bb 49 9b bb 6e 62 a4 bd 47 12 23 be 1b f0 35 bd
       -0.004739014 -0.080265865 -0.15924941 -0.044418436
000120 b4 90 52 3d 96 65 b7 bd b9 0c d8 3b 54 0b 81 3d
       0.05140753 -0.08954923 0.0065933135 0.06300989
000130 25 18 13 be 4e bc a0 3d 85 37 52 3d 69 72 30 bd
       -0.14364679 0.07848416 0.05132248 -0.04307786
000140 81 3d a2 3d c7 8e cc bc 44 6a 95 bd 2f 3e 10 be
       0.07921887 -0.024970425 -0.07295659 -0.14086221
000150 a4 24 e5 3d 3a 2f 48 3d 5f 16 98 3d 21 02 46 3e
       0.11188629 0.048873164 0.07426142 0.1933675
000160 de f0 a8 3d 1b 0f 3a 3e c0 fe 27 be 0f 88 be bc
       0.08249067 0.18169825 -0.16405773 -0.023258237
000170 e4 05 b2 3d 55 3e 29 3c 47 f3 5e be 85 5e 84 bd
       0.0869253 0.0103298025 -0.2177249 -0.06463341
000180 1a c5 a8 3d 21 58 b6 bd fb e9 0e bd a9 a2 c7 3d
       0.08240719 -0.08903528 -0.03489111 0.09747822
000190 8b cc 27 bd 15 03 05 be 1c 51 c7 bd 89 87 e9 3d
       -0.04096655 -0.12989457 -0.09732267 0.114028044
0001a0 bc cc fe bd 2d 2c 07 3e 08 7a a2 be f1 c8 3d 3d
       -0.12441394 0.13200445 -0.31733727 0.04633421
0001b0 63 ae 89 bd 82 ed a9 3d bf b5 ad 3d 02 ed 9c bc
       -0.06722715 0.08297254 0.08481931 -0.019155983
0001c0 0d 46 ca ba 56 81 a2 bd e7 b3 86 be a5 e7 0a be
       -0.0015432254 -0.07934825 -0.2630913 -0.13564928
0001d0 dd 10 42 be e3 ff 26 3e e1 8d 71 3d e9 ba 0b 3e
       -0.18951745 0.1630855 0.058973197 0.1364552
0001e0 9c 34 22 bb bd a8 2b 3e 00 74 32 3d 95 67 87 3d
       -0.0024750596 0.16763587 0.043567657 0.066115536
0001f0 fa 12 a0 3c dd 03 f4 3a 35 b7 2e 3e e1 af 3f 3e
       0.019540299 0.0018616874 0.17062075 0.18719436
000200 42 0f 5b bc a9 7f 71 3e dd e9 a6 3e c1 03 97 3e
       -0.013370337 0.23583855 0.326003 0.29495052
000210 6c da 43 3e d7 3f 3c 3e 9e 96 6d bd e2 a1 c5 3d
       0.1912629 0.18383728 -0.058004968 0.09650017
000220 d3 42 0f be 84 99 1b bd 65 b4 1b be 07 a9 7c bd
       -0.13990335 -0.0379882 -0.15205534 -0.061684635
000230 c7 b4 86 bc 72 c5 27 3e 3e f8 22 bd 45 43 2c 3e
       -0.016443623 0.16383913 -0.039787523 0.16822536
000240 bc f4 14 bb db 82 b3 3e 3f 91 b0 3d 63 e2 b4 3d
       -0.002272888 0.35060772 0.086214535 0.08832242
000250 33 07 16 bd 51 12 e7 bd 0d 1b e1 bd a0 9f 89 bc
       -0.03662796 -0.112827905 -0.10991488 -0.016799748
000260 dc 3b 2f 3d 9f 91 af 3e 07 28 c0 3d 2d 56 a2 be
       0.042781696 0.34290788 0.093826346 -0.31706372
000270 47 a4 32 be e2 83 1a 3c c5 ea 50 be f3 aa f0 3d
       -0.1744548 0.009430857 -0.20402057 0.11751356
000280 cf d2 14 3e e7 60 42 bc 70 40 71 3d 81 9e 86 3d
       0.14533542 -0.011863924 0.058899343 0.06573201
000290 a3 c0 de bd 5b 4e 3a 3e 40 df 3a 3c 8f dd 20 3e
       -0.10876586 0.18193953 0.011405766 0.15709518
0002a0 16 94 f7 3d 65 3c eb bd 71 09 d6 3d 6e 91 40 3d
       0.12088792 -0.11486129 0.104510196 0.047013693
0002b0 b7 d7 ac 3c 8e 7b 19 3e 38 bd 28 3d ad 4c db bd
       0.021098955 0.14988539 0.041196078 -0.10707984
0002c0 c3 51 f1 3d 8f 1e 66 3e c5 00 aa bb 9c e6 bf 3d
       0.11783173 0.22472595 -0.00518808 0.09370157
0002d0 18 3c 69 3d 53 f8 4e be fb d9 9d 3e 01 08 51 bd
       0.056942075 -0.20211916 0.30830368 -0.051033024
0002e0 c0 62 a7 bd 6a dd db bc 01 78 27 be e4 50 84 bd
       -0.08173132 -0.026838977 -0.16354372 -0.06460741
0002f0 a1 05 da bd 4b 4d 2f 3e 7a bf 91 be 38 21 3a 3d
       -0.10645605 0.17119329 -0.28466398 0.045441836
000300 8a 27 81 bd 3b 35 8b 3e 7b 91 e1 bd 9d 2b 76 be
       -0.063063696 0.2718905 -0.11014076 -0.24040075
000310 12 37 82 3d 6a a3 e5 3d 53 47 48 be b3 57 f6 bd
       0.0635816 0.112128094 -0.19558458 -0.12028446
000320 61 01 91 bd 0b 2b 87 bc 25 90 a6 3d fe 0e ae 3d
       -0.07080341 -0.016500017 0.08132962 0.08498953
000330 87 0e 30 be a6 3c c4 bd 2e f6 7c 3d 13 56 a4 bc
       -0.17193042 -0.0958188 0.061758213 -0.020060575
000340 4e bc 99 3e 06 40 bf bd 02 4e 78 3d 1b e7 6d be
       0.30026478 -0.093383834 0.06062127 -0.23232691
000350 a1 7b 17 36 9d 57 25 bd c8 56 96 bd 2d 92 bf bc
       2.2572715e-06 -0.040366758 -0.07340771 -0.023385132
000360 62 fb 0f 3e 1d 08 07 be e9 ce 60 bd 0b a7 c7 bd
       0.14060739 -0.13186689 -0.054884825 -0.09748658
000370 75 81 bf 3d ce 87 5f be 26 d7 f9 3d 28 a3 3e 3c
       0.09350864 -0.21829149 0.121992394 0.011635579
000380 fa ba ff 3c f7 18 f3 bd 3d 0c 0e be 0a 73 57 bd
       0.031217087 -0.11869996 -0.13871856 -0.052599944
000390 cd ec 65 bc 80 6a 16 3e 51 25 be bd a2 a9 ad 3d
       -0.0140335085 0.14689064 -0.09284461 0.084796205
0003a0 ba c9 f6 3d 48 3b ab 3d a8 5e 7d bd 4d ae 41 bd
       0.12050195 0.083609164 -0.06185785 -0.047285367
0003b0 20 35 de 3d 2c 92 85 bd ea 14 f6 3a b6 7c 13 3c
       0.108499765 -0.06522021 0.0018774543 0.009001901
0003c0 14 f1 32 3e b8 c8 23 3e e1 43 59 bb c8 02 ff bd
       0.17474777 0.15994537 -0.0033152031 -0.12451702
0003d0 43 8a 3e be ec f6 d0 3c 3c ee 01 be 38 09 2e be
       -0.1860743 0.025508367 -0.12688535 -0.16995704
0003e0 54 1e a6 3d 5c e1 d2 39 98 d3 44 3e 5e 06 5a 3d
       0.081112534 0.00040222227 0.19221342 0.05322873
0003f0 d5 c3 d3 3d 50 19 52 be b4 e9 90 bc 94 82 ab bd
       0.10340086 -0.20517468 -0.017689563 -0.08374515

u_model.model.4.bias f4 [42]
000000 77 d2 00 3e 62 02 21 3d 3f 5f dc 3d 78 44 9d bd
       0.12580286 0.039308913 0.10760354 -0.07679075
000010 07 e0 8a 3d c8 fc 0f be c7 e8 4f be 9d b9 39 bd
       0.06781011 -0.14061272 -0.20303641 -0.04534303
000020 d1 b5 00 3e ac b8 8d 3c 42 d5 ff bd 36 c5 ac bd
       0.12569357 0.017299972 -0.124918476 -0.084360525
000030 34 82 d9 3d 89 72 e2 3d b4 e7 ac bd 7e 4f ed bd
       0.106205374 0.11057002 -0.08442631 -0.115874276
000040 7d e0 0d 3d 0f 48 b1 bd 47 35 8f 3c 89 7d 52 bd
       0.034637917 -0.08656322 0.01748146 -0.05138925
000050 1e cd 65 3d cd 57 08 3d b0 3e e3 3d 58 9d ff 3a
       0.056103818 0.03328686 0.11095941 0.0019501848
000060 07 9f 1f be cd 2c 33 be d8 9d 19 be 4c 2c ca bd
       -0.15588008 -0.17497559 -0.15001619 -0.0987173
000070 ec d0 7d 3d 5c 33 a2 3d 67 32 54 3d 94 22 ae 3d
       0.06196682 0.07919952 0.05180588 0.08502689
000080 c9 4a 94 bd 4a 98 17 bd 22 79 9d 3d 8c d2 4b 3d
       -0.07240827 -0.03701047 0.0768912 0.04976134
000090 b1 cc c7 3d 20 d1 f1 bd 50 a9 0f 3e 72 da f1 3b
       0.09755839 -0.118074656 0.14029431 0.007380777
0000a0 50 7c 14 be c1 51 93 bd
       -0.14500546 -0.07193328

u_model.model.6.weight f4 [42, 42]
000000 99 25 08 3e 20 4e c9 38 83 4a 08 3d a6 bd 0a 3e
       0.13295592 9.598979e-05 0.033274185 0.13548908
000010 c6 07 4f 3e ab 65 25 3e 46 78 d4 bc c5 e9 2e be
       0.20217809 0.16152065 -0.025936257 -0.17081363
000020 96 59 33 bd bc 69 7b bb 76 58 d8 3b d2 71 07 be
       -0.043786608 -0.0038362583 0.0066023422 -0.13227013
000030 59 ca 92 3d ed a3 0c be 52 dd 31 bd 36 39 93 3d
       0.07167501 -0.13734408 -0.043423958 0.071886465
000040 b1 e2 d2 3c 30 51 de 3c 97 8d 4f be 38 c5 70 be
       0.02574286 0.027138323 -0.20268856 -0.23512733
000050 b5 48 15 bd dc 52 33 bd 15 ff 65 3d f3 7b ba bd
       -0.036446292 -0.043780193 0.05615147 -0.09105673
000060 a1 73 90 3d c3 7d 83 3b 86 b7 03 3e d3 87 48 be
       0.070533045 0.0040127947 0.12862977 -0.19583063
000070 e9 de 12 be d9 0a 29 3e 3e b6 aa bc 88 3b 33 3e
       -0.14342846 0.16508044 -0.020838853 0.17503178
000080 99 e5 70 bd 8d 16 66 3e c7 fc 2a 3e 1f c2 01 3e
       -0.05881271 0.2246954 0.1669799 0.12671708
000090 bd ad 87 bd 65 5b 8f be 58 7f 6c bd 14 96 17 3d
       -0.06624935 -0.27999416 -0.057738632 0.03700836
0000a0 98 b3 8c bd ba 97 21 be dc 50 1b 3e 18 00 cf bd
       -0.06870192 -0.15780535 0.15167564 -0.1010744
0000b0 91 7e b5 bd c1 67 ac 39 16 99 d5 bd 2d 70 d9 bd
       -0.08862031 0.000328837 -0.104295895 -0.10617099
0000c0 f6 14 1c be fd 61 a6 3d b9 36 eb 3c 3e a8 3a be
       -0.15242371 0.081241585 0.028712617 -0.18228242
0000d0 26 da 35 bd 13 d9 da 3c 5e 42 e6 bd 4e 74 bc 3d
       -0.044397496 0.026714837 -0.11243127 0.09201871
0000e0 3b 56 e4 3c 65 54 8d bd 99 d5 d8 bd 6b d8 35 be
       0.02787315 -0.069008626 -0.105876155 -0.17758338
0000f0 fc 65 ed bd c7 1c a8 3d 1a 3d 0d 3e 11 66 e2 bd
       -0.115917176 0.08208614 0.1379284 -0.11054624
000100 e1 a2 83 3d 44 a1 0a be be ef d5 3d 67 14 aa bd
       0.06427551 -0.1353808 0.10446118 -0.08304673
000110 cf 91 35 3c b7 8d 3a bb 06 7e 15 be 24 f9 80 3c
       0.011082127 -0.0028465816 -0.14598855 0.0157438
000120 26 f8 cc bd 30 38 8b bd 62 c2 d8 bd 80 fa 8c 3d
       -0.10008268 -0.06797826 -0.105839506 0.068837166
000130 47 43 7d bd 6c 51 98 bd 3b 1c 24 3e 46 ac e6 bd
       -0.06183174 -0.07437405 0.16026394 -0.11263327
000140 8e f1 e5 3d 4c 08 51 3e a4 1c 1e be 0b b9 ff bd
       0.112277135 0.20413321 -0.15440613 -0.12486466
000150 ca d2 0c 3b 11 0c f8 bd 8a b9 6a be 13 51 20 be
       0.0021487945 -0.121116765 -0.2292234 -0.15655927
000160 0b 9d 28 be b5 86 ae 3c 9f 9d d9 bd d9 b2 d8 bd
       -0.16466157 0.021304468 -0.10625767 -0.105809875
000170 e1 fc 3c be f8 1f 2c be 71 c3 7d 3e 79 2e 7f 3b
       -0.1845584 -0.1680907 0.24781586 0.0038937612
000180 d7 df 83 3d a6 40 de bd d3 b4 7c 3d af bc e8 bd
       0.064391784 -0.108521745 0.061695885 -0.113641135
000190 2b 54 2e bc b4 53 97 3d 71 07 86 bd bc 65 05 3d
       -0.010640184 0.07389012 -0.06544388 0.032567725
0001a0 f0 59 03 3e 3e ce 1d be 9c 3d 90 3d 3c 26 35 be
       0.12827277 -0.15410706 0.07043001 -0.17690367
0001b0 f7 e1 b7 bd 79 ba 00 be a4 89 c3 3d fa 9b 9c bd
       -0.08978646 -0.12571134 0.09547737 -0.07646938
0001c0 21 b1 8d be b3 08 e1 3a 91 62 08 be 87 63 cc 3d
       -0.276742 0.001716873 -0.1331885 0.09979921
0001d0 6e f7 73 3d c7 99 ae 3d 1f 6b 3f bd 0f 33 1b bd
       0.05956214 0.085254245 -0.046733018 -0.03789049
0001e0 3f 41 a2 bd 4e 44 38 3b 97 47 18 3c c2 c8 0a 3e
       -0.07922601 0.0028116885 0.009294412 0.13553146
0001f0 f4 b2 98 3b 94 a5 91 bc c2 f8 8c 3d 91 a2 f2 3d
       0.0046600047 -0.01777915 0.06883384 0.11847413
000200 e3 cd 53 3e 74 fc eb bd a9 bf 12 3f e0 2b 64 3e
       0.20684008 -0.11522761 0.573237 0.22282362
000210 f2 a5 94 3c 8e 94 cf 3c fc 0a 80 bd a5 8e a0 be
       0.018145535 0.025339391 -0.06252095 -0.3135883
000220 62 0b 4a 3e 79 37 71 bf ee 47 c6 bd ca 3e 95 3e
       0.19730905 -0.9422527 -0.09681688 0.29149467
000230 aa ac 88 be da aa bc 3d 1d 61 18 3f 1d 2a 6a 3e
       -0.26694232 0.09212275 0.59523183 0.22867627
000240 77 64 15 bf 2f b4 83 be b6 ce 18 be 02 ce 59 be
       -0.5835642 -0.25723407 -0.14922604 -0.21269992
000250 9c fc c0 3d 2e 0f b2 bd 3c 4a 45 bd 34 34 4a be
       0.094231814 -0.086943015 -0.0481665 -0.19746476
000260 05 34 ad 3d 97 46 52 be ce c8 7f 3e a2 a0 b9 be
       0.084571876 -0.2053474 0.24978945 -0.36255366
000270 79 e4 62 be a4 77 fa bd d5 52 59 bd f0 b1 b0 3d
       -0.22157468 -0.12229851 -0.05305751 0.08627689
000280 7c bb 83 3e f5 2e 11 3e 32 27 64 3d 03 31 13 bf
       0.25728977 0.14178069 0.055701442 -0.5749666
000290 c0 db 45 3e a8 4b e9 3e 4f ca 8e 3b 25 04 12 3e
       0.19322109 0.45565534 0.004357613 0.14259394
0002a0 af bc 47 3e a4 a6 dd bd c8 cf 7c 3a fe 58 d6 3d
       0.19505571 -0.108228 0.0009643999 0.10466193
0002b0 c7 95 57 be 58 08 94 3d 28 9d 4c 3c fe 48 8f bd
       -0.2105323 0.07228154 0.012488641 -0.06996344
0002c0 bc 81 41 be d9 d1 fb bc 2b be 27 3e b3 cf 5c bd
       -0.18897146 -0.030739712 0.16381137 -0.053909015
0002d0 04 56 97 bc c4 90 51 be 5b b8 e8 3a b2 45 c2 3d
       -0.018473633 -0.2046538 0.0017755138 0.094859496
0002e0 36 89 03 bc 57 65 d6 bd 3e a4 e6 bd fc 0c 38 be
       -0.008028319 -0.10468548 -0.112617955 -0.17973703
0002f0 39 66 e1 3d 72 7d b0 3d 9c 4a 2e 3e e2 a3 5c be
       0.110058255 0.08617677 0.17020649 -0.21546891
000300 34 76 22 3e 12 49 18 3d 7a d4 66 3d 66 40 59 be
       0.15865403 0.03717906 0.056354977 -0.21215972
000310 24 7d 05 be db 71 04 bc bf c6 1a bd b3 8d ba 3d
       -0.13036019 -0.008083786 -0.037787195 0.09109058
000320 bd ac 70 be 60 1b 3a 3e 16 5c c7 3d 75 a7 f4 3d
       -0.23503394 0.18174505 0.09734361 0.119460024
000330 4a 22 55 3b 54 c7 85 3d 6b d6 d7 bd 0e 35 aa bd
       0.0032521659 0.065321594 -0.10538944 -0.08310901
000340 51 70 17 3e a4 b6 27 be 71 e1 43 be 09 64 fc 3b
       0.14788939 -0.16378266 -0.19128968 0.007702355
000350 b8 80 37 be 8c 93 95 3d bd f1 20 bc 89 94 b3 3d
       -0.17920196 0.07303533 -0.00982326 0.08768565
000360 c9 eb a6 bd 34 b5 d2 bd 98 5c 48 bd 48 bd 54 3d
       -0.08150441 -0.10288468 -0.04891643 0.051938325
000370 31 6c a2 3d 51 3e 77 3e 8a 14 1c 3e 9b bc 4a 3d
       0.07930792 0.24144866 0.1524221 0.049496274
000380 6d 7e 5c 3e 15 a9 07 3c ec 01 0f be 95 15 0e 3e
       0.21532603 0.008280058 -0.13965577 0.1387542
000390 0b 2a 26 3e d0 5e 6c 3e 5e 6b ae 3d f2 a3 28 3e
       0.16226976 0.23083043 0.085165724 0.1646879
0003a0 a3 b5 2a be 61 c5 46 3e 13 43 b9 bd 5c 25 91 3d
       -0.16670851 0.19411232 -0.090459965 0.07087204
0003b0 ca fe 2b be 6e 9a 38 3e d3 db 6e 3c 49 e2 08 3d
       -0.16796413 0.1802766 0.014578777 0.033418927
0003c0 64 df 26 3e 16 49 91 bd 96 b2 eb 3d a6 cc dd bd
       0.16296154 -0.07094018 0.11508672 -0.10830049
0003d0 8f 9f 56 3d de 5b 4d be f9 64 a0 3d a5 ca 42 3e
       0.05239826 -0.20054576 0.07831759 0.19022615
0003e0 fa 9e df bd f0 bc df bd 55 c4 c1 bc 0e 86 8f 3d
       -0.10918994 -0.10924709 -0.023653189 0.07007991
0003f0 29 69 85 3d 46 3e f9 3d c3 1c e1 3d 94 ad 14 bd
       0.06514198 0.12170081 0.10991814 -0.03629835

u_model.model.6.bias f4 [42]
000000 d1 10 9e 3d 5a 21 2d 3d cc 8c 93 bd e1 95 4f 3d
       0.07718051 0.042268135 -0.07204589 0.050680045
000010 98 66 0d 3e 1a 01 66 bd 98 9b 00 3e ec 65 81 3d
       0.13808668 -0.056153394 0.12559354 0.06318268
000020 61 48 9b 3c c0 f5 1c 3e 08 3f 6e bd 3b 66 a6 3d
       0.018955411 0.15328121 -0.05816558 0.08124968
000030 b6 5b 94 bd d3 7f 15 3d 45 5f f4 3d 91 57 56 bc
       -0.07244055 0.036498856 0.11932234 -0.013082401
000040 5b c0 1b be 98 8d 8d bd c8 0a a5 bb 4f ea ad 3d
       -0.15210097 -0.069117725 -0.0050366856 0.084919564
000050 2f 49 7c 3d 93 e5 2b bd 59 89 07 3e 6d 02 f1 3d
       0.06159323 -0.041966986 0.13235988 0.11768041
000060 cf e4 1a be 33 7f be bd 9e 0e 41 3d f8 91 d1 3d
       -0.15126346 -0.09301605 0.04713308 0.102329195
000070 d7 c0 26 3d e5 35 05 3e 84 fa 61 bd 1a 18 2e bd
       0.04071125 0.1300884 -0.05517055 -0.042503454
000080 d1 6d 04 be 24 a7 93 3d 09 77 d6 bd f7 db e2 3d
       -0.12932517 0.07209614 -0.10471923 0.11077111
000090 51 cd 0e be 3f 24 ee 3d 53 7f 42 3d 12 f9 d2 bd
       -0.1394551 0.11628007 0.047484707 -0.10301413
0000a0 38 27 7c bd 97 5c 31 3d
       -0.06156084 0.04330119

u_model.model.8.weight f4 [42, 42]
000000 76 74 ae 3e da c9 e4 3d c6 7b e9 be 1e 34 2f bc
       0.34073228 0.11171313 -0.45602244 -0.010693578
000010 89 12 0c 3e 30 f8 33 be 35 6c 03 3f 43 83 16 3e
       0.13678946 -0.17575145 0.51336986 0.1469851
000020 f6 50 9d 3e 86 cb 4d be f7 c3 a5 3e b1 2b b2 be
       0.3072583 -0.2009717 0.32376072 -0.3479896
000030 ca f2 04 bf fa 59 1d 3e 0c 60 0c bf ac 81 bd 3e
       -0.51932967 0.15366355 -0.54834056 0.37012994
000040 f7 de 9d 3e d9 ff 4b 3c 33 80 b5 be a2 d3 1a 3f
       0.3083417 0.012451136 -0.3544937 0.60479176
000050 5d 0c 2e 3e 4f 19 c3 3d cc 7e a6 bc da 67 02 3f
       0.16996904 0.095263116 -0.020324133 0.50939715
000060 c8 5c a8 3e d6 a5 de be 4a d5 10 be c9 fb 2d bd
       0.32883286 -0.43485898 -0.14143863 -0.04247645
000070 f2 90 f3 3e 9f 86 9f 3e 53 53 99 be 4c d6 1f 3e
       0.47571522 0.31157395 -0.29946384 0.15609092
000080 f6 c0 5d 3e 72 18 12 3f 5f 87 6d 3e 1b 0b 26 be
       0.2165564 0.5706855 0.23196171 -0.16215174
000090 c5 26 89 3e 04 91 82 bd af f5 7d 3e 5c 0b 59 bd
       0.2678739 -0.06375316 0.24800752 -0.05298935
0000a0 9b 02 e6 3d d9 b4 b1 3e c1 80 0d bd cd 05 b5 bc
       0.11230966 0.34708288 -0.034546617 -0.022097493
0000b0 3c de 34 be 9f 52 5d 3d 36 ed 99 bc e6 4f e5 3b
       -0.176629 0.05403387 -0.018789869 0.00699805
0000c0 c0 a2 48 3e 50 ff 02 3e a4 49 26 be 9c b3 52 be
       0.19593334 0.12792706 -0.16239029 -0.20576328
0000d0 2e 57 b7 3d 70 a4 46 be ea 04 ea bd 65 bd 81 3d
       0.08952175 -0.19398665 -0.114267185 0.06334952
0000e0 be 99 00 be a0 32 48 3c 8a d6 08 be 3e 44 88 bd
       -0.12558648 0.012219101 -0.1336309 -0.06653641
0000f0 d3 7f ff bc f9 05 13 bc 51 d8 b2 bc 78 9d a9 3c
       -0.031188881 -0.008973592 -0.021831663 0.02070497
000100 66 c1 56 bc 7f 9d ab 3d 27 c1 e1 3d 41 99 98 3d
       -0.013107633 0.08379649 0.11023169 0.07451106
000110 f2 8c 30 bd b0 43 01 3e 5f d6 8a 3e 32 33 aa 3d
       -0.043103166 0.12623477 0.27116677 0.08310546
000120 1a df 8a bd ad 2c 0c 3e 87 9f 26 3e 7c 86 38 bc
       -0.067808345 0.13688917 0.16271792 -0.011262532
000130 dd e2 35 bd 15 25 f4 3d 36 ed fd 3d 23 53 42 3d
       -0.044405807 0.11921135 0.1239876 0.047442567
000140 e3 67 4c 3d f7 46 11 3d 27 0c e2 bd b5 21 2c bd
       0.04990376 0.035468068 -0.11037474 -0.042024333
000150 fb de a2 bc 9e bf 8d bd c9 d5 21 be 8b 8e 2f be
       -0.019881716 -0.06921314 -0.15804209 -0.1714422
000160 1f 13 33 bd ad 40 60 3c 5d 0c a2 bc b9 a2 c4 bc
       -0.043719407 0.013687295 -0.019781286 -0.024003373
000170 75 5b dd 3d d8 14 ae bd 4e a2 9c bd ec 60 42 3d
       0.1080846 -0.085000694 -0.07648145 0.047455713
000180 a4 8e dc bd d2 83 67 bd cd c5 c5 bd 61 ac 1c 3d
       -0.10769394 -0.056522198 -0.09656868 0.03825033
000190 d4 e2 b4 3d 45 e2 be 3c 7c 42 a2 3d 49 60 ba bd
       0.088323265 0.023301253 0.07922837 -0.09100396
0001a0 ed 52 fa bd 29 d4 02 3e c5 d5 95 3d 9d 26 31 be
       -0.12222848 0.12776245 0.07316164 -0.17299886
0001b0 3f 74 4b bd 66 99 00 3d fd f4 99 3d 28 68 db bd
       -0.049671408 0.031396292 0.07517431 -0.107132256
0001c0 96 0a 6b be 37 84 0b 3e 38 3a dd bd 1a f7 ca ba
       -0.22953257 0.13624655 -0.1080212 -0.0015485019
0001d0 52 74 27 bc d8 9a 68 be 2b 82 23 bd b2 b4 9c bd
       -0.010220604 -0.22715318 -0.03991906 -0.076516524
0001e0 83 b1 c4 3d c6 d7 60 3c 32 0b 25 3e e0 ad 86 3d
       0.0960417 0.013723319 0.16117552 0.06576133
0001f0 dd da 3e 3c 7e 64 0b be 69 4d 69 bd 36 d3 01 bd
       0.011648861 -0.13612553 -0.05695859 -0.031695567
000200 e6 7f 7a 3e 75 8b e5 bd c2 c7 be 3d 54 bf d5 bd
       0.24462852 -0.1120824 0.093154445 -0.104368836
000210 22 3a 35 be 09 49 35 be e6 de 99 be 91 c3 e3 bd
       -0.17697957 -0.17703642 -0.3005287 -0.11121286
000220 e4 74 10 3d 85 85 24 be 35 cf 1a 3e 4c ce 9c be
       0.035267726 -0.16066559 0.15118106 -0.30626142
000230 0e e1 a7 3e 3a 7e 0c 3e e1 2d df 3d 5b d0 3d 3d
       0.3278889 0.13720027 0.108974226 0.04634128
000240 9a ff d5 3d 1f ff a9 bd b9 dc 43 be 61 98 91 3e
       0.10449143 -0.083006136 -0.19127168 0.28436568
000250 fc ef cb bd 8f 24 52 be c6 16 dd 3d ca 1c 00 3e
       -0.09957883 -0.20521758 0.10795359 0.12510982
000260 77 1f 0a be 11 7e e5 bd 82 d6 11 3d cf 8f aa be
       -0.13488565 -0.11205686 0.03560496 -0.33312842
000270 cf 42 ad 3d e0 62 7f 3e f7 e7 d2 3d ec ed ed bd
       0.08460008 0.24940062 0.1029815 -0.116176456
000280 bc 61 4f bd 2d 35 07 be ae 4b d2 bd fa 92 78 3b
       -0.050630316 -0.13203879 -0.10268341 0.0037929402
000290 13 90 03 be 53 0d 58 be f0 d3 6b 3d bd da 1a be
       -0.12847929 -0.21098833 0.057575166 -0.15122505
0002a0 c1 70 0a be 17 34 eb 3c b2 c5 95 3c cb dd 29 bd
       -0.13519575 0.028711362 0.018282745 -0.041471284
0002b0 8b 6b 1b bd 87 42 3d 3e d3 4d 24 3b 45 5c 37 bc
       -0.037944358 0.1848241 0.00250708 -0.011191432
0002c0 2a e0 52 3e 47 41 01 be 90 fc 54 3d e9 59 91 3d
       0.20593324 -0.12622558 0.051998675 0.07097227
0002d0 ca 9d 5b be 9e 27 94 3d 95 f7 7d be 8c 11 08 be
       -0.2144691 0.07234119 -0.24801476 -0.13287944
0002e0 0c 1b 04 3e 78 55 9c 3c 22 c9 75 3d 4a fa 36 3e
       0.12900943 0.019083723 0.06000627 0.17868915
0002f0 f3 7f 8c 3d 76 96 04 bd 4a d0 9c bd b2 c0 ad 3d
       0.06860342 -0.032370053 -0.076569155 0.08484019
000300 02 b5 bb 3d bf 19 16 be 20 53 f8 3d 83 3c d8 bd
       0.09165384 -0.14658259 0.1212523 -0.10558417
000310 29 7a 92 3d ac 43 d2 3c 15 64 3a 3d 45 2d 8b 3d
       0.071522065 0.025667034 0.045505602 0.06795744
000320 72 73 fe 3c 39 ef d7 bd ef 99 68 3e 85 e6 02 3e
       0.031060908 -0.10543675 0.22714971 0.12783249
000330 54 41 f4 3d 93 76 ef bd df be fe 3d 57 4a 27 3e
       0.11926523 -0.11692538 0.124387495 0.16336952
000340 ac 72 cc bd 23 42 cf 3d ad 4f 77 3e 84 51 f7 bd
       -0.099828094 0.101200365 0.24151488 -0.12076095
000350 74 38 87 3d 7a 89 15 3d 74 8b 07 3e 68 be 9f bd
       0.066025645 0.03650806 0.13236791 -0.07799989
000360 b6 bc b8 3d 8b 89 c6 3d d1 a0 c7 bb 55 4d a1 be
       0.09020369 0.09694203 -0.006092169 -0.31504312
000370 d7 75 c0 3d 21 64 e4 bd d9 4d d4 bd 8b 7a 46 3e
       0.09397476 -0.111519106 -0.10366411 0.19382684
000380 37 2e b8 bd aa 71 8c 3e 64 21 56 3e 54 76 d9 bb
       -0.0899319 0.2743047 0.20911175 -0.0066364203
000390 b5 09 a3 be c7 76 39 3e e6 b7 8a bc 45 31 2c 3b
       -0.31843343 0.18111716 -0.016933393 0.0026274484
0003a0 0f 1c 2e be 44 4f 9e 3d 6e 38 93 3d 4c f4 32 be
       -0.17002891 0.077299625 0.071884975 -0.17476004
0003b0 8d ef 72 3d 48 b5 45 be b8 16 ce 3d 30 25 19 3e
       0.059310485 -0.19307435 0.10062927 0.14955592
0003c0 88 64 6e be 32 2f 5e 3e e5 f2 27 3e 8b ee 32 3e
       -0.23280537 0.21697691 0.1640125 0.1747381
0003d0 27 ef a9 bd c8 67 a2 be b1 41 a4 3d 66 8e b8 bd
       -0.08297568 -0.31719804 0.08020342 -0.09011535
0003e0 b9 42 12 be 09 0f 13 be 7e f4 3c 3e 43 fd 32 3e
       -0.14283265 -0.14361204 0.18452641 0.17479424
0003f0 79 f7 53 be 48 97 d0 bd 76 0c 7d be 85 de 81 be
       -0.20699872 -0.101851046 -0.24711785 -0.2536508

u_model.model.8.bias f4 [42]
000000 a1 c0 58 bc b8 f0 66 bd 9f a9 c8 bd eb f5 15 bd
       -0.01322952 -0.05638191 -0.09797978 -0.03661148
000010 9c 69 5d bd 88 2a 14 bd 45 10 ed bd 5c 7c 18 be
       -0.054055795 -0.036173373 -0.11575369 -0.1489119
000020 de b0 f6 3d 88 f9 d9 bd 0f 7c e1 bc 1e 8c 1f 3d
       0.120454535 -0.106432974 -0.027524976 0.038951986
000030 fb 55 99 3d 9b b1 41 3d 71 f7 b5 bd 4c cc b3 3c
       0.074871026 0.04728852 -0.08885086 0.021948002
000040 ed ba 1d bd b8 bb 36 3d 35 6a 26 bc 4e ce f2 3d
       -0.038508344 0.044612616 -0.010157158 0.11855756
000050 9f c6 ad 3d db f6 45 3e aa 9b 24 be e6 c3 d1 bd
       0.084851496 0.19332449 -0.16075006 -0.10242443
000060 8a a4 94 bd 79 4d ec 3c 89 c1 90 3c a6 76 f4 3d
       -0.07257946 0.028845536 0.01767041 0.11936693
000070 a3 0f 8f 3c 8f 5a a3 bc c0 c8 d2 bd d6 a3 d1 3c
       0.01746351 -0.019940643 -0.10292196 0.025590818
000080 c5 71 96 3d dc 4f 93 bd fe 7b 2f 3e 0d a8 35 be
       0.073459186 -0.07192966 0.17137143 -0.17739888
000090 c7 f8 36 bd c5 6a 5a be 11 6d 9e bd 18 b4 3d bd
       -0.044670846 -0.21329792 -0.077356465 -0.04631433
0000a0 5e db 2f 3d 8d 0a 03 be
       0.042933814 -0.12796994

u_model.model.10.weight f4 [42, 42]
000000 68 d5 83 3d be 2e ac bc c9 5b 8b bd 93 04 0e 3e
       0.064371884 -0.021018382 -0.06804616 0.13868932
000010 cd c5 38 be 92 61 18 bd b1 a5 5f be 83 25 62 be
       -0.18044205 -0.037202425 -0.2184055 -0.22084622
000020 8c 76 13 be 7e 07 05 3e 84 a1 e2 bc 7e 01 ce bd
       -0.14400691 0.1299114 -0.027664907 -0.10058878
000030 46 7b c2 3d 8d a2 21 bd 1e 76 3a 3b 54 09 e6 bd
       0.09496169 -0.03946166 0.002845175 -0.11232248
000040 d6 c9 f1 3d c9 2e ae 3d 5e 5a f5 bd e5 6a 58 3e
       0.11806075 0.08505017 -0.11980127 0.21134527
000050 ef e3 1d bd d6 61 88 bd c5 a0 74 3e 2d 11 83 bd
       -0.038547453 -0.06659286 0.23889454 -0.063997604
000060 0c 6a 25 3e a6 30 c4 3d 21 ac 1a 3d fb 33 4e bd
       0.16153735 0.095795915 0.03776181 -0.05034254
000070 47 22 b0 3d 9e e1 b3 bd 71 8f a9 bb fc 41 ae 3d
       0.08600288 -0.087832674 -0.0051745703 0.08508679
000080 4c 7d 22 3d 1c da 98 3c 12 e2 d0 3d 1d d9 86 bd
       0.039670274 0.01865869 0.101993695 -0.0658438
000090 6f 15 40 bd eb a9 17 3d 8e 9e c6 bb 89 af 12 3d
       -0.04689544 0.03702728 -0.0060613817 0.035811935
0000a0 c6 20 f8 bd 99 ac 81 bd a9 9c 1f be 37 fb 09 be
       -0.12115626 -0.063317485 -0.15587105 -0.13474737
0000b0 13 cc 7e bd 67 15 1d 3e 10 80 0f be d2 76 6c bd
       -0.06220634 0.15340196 -0.14013696 -0.057730503
0000c0 37 59 7f 3d 5e ec 36 bd 5a 57 50 bd 0e cd 9d bd
       0.06234094 -0.04465901 -0.050864555 -0.07705127
0000d0 9f 0a 90 3d 36 58 c5 3c 6b 1d 84 bd ef 04 bf 3d
       0.07033276 0.024089914 -0.064509235 0.09327113
0000e0 66 03 8c 3d 32 1f d6 3d a7 86 1f be d4 ed 08 bb
       0.06836586 0.10455169 -0.1557871 -0.002089371
0000f0 4d 4a 12 be 70 4e bc 3c 15 02 9d bd 38 f0 2b 3d
       -0.14286156 0.02298662 -0.07666413 0.041977137
000100 80 75 9c 3d 56 9a 78 bc 99 88 11 3e f3 c5 34 3e
       0.07639599 -0.015173515 0.14212264 0.17653637
000110 5a 66 29 3e d1 c2 ce 3d 67 ed da 3d 8d ff bd bd
       0.1654295 0.10095752 0.10689812 -0.09277258
000120 21 bf ae 3d 9d 33 ab bd 15 53 af bd ac 06 fb 3d
       0.08532549 -0.08359454 -0.085607685 0.12257132
000130 fb 3b 2e 3c ec b2 54 bc ef 4b 60 bb 27 d9 d4 3d
       0.010634418 -0.012982111 -0.0034224947 0.10392981
000140 cc 62 29 bd 71 74 ef bd 1d 40 20 bd 2c 63 01 be
       -0.041353986 -0.11692131 -0.039123643 -0.12635487
000150 22 7a 03 3e 18 96 85 bd d6 8b 23 3e 4f c8 b9 3d
       0.12839559 -0.06522769 0.15971312 0.09071409
000160 df 78 dc 3c 2d 41 34 bc 5f b1 29 3d 06 f3 0d 3d
       0.026913105 -0.011001867 0.04142892 0.034655593
000170 e7 bb b3 bd 6f cd 6e be 75 64 2c bd 81 24 a9 bd
       -0.08776074 -0.23320554 -0.04208799 -0.08258916
000180 45 d6 58 be 2c 2c 90 bd 85 28 f8 bd b0 9d 95 3c
       -0.21175487 -0.07039675 -0.121171035 0.018263668
000190 39 29 72 bc 0c 12 d3 bd e6 cb 0a 3e 68 a4 30 3d
       -0.014780336 -0.103061765 0.13554344 0.04312554
0001a0 04 86 22 3d 4e b3 a7 bd a1 f2 07 be 21 6c 5b 3e
       0.03967859 -0.081884965 -0.1327615 0.21427967
0001b0 17 59 34 3d 18 24 16 be 78 78 d8 3c 25 93 db 3d
       0.044030275 -0.14662206 0.026424631 0.10721425
0001c0 59 b6 c3 3d c5 c6 ce 3d e4 24 54 bd 70 c6 a2 3a
       0.095562644 0.10096506 -0.051792994 0.0012418758
0001d0 85 84 67 3e d1 d6 db bd 0f 6f b0 bc c0 37 ef 3d
       0.22609146 -0.10734332 -0.021537332 0.11680555
0001e0 a3 f2 46 3d 98 e3 09 3e 3f b6 88 3d ff 02 3c 3d
       0.04857124 0.13465726 0.06675386 0.045901295
0001f0 5b 38 4e 3e 0b ff 04 be 58 ea cb be 90 73 8c bd
       0.20138685 -0.12987916 -0.39827228 -0.06857979
000200 a3 2c e3 3d 66 96 25 be 3a 63 e6 bd 61 19 f9 be
       0.11092498 -0.16170654 -0.11249395 -0.48652175
000210 60 c1 ba bd 20 a4 e4 bd 45 bc 8a be 5c e5 1f bd
       -0.091189146 -0.11164117 -0.27096763 -0.039037094
000220 4f 92 06 bf 40 fc 30 3d d4 7f 1a be 81 3e 14 bf
       -0.52567 0.043209314 -0.15087825 -0.57907873
000230 ce e4 1b 3f 66 5c 92 3e 8e b5 4b be 61 1a 7b be
       0.60896003 0.2858612 -0.19893476 -0.24521782
000240 6e a8 50 be af 5a c8 3d 44 2b ce be 94 71 9f be
       -0.20376751 0.097829215 -0.40267384 -0.3114134
000250 33 23 5f bd 41 a4 c8 3c f5 1f 8b be cb a4 49 be
       -0.054476928 0.024492385 -0.2717282 -0.1969177
000260 34 7c 1c be 51 bd be 3d 96 23 e9 bc fc 85 ae 3e
       -0.15281755 0.09313453 -0.028459352 0.34086597
000270 e9 95 71 bb ac c1 02 bd 44 81 3a 3e 18 d8 cb bd
       -0.0036863035 -0.03192298 0.18213373 -0.09953326
000280 9b 17 41 bd fd 76 a1 be 50 d2 9f 3e 23 08 8d be
       -0.047141653 -0.31536093 0.31215143 -0.2754527
000290 e8 29 0b 3d b6 c5 f0 38 14 a4 54 be 9a fc 04 bf
       0.03397551 0.00011480918 -0.20765716 -0.5194794
0002a0 5e cb 3f be c4 4d 54 bc 88 1c 88 3d a2 3c 27 bd
       -0.18729922 -0.012957994 0.06646067 -0.04082931
0002b0 20 b3 62 be 7c 1f 93 be aa 81 7a be 26 c6 9a bc
       -0.22138643 -0.28734958 -0.24463525 -0.018893313
0002c0 05 d1 80 3c c3 53 04 3e 37 f8 70 be 1b eb af bd
       0.015724668 0.12922578 -0.23532186 -0.08589765
0002d0 eb 5b 4d 3e 3a f5 4f be 3a 47 58 3e cf cb 46 3d
       0.20054595 -0.2030839 0.21120921 0.04853421
0002e0 50 b9 78 be a9 4d 32 bc b0 c5 27 be b5 ae 0c 3c
       -0.24289441 -0.010882773 -0.16384006 0.008586575
0002f0 af 5b 8c bd b5 13 2b bc 63 af ff 3d 48 ea 2a 3e
       -0.06853425 -0.01044171 0.12484624 0.16690934
000300 26 44 37 3e ea d1 82 3c 04 4a db 3d 52 2f ba 3d
       0.1789709 0.015969235 0.10707477 0.09091057
000310 58 1c 8c 3d 9e ce 02 3e d6 18 66 3e 6f 09 10 be
       0.06841344 0.1277413 0.22470412 -0.14066099
000320 ff b6 74 bd bc 5f a5 bd 32 92 f3 3d 9c 79 ed 3c
       -0.05974483 -0.080749005 0.11893119 0.028988652
000330 f8 9d b4 bd a7 45 7a be be a4 a2 3d 46 14 11 be
       -0.08819193 -0.24440633 0.07941578 -0.1416789
000340 c8 ba 8e bc 71 19 0e be 6a b5 07 be 05 e3 b3 bd
       -0.017423049 -0.13876893 -0.13252798 -0.08783535
000350 93 62 a8 bd 52 bd 8f bc f2 a9 95 bd 53 f8 2b bd
       -0.082219265 -0.01754633 -0.07307805 -0.041984867
000360 f4 f0 b3 3d 7f 87 10 3e 23 de c8 3c 2a c2 98 3d
       0.087861925 0.14114188 0.024519986 0.07458909
000370 75 1d 1c 3c f0 cb dc 3d 79 8a 0c be 20 85 8d 3d
       0.0095285075 0.107810855 -0.13724698 0.06910157
000380 66 33 e8 3c de 86 95 3c 3a e8 28 be 56 24 f2 bc
       0.028344821 0.018252786 -0.16494837 -0.029558342
000390 24 84 00 bc 19 2c ba 3d 46 35 b7 bc 82 c2 e3 3c
       -0.007844005 0.09090442 -0.02236427 0.02780271
0003a0 a0 52 95 bc ac 6d e8 3b c5 5b 0e be 22 f0 d1 3d
       -0.018227875 0.007093152 -0.13902195 0.1025088
0003b0 ee e3 0d be 8d 6e 1f be 25 fd 1c be 4f 14 9d bd
       -0.1385648 -0.15569516 -0.15330942 -0.07669889
0003c0 9d e8 e1 bd 34 e3 36 be 23 cd ea 3d 10 bb 24 bd
       -0.110306956 -0.17860109 0.11464908 -0.04021746
0003d0 fd a2 b5 bd 35 e6 a5 bd f5 40 58 39 02 48 25 bc
       -0.08868978 -0.08100549 0.00020623564 -0.010087969
0003e0 0a dd 02 3e 6d 2a a9 3c 22 40 2a 3d 3c bd 17 3d
       0.12779632 0.020650113 0.041565068 0.037045702
0003f0 4d 24 b9 3d 66 e1 32 be dc 91 36 be 26 a7 65 bc
       0.09040127 -0.17468795 -0.17829078 -0.014016902
