saved_models/grid_sampling/sobol.pt (torch, 76009 bytes, 42 tensors)

u_model.W f4 [20, 2]
00000000: 0ddf 31be db46 e9bf 737a 473f b9c7 81bf
00000010: f92e 623f 36ee 203f deb3 81be 5efc 29c0
00000020: 1ef2 44bf 23bb 643f 556c ea3e 38da 793d
00000030: faaf c23f 58fe 683f 8164 953e 2239 78be
00000040: 28cd 623d 3bbd fcbf 7f95 c43f 80d5 003f
00000050: 8843 9e3f ebf3 36bf 3301 853b 232a 013f
00000060: fff7 423f 5011 dbbf aa9a a43f 5249 9bbf
00000070: 53a6 a43e 181b 3dbf 5cfc 71bd c49f 18bf
00000080: f084 b53c 9fad 7a3f 1c9c b73e db97 ec3e
00000090: 2374 a03f 31a5 3b3f 396a f83e 7bee ccbf
-0.17370243 -1.8224748 0.7792122 -1.0139076 0.88352925 0.6286348 -0.2533254 -2.6560283
-0.7693194 0.8934805 0.45785776 0.060999125 1.5209954 0.910131 0.2917824 -0.24240544
0.055371433 -1.9745249 1.5358123 0.50325775 1.2364359 -0.7146594 0.004058981 0.5045492
0.7615966 -1.7114658 1.28597 -1.213175 0.32158145 -0.73869467 -0.05907856 -0.59618783
0.022158116 0.97921175 0.3586129 0.46209607 1.2535442 0.7329894 0.4851854 -1.6010278

u_model.b f4 [20]
00000000: 2f13 b440 9036 ad3f 788d 6740 83ba ca3f
00000010: 8d73 bc3f 3efb 5d3f 22c7 7e40 6bf6 173f
00000020: f374 3e40 07c8 c740 679a bb40 6667 923d
00000030: d27f ab40 4853 7540 e0a5 b840 8518 c13e
00000040: edaf 1140 ceb2 fb3f 54fd bd40 f5b9 b040
5.6273417 1.3532276 3.6180096 1.5838169 1.4722763 0.8671149 3.980904 0.5936038
2.975888 6.2431674 5.862598 0.07148628 5.359353 3.833208 5.7702484 0.3771402
2.2763627 1.9663942 5.937174 5.5227

u_model.model.0.weight f4 [42, 42]
00000000: 7426 fdbc 7ec1 6ebe 98f1 0e3d 1b4a 49bd
00000010: 06ae 08be 42c4 5f3e f870 03bd 1af1 08be
00000020: 2ba6 a53b 30d1 9d3d 2276 5f3c 4acf 50bd
00000030: 25ef 083c f4a5 b9bd feaa 4c3d caf3 03be
00000040: c02c b03d 2b49 c73c a41b 6b3d bcdf ca3d
00000050: 3ff4 9c3c 40db ae3d e298 6a3d fb7d 40bb
00000060: 42bb f6bd 2b9d 3d3d 82c1 b13c 5c6a 573a
00000070: cd81 313d 79ca ea3d c93c fbbc aac9 6f3c
00000080: 6738 933d f526 ea3b f7fc 81bc 1db0 0f3d
00000090: f758 c2bd 7429 f0bc 2688 213e 8f7c c33d
000000a0: a8ce 04be 1638 ae3c 7f20 df3d 78df 0a3e
000000b0: 6e11 ac3d 102b bdbd 0ec5 293d 760c 0ebc
000000c0: 0d70 29bc 815b c63c 0f8f cd3c 0971 b3bd
000000d0: 83c9 43bd 026e a33a c613 cf3d 1d0f 8dbd
000000e0: c855 1ebe b699 d93d afa6 23be 4496 a93d
000000f0: 6dd8 ee3d f4e7 cf3c 9b6b 20bc 75ba 72bd
00000100: fd80 513d f4d4 33be e88c 9cbc 48b8 0ebd
00000110: 9d3f 1abe 92fa bebd 9561 79be 5713 9abd
00000120: e81d 9bbd 9927 cf3d 6070 cfbd 7ede 91bd
00000130: d41d 123e 7fe9 4a3d ea58 9dbd 7618 66bc
00000140: 4b78 cb3d 29f0 a4bc 0e3a 90bc 6a11 db3d
00000150: 78a6 513d e979 f3bd a2d5 c2bd 296f 6cbc
00000160: d3e3 19be 31ed a43e 37a9 82bd c673 423d
00000170: d8fe 723d 43be 983d dae3 04be 51b3 cbbd
00000180: 2437 b8bd 9596 d0bd 8cb1 d63d 8415 99bd
00000190: 06f2 b2bd 0b95 1fbd 330a 853d cb78 273e
000001a0: 191d a53d 9c16 d0bd bafc 37be 5fd9 1b3d
000001b0: 70b3 0e3d 4a54 273e 7330 6fbd 94b5 97bd
000001c0: 1df5 84bd e8ac 1e3e fd1e b1bd 3002 8f3b
000001d0: 8c78 1c3e 64a0 b5bd 0124 953c 9599 fc3c
000001e0: 6d46 353e 2ce5 983b 88d5 4a3e 29b5 3bbc
000001f0: ee23 80bd ae2e 1f3e ca69 18be 1577 7c3d
00000200: 3879 8b3d 6453 31bd d758 423e 5c86 1fbd
00000210: 73ac 00be 5c9d 333e 4b5f fb3d 46cf a23c
00000220: ee0c 1a3e 42ec edbd cb72 913d 58ff 02be
00000230: 3a91 673d 0bba fa3c bb6e 7fbd 7c8a 1f3e
00000240: dec8 9b3d 6ce8 1cbe 4fd9 debd 0f3c cebd
00000250: 1e2a bc3c 38d2 fc3d b2a3 dfbd dc6f f73d
00000260: 99e1 febc 81d7 083e 8f84 d93d a8df 3bbe
00000270: e9dc edbd b408 ae3d e4a6 11be b114 2a3e
00000280: db8d 32be f586 8e3b f050 b63c da68 02bd
00000290: ee22 9d3d 0538 20be 1cad 643c c9c0 1ebe
000002a0: 8163 ec3d 6f1e fa3d 3cb9 72bd e013 363d
000002b0: 1533 69bc d47a acbe 8393 4b3d e76c 0d3e
000002c0: ed69 aebd 0ee3 f63d f338 033e 9cf6 a43c
000002d0: b833 cc3d 27d6 78bd 11c6 b83d 33ef 1c3e
000002e0: 304f ebbd 7a06 67bd 87c1 1fbd ebed 2d3d
000002f0: cd10 f9bd 8028 1d3e 34a2 b13d 287d e0bd
00000300: 179e f3bd ae68 913d 5312 d93d 21cf 4fbd
00000310: 8593 3b3d faac 1f3d 68ae 9d3d b566 96bd
00000320: ef1c fbbd bbe2 053e 74c5 913d 918a 5f3d
00000330: eaf7 ffbd 8629 1abe ea9f 17be 2316 183e
00000340: ec9d 023e 17ce 7d3d 4a20 4cbd acd2 343e
00000350: eaf8 f7bc a31a cabb 2333 4bbd 465e 8bbe
00000360: d8b0 643b cb24 eebd 5341 553d 100b 673d
00000370: 21dc 003d 4f53 153d 9450 b13d 017d 993d
00000380: babb b6bd 3250 783d faea 46bd c3c5 1abd
00000390: 350a d93d 493c bcbd 8a46 ef3c 9993 b6bd
000003a0: 6a13 cdbd 5714 b73d cb5c f63c 3596 da3d
000003b0: 7be3 1e3d 0399 b3bc 8217 8d3d 6f90 95bc
000003c0: d3aa c9bd c3f3 a53c d052 573d d5a6 063e
000003d0: 0f6b a53d 7e59 11bb 103f d13d 14ee adbd
000003e0: b875 0bbe 2b7d c53d 074d 4ebc 5eb0 c9bd
000003f0: b306 373e c11f 9a3c 865f c53d 7d03 33bd
-0.030902125 -0.23315999 0.03489837 -0.049142938 -0.13347635 0.2185221 -0.032090157 -0.13373223
0.005055209 0.07705915 0.013639005 -0.050978936 0.008357798 -0.09064856 0.04996776 -0.12885967
0.086022854 0.024326881 0.057399407 0.09905955 0.019159434 0.08537912 0.057274707 -0.0029371965
-0.12047435 0.046292465 0.021698717 0.0008217448 0.04333668 0.114644 -0.030668633 0.014635483
0.07188492 0.0071457573 -0.015867693 0.035080064 -0.09489625 -0.029316641 0.15774593 0.09545242
-0.12969458 0.021266978 0.1089487 0.13561809 0.08401762 -0.09236729 0.04144769 -0.008669963
-0.010341656 0.024213554 0.02509263 -0.08761794 -0.0477996 0.0012468698 0.10111193 -0.06887648
-0.1546241 0.10625021 -0.15981553 0.08280614 0.11662374 0.025379159 -0.00979128 -0.05925985
0.051148403 -0.17561704 -0.019110158 -0.034843713 -0.15063329 -0.09325136 -0.24353631 -0.0752322
-0.075740635 0.101149745 -0.10128856 -0.07122515 0.14269191 0.049539085 -0.07682975 -0.014043918
0.099350534 -0.020134049 -0.017605808 0.10696681 0.051184148 -0.11888487 -0.095134035 -0.0144307995
-0.15028314 0.32212213 -0.063799314 0.04747369 0.05932507 0.074581645 -0.12977543 -0.09946311
-0.08994892 -0.10184971 0.10483083 -0.07474807 -0.087375686 -0.038960498 0.06496086 0.16354673
0.080621906 -0.101605624 -0.17967501 0.038049098 0.034839094 0.16340747 -0.058395814 -0.0740768
-0.06492064 0.15495646 -0.08648489 0.0043642744 0.1528036 -0.08868483 0.018205645 0.030834952
0.17702647 0.0046659913 0.19808018 -0.011456766 -0.06256853 0.1554515 -0.14884105 0.061637003
0.0681023 -0.043292418 0.18979202 -0.038946494 -0.12565784 0.17540497 0.12274035 0.019874226
0.15043995 -0.11617328 0.07101973 -0.12792718 0.056534983 0.03060629 -0.06236146 0.15580171
0.07606672 -0.15323037 -0.10881292 -0.10070049 0.022969302 0.123447835 -0.10919894 0.12081882
-0.031113433 0.13363458 0.10620987 -0.18347037 -0.11614401 0.08497754 -0.1422382 0.16609456
-0.17436926 0.004349584 0.02225539 -0.031838275 0.07672678 -0.1564637 0.013957288 -0.15503229
0.11542416 0.12212836 -0.059258685 0.044452548 -0.01423337 -0.3368746 0.049701225 0.13811074
-0.085162975 0.12055026 0.12814693 0.020137124 0.09970802 -0.060751107 0.09022153 0.15325622
-0.11489713 -0.05640266 -0.03900292 0.042463224 -0.121614076 0.15347481 0.08673516 -0.10961372
-0.118953876 0.07100044 0.10599198 -0.050734643 0.045794982 0.038983323 0.07699281 -0.073438086
-0.12261378 0.13074772 0.07117739 0.054575507 -0.12498458 -0.15054902 -0.14807096 0.14852194
0.12755555 0.06196412 -0.04983548 0.1765849 -0.030270059 -0.006167726 -0.049609315 -0.27220362
0.0034895446 -0.116281115 0.05206425 0.056407034 0.03145993 0.036456402 0.08657947 0.07494546
-0.08922525 0.060623355 -0.048563935 -0.037786257 0.1059765 -0.09191186 0.02920844 -0.08914871
-0.100134686 0.089394264 0.030073544 0.10673181 0.03879116 -0.021923548 0.068892494 -0.018257348
-0.09847035 0.020257836 0.05256921 0.13149579 0.080770604 -0.0022178586 0.10217106 -0.084926754
-0.13619125 0.096430145 -0.012591607 -0.098480925 0.1787365 0.01881397 0.0963736 -0.0437045

u_model.model.0.bias f4 [42]
00000000: f188 2c3d 2e40 913d 0fa0 febd 595f 8bbb
00000010: 85eb a5bd 7c28 8bbd d7a1 0b3c a7da f33d
00000020: 0252 8b3d 00db c0bd 0fac 523d b347 89bd
00000030: 8997 c53c 7980 f2bd cce5 17bc 71ee a0bb
00000040: 7f25 193e 8c53 d5bd ca2a 84bd 0dc1 8f3d
00000050: 2918 74bd d53a d93c e869 e13d 6747 02be
00000060: 5ccc 16be 21b8 553c fd63 5cbc c035 5e3d
00000070: 6f7d 9c3d 231f dbbd 0df4 0d3e 6561 1cbd
00000080: cee2 b83d bf0c 08be e005 c73c 3d20 873d
00000090: f069 663d 297d 06be 4cc1 8dbd cb31 1f3c
000000a0: 4a9d 723c 5b92 ba3d
0.042122785 0.070923194 -0.124328725 -0.0042533097 -0.081015624 -0.06794831 0.008522472 0.11906939
0.06802751 -0.09416771 0.05143362 -0.06703129 0.02412011 -0.118409105 -0.009271096 -0.004911237
0.1495571 -0.10416326 -0.06453474 0.070192434 -0.059593353 0.026517311 0.11006528 -0.1272255
-0.14726394 0.013044388 -0.013451573 0.05425048 0.07641112 -0.10699298 0.13862629 -0.03817882
0.090276346 -0.13286112 0.024294794 0.06597946 0.056253374 -0.13133682 -0.06921634 0.009716461
0.014808008 0.09109946

u_model.model.2.weight f4 [42, 42]
00000000: d352 e6b9 b6f4 3f3e edf2 cabc d694 c53c
00000010: 8620 153d ca30 803d 3cce c3bd 6303 f0bd
00000020: 8635 9a3d da4c b7bc 08f5 d1bb f8ab e53d
00000030: 9403 cc3d 2137 19bd 966c 82be ca3c 54be
00000040: 8d47 62bd e1c8 c6bd 32a2 b73d 3a70 19bd
00000050: 55ff c6bd d148 50be 0efa 843d 07ca ae3d
00000060: ee8a c2bd 6ded 4bbe 01fb 263e 3c00 973d
00000070: 2113 31be e9e9 09bb 7468 05bd 5d73 ddbb
00000080: ca1e 5dbd f572 31be 587c f23d f468 0dbe
00000090: 95e1 08bd 56c8 86bd 7bf1 e6bd 4cd3 3cbe
000000a0: e780 03be 5be1 153d a4e2 9c3d 3837 67bd
000000b0: 6f20 683e 7fc8 febd 4b7d 2dbe 0b2d 4e3d
000000c0: 5826 8ebd 162a 20be c6b8 2d3e 7885 e0bd
000000d0: a209 d63d d92d 233e ad74 3ebe 8f42 3fbd
000000e0: b1fa d33d 8e4a 23be aac2 14be edc3 463e
000000f0: add7 06be d3bc 003d 685f 47be 08b5 21be
00000100: 58ae 9ebd 7d99 293e bef2 c63d 16c6 b9bd
00000110: 3744 44bd ea01 8e3d a4a1 97bd 8ef4 023e
00000120: 2cd1 dbbd ba33 d0bd 8570 243e 25e8 aabc
00000130: 7e76 dabc 10f2 dd3c 585c f83d 2334 743c
00000140: fae1 0fbe b4c7 14be 9a35 18bc aeef abbb
00000150: f668 b5bd 05a9 203d 432c 003c f587 073e
00000160: 86df 893d e180 e03d e3c1 a93d 699c 08bd
00000170: e9e4 eb3d 586d eb3d bb00 bd3d f204 15be
00000180: cbcb 0ebc ce41 cfbd e988 39bd d2a3 133e
00000190: 0e14 2fbd c80d e1bd d9cb 9e3d 4685 6bbe
000001a0: dc74 153e e9ef 1bbe 4a11 e0bc db56 25be
000001b0: 9fbe e7bd e333 013e dccc 48bd a297 053e
000001c0: 3040 4dbd bfc6 883d 0f3f 733d a15c 4f3d
000001d0: 1492 a63c 9002 21be 3087 11be b530 013e
000001e0: 6149 3dbe 418f 6c3d 57a0 7d3e e290 c53c
000001f0: 31fb 98bd ee06 b3bd 7b11 04be db57 8b3d
00000200: bb8e 95bd 0518 37be 7ab8 ca3a 5a3b de3c
00000210: d5d6 0e3e 859d e33c 87e9 6bbc cb7d 86be
00000220: 6fec 07be 7c94 083e 5cde 9c3d 8b34 9dbd
00000230: 143e 313d 39f9 2cbe 8349 63bd 4d95 9c3e
00000240: 4b00 85bc ca2c 113e 453b c53d a36f 8b3d
00000250: 4678 3cbd 6b56 39be ff29 6cbc 5927 17be
00000260: 9960 463e 7e88 9dbe e7ea 3bbe 1ec6 443d
00000270: 712e 62bc c9f5 6fbe 3af3 713e 7db3 bfbd
00000280: 33e7 ec3d ff92 373d 1b40 413e c16e 7bbd
00000290: 9c3d 9dbe 4a21 9f3c 8a53 083e 717a d3bc
000002a0: fa9d 1cbe c49f 763e 2980 b73d 22ea 38be
000002b0: b558 90bc 6cbe b73d 025f c83d 04fd 1a3e
000002c0: c4ad 3ebc cc07 12be 3f0d 80be e971 1bbe
000002d0: 73f3 673e 552b c93a ed62 2e3e 86b3 88be
000002e0: 991f 143e e6b5 0f3e 66c1 393e 492a 163e
000002f0: d5a7 85bd c306 123e 2e35 55bd ef36 e93c
00000300: 207d 97bd 10ec 4abe 2f22 023e 8e7b d6bc
00000310: bd4d 573a c0ba 53be 1964 dc3d 9779 a5bc
00000320: 780a 9f3d e1f7 253d 5c43 46bd 7730 fa3d
00000330: 1be2 91bd 9814 bb3d 1b3d 23be 63e5 5b3d
00000340: 0968 503e 42b6 293e c104 883d 17a5 313e
00000350: 80c7 96bd f724 edbd eae2 fbbd 9fe9 be3d
00000360: 0531 8f3d c796 e9bd 29cb f63d e4bf b93c
00000370: 9852 2fbe 4556 0c3d eb8c 65bd 8481 f5bd
00000380: 50f7 03bd 79d9 30ba de3f 1dbe 17a4 283e
00000390: fc06 983c 1201 c4bc 653e 86be a9f8 0abd
000003a0: 8039 7c3d 96cd 00bd b0ea bcbd 01d2 19bd
000003b0: 3d96 b73d a511 3b3e e348 69bd c0d2 123d
000003c0: 644b 02be e60a f4bd 44be d23d bca6 11be
000003d0: 3d21 c83d 77ab 063d 39ab dd3c 6f77 14be
000003e0: 4c83 3abe b17b f7bd 5764 53bb 2cf0 813d
000003f0: 46f9 bf3d 644e 393d 3eb3 cebd a7f6 2f3d
-0.00043930727 0.18745694 -0.02477404 0.024118822 0.03640797 0.06259306 -0.095608205 -0.11719396
0.0752974 -0.022375513 -0.006407384 0.11214441 0.0996162 -0.03740609 -0.2547347 -0.20726314
-0.055244017 -0.09706283 0.08966483 -0.037460543 -0.097166695 -0.20340277 0.06493007 0.085346274
-0.09499155 -0.1991479 0.16306688 0.073730916 -0.17292453 -0.0021043962 -0.032570317 -0.006758137
-0.05398444 -0.17329009 0.11840123 -0.13809568 -0.033418257 -0.0658118 -0.112765275 -0.18439978
-0.12842141 0.03659187 0.07660416 -0.056449145 0.22668622 -0.12440585 -0.16942327 0.050335925
-0.06940907 -0.15641055 0.16965017 -0.10962957 0.10451056 0.15935458 -0.18599196 -0.046694335
0.1035055 -0.15946409 -0.14527383 0.19410677 -0.13168211 0.031430077 -0.19469988 -0.15791714
-0.07748097 0.16562457 0.09714268 -0.09070985 -0.047916617 0.06933959 -0.074038774 0.12788603
-0.10733256 -0.10166116 0.16058548 -0.020862648 -0.02666783 0.027092963 0.12126988 0.0149050085
-0.14051047 -0.14529306 -0.009290123 -0.005247078 -0.0885791 0.03922369 0.007823053 0.13235457
0.06732087 0.10962082 0.08288934 -0.03335229 0.115182705 0.11495465 0.09228655 -0.14552668
-0.00871558 -0.10119973 -0.045296583 0.14417961 -0.042743735 -0.10988957 0.077537246 -0.23000059
0.1459536 -0.15228237 -0.027351994 -0.16146414 -0.11315655 0.1261745 -0.049023494 0.13046125
-0.050110042 0.06678533 0.05938631 0.050625447 0.020333327 -0.15723634 -0.14211726 0.12616237
-0.18485023 0.057753805 0.24768196 0.024116937 -0.07469786 -0.08741556 -0.12897293 0.068038665
-0.07302614 -0.17880256 0.0015466355 0.02712791 0.1394914 0.027785072 -0.014398939 -0.26267847
-0.13273786 0.13337892 0.07659599 -0.076760374 0.043272093 -0.16891946 -0.055490028 0.30582657
-0.016235491 0.14177242 0.096304454 0.068084024 -0.04601314 -0.18099372 -0.0144143095 -0.14761104
0.19372787 -0.30768198 -0.18351327 0.0480405 -0.013805018 -0.23433603 0.2362794 -0.093604065
0.11567535 0.04481792 0.1887211 -0.06138492 -0.30711067 0.019425053 0.13313118 -0.02581522
-0.15294638 0.24084383 0.089599915 -0.18058065 -0.017620424 0.08971867 0.09783746 0.1513558
-0.011638109 -0.14260787 -0.25010106 -0.15180172 0.22651462 0.0015347997 0.17029925 -0.26699466
0.14465179 0.14034232 0.18140182 0.14664568 -0.06526152 0.14260392 -0.05205267 0.028468577
-0.073969126 -0.19816613 0.12708353 -0.026181962 0.0008213183 -0.20676708 0.107612796 -0.02019958
0.07765669 0.0405196 -0.048404083 0.12216275 -0.07123204 0.09134787 -0.15941279 0.053685557
0.20352186 0.16573432 0.06641532 0.17348133 -0.0736227 -0.11579316 -0.1229914 0.093219034
0.069917716 -0.114057116 0.120504685 0.022674508 -0.17121351 0.03426196 -0.056042593 -0.11987594
-0.032218277 -0.0006746273 -0.15356395 0.16468845 0.018558018 -0.023926292 -0.26219478 -0.033928547
0.061578274 -0.031446062 -0.092244506 -0.03755379 0.089642026 0.1826845 -0.056954276 0.035845518
-0.12724072 -0.11916141 0.102901965 -0.1422376 0.09771965 0.032878365 0.027059184 -0.14498685
-0.18214148 -0.12084139 -0.0032255852 0.06344637 0.09373717 0.045240775 -0.100927815 0.042959835

u_model.model.2.bias f4 [42]
00000000: c47c d03d 1afd 083e 79f9 babd 26be edbd
00000010: 7ae4 4bbd 170e 8bbc 5eab 2bbd 636a 333d
00000020: b96f d13d 695c d43d 0532 993d d296 ad3c
00000030: 4cf7 7dbd bc40 5dbd ceef 47bd 2871 f83d
00000040: e87e c1bc 6054 f03d 1349 9f3d 8eec 0fbd
00000050: 1110 c43d 7e0e fe3d c3de fb3c 2e68 da3d
00000060: 5468 e7bd 5251 f23d add4 fd3d 034c f93c
00000070: ac04 0fbe 3745 88bd 22b9 d6bd 7e6c d33d
00000080: 7278 d03d bbdc 043d 16b0 bf3c 5ef9 b8bd
00000090: b0ac e53d 6e3f 253d 2183 e0bc d213 28be
000000a0: c293 a63d 4775 0dbd
0.10180047 0.133778 -0.091296144 -0.116085336 -0.04977844 -0.016974492 -0.041911475 0.04380263
0.102263875 0.10369188 0.074802436 0.02119008 -0.06200342 -0.054016814 -0.04881268 0.12130958
-0.023620084 0.11734843 0.0777761 -0.035137706 0.09573377 0.12405108 0.03074587 0.10664402
-0.11299196 0.11831917 0.1239408 0.030431753 -0.13966626 -0.06653827 -0.1048453 0.103234276
0.10179223 0.032437067 0.023399394 -0.09031938 0.11214578 0.040343694 -0.027406277 -0.16413811
0.08133651 -0.034535673

u_model.model.4.weight f4 [42, 42]
00000000: c834 3dbd 3336 60be 79b3 863c b811 bf3d
00000010: 3cb8 823c cbfd 84bd 413a 173d 7237 9e3d
00000020: 401f c2bd 42f7 2f3d a870 fe3c 37a2 58be
00000030: 562c 36bd fda5 2cbc 46ca d3bd eb6e 1bbd
00000040: 12a9 07be 0eac 86bd 5ffc 033e 73b2 843d
00000050: d2ac 3e3d 63a2 6f3c f275 c13c ab39 6b3c
00000060: b827 683d b3c9 5639 3411 3d3d 1a6b 96bd
00000070: e367 223d 7d4c 0d3e 0fec e43b 1d77 583d
00000080: 463b 333e cfd1 abbd 821e ba3d 5bcf 35be
00000090: b328 24be 5cbb 21be 7b29 1fbe 114d 12be
000000a0: c461 0f3e 7e8e eebd d465 9d3d 730f 80bd
000000b0: c073 0b3e d241 45bc cde9 703c 86a0 0b3e
000000c0: fe4e 87bd 6393 5dbd f737 ecbd f49e c5bc
000000d0: e1c9 51bd 5bfb 4d3e ba29 0f3e baff 643d
000000e0: d9f6 e4bd 512e cd3d dd89 1d3e 95dc 06be
000000f0: 8aae 103e f86f 54be 5c21 69bc cfe4 113e
00000100: c851 b7bd 84a1 893c 0ab6 b13c 82a8 3d3e
00000110: beb7 333b e994 9bbd 3d44 28be a26a 7bbd
00000120: fa50 453d 7303 bfbd 210e 983c 4cb2 a43d
00000130: 2621 04be 80d7 973d bfeb 853d 2432 b13c
00000140: c8bc 813d 027a 05bd 0460 fabd c0e8 09be
00000150: 5d61 e43d 9ff6 543d 7dba 9c3d 2cff 463e
00000160: 48bb a23d 122e 383e a127 3bbe 6a0a a4bc
00000170: ed7b b33d 775f 2e3c 01d5 66be 2211 59bd
00000180: a84b aa3d c717 b5bd b2a6 ddbc 3a25 c63d
00000190: f925 02bd 2e5f 07be 1f72 c2bd 143d e63d
000001a0: 0f28 04be 29be 043e ab24 9dbe 7aab 363d
000001b0: b8a4 8bbd 6d5d b33d c28a ad3d 40c7 42bc
000001c0: 8939 fdb9 2009 a4bd 208b 81be c2bf 0ebe
000001d0: 954a 40be 986c 263e 950d 573d da51 113e
000001e0: 427b 203b e650 353e 1439 253d 804b 873d
000001f0: cda0 253c 4bb7 833a c92d 273e 9e15 1a3e
00000200: 252a b8bc 6779 703e 7edb a33e 8d59 903e
00000210: 6ac6 4d3e 0bdd 3c3e dbe7 85bd 87f3 af3d
00000220: e00c 99bd d084 f0bc 9a92 1bbe 072a 52bd
00000230: 85c8 bcbc 8a1c 223e 5683 95bc 8307 363e
00000240: 1c98 863b 7b4c b13e a236 e53d 7af7 a13d
00000250: 8547 27bd aa4b f1bd ef45 e5bd 5d1d ddbc
00000260: 5323 403d f64d aa3e 4829 bc3d 2fca a0be
00000270: b56d 16be da03 dd3b e4b1 47be e4cc c33d
00000280: d418 0a3e aaa6 9c39 81ce 783d b184 a33d
00000290: 83ec 16be 4928 373e d53f 99bc 3673 153e
000002a0: 7fc4 c13d 5925 d8bd af66 c43d 6fe6 ef3c
000002b0: 91b2 08bc 4c42 023e 619e de3d e7ac a8bd
000002c0: 8e5a cf3d 6fa6 5d3e c5f3 063c 31aa 9a3d
000002d0: bbd2 763d b64e 3dbe 00f0 943e aba2 a0bd
000002e0: b489 abbd 8f61 0dbd d675 1dbe c109 8abd
000002f0: 0ed7 a3bd 7f90 1d3e 6e49 6bbe c27a ae3d
00000300: d8e0 6fbd a5f7 7a3e f87d dfbd 934d 4cbe
00000310: 92d5 833d 8159 ef3d b393 33be f1f7 e3bd
00000320: eeb2 70bd 75af 76bc 728e bb3d f9b1 a73d
00000330: 98c5 33be 922b febd 1df9 373d 0bf4 c9bc
00000340: a37b 8a3e ce2f b9bd 4f21 663d ef42 75be
00000350: 21cb c83b eb2e 31bd 9e92 a1bd 0b9a d6bc
00000360: 102b 173e d156 06be cebf 6fbd 2aac d2bd
00000370: de1a c93d fcde 60be 3233 fb3d c904 693c
00000380: 6d4e 1e3d 4cbe fdbd f4c2 12be 7b78 64bd
00000390: ede3 81bc 0c56 193e bc39 bebd b14c a93d
000003a0: 6529 013e 14de bd3d 5663 69bd ee58 4dbd
000003b0: 0fa0 d83d ae7c 5ebd 2536 a4ba 9e45 573c
000003c0: 28bf 323e c815 2c3e 9c3a dabb cbe8 03be
000003d0: 2f4d 39be 8ac3 bf3c 31c0 0abe fed2 3ebe
000003e0: 91e5 c13d 607a 8b3a 0bfe 523e ce7a 473d
000003f0: 170a cf3d efc8 50be 41ad 8bbc 29ac 97bd
-0.046192914 -0.21895675 0.016443001 0.093295515 0.01595699 -0.0649372 0.03692079 0.07725419
-0.09478617 0.042960413 0.031059578 -0.2115563 -0.044475876 -0.010537622 -0.10341315 -0.037947576
-0.13248089 -0.065757856 0.1288924 0.06479349 0.046551533 0.014626118 0.023615811 0.014357011
0.056678504 0.00020483769 0.046158984 -0.07344647 0.039649855 0.13798709 0.006986148 0.05284797
0.1750308 -0.08389627 0.0908785 -0.17754881 -0.1603115 -0.15794128 -0.15543167 -0.14287211
0.14002138 -0.11648272 0.07685438 -0.06252947 0.13618374 -0.012039619 0.01470418 0.13635454
-0.066068634 -0.054095637 -0.11534112 -0.024123646 -0.051217917 0.20115416 0.13980761 0.055907942
-0.11179895 0.100186 0.15384622 -0.13170083 0.14129081 -0.20745838 -0.014229145 0.1424744
-0.089511454 0.01680065 0.021693248 0.18521312 0.0027422751 -0.07596762 -0.16432281 -0.06138099
0.04817293 -0.0932683 0.018561425 0.0804182 -0.1290327 0.0741415 0.065391056 0.021630354
0.06334835 -0.03258706 -0.12225345 -0.13467693 0.11151383 0.05199301 0.07652757 0.19433278
0.07945877 0.17986324 -0.18276836 -0.020024497 0.08763871 0.010642878 -0.22542192 -0.052994855
0.083152115 -0.08842426 -0.027057026 0.09675069 -0.031774495 -0.13219902 -0.09494423 0.112421185
-0.12905906 0.12963165 -0.30692038 0.044597127 -0.06818527 0.08758054 0.084737316 -0.011888325
-0.00048298787 -0.08009553 -0.25301456 -0.13940337 -0.18778451 0.16252363 0.052503187 0.1419138
0.002448753 0.17706642 0.040337637 0.06606197 0.010109139 0.0010049132 0.1632606 0.15047309
-0.022481034 0.23483811 0.32003397 0.28193322 0.2009522 0.18443696 -0.065383635 0.08591371
-0.07473159 -0.029360205 -0.15192643 -0.05130961 -0.023044834 0.158312 -0.018251102 0.17776303
0.0041074883 0.34628662 0.11192061 0.079085305 -0.04083969 -0.1178201 -0.111949794 -0.02699154
0.046908688 0.33262604 0.09187561 -0.31404254 -0.14690287 0.006744844 -0.19501454 0.09560564
0.13486034 0.00029878813 0.060743812 0.07984293 -0.1473866 0.17886461 -0.018707195 0.1459473
0.09461307 -0.105539985 0.09589898 0.029284684 -0.008343355 0.12720603 0.10870052 -0.082361035
0.10124694 0.2164552 0.00823683 0.07551993 0.060259562 -0.18487057 0.29089355 -0.078435265
-0.08375874 -0.034516867 -0.15376982 -0.06740142 -0.08000003 0.15387152 -0.2297723 0.08519508
-0.058564037 0.24508531 -0.109126985 -0.19951467 0.0643722 0.116869934 -0.17536812 -0.111312754
-0.05876439 -0.015056481 0.09158029 0.081882425 -0.17555845 -0.12410654 0.044915307 -0.024652502
0.27047452 -0.09042321 0.05618411 -0.23951314 0.0061277305 -0.043257635 -0.07889293 -0.0261965
0.14762521 -0.13119055 -0.05853253 -0.10286744 0.09819578 -0.21960062 0.12265624 0.014222332
0.03864901 -0.12389812 -0.14332181 -0.05577896 -0.015855754 0.1497423 -0.09288356 0.08266581
0.12613447 0.09270874 -0.0569795 -0.050133638 0.10577404 -0.054318123 -0.0012528343 0.013139157
0.17455733 0.16805184 -0.006659819 -0.12881772 -0.1809585 0.02340867 -0.13549878 -0.18635175
0.094676144 0.0010641329 0.20604722 0.0487011 0.10109346 -0.2038915 -0.017050387 -0.07405884

u_model.model.4.bias f4 [42]
00000000: c385 003e 00db 3d3d 924c df3d 68e2 a3bd
00000010: 7102 863d bc95 13be af4e 48be 4094 38bd
00000020: de0e 053e 650b 9d3c 0ac2 f9bd 0eeb b8bd
00000030: 07ec d53d e062 dd3d b304 b1bd fd22 edbd
00000040: cdee 533c a939 a7bd 1012 193c b981 51bd
00000050: db86 5e3d 142f fc3c cb4c f03d 9001 3b3b
00000060: be17 2bbe 476e 53be e6dc 1fbe 4630 ccbd
00000070: 9824 813d 8265 943d 6d15 573d 8094 a93d
00000080: 97f7 74bd 9cbc 14bd 1885 9f3d 83d6 443d
00000090: fd61 c83d c119 f7bd 89cd 113e b094 c13b
000000a0: d3b2 16be 2355 8fbd
0.12551026 0.046351433 0.109032765 -0.08002168 0.065434344 -0.14412588 -0.19561265 -0.045063257
0.12993953 0.019170472 -0.12195213 -0.09029208 0.10445409 0.108098745 -0.086434744 -0.11578939
0.0129353525 -0.08165295 0.009342685 -0.051149104 0.054327827 0.030784167 0.11733397 0.0028534867
-0.16708276 -0.20647536 -0.1561161 -0.09970145 0.06305808 0.072459236 0.052510668 0.08280277
-0.059806433 -0.036312684 0.077890575 0.048056137 0.09784315 -0.12065459 0.14238562 0.0059076175
-0.14716654 -0.069986604

u_model.model.6.weight f4 [42, 42]
00000000: bfe9 043e 283d 74bc d908 e33c 88e9 123e
00000010: 4943 423e 4535 283e 242a 97bc ebf4 27be
00000020: 3f66 54bd 96c0 94bb 103c c23b 3d86 c3bd
00000030: faec 8c3d a4a4 11be 88f1 55bd 9c36 9d3d
00000040: 2a38 6bbc 2c3c 1c3c e728 65be abc0 7dbe
00000050: 15fd 27bd 99bc dabd 86a9 733d ea56 c4bd
00000060: 02ac a53d 7e76 ff3b 8b44 0e3e f279 53be
00000070: fb78 18be a5a4 383e b050 b2bc d868 2d3e
00000080: c9e2 6fbd 2c3c 723e 2fcb 303e fdf2 003e
00000090: 03f8 dcbd c0b4 90be e9cb 7cbd ded1 023d
000000a0: 8b30 80bd 3d1b 18be 5dab 183e a174 c8bd
000000b0: f966 cabd 1e7f 5d3b 82ef efbd 3db0 e4bd
000000c0: ed58 1bbe 321c ad3d 0abc ee3c 8d7f 3fbe
000000d0: dfd8 4ebd 16c9 713d 280a e6bd 612b c33d
000000e0: 4cb5 cc3c 7686 90bd dffa ebbd 128b 54be
000000f0: 6bd7 f3bd 38ac a13d 0478 143e 0b09 f1bd
00000100: fe1d 8f3d 9208 14be f60e db3d d54a adbd
00000110: 9aef 1f3c 111b febb 01ed 12be 8151 423c
00000120: 718d bbbd e65c 93bd cde6 cfbd dd43 903d
00000130: bc00 7ebd b6ef 9fbd 8396 2d3e e770 e1bd
00000140: 15cb df3d f697 673e 9035 1fbe b585 00be
00000150: 03fa 7e3b 9d33 e2bd 15f4 59be fe2e 22be
00000160: 0e81 20be b795 af3c 4eca dfbd 0b04 e1bd
00000170: fe7c 36be 1392 1dbe ab60 7f3e 546f 0ebc
00000180: a2e1 8f3d d093 cdbd c886 5f3d b567 eebd
00000190: 9b60 2d3a 7d55 b63d e59a a3bd 5def 253d
000001a0: 2100 063e 9fad dabd 6c55 873d 0b9a 36be
000001b0: eb0c b3bd 9bf7 07be 5ca9 b63d 7bb8 88bd
000001c0: e041 81be b1e0 5fbd 5194 07be 6f58 d03d
000001d0: 566b 823d c302 b53d dbf1 30bd 96c9 1abd
000001e0: ea14 7bbd 49b9 25ba 6ec9 253c a3de 123e
000001f0: 5abb 103b 9803 adbc 9a46 013d 60ea 153e
00000200: d048 263e b36e 01be ddcf 3a3f 2b47 933d
00000210: 5f7c 77bd 4d24 e43c 7d03 e4bd 6a1d 19be
00000220: 5d0a a83d 97e9 8dbf 3cd6 763c e3a8 673e
00000230: f31b 37be a409 9f3d c3a5 4d3f f603 093e
00000240: b9bc 48bf 738d 86be 3b0e 10bd 85d9 c6be
00000250: add5 013e 6982 39be a135 80bd d191 07be
00000260: 4a00 e03d 4454 92be 290c 253e f1d8 74be
00000270: 47d3 55be 8e98 02be 9f28 d23c 820d 923c
00000280: 3782 5b3e 1f1d b03d 3bc0 67bd cd87 edbe
00000290: c4a8 133e 3178 ce3e fa8d 24bd 1bcc 353c
000002a0: 8c10 523e 0110 e2bd f42a d43b 1704 db3d
000002b0: 3c49 1fbe 2626 943d 1768 a93c 4ea0 8fbd
000002c0: e1df 3bbe 0f51 0dbd e88c 263e de3b 99bd
000002d0: e39e f9bc 161d 49be 9c08 1fbd 445a c23d
000002e0: c345 f43c c8de a4bd b72c 1abe 51cf 54be
000002f0: 96f1 d23d eb0c 173d 702d 3e3e 9546 41be
00000300: 77c9 313e 0e91 fe3c f864 803d 5fc8 6ebe
00000310: 4845 d7bd 51df 1c3b 1eae e4bc 409f c13d
00000320: 8f2f 71be 9645 4f3e d427 ec3d 0fde 073e
00000330: 9184 98bb 392f 053d 2935 b9bd bc87 babd
00000340: 6bc3 1a3e 9687 1cbe 3a1b 47be f3fd a23c
00000350: fe86 32be 331f 943d df19 323b 94e4 b73d
00000360: e37e a8bd 64ea d2bd b8ff 35bd ebe8 5c3d
00000370: 035a 9b3d a228 603e 7990 1e3e 43c0 5a3d
00000380: 37fa 643e 2c64 cc3b c29f d9bd 9fe1 183e
00000390: 39ea 383e 4d9e 733e 9bb6 943d 0eb5 403e
000003a0: 189c 30be c30e 563e f835 c5bd 80c6 943d
000003b0: 682f 31be dc91 403e 6a78 c53c 260e 5b3c
000003c0: 5cb0 243e ca69 95bd f9f6 e63d 9370 efbd
000003d0: f9d5 5f3d 4481 50be 6d6f d43d 6110 463e
000003e0: d4a4 d8bd 0829 d9bd 8f5a c1bc a613 943d
000003f0: 43a8 ab3d 42cf 0a3e 8f32 fc3d 8d52 abbd
0.12979792 -0.014907159 0.02771418 0.14346898 0.1897098 0.1642657 -0.018452711 -0.16402023
-0.051855322 -0.0045395596 0.00592757 -0.09547088 0.06881137 -0.14222962 -0.052232295 0.076764315
-0.014356652 0.0095358305 -0.22378884 -0.24780528 -0.041012842 -0.106805034 0.059487842 -0.0958689
0.080894485 0.007796108 0.13893335 -0.20651987 -0.148899 0.18031557 -0.02176699 0.16934526
-0.05856589 0.23655766 0.17265008 0.12592693 -0.10789492 -0.282629 -0.0617179 0.031938426
-0.06259259 -0.1485414 0.1490912 -0.0978787 -0.09882922 0.0033797692 -0.11715604 -0.11166427
-0.15170641 0.084526435 0.029142398 -0.18701 -0.050499793 0.05902966 -0.11232406 0.09529758
0.024988793 -0.070568964 -0.11522459 -0.20756176 -0.11906322 0.07894176 0.14498907 -0.11769303
0.069881424 -0.14456394 0.10696213 -0.08461539 0.009761715 -0.0077546914 -0.14348222 0.011860252
-0.09157837 -0.07195453 -0.10151444 0.07044194 -0.06201242 -0.07809393 0.16951947 -0.110078625
0.10927407 0.22616562 -0.15547776 -0.12551005 0.0038906343 -0.11045001 -0.21284516 -0.15838239
-0.1567423 0.021433694 -0.109272584 -0.10987099 -0.17821118 -0.15387754 0.2493922 -0.008693535
0.07025458 -0.100379586 0.054571897 -0.11640874 0.00066138216 0.08903024 -0.07988528 0.040511478
0.13085987 -0.10677647 0.0660809 -0.178322 -0.08742698 -0.13278048 0.089190215 -0.06675812
-0.2524557 -0.05465764 -0.13240172 0.10173117 0.06368129 0.088384174 -0.0431994 -0.037789904
-0.061299242 -0.000632186 0.010118825 0.14342742 0.0022084326 -0.021119878 0.03156147 0.14640188
0.16238713 -0.12639885 0.72973424 0.071913086 -0.060421344 0.02784934 -0.11133478 -0.14952627
0.08205102 -1.1086911 0.015065726 0.22623019 -0.17881756 0.07765511 0.8033106 0.13380417
-0.7841297 -0.26279792 -0.03516982 -0.3883783 0.12679167 -0.18116154 -0.06260229 -0.13239218
0.10937555 -0.28579915 0.1611792 -0.23910882 -0.20881377 -0.12753507 0.025654135 0.017828707
0.21436392 0.085993044 -0.05657981 -0.4639267 0.14419848 0.40326074 -0.040174462 0.011096026
0.20514125 -0.11038209 0.006474847 0.106941395 -0.1555528 0.07233839 0.020679517 -0.070129976
-0.18347122 -0.03450113 0.16264689 -0.07482122 -0.03047127 -0.19640002 -0.03882657 0.09489873
0.029818421 -0.08050305 -0.1505612 -0.2078221 0.10299985 0.036877554 0.1857202 -0.18874581
0.17362009 0.031075027 0.06269258 -0.23318623 -0.10511261 0.0023936818 -0.027915057 0.09454203
-0.23553298 0.20241389 0.11531034 0.13268302 -0.004654475 0.03251574 -0.090433426 -0.091079205
0.15113609 -0.15286097 -0.1944398 0.019896483 -0.17434308 0.07232513 0.0027176065 0.08979145
-0.08227327 -0.10298613 -0.044433326 0.053933065 0.07585528 0.218905 0.154848 0.05340601
0.22361074 0.0062375274 -0.106261745 0.14929818 0.18058099 0.23790856 0.07261392 0.18819067
-0.17247045 0.20904069 -0.09629434 0.07264423 -0.1730324 0.18805641 0.02410527 0.0133700725
0.16082901 -0.07295568 0.11277575 -0.11691394 0.05464742 -0.20361811 0.10372815 0.19342186
-0.105783135 -0.10603529 -0.023602752 0.0723031 0.08381703 0.13555625 0.12314331 -0.08365355

u_model.model.6.bias f4 [42]
00000000: dda1 973d 5e10 2a3d 36ca 92bd 35e7 843d
00000010: aa1a 153e deea 6abd ae82 003e 83f3 873d
00000020: 9214 ab3c af5f 2a3e f2de 83bd 7691 013e
00000030: 31b6 97bd db1f 1e3d e6d6 eb3d 800e 15bd
00000040: 2440 26be e9e3 8fbd a9a6 c4bb 776b b63d
00000050: 160f 1e3d 12c5 0dbd c918 0a3e 3eb9 ea3d
00000060: 6391 4abe f0cc afbd 740f 283d 26b4 803d
00000070: 1001 1e3d a5dc 033e 8b24 3abd 75e4 26bd
00000080: 6d08 0abe f060 6d3d 57ab cbbd 9a5a d43d
00000090: 9c83 0ebe f8c3 ef3d 4382 403d 64fc c3bd
000000a0: e7df 85bd a7af 133d
0.0740392 0.041519515 -0.07167475 0.06489412 0.14560953 -0.057352893 0.1254985 0.06638243
0.020883832 0.16638063 -0.06439008 0.12653145 -0.07407797 0.0386046 0.11515598 -0.03639078
-0.16235405 -0.07025892 -0.0060013128 0.08907216 0.038588606 -0.03461177 0.13486017 0.114611134
-0.19782023 -0.085840106 0.041030362 0.062843606 0.038575232 0.12877138 -0.045445006 -0.040745217
-0.13479777 0.057953775 -0.0994479 0.103688434 -0.13917392 0.117073 0.046999227 -0.09569624
-0.065368466 0.036056187

u_model.model.8.weight f4 [42, 42]
00000000: bbec b53e 9b77 933d c001 cebe 237f 2a3d
00000010: 273f 0d3e 9ea9 37be 3b69 f53e 1729 9c3d
00000020: 73d9 8a3e 9423 7ebe 353c c83e e651 c3be
00000030: 6bfa e5be f32a da3d 29c0 08bf 7f1e db3e
00000040: 786e b23e 6a79 083d 2447 cdbe 6772 073f
00000050: 1b41 fe3d 45e8 023e 2a56 0fbd ca8a 063f
00000060: e650 c53e 4fdd ecbe fead 46be 22ef acbd
00000070: 3dce f23e 8480 883e cf74 8fbe b1a8 383e
00000080: 4ce9 973e ad0c 093f 1fc0 6b3e 96e6 73be
00000090: c85f 9a3e 18bd f9bd 50fa 683e 1655 debd
000000a0: 4576 1f3e a02a c33e be13 95bd b326 b9bc
000000b0: 2736 2fbe aaec 8c3d f38f 6ebc 0249 163d
000000c0: c25b 313e fe43 733d 1f1c 8fbe 3d13 5dbe
000000d0: 00a0 c73d 2d37 52be 14c6 46bd 5ad8 813c
000000e0: ccaa a1bd 770e 0b3c 167e 10be ed9d 3cbd
000000f0: ddc9 a0bb c1d7 47bd ef50 debc d530 fdbb
00000100: e857 feba 570b 493d 82a7 073e 16f5 c83d
00000110: aeba 3cbd b269 083e 0bc1 993e c376 833d
00000120: b623 18bd 4d15 223e 6948 383e 21ad 4ebd
00000130: 6fc2 97bd 490b f63d 3458 053e cae1 2f3d
00000140: 07f3 693d 89e0 193b b0b7 e7bd 5256 75bd
00000150: bf74 89bc 5303 7ebd b9c9 13be ab37 23be
00000160: d00a 27bd ddd4 263c 3e43 62bc 017c b0bc
00000170: 2d6f 0e3e b52f a0bd cbd6 96bd 0d8b 593d
00000180: 8322 bbbd f426 97bd fec1 d3bd 2c3d 483d
00000190: 5a98 a83d 4220 703b fa8a b93d 3068 c7bd
000001a0: bb4a fabd 95d0 1d3e 5d79 9f3d 3efd 2ebe
000001b0: 983a 57bd b9ad 9e3c 62df 853d d3e8 e9bd
000001c0: 5ef9 64be cf7d 003e 6d06 edbd 70e2 8a3c
000001d0: 49d2 34bc 9cec 64be 21a8 03bd 714e a5bd
000001e0: 54d4 b93d 98e5 d53c 4401 103e b61f 883d
000001f0: 77fe 343c 2043 00be 4d8e 63bd fd34 d2bc
00000200: 13eb 923e 7ffa 0fbe 8431 933d 2432 d8bd
00000210: d3d2 3cbe 17e5 86be ceea acbe 6f8b 06be
00000220: 9e7e 6c3d 33e5 4cbe f3c8 4c3e 54fd a8be
00000230: d3a2 b63e f756 233e f3ae 023e 7a90 1d3d
00000240: 7e95 ed3d d9ea bfbd d068 53be 2479 8f3e
00000250: 1b7a c9bd fe96 51be dc8c dc3d 0c6e e63d
00000260: 5ff8 32be 2259 03be f72b 4a3d 8de7 b3be
00000270: 28fe b13d 6515 613e 8cbb c43d 4e74 e6bd
00000280: 408b a0bd 5fb1 05be 81fb f9bd bdc2 f43c
00000290: f723 14be 8997 63be 46ee 8b3d 727a 25be
000002a0: fc1a 0abe 2a10 1c3d 607e 2e3c 003a 9cbc
000002b0: 344e 39bd 398a 3a3e a531 a53c 1793 283a
000002c0: af9e 523e e0d9 eebd fbda 313d 4c86 ae3d
000002d0: b7c4 69be 72e9 b63d 5252 7bbe fe16 0bbe
000002e0: c806 f03d 16cf b9ba 7e50 903d d692 3f3e
000002f0: 6e02 af3d c12b 3cbd 63f6 85bd 73fd b93d
00000300: 0b8d b43d cce0 06be d5ad 073e 09b5 c3bd
00000310: fbaf ad3d e635 193d 0e02 583d ffa2 4e3d
00000320: b34b 083d c956 b8bd 5654 5f3e f9e1 093e
00000330: 406c e13d 9481 d8bd d9dc fa3d 8332 273e
00000340: 55c0 e3bd f651 be3d 41f2 3e3e ac73 3abe
00000350: 7b62 3e3c 8417 eabb b6e6 023e 329d 33bd
00000360: 871f 833d 1585 013d 6e83 e6bc 178b abbe
00000370: 8906 fa3d ae6e 17be 75c4 bbbd b2f4 433e
00000380: 34c1 7ebd ae60 8e3e 0b8b 493e 12b4 75bd
00000390: 112b 99be 5a67 1c3e 92fe c4bc 98e4 68bc
000003a0: d818 74be 4fd5 273d 63bd d03d 8f5a 19be
000003b0: 37e6 673d 5c1b 38be 9649 cc3d d4ad 463e
000003c0: 4ff0 29be 104d 513e cc84 3f3e 4167 2d3e
000003d0: 9403 d1bd 239a abbe 123e 023e 8b67 08be
000003e0: 2bbe b0bd 9934 e7bd 88e6 333e f25c 123e
000003f0: 1dad 82be 94b1 eebd 2219 72be 8759 8cbe
0.35532174 0.07200547 -0.4023571 0.041625153 0.13793622 -0.17935798 0.47931847 0.07625025
0.27119026 -0.2481826 0.39108434 -0.3814842 -0.44917616 0.10652723 -0.53418213 0.42796704
0.34849906 0.033318914 -0.40093338 0.5290894 0.12414762 0.12783916 -0.03499428 0.52555525
0.38538283 -0.46262595 -0.1940231 -0.084440485 0.47422972 0.2666055 -0.28018805 0.180331
0.2967018 0.53534967 0.23022507 -0.2381843 0.301512 -0.1219427 0.22751737 -0.108560726
0.1557246 0.38118458 -0.07279156 -0.022601461 -0.17110501 0.068810776 -0.014560687 0.03669072
0.17320159 0.059391014 -0.27951142 -0.2158937 0.097473145 -0.2052886 -0.048528746 0.015850235
-0.07893905 0.008487335 -0.14110598 -0.046049047 -0.0049068765 -0.048789743 -0.027138202 -0.0077267685
-0.001940486 0.04908308 0.13247493 0.098123714 -0.04607647 0.1332157 0.30030093 0.064191364
-0.03714343 0.15828438 0.17996372 -0.050458077 -0.07410132 0.12013871 0.13021928 0.04293994
0.057116535 0.002347978 -0.113143325 -0.059896775 -0.016779302 -0.06201489 -0.1443242 -0.15939204
-0.040781796 0.0101825865 -0.013809977 -0.021543505 0.13909598 -0.078215994 -0.07365187 0.053111125
-0.09137442 -0.073804766 -0.103397354 0.048886463 0.08232184 0.003664032 0.09059711 -0.09736669
-0.12221285 0.15411599 0.0778682 -0.17088792 -0.052546114 0.019369947 0.065367475 -0.11421361
-0.22360751 0.12547992 -0.11573491 0.016953677 -0.011036464 -0.22355884 -0.032142762 -0.08071602
0.090737015 0.026110455 0.14062983 0.066466734 0.011046997 -0.12525606 -0.05555563 -0.025660032
0.28694972 -0.140604 0.07187179 -0.105564386 -0.18439798 -0.26346657 -0.33772892 -0.13139127
0.05773794 -0.20009308 0.19998531 -0.33005774 0.356711 0.15951143 0.1276205 0.03846786
0.11600779 -0.093709655 -0.20645452 0.2802211 -0.09837743 -0.20467755 0.10769054 0.112514585
-0.17477559 -0.1282697 0.049358334 -0.35137597 0.086910546 0.21980818 0.09606084 -0.11252652
-0.0783906 -0.13055943 -0.12206174 0.029878015 -0.14466844 -0.22225775 0.068325564 -0.1615999
-0.13486856 0.038101353 0.010650247 -0.019070625 -0.045240596 0.1821679 0.020165274 0.00064306095
0.20568345 -0.1166265 0.043421727 0.08521709 -0.22828947 0.08931245 -0.24543121 -0.1358299
0.117200434 -0.0014176096 0.07046603 0.18708357 0.08545385 -0.045940164 -0.06541135 0.09081545
0.08815964 -0.1317169 0.13249905 -0.09556014 0.08480831 0.037404917 0.052736335 0.050448414
0.033275317 -0.09000928 0.21809515 0.13465108 0.11006975 -0.1057159 0.122491546 0.16327862
-0.11120669 0.092929766 0.186471 -0.18208188 0.011620159 -0.0071439166 0.12783322 -0.043851085
0.06402498 0.031621058 -0.028138842 -0.33504555 0.12208278 -0.14788315 -0.091683306 0.19136313
-0.06219597 0.27808136 0.19681947 -0.05998618 -0.2991567 0.152738 -0.02404717 -0.014214657
-0.23837602 0.04097491 0.10192373 -0.14975952 0.056616034 -0.17979187 0.09974973 0.19402248
-0.16595577 0.20439553 0.18703002 0.1693392 -0.102057606 -0.33516034 0.1271899 -0.13320749
-0.08630022 -0.11289329 0.1756841 0.14293268 -0.255227 -0.11654964 -0.236424 -0.27412054

u_model.model.8.bias f4 [42]
00000000: d303 63bd 776a 69bd 2779 bfbd ae99 4abd
00000010: 5d43 2fbd 5d10 debd 6a0f e9bd a675 12be
00000020: eea2 fa3d 03ea f0bd 5f11 fbbc fcfc 2d3d
00000030: e3c7 943d b36e 263d b08d bebd 7b9f fc3b
00000040: a488 08bd 5c6b ed3c db88 8a3c 24e2 cd3d
00000050: 2168 683d 2e29 433e 2aac 35be 4556 d5bd
00000060: a617 acbd e3a0 ee3c 6f21 6e3c a5fb e63d
00000070: 7c32 8d3c 421a a8bc 36bf ecbd 2e7c f53c
00000080: 4e91 593d 5e44 d2bd 6e36 3d3e 0b35 00be
00000090: d61c 3cbd 4bb1 54be 99b2 a8bd 03f6 4abd
000000a0: 91e6 413d 10c2 fdbd
-0.05542357 -0.0569863 -0.0934928 -0.049462967 -0.042788852 -0.10842965 -0.11379893 -0.14302692
0.122381076 -0.11763384 -0.030647932 0.042477593 0.07264688 0.040632915 -0.093043685 0.0077094412
-0.033333436 0.028981857 0.01691096 0.100528985 0.05673993 0.19058678 -0.17741457 -0.10416845
-0.08402948 0.029129451 0.014534338 0.11278466 0.017235987 -0.020520333 -0.11559908 0.02996644
0.05311709 -0.10266946 0.18477795 -0.12520234 -0.045925938 -0.20770757 -0.0823719 -0.04955102
0.047339026 -0.1239053

u_model.model.10.weight f4 [42, 42]
00000000: 479a 5b3d 4575 f3bc f941 7abd 009a 1a3e
00000010: c16c 3fbe 6b5a 0bbd fd9f 62be 19bd 5fbe
00000020: 4964 0dbe 6f22 173e f403 e6bc 1395 e1bd
00000030: e1e5 e73d f5f3 1fbd f6c2 e73b af7f dcbd
00000040: b8f3 f53d 2b70 a93d 2bc8 fbbd 5b51 683e
00000050: ccf4 12bd 0feb 76bd c22d 843e bc07 73bd
00000060: 96f5 243e 0184 eb3d 1c74 f73c e435 55bd
00000070: 54e8 d23d 9839 cebd 1e8d 543c 0645 a83d
00000080: 6ae8 6a3d 59f0 d53c cef4 bb3d 66cc 6ebd
00000090: 03ec 49bd f292 0b3d f6da b0bb 3ff3 e73c
000000a0: 5d24 fabd 077d 7fbd d6eb 27be a7a4 21be
000000b0: de15 1ebd 770a 2a3e 9b12 29be 9ee0 60bd
000000c0: 4808 973d 06b3 60bd c448 18bd b462 63bd
000000d0: 49f9 803d e1eb 4e3c 7304 1dbd 100b c13d
000000e0: 7d37 9c3d baa8 da3d a002 2abe 97eb 10bc
000000f0: 243f 13be 4cf7 0a3d 5647 6bbd 8765 ea3c
00000100: 7598 d23d e605 d13b f17e be3d 2951 403e
00000110: ebbf 043e c255 0d3e 547c 183e f0ac e1bd
00000120: c3ac ba3d 00af cebd ae23 26bd 8397 ea3d
00000130: 2ca2 9bbb e33f 7ebc e2db bf3a 806e d33d
00000140: c0f6 c2bc 955b 02be b64a 45bd 7b9e f0bd
00000150: 7f2d 143e e8f9 79bd 9e9f 183e 120c b23d
00000160: 97ed 9f3c 6486 36bc d0b3 383d 95ae e73c
00000170: 4501 c9bd 44e7 62be c2a9 15bd e6ea 9dbd
00000180: 6ad4 56be 1fde 8fbd f4ee 05be 8cc2 443c
00000190: 6252 9cbc c7ce ccbd 9698 013e 472f 543d
000001a0: ee72 233d 790b adbd 5c97 0abe 2e52 503e
000001b0: 33f1 873d c0c3 17be 2aa1 053d 441b c23d
000001c0: 6e9d b83d 3a52 e23d 63e6 63bd 3632 1f3c
000001d0: 96f1 373e 481b e9bd 33ff 57bc c07c d83d
000001e0: c95b 523d f419 0c3e eb28 783d d15b 1d3d
000001f0: 6e74 463e 8e85 06be afde e0be cae9 85bd
00000200: 5775 e33d 8747 32be 79e4 d4bd c4f7 f3be
00000210: 06b4 71bd 44ed c8bd 203a 96be 32fc 8cbd
00000220: 8a90 fdbe 91b2 863d 5ac6 78be 9705 0bbf
00000230: 1a1d 103f da83 ae3e 9a69 52be cbc1 81be
00000240: 5e90 2fbe 323e 5a3d 54ea d7be 9f2b b0be
00000250: 9317 6cbd d858 fd3c 4819 9dbe d572 87be
00000260: 8aee 1dbe bc65 ee3d c66b c1bd ddee ba3e
00000270: 2c20 03bd 28b7 08bd 9729 263e 425f 04be
00000280: 0161 31bd 1d28 a3be e45d cb3e 0439 90be
00000290: e747 1f3d 4708 133d 7fbf 45be 3d39 00bf
000002a0: e93a 68be 386a 3cbd 252d ae3d 33e3 a2bc
000002b0: b4ca 62be 49c9 9ebe 6189 8abe 76a6 9ebc
000002c0: 072e 193c 9775 483e 1695 7ebe 1a26 e1bd
000002d0: b9ec 4d3e 8ebd 65be 393f 693e 31c4 9d3c
000002e0: da5a 83be 20b8 36bd 04ed 1bbe 5c0c 7e3d
000002f0: d10f 9bbd db3d 96bc 929c 353e 3dd4 443e
00000300: e08a 373e 7d3d 6c3d 618a f83d e695 d9bc
00000310: b501 d43d 9ccc f63d 28a0 943e 9116 17be
00000320: 40d9 b1bd 025d 23bd eba1 c83d cab2 423d
00000330: af8a abbd 7b11 82be 2af2 b83d e49d 4ebe
00000340: 296b 92bc 815a 1abe 1aec 09be 9024 abbd
00000350: 1efb a7bd 7da4 adbb 44cf 8dbd 242b 2bbd
00000360: e228 833d c44c 0c3e 6bbc 96bb 0109 9f3d
00000370: 00a3 3e3c e3a8 ca3d be44 0fbe b16b 8f3d
00000380: 66a1 e03c dbe7 5a3c 4f6a 27be 0967 dfbc
00000390: 891b 9b3b 54c3 ad3d 0b80 afbc 6641 093b
000003a0: 67e6 23bd 229f dc3b 02f1 0ebe a74a c03d
000003b0: 2e43 0abe b130 20be aef1 20be 2786 5cbd
000003c0: cfb9 f8bd 41d6 35be 4f7b d93d 370b 73bd
000003d0: d7a5 b1bd a68f 97bd d30a 343c 920c afbb
000003e0: 0f3a 033e cdde 923c 929c 483d 2a38 273d
000003f0: 2460 9e3d d2ba 3cbe b2d8 32be e1bd 2cbc
0.053613927 -0.029719004 -0.061098073 0.15097809 -0.1869383 -0.034021776 -0.22131343 -0.21849479
-0.13807787 0.14759229 -0.028078057 -0.11014762 0.11323143 -0.039051015 0.0070728017 -0.10766541
0.12009376 0.082733475 -0.122940384 0.22687285 -0.035877988 -0.060282763 0.2581616 -0.059333548
0.16109309 0.11499787 0.030206732 -0.052053347 0.10298219 -0.10069579 0.012973098 0.0821629
0.057350554 0.026115583 0.09177552 -0.0583004 -0.049297344 0.034075685 -0.005397196 0.028314231
-0.12213967 -0.062375095 -0.16398558 -0.15785466 -0.038595073 0.16605555 -0.16511004 -0.05490171
0.073746264 -0.05485823 -0.03717877 -0.055514053 0.06297547 0.01262948 -0.03833432 0.09425938
0.07627771 0.10676713 -0.16602564 -0.0088452315 -0.14379555 0.033927247 -0.057441078 0.028612865
0.10282985 0.006378877 0.09301556 0.1878096 0.12963836 0.13802245 0.14891177 -0.11019313
0.09114983 -0.10091972 -0.04056137 0.1145468 -0.004749557 -0.0155181615 0.0014637674 0.103238106
-0.0237993 -0.12730248 -0.048166953 -0.11748978 0.1447048 -0.061029345 0.14904639 0.086937085
0.019522471 -0.01114044 0.045093358 0.02828149 -0.09814695 -0.22158533 -0.036538847 -0.07710819
-0.20979467 -0.07024788 -0.13079435 0.012009274 -0.019082252 -0.10000377 0.12655863 0.0518029
0.039904527 -0.08449454 -0.13534302 0.20343849 0.06637802 -0.14820766 0.0326244 0.09477857
0.09014402 0.1105084 -0.055639636 0.009716561 0.17963251 -0.113821566 -0.013183403 0.10570669
0.051357064 0.13681775 0.060585897 0.03841764 0.19380352 -0.13136885 -0.43919894 -0.06538732
0.11106365 -0.17410098 -0.1039514 -0.47649968 -0.059009574 -0.0981088 -0.2934122 -0.0688404
-0.49524337 0.065770276 -0.24294415 -0.54305404 0.56294405 0.3408497 -0.20548096 -0.25343165
-0.17144915 0.05328197 -0.42170966 -0.3440828 -0.05763967 0.030926153 -0.3068335 -0.26454797
-0.15423027 0.11640498 -0.09444384 0.36510363 -0.032013103 -0.033377796 0.16226803 -0.12926963
-0.0433054 -0.31866542 0.3972007 -0.281685 0.03888693 0.035896566 -0.19311331 -0.5008734
-0.22678722 -0.045999736 0.085047044 -0.019883728 -0.22147638 -0.31012943 -0.27057937 -0.019366484
0.009349353 0.19576107 -0.2486156 -0.109935954 0.20109834 -0.2243559 0.22778024 0.01925859
-0.25655252 -0.04460919 -0.15227133 0.062023506 -0.07571376 -0.018340042 0.17735508 0.19221587
0.1792407 0.057675827 0.12135769 -0.026560735 0.10351888 0.12050745 0.2902844 -0.14754702
-0.08684015 -0.03988362 0.097965084 0.047533788 -0.08376061 -0.25403962 0.09030564 -0.20177418
-0.017873364 -0.15073587 -0.13468972 -0.08356583 -0.08202194 -0.0052991495 -0.069242984 -0.04178919
0.06404282 0.13701159 -0.004600098 0.07765389 0.011635542 0.09895494 -0.13991067 0.070029624
0.02742071 0.013360943 -0.16349147 -0.02727081 0.004733507 0.084845215 -0.02142336 0.0020943522
-0.04001465 0.0067328373 -0.13959125 0.09389239 -0.1350219 -0.15643574 -0.15717193 -0.053838875
-0.12144815 -0.17757513 0.106192224 -0.059336867 -0.086742096 -0.07400446 0.010988909 -0.0053420747
0.12815116 0.017928505 0.048977442 0.040825047 0.07733181 -0.18430641 -0.17465475 -0.0105433175

u_model.model.10.bias f4 [42]
00000000: 488b fcbd cb67 2bbd 2391 49bc 595b 253d
00000010: 326f 01bd ab4b c4bc 96e0 df3b ca0a 553c
00000020: b134 7c3d 4251 fabd ed4a 7a3c 82da 203e
00000030: 4a68 f4bb b909 55be f752 a93d 0f15 1dbe
00000040: ac32 22bd 7973 1e3e 6129 21bd 00d5 09be
00000050: 3509 b63b 0b29 4f3d 5080 813d 4d6e db3c
00000060: 2659 e2bd 2995 693a 73e6 cb3d 06de bebc
00000070: 08bd 07be f204 b53d 5992 dabd 761b 073e
00000080: fb4f 89bc abd3 a13d f75d c7bd 3bb4 17be
00000090: 9784 bfbd 48b7 41be 9967 4bbd edce 22be
000000a0: 752d f0bd 616a 3f3e
-0.12331253 -0.04184703 -0.01230267 0.04037032 -0.031600185 -0.023961863 0.0068321927 0.013003061
0.061573688 -0.1222253 0.015276653 0.15708354 -0.0074587213 -0.2080449 0.082677774 -0.15340064
-0.039599106 0.15473737 -0.039346103 -0.1346016 0.005555297 0.05057625 0.06323302 0.026785994
-0.1105216 0.0008910471 0.09956064 -0.023299228 -0.13255703 0.08838834 -0.10672445 0.1319407
-0.01676177 0.079017006 -0.09734719 -0.14814846 -0.093514614 -0.18917572 -0.049659345 -0.15899248
-0.1172742 0.18692924
